wandb/run-20230704_032431-kzdf9tre/files/checkpoints/best.pt (torch, 119813 bytes, 66 tensors)

foundation_model.down_path.0.block.0.weight f4 [4, 8, 3]
00000000: a924 833e 55bc 0abd e72a 493e 0c43 003b
00000010: 0b1e 08be f8a4 84bd 029e a63e d2d4 e13d
00000020: 2402 593d d19a 1b3c 9dba 1b3e 3f9b 0abe
00000030: c574 f1bc 4b5d 8fbd 2a9f 79be 9bc5 38be
00000040: 4127 8fbd 17de 5ebe f065 6cbe 059b eb3c
00000050: eaf1 54be fa69 e33d 5e8b 013d 7126 ebbd
00000060: ee20 b63d 9a14 fbbd 1e03 45bd 55e7 c7bd
00000070: 03b9 4d3d 19b3 ff3d f984 a0bd 99c6 1e3e
00000080: ea3c 883e e6f2 d9bd 7d4d 203e 5c83 edbd
00000090: e793 853d 0c9d edbd 6ca3 5bbd 68a4 64be
000000a0: c8c8 fdbd bfc6 81be 91f6 053d 0699 e53d
000000b0: e2e7 c53d dbe8 783c 1d5e 183e 4f1a 05be
000000c0: 6f70 f93d f13e 0a3e 1b85 74bd a662 6dbd
000000d0: d33e 4f3e a674 d8bd 95e8 afbd d594 a1bd
000000e0: 16e5 983c 959a 25bd 5cfa 053c 51b4 bfbd
000000f0: f505 b7bc 8707 3a3e 3e00 2f3d fce8 ee3e
00000100: 3c52 8f3e 5c3c 873e 2b08 4b3e b3d3 9f3e
00000110: 1b0e 7f3e e15c 063e 071d 85bd bb3f f1bc
00000120: 7a59 0cbe bf5d 36be c277 253e 6d5e c83d
00000130: 1aac 0cbe 8337 693e 18a2 e3bd 86d0 b7bc
00000140: 8bc0 1ebd 0378 ddbd 63d7 af3d 3ccf a33c
00000150: 5c5c 653e b558 b13c 8bdd c6bd 2bfb ad3e
00000160: a7a3 633e 6851 263e d40a 8f3e 0680 d33d
00000170: 4a51 af3e 14ba 6bbd 3825 9f3d 0f42 f2bc
0.25613907 -0.033871014 0.19645272 0.0019571213 -0.1329271 -0.06476778 0.32542425 0.110269204
0.052980557 0.00949736 0.15207906 -0.13535784 -0.029474625 -0.07000216 -0.24377123 -0.1804413
-0.06989909 -0.21764408 -0.23085761 0.028760443 -0.20795408 0.11104198 0.03162705 -0.114819415
0.088929996 -0.12259789 -0.048098676 -0.0976092 0.05022527 0.12485332 -0.078378625 0.15505446
0.26608974 -0.10642032 0.1565456 -0.115973204 0.06522351 -0.1160222 -0.053622648 -0.22328341
-0.123918116 -0.25346944 0.032705847 0.112108275 0.09663369 0.015192236 0.14879651 -0.12998317
0.12179648 0.13500573 -0.05969725 -0.057955407 0.2023881 -0.10569124 -0.085892834 -0.078897156
0.018663924 -0.040430624 0.008177366 -0.093605645 -0.022341708 0.18166934 0.04272484 0.46662128
0.27992427 0.26413238 0.19827335 0.312162 0.24907725 0.13121368 -0.06499677 -0.029449334
-0.13706008 -0.17809199 0.16158965 0.09783635 -0.13737527 0.22775082 -0.11114901 -0.022438299
-0.038757842 -0.10813906 0.08586004 0.019996278 0.22398514 0.021648744 -0.09710225 0.33980688
0.22230397 0.16241992 0.2793795 0.10327153 0.34241706 -0.057550505 0.07770771 -0.029572515

foundation_model.down_path.0.block.0.bias f4 [4]
00000000: bd4c dbbd 34a5 7ebe 3b17 733e dc16 603e
-0.10707996 -0.24867707 0.2373933 0.2188372

foundation_model.down_path.0.block.2.weight f4 [4, 4, 3]
00000000: 042f eb3e 5209 903e f4c0 a63e bdf8 143e
00000010: dc47 753e 7066 053f 05d9 31be c298 89be
00000020: 67bb 6ebe 8fbe 9fbb 9748 99be a85a cabe
00000030: 0f8b 12bd 0b20 b6be 1d97 2abe eccd 74be
00000040: 8f72 74be 236b 46be 00b7 9ebd 4edb be3e
00000050: 35a8 913d a40d b73e 7e67 c23e 103c c03e
00000060: 17ae a2be 9ece 2bbe efa7 d2be 3a2d bc3d
00000070: 8f8b 50be e278 d0be bcb7 983e 358c 693e
00000080: 65ce 863e b743 0b3e 7553 af3e 38dd 2dbe
00000090: edef c93d 63e6 0dbe d3e3 2dbe 50e3 8abe
000000a0: 50df e1bc c9e6 d5be 5791 533d b2a7 8c3e
000000b0: bb95 803e 4cfd 933e e57b 7ebd fa96 8b3e
0.45934308 0.2813211 0.32569087 0.14548011 0.23953193 0.5210943 -0.17367943 -0.26874357
-0.23313676 -0.0048750113 -0.29938194 -0.3952229 -0.035777148 -0.35571322 -0.16659208 -0.23906678
-0.23871826 -0.19376807 -0.07749748 0.3727669 0.07112161 0.35752594 0.37969583 0.37545824
-0.31773445 -0.16778037 -0.41143748 0.09188314 -0.20365737 -0.40717226 0.29827678 0.22807391
0.26329342 0.1360005 0.3424336 -0.1697892 0.09860215 -0.13857417 -0.1698144 -0.2712655
-0.027572304 -0.41777638 0.05165228 0.2747169 0.25114235 0.28904188 -0.062129874 0.27263623

foundation_model.down_path.0.block.2.bias f4 [4]
00000000: c3a0 85be 745d 68bd acd6 adbb bb2e ef3d
-0.26099214 -0.05672975 -0.005305132 0.11678835

foundation_model.down_path.1.block.0.weight f4 [8, 4, 3]
00000000: 43f3 37be 113a 49be 86c2 75be f753 7bbc
00000010: 932e 773e 6598 a03e f629 a33e 3c2d 133d
00000020: 4f38 bc3e b35c 9a3d 18d3 df3d c7e8 a03e
00000030: 6ebd 85bd a1c4 34bd 3521 75be b243 833d
00000040: 5f13 b23e f09f 81bc 4ea7 993e be40 82bd
00000050: 3597 8c3e 71ed 923e e629 a43e 5b1b 9a3e
00000060: 03de da3d 15a6 2b3d c2cd 483d 94b5 493e
00000070: 2fa3 7a3d df8d a73e beea a53e 03c1 bd3e
00000080: cf4d 153d 2bdd 4dbd a710 8c3e 66c1 883e
00000090: 0123 a0be 74ba 033e 7f89 d83d be93 f23e
000000a0: aeaa 9fbd 0fbf 873e 2623 933d 9cdb c03e
000000b0: 8e82 be3e 9717 d13d 3e47 9c3e 91e9 af3e
000000c0: ce57 98be 6e2b 823d 96ef 183e 8677 6b3e
000000d0: b921 2c3d 5090 873e b244 c03e bfca cb3d
000000e0: 7583 d93e 008f c13e db9f b03e 5d02 6d3e
000000f0: 4523 953e 341a 253e 71f0 a33e 3e05 aebe
00000100: ff7b babe 80ff 64bd ab68 33be 72f7 d13d
00000110: 665f 9dbe 582e 3abe bbc2 1b3d 0a26 d2be
00000120: 4f96 983d 916d cfbd 26a6 e93c 2646 b53e
00000130: 6e8b 533e 2bc7 5bbd a56e 483e b410 a5bd
00000140: 5cb3 253e 6c0d 71bd 6a98 f33c d658 9d3e
00000150: 050b 50be 318f 203e 76ea 96bd 04b3 c5be
00000160: 1d77 e8bd b0a6 b9be c44f e3bd 1ebf f4be
00000170: d0f3 dbbe 8404 84be 5294 01bd d7a1 2fbd
-0.1796389 -0.19651057 -0.23999986 -0.015339843 0.2413886 0.31366268 0.3186795 0.03593181
0.3676171 0.07537212 0.10928935 0.31427595 -0.065302715 -0.044132832 -0.23938449 0.06409396
0.34780404 -0.015823334 0.30010456 -0.06360005 0.27459112 0.28696778 0.32063216 0.30098996
0.106868766 0.041906435 0.04902435 0.19698173 0.06119078 0.32725427 0.32405657 0.3706132
0.036451157 -0.05025975 0.27356455 0.2671005 -0.31276706 0.12864095 0.105731 0.47378343
-0.077962264 0.26512954 0.071844384 0.3766755 0.3720898 0.102095775 0.30523103 0.34357885
-0.2975449 0.0635594 0.14935145 0.22994813 0.042024348 0.2647729 0.3755241 0.0995078
0.42483106 0.37804413 0.3449696 0.23145433 0.2912847 0.16123277 0.3201938 -0.33988374
-0.36422727 -0.055907726 -0.17520396 0.102522746 -0.30736846 -0.18181741 0.038027506 -0.41044647
0.07450544 -0.1012832 0.028521609 0.35405082 0.20658657 -0.05365674 0.19573458 -0.080598265
0.16181701 -0.05885069 0.029735763 0.3073184 -0.20316704 0.15679623 -0.073689386 -0.3861314
-0.11350844 -0.36259985 -0.110991985 -0.4780206 -0.42959452 -0.25784695 -0.03163559 -0.042878952

foundation_model.down_path.1.block.0.bias f4 [8]
00000000: 78da 563e 7890 d03d c34c 2dbe 8cb2 013d
00000010: 6b98 7dbd c962 963d b9db 5abe b9d1 d73d
0.20981777 0.10183805 -0.16923814 0.031664416 -0.061912935 0.073430605 -0.2137288 0.10538048

foundation_model.down_path.1.block.2.weight f4 [8, 8, 3]
00000000: 106e ffbc 5624 9fbe 23a4 95be add9 0fbe
00000010: 78b7 d13c 7d42 8fbe 126a e7bd 60f1 e6bd
00000020: 2f4d 84be 8229 a9be 656f e3bc 6d56 88be
00000030: 86f6 90be be2a c73c 6253 55be 9058 c23d
00000040: 4c3b 78bd 2583 b93d 1779 66bd 14ba 263e
00000050: 63bc 62be 064e 673e f49a 973e 50fb 623d
00000060: c0fe 0f3e 6288 293e bda6 8c3e e2cf 293e
00000070: 19d6 8a3e 8d78 973e 97a2 8f3e a09e 13bc
00000080: e154 52bd 783d 9b3e 7e40 613d 1a1e 7f3d
00000090: 8393 2a3e daa1 373e 189d d3bc d6b2 1cbe
000000a0: 5a3a b33d da5a 22be 134c f63d bba5 8fbd
000000b0: 7195 f83d 1462 f8bd ca84 8ebe 3434 75be
000000c0: fe4e dabd 49bc 04be 0164 b5bd f5dd 79be
000000d0: 78f1 2eb9 956f 17be d70e 51bd 0fc2 92bd
000000e0: 8bc4 66bd 8765 99be b517 b9be d65a 24be
000000f0: 20b1 a5be 5cc9 73be abf0 52be c61a 6f3e
00000100: 93bf 073d d07c e53d a397 bab9 dfac bf3d
00000110: c1b3 c03d c740 3f3e c9dd 4f3e b229 9e3e
00000120: cd1f 99bd b6be 0c3e ae1d 29bc 871b f83d
00000130: 6088 6f3e 0511 db3c 2bc1 2e3e 0cf8 983d
00000140: aa71 a03e 628a 093e b6ec d43d 3a9c 5e3e
00000150: 80cd ca3d f523 353e 8cbf a03e 5068 dfbc
00000160: ad7d af3c b5f9 703c 8276 703e 4e0d cf3c
00000170: e93a 2b3e 5de4 0cbe 3f63 0dbe 5377 23bd
00000180: 3f89 9cbe e842 c9bd 900f 93be 55ce 7abe
00000190: 0168 28be e1f2 2cbe 835c 273d d101 9c3d
000001a0: 6b73 6ebe cb87 41bc 570c 25be accb 13b7
000001b0: 91b8 1ebe b317 48be 5c20 3d3c b40b 213e
000001c0: 0ef9 cf3d a183 313d d26f 223d 530e 3ebe
000001d0: bdbe fcbd 2b14 08bc d6f5 4c3e 6e1f 6dbd
000001e0: 1405 483e cd2a 63bd d4ce 893d c174 473e
000001f0: 8610 903e 3df9 4a3d 77b1 083e 795f 893e
00000200: b59a 133e 7da0 813e 8caa 753e ab98 8a3e
00000210: 9473 a4bb 1f0b 7dbd d585 5e3e 2ec1 66bd
00000220: 6195 e4bd 5373 7bbe e2fe 373e 1b95 643e
00000230: eeda db3d 3a11 06be 75ae 20be 158f 66be
00000240: 4660 803e 05c2 5c3e aff2 e83d d1d6 d13d
00000250: a880 89bb 08ac 6b3d 9d51 303e ed47 403e
00000260: 5065 8a3e 2a7b 0abd 5a02 a63d dabc ab3e
00000270: 1781 fb3d 822f eb3d 2121 8d3d 1178 a5bd
00000280: cad8 c0bc eaa5 6dbe ce9f 153d 4a01 d6bd
00000290: 4eff 453c 7724 38be cf83 923d 7e04 cdbd
000002a0: 9bd2 363e 4489 dabc fad4 843e cb1f ffbc
000002b0: ae29 e4bd 0716 c73d 9f65 6e3e 7518 c13d
000002c0: 81cf 633e 5818 aa3e 9dfe 443e 7654 c83c
000002d0: 84c3 7b3d bbdb 333d 63d3 343e f4a6 a7bc
000002e0: 3d3f 6abe eaa3 a3bc 6413 693e 80fb fa3b
000002f0: d442 27bb 2268 25bd 1022 2fbe a4cc 8abe
-0.031180412 -0.3108241 -0.2922679 -0.1404788 0.02560018 -0.27980414 -0.11299528 -0.112765074
-0.25840136 -0.3303948 -0.027763078 -0.26628438 -0.28313082 0.024312373 -0.2083259 0.09489548
-0.060603425 0.09058217 -0.056267824 0.1628192 -0.22142176 0.22588357 0.29610407 0.05541545
0.14062023 0.16555932 0.2747096 0.16583207 0.2711647 0.2958416 0.28053734 -0.009009987
-0.051350478 0.30320334 0.054993145 0.062284566 0.16657834 0.17932835 -0.025831744 -0.15302595
0.08751364 -0.1585497 0.12026229 -0.070140325 0.12137879 -0.12128082 -0.27835685 -0.23945695
-0.10659598 -0.1296245 -0.08856965 -0.24401076 -0.00016683887 -0.14788659 -0.051039543 -0.0716592
-0.05633978 -0.29960272 -0.361509 -0.16050276 -0.32361698 -0.23807281 -0.2059962 0.23350057
0.033141684 0.11205447 -0.00035589663 0.093591444 0.09409285 0.18677054 0.20299448 0.30891186
-0.07476769 0.13744625 -0.010322018 0.121146254 0.23391867 0.026741514 0.17065875 0.07469186
0.3133672 0.13431695 0.103967115 0.21739283 0.09902477 0.17689498 0.3139614 -0.02727142
0.021422232 0.014707972 0.23482707 0.025274899 0.16721691 -0.13758989 -0.1380739 -0.03990872
-0.3057346 -0.098272145 -0.2872281 -0.24492772 -0.16445924 -0.16889526 0.04085971 0.07617534
-0.23286216 -0.011812161 -0.16117989 -8.809304e-06 -0.15500094 -0.1954029 0.01154336 0.1572712
0.10154925 0.04333842 0.03965742 -0.18560152 -0.12341068 -0.00830559 0.20015654 -0.0578913
0.19533187 -0.05546074 0.067289025 0.19478132 0.28137606 0.0495541 0.13348947 0.26830652
0.14414485 0.25317755 0.2399084 0.270696 -0.005018661 -0.061778184 0.2173074 -0.056336574
-0.11161304 -0.24555711 0.17968324 0.22322504 0.10735117 -0.13092509 -0.1569155 -0.22515519
0.2507345 0.21558388 0.11374413 0.10246051 -0.004196245 0.05753711 0.17218633 0.18777438
0.2703042 -0.033808865 0.08105917 0.3354252 0.12280481 0.11483671 0.068910845 -0.080795415
-0.023540873 -0.23207822 0.036529355 -0.104494646 0.012084795 -0.1798266 0.07154047 -0.100106224
0.17853777 -0.026676781 0.25943738 -0.03114309 -0.11140762 0.09720998 0.23280953 0.09428493
0.22247125 0.33221698 0.19237752 0.024454337 0.061465755 0.043910723 0.17658763 -0.020465352
-0.22875686 -0.019975621 0.22761303 0.0076593757 -0.002552201 -0.040382512 -0.17102838 -0.27109253

foundation_model.down_path.1.block.2.bias f4 [8]
00000000: 6690 8c3d 26a7 cabd 5a53 a03a f0e8 ef3d
00000010: 26e1 c93d 9937 7e3d dc8b 3ebd 023a a73d
0.06863479 -0.09895162 0.0012231872 0.11714351 0.09857397 0.06206474 -0.0465201 0.08165361

foundation_model.down_path.2.block.0.weight f4 [16, 8, 3]
00000000: 4a61 313e 6355 383d 6d0c 3b3e 509f 21be
00000010: 847d d8bd 78c9 95be d838 153e e1f0 7e3e
00000020: 67ba 913e 6daf b9be 98d4 83bc df6f 32bd
00000030: 5026 e93d b1aa 0e3e 8ed6 403e 59a8 c0bd
00000040: 086a a0be e426 a0be ee39 5f3c b40d 74be
00000050: b7f0 89be 6ed7 46be cc4b 1fbe 5091 b1bd
00000060: 2fb9 18b9 cd66 843d 689f 16bd 43cd 613e
00000070: e9ec 9c3d 3c9a 8f3e fcc0 29be be12 153d
00000080: 9f73 3ebe ea6e 803e f9ba 603d 2493 5c3d
00000090: 4bed 15be 2e9b 1cbc 0322 3abe 820a b03c
000000a0: a93b 103d fe1c 9c3e b100 8a3e e19c 633d
000000b0: d9de 253d 6cb8 0b3e 6987 003c 73af 653e
000000c0: 0cf9 103e 7b27 aa3d 9246 823e 2aaa bbbc
000000d0: f516 8cbe 951d b7bc cc2b 683e 7d84 993e
000000e0: 5620 da3e cd74 adba ee0b b6be db93 a8be
000000f0: a377 1a3e bb91 8d3e 7765 71bc 47d1 adbd
00000100: c478 b3bd f0ff 9bbe 9947 b8be 8598 a4be
00000110: 561f 733c 1874 35be 08ed 9ebe 1592 16be
00000120: e93b c33e e43b a83e 2b81 5e3e 49ef 28be
00000130: d18f 17be 03a8 4fbe 6e7c 443e 208e 6b3e
00000140: 3fc1 be3e a885 a0be eb3c b2bd 4856 53be
00000150: d053 983e d6b8 b8bc c995 593e ac84 0bbd
00000160: 7915 b8bd db60 96bd aef5 5dbe 09ae 51be
00000170: f2bf d1bc 70b9 88be 3a98 96bd ffa0 86be
00000180: 1c81 a13e 1842 a83e 34e7 193e 90c6 5b3c
00000190: 4da0 a3be 683c 87bd a42e e83d b089 ab3e
000001a0: fafa b23c 2745 3fbe d512 04bd b08a 503d
000001b0: 088b cc3d d5db 7c3e 7007 943e c0c5 95be
000001c0: d8f0 6fbe 22e9 63bd c14f 8fbd c059 a2bd
000001d0: c2a4 c5bc 2bc8 1fbe f750 96be 3fac 8abe
000001e0: 629b 973e 72c3 593e ac75 ea3d 97f5 9dbe
000001f0: 6720 a9be 9dd3 0bbe 6165 023e d303 fc3d
00000200: a569 a63e 8086 a7be 011c 25be 016c cdbd
00000210: 8edb 883d c467 2f3e 5588 143e efe7 87be
00000220: 4c40 acbd 8803 9abe 0909 8fbd 3505 97be
00000230: 3b74 65be e601 a4be 14e3 2ebe 28e8 9fbe
00000240: b4f4 5a3e a49d 743e e423 403e 01fe 87be
00000250: b9f3 5ebe de8a 90be 2fba af3e 6c2f a93d
00000260: 6d39 d23e ecb5 0f3d 18da 59be bfb6 99be
00000270: 2c99 d13d 9fe7 d83d 1b89 c8bb 631d 6bbd
00000280: 8dd3 afbe 2201 993c d70f 92bb 99de 32be
00000290: b529 1fbd 59fe 90bd 9d58 bbbc 6148 3ebd
000002a0: f344 003e 3274 89be 509e 5ebe cee0 49bc
000002b0: d843 143d 40cb 9b3b f2b0 cd3d 3e3f 89be
000002c0: 8def c2bd 5a00 6b3e d6f6 113e 8a3b da3d
000002d0: 43d3 29be 1ae7 e33d 8bf5 19bd b506 543e
000002e0: ecdb 9ebd a4e9 883e 1886 57bd bca4 be3d
000002f0: 23ab a53e 3800 103e 7406 873e fd52 463e
00000300: aaab 29bc 680f 87be 39f5 053d 7e95 903e
00000310: 2337 913e 41db 4c3c 74ce 28bd 0df0 bc3d
00000320: 3e70 2fbc 5c76 413e 679e fcbd bb8a 883e
00000330: df6a 1a3d 7071 66be 82ac 3ebe df46 81bd
00000340: 34d7 2a3e d02a 1f3e fa1e 8b3c 0bd6 0a3e
00000350: 879e 833e ef1a 643e 9bee 3b3e 993b ad3d
00000360: 74a0 b0bc ba00 e73d 6dd4 5ebe d0cf 493c
00000370: 2c16 8e3e 8598 233c ac62 7c3c 0c90 33be
00000380: b87e 2d3d 84ec c23d 9174 583e 5c51 8c3e
00000390: 741d f2bd 594e 973d e00d dfbd 998b 943d
000003a0: fbdc f83d e4a1 793e efdc 3b3e 8513 b93d
000003b0: 5a00 393e 2884 b23c 0529 0c3e 2bf4 a73d
000003c0: 311f bf3d 8eed 5b3d 492d e13d 7c2d 2bbc
000003d0: f22d cbbe b3d6 bcbe 282c c13d efb8 933d
000003e0: b9a1 143e 20c8 d1bd 91b0 b6be b44a 76be
000003f0: b424 373d 9802 f23d 66da ab3e 4c4d 06be
0.17322269 0.045003306 0.18266459 -0.15783429 -0.10570815 -0.2925527 0.14572465 0.24896576
0.28462526 -0.36266652 -0.016092584 -0.04356372 0.11384261 0.13932301 0.18831846 -0.0940711
-0.31330895 -0.3127967 0.013624651 -0.23833352 -0.26941463 -0.19418117 -0.15556258 -0.08670294
-0.00014564836 0.0646492 -0.036773115 0.22050957 0.076623745 0.2804736 -0.16577524 0.036394827
-0.18598793 0.2508462 0.05486581 0.05385126 -0.14641301 -0.009558482 -0.18177037 0.021489386
0.035213146 0.3049087 0.26953653 0.055569533 0.040495727 0.1364457 0.007844784 0.2243021
0.14157504 0.083083116 0.25444466 -0.022908289 -0.27361265 -0.022352973 0.22672957 0.29983893
0.42602795 -0.0013233662 -0.35555977 -0.32925305 0.150847 0.27650246 -0.014733664 -0.08487182
-0.087632686 -0.30468702 -0.35992125 -0.32147613 0.014839014 -0.17720068 -0.31040215 -0.14704163
0.38131645 0.32858193 0.21728961 -0.1649753 -0.14800955 -0.20278935 0.19188091 0.23003435
0.3725681 -0.31351972 -0.087030254 -0.20638382 0.29751444 -0.022549074 0.21248545 -0.034062073
-0.089884706 -0.073426925 -0.2167575 -0.20476545 -0.025604222 -0.26703978 -0.07353254 -0.26294705
0.31543815 0.32862926 0.15029603 0.01341404 -0.31958237 -0.066033185 0.11337021 0.33503485
0.02184819 -0.18678723 -0.032244522 0.050913513 0.099874556 0.24693234 0.28911924 -0.29252434
-0.23431718 -0.055642255 -0.06997634 -0.07927275 -0.024126414 -0.15603702 -0.29358646 -0.27084538
0.29610735 0.21265963 0.114482254 -0.30851433 -0.33032534 -0.13654943 0.12733985 0.12305417
0.32502475 -0.32719803 -0.16123964 -0.10030366 0.06682502 0.17129427 0.14505132 -0.2654414
-0.08410701 -0.3008082 -0.06984145 -0.2949616 -0.2240762 -0.32032698 -0.17078811 -0.3123181
0.2138241 0.2388826 0.18763691 -0.26560977 -0.2177266 -0.28230947 0.34321734 0.08260998
0.41059437 0.035085604 -0.21274602 -0.30022237 0.10234293 0.10591053 -0.00611986 -0.057401072
-0.34341088 0.018677298 -0.0044574547 -0.17467727 -0.038858134 -0.07079763 -0.022869403 -0.046455745
0.12526302 -0.26846462 -0.21740079 -0.012321664 0.036197513 0.004754454 0.10043515 -0.26806062
-0.09518347 0.22949353 0.14254317 0.106558874 -0.16584496 0.111280635 -0.037587684 0.20705684
-0.077567905 0.26740754 -0.052618116 0.09308764 0.3235713 0.14062583 0.2637211 0.19367595
-0.010355869 -0.26378942 0.032704566 0.28239053 0.28362378 0.012503446 -0.041212514 0.092254736
-0.010707913 0.18892807 -0.123349 0.26668343 0.037699576 -0.2250421 -0.18620494 -0.06312346
0.16683656 0.15543675 0.016982544 0.13558213 0.25706884 0.222759 0.1835274 0.08458633
-0.021560885 0.112794355 -0.21760722 0.012317613 0.2775129 0.009985094 0.015404385 -0.17535418
0.042357177 0.09517768 0.21138217 0.27405822 -0.11822024 0.073879905 -0.10891318 0.07253189
0.12151524 0.24378163 0.18345998 0.09036926 0.1806654 0.021791533 0.13687523 0.08200868
0.09332121 0.053693347 0.109949656 -0.010447856 -0.3968349 -0.36882553 0.0943225 0.07213008
0.14514817 -0.10243249 -0.35681584 -0.24051934 0.044712737 0.11816901 0.33565062 -0.13115424

foundation_model.down_path.2.block.0.bias f4 [16]
00000000: a420 e13d 7a0c 18be 6c9c 1f3d db8a fd3d
00000010: e9db 203d 7999 153d 9e98 78bb eb0e d1bc
00000020: 0d36 113d eeb2 313b bca2 a43c ccd3 02be
00000030: d024 61bd fcae ebbd 604f 8c3d 42bd 073e
0.10992554 -0.1484851 0.038967535 0.1238 0.039272223 0.036523316 -0.0037932764 -0.025519809
0.035451937 0.0027114707 0.020097129 -0.12776107 -0.054966748 -0.11507985 0.06851077 0.1325579

foundation_model.down_path.2.block.2.weight f4 [16, 16, 3]
00000000: c8d7 bd3d cce3 f03d f64d d73d 4d44 ccbd
00000010: f062 ebbd bd19 3cbe 56f1 8c3d c891 4c3d
00000020: 5eb0 673e 7168 8d3d 7f55 c23d bef8 7a3d
00000030: 4004 553e 957c 673e d61b 7a3e 0302 293e
00000040: 77cc 193d a379 2b3e 3f3e 563e 41ff 303e
00000050: 2110 5a3e a998 5cbe 0361 51bd 8dda 1abe
00000060: d54c 67bd e341 f0bc a163 6dbe ccde 2fbe
00000070: e5b0 98bd d57b 86be ae5b 6b3d 8956 df3d
00000080: 5639 2c3e e904 433e 24d9 213e 4336 113e
00000090: d4af 733e d3fc 453e 8252 9b3d f2d0 5cbe
000000a0: 5400 1fbe 8fdd 1fbe 4eab 533e dae1 5b3e
000000b0: ef0d 2c3d 6e6e c63d 0fc7 25bd 72aa 063d
000000c0: 7b4f 303e 9c67 8c3d 46f9 12bd 5e16 87bb
000000d0: 3f59 10be c2a4 51bb 91a7 713e 30af 903e
000000e0: 01c4 533e 6b4b af3d 4cb1 343d fd72 e5bc
000000f0: c22c 2e3c 390f ef3d 3fe3 863e 97a1 fe3d
00000100: 4de5 933e 17e8 b93d d5dd a03d 6625 393e
00000110: 85e8 2b3e 0285 98bd 59c0 72be 2169 26be
00000120: dc91 93bd 3338 41be 30f8 66be 65b0 50bd
00000130: 1a9b 4dbe 6d5a 72be 95f1 0d3e 06ed 783d
00000140: cedd 4a3e 3052 b23d 0a13 783e 4b13 983d
00000150: 6922 633e 6877 383e 56e6 cb3d 3a03 29be
00000160: a3ce 1ebd 58d4 86bd 58e0 b63c 35f6 323e
00000170: 4be1 ba3d c44e 563e ca25 613e 5a7e 403e
00000180: 8ae7 373e f1ea e7bc 2396 7fbd 5e00 1abe
00000190: e0ea cbbd ac06 64be 8817 423e 2e00 033e
000001a0: 435d 923e a717 503e 9e5f 5d3e 4db3 953d
000001b0: 24bb 6d3e 3eb9 3e3d c95d 823d 5174 2e3e
000001c0: aff5 e63d 3bed b33d 8503 173e 073a 5b3e
000001d0: 4fed f23d a88e 35be b837 eebc b071 d2bc
000001e0: 8140 0bbe 9abb 13be 31aa 68be 0904 66be
000001f0: 68a2 49be 48d2 a2bd 91c1 833e 6e0e 313e
00000200: 9797 753e 98f2 5d3e 95fc 9c3d a8b5 883d
00000210: 6509 a73d dd4f 1c3e 4ca1 1c3e f2a7 64bd
00000220: a56f 4dbd 7438 2ebd 43d7 023e 5296 ab3d
00000230: 9f3e 303e 6a71 a8bb 9a76 4e3e b310 c03d
00000240: b809 97bd 95d1 ae3d 8e83 02be 95f7 943d
00000250: 6eb4 7fbc 048d 97bb 5ed3 95bd 62d1 8f3b
00000260: 3559 803d 3170 9e3d 1aea 18be b019 873d
00000270: e4e9 60bd 66b7 9f3c a05b adbd a04f 843d
00000280: feb4 24be 321e cebd 7b85 efbd 23e8 2bbe
00000290: 2df9 a03d 2b02 8c3d fb77 c03d 00f4 583d
000002a0: a53d fb3d b2cb e43d 4b52 dc3d ef35 f73c
000002b0: 10fc 283e 8609 303e e69a 803d e998 a93d
000002c0: c57d f9bd 269e 00bd ac2a 29be 87da 973d
000002d0: 092c 803d b79f 0cbe a0fd 22bd 7497 5f3d
000002e0: 1668 533e c309 5b3e ca63 20be a0d2 00be
000002f0: 97a4 cd3d 9660 0c3e 5970 e7bd d9de eb3d
00000300: c64c 5f3d 101b 663e c675 4cbc a774 4abe
00000310: 6902 1fbe 4a57 20be c9f2 ae3c c2b7 da3d
00000320: 89a2 a93c d9c7 bcbb 77db 6f3e c2e5 2abc
00000330: 0e61 f23d dca6 d53d 09c8 e23d 4d12 9c3d
00000340: 7689 f03d 6111 563d aee1 033d 8efa 393d
00000350: 6793 b83d 026c 38be b5f0 2cbe 24d2 29be
00000360: c6f4 8abe e715 abbd f71d 97bd 1401 84be
00000370: 7e47 68bd cb6b bfbd 34b0 093e 6f39 0b3d
00000380: 4522 5d3e cc7b f93d 2a5a c13d a837 803e
00000390: 0bc3 a13e 7b14 a43d 1143 613e 68bd 98bd
000003a0: f23a 83bd f17c 59be a2c4 1d3e e610 0e3d
000003b0: e2ad 553e c81e e83d 18b1 69bc ebba 1c3e
000003c0: 74b5 a9bc 13bb 143c 8397 2abd d057 243e
000003d0: 68de 513e a16c 293b 12fe ec3c edf1 eabd
000003e0: 6e66 5b3c e6e4 0ebd 16f7 bbbc f321 aebd
000003f0: f95a debd 3fc9 07be 2afa 19ba eee7 74be
0.09269673 0.11762199 0.10512917 -0.09973965 -0.1149348 -0.18369193 0.06881969 0.049943715
0.22625872 0.06904686 0.09488963 0.061272375 0.20802402 0.22606118 0.24424681 0.16504674
0.03754851 0.1674562 0.20922183 0.17284872 0.21295215 -0.2154261 -0.05111791 -0.15122433
-0.056469757 -0.029328292 -0.23182537 -0.17174834 -0.07455615 -0.2626635 0.05746048 0.10905177
0.16818747 0.19044842 0.15805489 0.14180855 0.23797542 0.19334726 0.075840965 -0.21564081
-0.15527469 -0.15611862 0.20670816 0.21472874 0.042005476 0.096890315 -0.04047304 0.032877393
0.1721782 0.068556994 -0.035882257 -0.0041225394 -0.14096545 -0.0031989072 0.23599078 0.28258657
0.20680238 0.08559307 0.044114396 -0.028008932 0.010630788 0.11672825 0.2634525 0.124331646
0.2888588 0.09077471 0.07854811 0.18080673 0.16787918 -0.07447244 -0.23706187 -0.16251041
-0.07205555 -0.18869095 -0.22555614 -0.050949473 -0.20078698 -0.23667307 0.13861687 0.06077292
0.19811174 0.08707082 0.24226013 0.07425555 0.22181095 0.180143 0.099560425 -0.16505137
-0.038771283 -0.0658347 0.022323772 0.17476733 0.091250025 0.20928484 0.21987072 0.187982
0.17959419 -0.028310271 -0.06239904 -0.15039203 -0.09956908 -0.2226817 0.18954289 0.12793037
0.28586778 0.20321523 0.21618506 0.073095895 0.2321592 0.04656338 0.06365544 0.17036559
0.11277329 0.087854825 0.14747436 0.21408854 0.11861669 -0.177302 -0.029079303 -0.025688976
-0.13598825 -0.14427033 -0.22721173 -0.22462477 -0.1969086 -0.07950264 0.25733617 0.1729066
0.23983608 0.21674573 0.07665364 0.06675273 0.08156089 0.1526484 0.15295905 -0.055824228
-0.0501553 -0.042534307 0.12777428 0.08378281 0.17211388 -0.005140473 0.2016243 0.09378185
-0.073749006 0.08536068 -0.12745497 0.07273785 -0.015606983 -0.0046249647 -0.07315706 0.004388974
0.06267015 0.077362426 -0.14933053 0.065966964 -0.054910555 0.01949663 -0.08464742 0.064605
-0.16084668 -0.10064353 -0.11695381 -0.16787772 0.078600265 0.06836351 0.093978845 0.05296707
0.12267617 0.11171664 0.10757884 0.030177085 0.16502404 0.17191133 0.062795445 0.082811184
-0.12182192 -0.031400822 -0.16520184 0.07414728 0.06258399 -0.13732801 -0.039792657 0.054587796
0.20645174 0.21390443 -0.15663067 -0.12580347 0.10041159 0.1370872 -0.113007255 0.11517114
0.054516576 0.22471261 -0.012479251 -0.19771062 -0.15528263 -0.15658298 0.021356003 0.1067958
0.020707386 -0.0057611284 0.23423563 -0.010430755 0.11834918 0.104322165 0.1107331 0.07620678
0.117449686 0.052262668 0.032197647 0.045404963 0.0901249 -0.18009952 -0.16888697 -0.16584069
-0.27139872 -0.08353787 -0.07378762 -0.25782073 -0.056708805 -0.09346732 0.13446122 0.03399032
0.21595104 0.121818155 0.094410256 0.25042462 0.31594118 0.08011719 0.2199824 -0.074580014
-0.06407727 -0.21239068 0.1540704 0.034684084 0.20867112 0.11333996 -0.014263414 0.15305679
-0.020716406 0.009077805 -0.0416484 0.16049123 0.20494998 0.0025852101 0.028929744 -0.11471925
0.01339112 -0.034886263 -0.022944968 -0.08502569 -0.108571954 -0.13260363 -0.0005873764 -0.23916599

foundation_model.down_path.2.block.2.bias f4 [16]
00000000: d081 c33d cc88 573d b802 243d 4a64 2c3d
00000010: 89db 793d 56d0 cbbc 8f0c 8c3c dc6e b6ba
00000020: 3b4f d53d fed4 bb3d c7b9 a0bc 0b50 a43d
00000030: f24c b53d 6594 abbc 40e8 d13d 1f96 633d
0.09546244 0.052620694 0.040041655 0.04208783 0.06100038 -0.024879616 0.017095832 -0.0013918537
0.10415503 0.091714844 -0.019619836 0.080230795 0.08852567 -0.020944783 0.10249376 0.05556309

foundation_model.up_path.0.up.weight f4 [16, 8, 2]
00000000: 00df 5a3e 448f 8f3d 082c 46bd f260 3d3e
00000010: e06d 89bc a8f3 e83d da7a 4bbe 52aa 033e
00000020: 1864 433d 80c8 ebbb a8d3 a53d 30b7 1ebe
00000030: ec11 38be cce9 3abe d8c3 3ebe 709b 113e
00000040: f849 01be d032 2e3d 98ed 7abe 40e1 5c3e
00000050: a043 343c 90a1 163d 82bb 78be e0e7 1b3d
00000060: f872 cebd 2c3c 7c3e ba6a 21be f063 62bd
00000070: a8eb 02bd 20ee 1dbe 6c7d 6a3e 8a2b 6b3e
00000080: 0ca3 253e f037 64bd 4064 923d 7c9a 00be
00000090: 96ee 02be 70da 2abd 4cc2 c63d 30be abbd
000000a0: b0a3 5f3d 3474 983d 084c 523e d039 573e
000000b0: d0e5 24bd a856 7bbe 8807 5a3d cc4a 453e
000000c0: 58c4 60be b26b 06be 6ab9 593e ec3e 063e
000000d0: 00d0 3b39 343b 5c3e 084b d4bd b0d7 273e
000000e0: d871 d03d 9049 84bc d0dc c9bd bcc3 583e
000000f0: 8617 573e babd 6e3e 6c3d 5b3e e650 51be
00000100: 7aab 46be 9296 0d3e b0d7 3ebd 9427 1e3e
00000110: 9688 213e c281 3a3e 40fd 70be d0e0 9dbd
00000120: 622d 5c3e ecbf 683e 8053 4a3c 00af 603b
00000130: 02ac 4ebe 263c 4f3e 3062 893d ee38 4bbe
00000140: b080 573e 946a 5fbe e438 b03d 8a41 7abe
00000150: d433 003e a855 c23d d61f 5d3e 7227 1ebe
00000160: ee0f 103e 3aae 5cbe a8f9 65bd 7e86 643e
00000170: 509f 613d 188f 15be 702c ebbd f08c 783e
00000180: f262 79be 2672 5abe 3862 183d 3058 edbc
00000190: bc21 f73d 4006 56bd 0ae5 36be 0c2d d03d
000001a0: 388e 003e 2006 973c 249a 0cbe acc1 3fbe
000001b0: 90c5 0dbe e0a2 e23c 9060 c1bc 18a1 2fbe
000001c0: 306f 39bd 107b cbbd 20a4 0cbd 7481 c33d
000001d0: c06d dc3c 9c2f 743e ec57 7d3e e881 14be
000001e0: 8c7c a2bd a0b4 f13d 20d9 cdbd 1e43 74be
000001f0: 20a8 083c 3a2a 663e 5831 293d 3804 523e
00000200: a052 683e b8cf 61be d8f6 883d 621b 183e
00000210: f2e8 273e 704e 0c3d 30b8 e63c d215 3c3e
00000220: 14e8 223e a601 2c3e 70bc 34bd b86e 0e3d
00000230: 80d7 833d 70b7 43be 6aee 613e 6aa6 29be
00000240: e87d 96bd f01a 923d d095 a9bd 6070 d5bd
00000250: 9855 423e 8871 013d b84a 633d 78d5 97bd
00000260: f874 683e 16e3 433e 6684 4cbe b084 69be
00000270: 263c 5bbe 0e4a 4e3e 8251 213e 44d9 0f3e
00000280: 90d7 2abe 08b3 8d3d 184c 563e 828e 513e
00000290: 6491 6e3e 681c d93d 68ed 3d3d feb4 58be
000002a0: 046f d53d 300d 0f3e 5ec6 223e 30f0 4dbd
000002b0: f65c 42be a0d4 49bd 80e5 6dbc f0ac 433d
000002c0: 40f2 35be 9031 b13c 0836 71be 88cd 2cbe
000002d0: e00d 51bd 2ee8 00be aa22 5cbe 1403 c5bd
000002e0: 68e8 843d 88dc b63d 806e 5a3b 90b6 933c
000002f0: 0441 67be f0b5 85bc a0f8 9ebc 2a32 673e
00000300: 480f 27bd 20a0 d5bd e444 943d e01d 60bc
00000310: 9aa4 193e e8ff 6c3e 5e0c 053e acf9 16be
00000320: d8d9 b7bd 66e1 013e f87a 2bbd 84e4 c3bd
00000330: ae94 273e ecef 66be 8863 7abe 7858 c43d
00000340: 94ad 713e e0bf 313d 04dd 2cbe f8a6 38be
00000350: 00e2 07bb e2fe 223e f2ec 2f3e 0cae cabd
00000360: d84d aabd 5064 ed3d b45d 753e 0060 d83d
00000370: b075 1fbe 40cf b03c 40fc 9fbc c043 483c
00000380: 90b2 473d 7056 5f3e ee26 3d3e e421 5fbe
00000390: dec4 613e 7068 b03d 7ad2 7dbe b02d 633e
000003a0: 18cf d43d 48a8 6ebe 543f c3bd dc09 d73d
000003b0: 1c15 fa3d 9663 59be d0a0 e5bd 6499 903d
000003c0: d4d1 0c3e fcc7 77be 0ab2 5c3e d01e b2bc
000003d0: 7028 a3bc 00d9 e73d 805f 453e 6e21 563e
000003e0: aaa2 033e 2666 62be 9036 b4bc 884c c8bd
000003f0: 209f 3b3e 543d 7e3e d4b7 1dbe e073 7a3c
0.2137413 0.070097476 -0.048381835 0.18494013 -0.016776025 0.11374599 -0.19871083 0.12857941
0.04770288 -0.0071955323 0.08097011 -0.15499568 -0.17975587 -0.18253249 -0.18629396 0.14219451
-0.12625873 0.042528927 -0.24504697 0.21570301 0.011002451 0.03677517 -0.24290279 0.03806293
-0.10080522 0.24632329 -0.15763369 -0.05527109 -0.03196302 -0.15422869 0.22899407 0.22965828
0.16175479 -0.05571741 0.071480274 -0.12558931 -0.12786326 -0.041712224 0.09705028 -0.08385885
0.054599464 0.07444039 0.20536816 0.21018147 -0.04025823 -0.24544775 0.05322984 0.19266814
-0.21949899 -0.1312702 0.21262136 0.1310994 0.00017911196 0.21506959 -0.103658736 0.16390872
0.10177964 -0.016148359 -0.0985657 0.21168417 0.21005067 0.23314562 0.2141015 -0.20441017
-0.1940135 0.1382697 -0.046592414 0.15444785 0.1577476 0.18213561 -0.23534107 -0.07708895
0.21501687 0.22729462 0.0123490095 0.0034283996 -0.20182803 0.20237789 0.06708181 -0.19845936
0.21045184 -0.21818 0.08604601 -0.24439064 0.12519771 0.09488994 0.21594176 -0.15444735
0.14068577 -0.21550837 -0.056146294 0.2231693 0.055083573 -0.14605367 -0.11483085 0.24272513
-0.24354151 -0.21332607 0.037203044 -0.028972715 0.12066981 -0.052252054 -0.17860809 0.10164842
0.12554252 0.018435538 -0.13730675 -0.18726224 -0.13844895 0.027665555 -0.023605615 -0.17151296
-0.045272052 -0.09935582 -0.03433621 0.095461756 0.026907802 0.23846287 0.24740571 -0.1450268
-0.07933912 0.118020296 -0.10051179 -0.23853728 0.008340865 0.22477046 0.041306823 0.20509422
0.22687769 -0.22051895 0.06687707 0.14854196 0.16397455 0.03425449 0.028164 0.18367699
0.15908843 0.16797504 -0.04412502 0.03477356 0.06437588 -0.19112945 0.22063604 -0.16567388
-0.073482335 0.07134044 -0.082805276 -0.104218245 0.18977964 0.031602412 0.05549118 -0.07413763
0.2270087 0.19129595 -0.19972381 -0.22804523 -0.21409664 0.20145437 0.15753749 0.14047724
-0.16683793 0.06918913 0.20927465 0.20464519 0.2329765 0.10601121 0.046368986 -0.21162793
0.10421565 0.13969874 0.15895984 -0.05027789 -0.18980774 -0.04927504 -0.014520049 0.047772348
-0.17768192 0.021630079 -0.23555768 -0.16875279 -0.051038623 -0.1258857 -0.21497598 -0.09619728
0.064896405 0.08928782 0.0033330023 0.018031389 -0.22583395 -0.016322106 -0.019405663 0.2257773
-0.040786058 -0.10430932 0.07239702 -0.013678998 0.15004197 0.23144495 0.12992999 -0.1474368
-0.08977097 0.12683639 -0.04186532 -0.0956507 0.1636531 -0.2255246 -0.2445203 0.095871866
0.23601371 0.043395877 -0.16881186 -0.18032444 -0.0020734072 0.15917543 0.17180231 -0.09896478
-0.08315629 0.11591399 0.23961526 0.105651855 -0.15572238 0.0215832 -0.019529462 0.012223184
0.048754275 0.21810317 0.18471882 -0.21790272 0.22047755 0.0861367 -0.24787322 0.22185397
0.103910625 -0.23306382 -0.09533563 0.104999274 0.122110575 -0.21229395 -0.11212313 0.07060507
0.13751918 -0.24197382 0.21552292 -0.021743208 -0.019916743 0.11320686 0.19274712 0.2091119
0.1285502 -0.22109279 -0.021998674 -0.09780222 0.1832242 0.24828082 -0.15402156 0.015286416

foundation_model.up_path.0.up.bias f4 [8]
00000000: f4c9 acbd 180f 19be 1040 e73d f827 5dbd
00000010: b2c7 6a3e 5e82 50be 00bf a63d 828f 123e
-0.08436957 -0.14947164 0.11291516 -0.053993195 0.2292774 -0.20362231 0.08141899 0.14312556

foundation_model.up_path.0.conv_block.block.0.weight f4 [8, 16, 3]
00000000: e8a4 8b3d 0441 003e 8efb da3b 82c5 7bbc
00000010: 1e6a a93c 0ca8 903d ec27 773d 6a52 c6bc
00000020: a912 203d 8df4 3dbc 5cce a53d b557 9b3c
00000030: 5254 e5bd 4543 ef3c 4516 c6bd 3525 6cbd
00000040: 62b1 bf3d 696d d93d 4fef 073e bcd5 d1bd
00000050: 2cbc 08be 7ed6 a2bc bffd fe3c b882 8e3d
00000060: 7d0d a5bc 3e69 e53d 1761 dd3d e23c 993d
00000070: 63a4 13be 0d54 febd a537 50bd 92c4 b3bd
00000080: bd6b af3d 6cd9 2c3d 57e4 aebd 4667 063e
00000090: bdb8 133e bd57 12be 314c e43c 6fa9 493d
000000a0: a05d e83d 8e99 13be 6ec5 743d 6a11 eabc
000000b0: 129e 7f3d fe1f 1d3a daa2 f3bd bd00 603d
000000c0: 1fb5 f7bb f5ac ddbd 9b3c 013d 8df3 cbbc
000000d0: 0eaf a6bc 88c9 bf3d 16d6 7abd 3026 263c
000000e0: d690 f4bc 946d d33b 190d 653d 7286 103d
000000f0: aca9 01bc fd36 5b3d 097f ccbd 39c6 403d
00000100: 5489 593c f0ef 90bd a35f 8f3c becd 9fbd
00000110: 425b c0bd f45d 97bd eaa4 8a3d 3135 d03d
00000120: 736b 0abb d035 28bd ad10 ed3c 3ae4 0bbe
00000130: 90c2 44bc f1d9 c0bb 8c05 71bd 54da febd
00000140: a788 133e ade8 f5bd 8ae6 943b e5af a83d
00000150: 4043 efbd d6f7 ae3d 8212 d1bd d28a d1bd
00000160: b5c5 a43d cc2a e4bd ee79 bcbd f3e3 e7bd
00000170: 8f06 ff3d 8f0b 9c3d 7d94 633c 2c87 65bc
00000180: 17cf da3d aa93 c93d f720 4e3d ee51 b1bd
00000190: 43fe 903d e1a6 b0bd c4e9 a7bd 8d16 adbd
000001a0: 8d46 eebd d402 ea3d c661 66bb fe4e 9a3d
000001b0: b147 efbd 6e5a 7ebc 18d7 043e e8d7 77bb
000001c0: 4a69 76ba a2ce 79bc 4c1f c0bd 0bf6 8e3d
000001d0: 9c31 cdbd d07b 6e3d 2a9f 11bd c8c4 103e
000001e0: 31d0 db3d 27b2 f7bd 1e62 83ba 0cba 0a3e
000001f0: deac 683c fc9c a23d 32ae 973d c28b e7bd
00000200: de7f 02bd cc6d 123e 554e a7bc 0cee f93d
00000210: 4d2d 2f3d 3534 99bd 47a4 b33d 8e70 8bbb
00000220: 9f44 bc3b d180 83bd 9552 dc3d 1a4d 703d
00000230: 7f14 81bd b8a6 ccbd 0366 653d 11d1 40bc
00000240: 48ac 9dbd 00e8 f4bd 6427 a03d beaa a23d
00000250: 5a70 b43c 34a7 953d 7f7b f93c 19f0 fdbd
00000260: ec63 f43d 1874 a53d 750f c4bd a389 073e
00000270: e5fe 2b3d 8f27 fd3d 6e26 183d fb1f 583c
00000280: e416 b53d 00c6 6bbd f7a9 a4bc c731 bdbd
00000290: 5500 3c3d 7523 9cbd c57d 953d 3e84 75bd
000002a0: a191 0f3d d652 0bbe 6749 3d3d 4c10 f5bd
000002b0: d661 5c3d a116 d2bd c370 b1bb e5fa d5bd
000002c0: a651 d33d 9b3e 603d 7104 7f3d cd95 06be
000002d0: abb0 053e 4389 2b3c 81da 5ebc b5fc b03d
000002e0: b927 5a3d 9460 13be eca9 9bbd 0b50 a0bd
000002f0: 56f6 bc3c 6672 f2bd 4673 b2bd 5e10 843d
00000300: 4274 b73d 850d babd 92b5 f33d 54f1 c33d
00000310: b872 883d 33fb ebbd a9fa 013d 8374 2b3d
00000320: a475 043d aeed 973d 50c6 123e 9216 0dbe
00000330: e7fc 923d 644b a4ba eb7c 803d 4f34 913d
00000340: 7b6b 69bd 2d91 703d 467d ee3c 4735 7d3d
00000350: 81af edbd 7517 4e3d 8bbf a43c 119e b23c
00000360: 710c 733d 1a2c 6f3d 8972 36bd cc15 fdbd
00000370: 4fd0 dcbd ccf9 913d 0c83 55bd c9e5 4cbc
00000380: 6a24 a1bd 47cf bbbc 0ffd d73d fd52 c03b
00000390: 62a6 d53d 58d2 6f3c 86e4 f33d 6416 fc3d
000003a0: 0fc2 f73d 0cd2 8c3d e9c4 fabc 1cbd cabd
000003b0: 77ce 0abc 8985 9d3d 6eae 47bd 9c12 01be
000003c0: 2f69 2c3d ec23 fe3d 781a b43b d2d8 07bd
000003d0: bff3 ec3d 4f94 103e c1b0 11bd 4212 ba3d
000003e0: 1034 0dbd f98f aabd a1e2 4a3d 9048 b8bd
000003f0: 9b55 2a3d 1db1 a63a 31b2 563d 452b 203c
0.06818563 0.12524801 0.0066828197 -0.015366914 0.020680483 0.070633024 0.060340807 -0.02420922
0.039080296 -0.01159395 0.080960006 0.01896272 -0.111977234 0.029206881 -0.09672216 -0.05765267
0.09360005 0.106165715 0.13274883 -0.10245845 -0.13353032 -0.019877668 0.031126855 0.069585264
-0.020148033 0.11201714 0.10809534 0.074823156 -0.14418177 -0.12418375 -0.050834317 -0.08777727
0.08565471 0.042199537 -0.08539646 0.13125333 0.14425941 -0.14291282 0.027868362 0.04923385
0.113459826 -0.14414045 0.059758596 -0.028572757 0.062406607 0.0005993842 -0.11896296 0.054688204
-0.007559433 -0.108240046 0.03155194 -0.024896407 -0.020347144 0.09364611 -0.061239325 0.010140941
-0.02985422 0.0064522717 0.055920694 0.035284467 -0.007913988 0.053519238 -0.099851675 0.04706404
0.0132773705 -0.070770144 0.017501658 -0.07802914 -0.09392406 -0.07390967 0.06769736 0.101663955
-0.0021121174 -0.041066945 0.028938616 -0.1366128 -0.012009278 -0.0058853556 -0.05884318 -0.124439865
0.14407597 -0.1200727 0.004544084 0.08236674 -0.11682749 0.08543365 -0.10208608 -0.10231556
0.08045522 -0.11140975 -0.09202944 -0.11322775 0.12452423 0.07619392 0.013890383 -0.014009278
0.106840305 0.09842618 0.050324406 -0.08658205 0.070797466 -0.086255796 -0.08198884 -0.08451567
-0.1163455 0.11426321 -0.0035153492 0.07534598 -0.11683596 -0.01552449 0.12972677 -0.00378179
-0.00093998446 -0.015247019 -0.093809694 0.06980523 -0.10019228 0.058223546 -0.03555218 0.14137566
0.10733069 -0.12094527 -0.0010023748 0.13547534 0.014201371 0.07940099 0.07406272 -0.113059536
-0.031860225 0.14299697 -0.020423094 0.12203607 0.04276781 -0.07480661 0.08771568 -0.004255361
0.005745485 -0.06421054 0.10757939 0.05866728 -0.063027374 -0.099927366 0.05600549 -0.011768595
-0.07698876 -0.11958313 0.07820013 0.07942723 0.02202623 0.07307282 0.030454395 -0.123993106
0.11933121 0.08078784 -0.09573261 0.13236098 0.041991133 0.12361061 0.037146024 0.0131912185
0.08842257 -0.057561874 -0.020100577 -0.0923801 0.045898754 -0.076239504 0.07299379 -0.05994057
0.035050992 -0.13605818 0.04621258 -0.11965999 0.05380424 -0.10258222 -0.0054150536 -0.10448245
0.103183076 0.054747205 0.062260095 -0.13143082 0.13055675 0.010469737 -0.0136019 0.0864195
0.05326054 -0.1439231 -0.076007694 -0.07827767 0.02306668 -0.11838226 -0.08713393 0.06448434
0.08957721 -0.0908461 0.11899866 0.09567514 0.06662506 -0.11522522 0.03173319 0.04185916
0.032338753 0.07418381 0.14333463 -0.13778141 0.071771435 -0.0012534675 0.06273826 0.07090055
-0.056987267 0.0587322 0.02911247 0.061818387 -0.1160574 0.05031534 0.020110866 0.021803888
0.059338037 0.058391668 -0.044542823 -0.12357673 -0.10781919 0.07127723 -0.05212693 -0.012505957
-0.078682736 -0.022925986 0.10546314 0.005869268 0.10432126 0.014637552 0.11908822 0.12308958
0.120975606 0.06876001 -0.030611472 -0.09899351 -0.008472077 0.076914854 -0.048750333 -0.12604755
0.0420925 0.12409195 0.0054963194 -0.03316576 0.115699284 0.14119075 -0.035568956 0.09085514
-0.03447348 -0.08328242 0.049532536 -0.08998215 0.041585546 0.0012717579 0.05241603 0.009775941

foundation_model.up_path.0.conv_block.block.0.bias f4 [8]
00000000: 2f97 bfbd 6046 5b3d ef29 c23d 5fcc fd3d
00000010: 5bd8 27bc d0e7 bb3d fb0a d73d b065 a6bd
-0.09355008 0.05353391 0.094806544 0.12392496 -0.010244454 0.09175074 0.10500141 -0.08124864

foundation_model.up_path.0.conv_block.block.2.weight f4 [8, 8, 3]
00000000: 2f5d 083e 2ad6 14be 445a f03d 1c01 243e
00000010: 8121 d1bd 6f75 0ebe 2147 9a3d cbd9 193e
00000020: 94ec 80bd ea8a 21bd 2613 173d 5326 243e
00000030: c77f 383c edaa 0fbe fd18 21be ebb0 14be
00000040: 9468 4fbe 24df 113e ef83 b0bd 5803 0abe
00000050: e076 cebd 8144 cf3d 6d3a b8bd 73d7 cf3d
00000060: 4f17 323e 57aa 073e ba6e 3d3e 692d 873d
00000070: 0f74 babd f584 813c 54c0 4c3e 8bc2 043d
00000080: 7b6a 223e b45b 373d 9eb6 1a3e 13cb e63c
00000090: 59ab 4ebc 39fe 143e 5ff2 e93d e5b9 01be
000000a0: 7a9d 413e 5c13 3d3e 72d8 a03d 6ad3 e23d
000000b0: a460 4dbe 6bd2 7abd d33a 253e a58f 3ebe
000000c0: 692f c8bd 4cfe a13d fb6f 3d3e da48 f43c
000000d0: 3d23 ba3d e0c1 11be 8c84 5dbb b164 62bd
000000e0: 5705 223e 72cf 993c a47e bdbd 8425 483e
000000f0: dc95 22bd efc2 023e 58c0 02be 1047 a33d
00000100: 5d19 5a3c 37ec 473e 1d6e 2d3e 4432 19be
00000110: 99c4 3dbe 4eb1 853d d7ae 41be b66e 493d
00000120: fd50 8c3d 0d2d 9ebd 6d70 d0bd 4b4c 083e
00000130: 3412 10be 5c4f 22bd 23ee 373d 4138 1e3e
00000140: a983 3fbe 60da 443d 993d 073d 3738 23bd
00000150: 25f3 99bd 2bfd acbd 9893 35be 7c2f 04be
00000160: 3b3e 4ebe 2a2e d93d 1155 8e3d 68fa 2cbe
00000170: a418 453e 6888 0bbe 1d35 b53d 1606 a0bb
00000180: 52b3 0ebe a326 3e3e 99b3 b43d 1827 75bc
00000190: f84a c7bd a760 9b3d 10b8 d9bd 603b d1bd
000001a0: 1f67 693d b8dd 48be 9ec2 213d 2e46 9bbd
000001b0: c837 19bd 740c c83d 1364 4f3e 3a2b 3abe
000001c0: 703a 2bbb 88aa 05bd 76e9 39bd d6a2 a6bc
000001d0: a0ba e3bc 6177 ac3d ecd2 8ebb e2f1 18be
000001e0: 0a36 ae3d 22d8 91bd 7910 21be a7fa c0bd
000001f0: 6c1d 9a3d 0e22 4e3e b899 02be 26a2 803d
00000200: 3639 0bbe f55f 953c 2bb9 243d 1d15 293e
00000210: 77a0 d33d 73be f6bd 3ae6 b7bd ab16 dc3d
00000220: 293f 0cbe 06f3 4d3e 76c3 17bc a07f 85bd
00000230: 1b8a 833d 2f58 da3c 79d2 2fbe 5c7a 3d3e
00000240: 05d7 e4bd 1c1d eabd 928e d53d e463 983d
00000250: 7601 22be d8d0 edbb 6b6b 80bd a83e 41be
00000260: cb7a adbd 4d9c 8c3d 7674 6a3c e65e 743d
00000270: 612a 31be f76d 27be 30e4 c83d 4e67 1ebc
00000280: c7ab 6bbd 13a3 82bd 2dd4 1b3e 094c 6dbd
00000290: 6237 d63c ecd2 13be c4c9 df3d 4910 afbd
000002a0: 4856 e0bc a734 84bd ce59 0d3d 3588 993d
000002b0: e1cb 85bc edac 32be e411 3abe 2a97 603d
000002c0: 4640 ff3d 4d2c 153e 5a11 9b3d 82cf a3bd
000002d0: 1361 093e 414d 0c3d 1a17 973d b1ca dcbd
000002e0: 8858 4cbd b73e 40be daae 143d f3ed 8cbd
000002f0: 6ddd b6bb 914c 4bbe e64d a53d ccf3 533d
0.13316797 -0.14534822 0.11735967 0.16016048 -0.102114685 -0.13911985 0.07533098 0.15024488
-0.06295124 -0.03943912 0.036883496 0.16030245 0.011260933 -0.14030047 -0.15732189 -0.14520614
-0.20254737 0.14245278 -0.08618914 -0.13477838 -0.10081267 0.10120488 -0.08995519 0.101485156
0.17391704 0.13248573 0.1849927 0.06600458 -0.09104168 0.01581047 0.19995242 0.032412093
0.15860932 0.04476519 0.15108725 0.028173005 -0.012614095 0.14550103 0.11423182 -0.1266857
0.18907729 0.18464416 0.07853784 0.1107548 -0.20056397 -0.061235826 0.16135721 -0.18609484
-0.09774668 0.079098314 0.18499748 0.029819895 0.090887524 -0.14234114 -0.0033800928 -0.055271808
0.1582235 0.018775675 -0.092526704 0.19545561 -0.0396937 0.12769674 -0.12768686 0.079725385
0.013311711 0.19523703 0.16936536 -0.14960581 -0.18532027 0.06527959 -0.18914352 0.049177848
0.06851385 -0.077234365 -0.101776935 0.13310353 -0.14069444 -0.039626464 0.04490484 0.15451147
-0.18702568 0.04805982 0.03301773 -0.039848533 -0.07517079 -0.084467255 -0.17732084 -0.12908739
-0.20140927 0.10604508 0.06949819 -0.16892397 0.19247681 -0.13626254 0.08848021 -0.004883538
-0.13935593 0.18569426 0.08823318 -0.014962934 -0.09731096 0.07586794 -0.1063081 -0.10216403
0.05698311 -0.19615829 0.039492242 -0.07581745 -0.037406713 0.09768 0.20253019 -0.18180552
-0.002612736 -0.032633334 -0.04538866 -0.020341318 -0.02779895 0.08421207 -0.00435864 -0.14936021
0.08506401 -0.07121302 -0.1572894 -0.09422808 0.07525143 0.20130178 -0.12753952 0.06280927
-0.13596043 0.018234232 0.040215652 0.1651196 0.103333406 -0.12048044 -0.08979459 0.10746511
-0.13695969 0.20112237 -0.00926291 -0.06518483 0.06422826 0.026653377 -0.17170133 0.18503708
-0.11173824 -0.114313334 0.10427584 0.074409276 -0.1582087 -0.007257562 -0.06270488 -0.18871558
-0.084706865 0.068657495 0.014309993 0.059660815 -0.17301323 -0.16350542 0.09809148 -0.009668184
-0.057536867 -0.0637876 0.15217657 -0.05793384 0.026149455 -0.14435929 0.109271556 -0.08548028
-0.027384892 -0.06455355 0.034509473 0.074966826 -0.016332569 -0.17448778 -0.18170887 0.05483166
0.12463431 0.1456768 0.07571669 -0.07998563 0.13415937 0.034253363 0.07377453 -0.10780848
-0.049889117 -0.18773924 0.036299564 -0.06881323 -0.005580595 -0.19853427 0.080714986 0.051746175

foundation_model.up_path.0.conv_block.block.2.bias f4 [8]
00000000: 3776 b63d f4c6 18bd 0695 16bd 7223 313e
00000010: 4518 1abe 1265 ac3c d03e f03c 56ed 883d
0.089092664 -0.03729911 -0.036763214 0.17298678 -0.1504832 0.021044288 0.029326826 0.06685893

foundation_model.up_path.1.up.weight f4 [8, 4, 2]
00000000: 5dc4 98be 377f 653e 6d09 56be c710 0abd
00000010: 16df f1bd bd14 b13e 4e9e 4a3d 30ee b4bd
00000020: dff6 933d 5d19 94bd c547 163e 43a9 e8bd
00000030: 14a9 2c3e 93b7 673e d81e 05be 4d7f 073e
00000040: b51f 9cbe df96 2abd 6271 263e 0474 9dbe
00000050: a291 633e 57c8 a8be 63da fcbd d407 c93d
00000060: fe8f ae3e 37a7 733e 3f67 1e3d 15ce 063e
00000070: 871a 93be d02f 943e 8adb 583e 7268 473e
00000080: 8acc 933e 9981 01be faa4 5f3d 50d3 c23d
00000090: 14ba ad3e 2d9f a1be e4a4 133e 1d2c 10be
000000a0: f458 22be 85ad 58bd c785 a4be bb00 833e
000000b0: 98ee 783e 8380 933e 8efc 2f3e 5f1b a23e
000000c0: 22dd 3ebe 98e9 25be 3f77 26be e666 58bd
000000d0: 1a96 adbd a87c 923d 3a3a 943e 1c03 903d
000000e0: 089f b2be bd63 d43d 70cf 76be df27 ab3b
000000f0: 4d67 793e d22c 823e 71df 903e 7f49 abbe
-0.29837313 0.2241181 -0.20902033 -0.033707406 -0.118101284 0.34586135 0.049467377 -0.08834493
0.07224821 -0.072314 0.14675815 -0.11360409 0.16861373 0.22628622 -0.13000047 0.13232155
-0.3049294 -0.041647788 0.1625419 -0.30752575 0.22223523 -0.32965347 -0.123463415 0.09815946
0.34094232 0.23794256 0.038672682 0.13164552 -0.28731176 0.28942728 0.21177498 0.19473436
0.28866988 -0.12647094 0.054600693 0.09512961 0.3393103 -0.31566754 0.1441837 -0.14079328
-0.15854245 -0.052899856 -0.32133314 0.25586495 0.24309766 0.28808984 0.17186186 0.31661507
-0.18639043 -0.1620239 -0.16256426 -0.052832507 -0.08475895 0.071526825 0.28950673 0.07031843
-0.34886956 0.10370586 -0.24102569 0.005223259 0.24355812 0.2542482 0.28295472 -0.3345451

foundation_model.up_path.1.up.bias f4 [4]
00000000: 4b6d 81be fa7d ce3d 76e9 c93d b08f 7a3d
-0.25278696 0.10082622 0.09858982 0.061172187

foundation_model.up_path.1.conv_block.block.0.weight f4 [4, 8, 3]
00000000: c4fa 37be 8ee0 c73d 1e59 9ebd 25ae 96bd
00000010: 15e8 79bd 9f25 853c dd92 af3d 557d 063e
00000020: fc6d f2bd 4d64 5bbd dc32 e63d 8e64 a9bd
00000030: 15ea 133e dbff d7bd 1072 c1bd 3824 0d3d
00000040: f147 4fbe 1357 0f3e e8d0 8a3d 28f4 173e
00000050: 4d7f 17be 1c97 3fbe fe82 2c3e c2da 12be
00000060: ee51 eebd ed83 49be 8e10 423e 9a34 113e
00000070: f3ad 4c3e 8ced 2ebe e0ce 98bd f086 7c3d
00000080: 685a 8bbd a5aa 35be 2f50 3f3e 2e42 503e
00000090: 94f6 f7bd a34c bbbd d0e2 07bd a769 b03c
000000a0: 901a 893d a872 04bb 37ec 15be 7c29 ee3d
000000b0: b894 db3d 225f 1c3e cfb9 ba3d 7c97 5b3c
000000c0: c9b4 183d f3b9 0e3e d7ca 0e3e 9e81 89bd
000000d0: 4221 ce3d 843f eabd 05dc 893d c5f5 a83d
000000e0: 736b 0ebe 6218 3fbe 7749 de3d 2486 1cbe
000000f0: 3dd7 31be 2405 25be b4a2 a7bd 5b33 c7bd
00000100: 5fd9 b0bd d9b4 103e 34d1 b6bd 2df5 81bc
00000110: 496b 34be f766 a5bd 4b16 093e 1d72 06bd
00000120: c456 bfbd 0e60 183e 0a95 1f3e a173 193e
00000130: 5654 59bd 9910 cdbd 65fc 42bd ec34 8dbd
00000140: c539 51bb a563 d93d cf1a ec3d bf95 5cbd
00000150: d4b4 76bc 102a 463e d804 13be df60 223e
00000160: cb55 05bd 6749 1f3e fd4c 1bbe cf04 85bc
00000170: 1404 143e bcf9 db3d 0414 dcbd b668 0b3d
-0.17966753 0.09759627 -0.077318415 -0.07357434 -0.061012346 0.01625329 0.08572934 0.13133748
-0.11837384 -0.05356245 0.112401694 -0.082711324 0.14444764 -0.105468474 -0.09445584 0.03445837
-0.20242287 0.1399806 0.06778127 0.14839232 -0.14794655 -0.18709987 0.16846845 -0.14341262
-0.116367206 -0.19679232 0.18951628 0.14180222 0.19988231 -0.17082804 -0.07461333 0.061652124
-0.06804353 -0.17740877 0.18682931 0.20337746 -0.12107578 -0.09145477 -0.03317529 0.021534754
0.066945195 -0.0020209942 -0.1464089 0.11629006 0.10721725 0.15270665 0.091174714 0.013402816
0.037281785 0.13938121 0.13944565 -0.06714176 0.10064937 -0.11437896 0.067314185 0.08250002
-0.13908176 -0.18661645 0.10853856 -0.15285546 -0.17367263 -0.16115242 -0.0818533 -0.09726592
-0.0863521 0.14131488 -0.08926621 -0.01586398 -0.17619051 -0.080762796 0.1338741 -0.03282367
-0.09342721 0.14880392 0.15584198 0.14985515 -0.053058945 -0.100129314 -0.047603983 -0.0689486
-0.0031925302 0.10614709 0.11528551 -0.053853747 -0.015057761 0.19351983 -0.14357316 0.15857266
-0.03255252 0.15555345 -0.15166087 -0.016237644 0.1445468 0.107409924 -0.10746005 0.034035407

foundation_model.up_path.1.conv_block.block.0.bias f4 [4]
00000000: 8404 aebc 9c85 723d e979 283e 5951 403e
-0.021242388 0.05920945 0.16452755 0.18781032

foundation_model.up_path.1.conv_block.block.2.weight f4 [4, 4, 3]
00000000: c6f2 3dbe 1f7a 35be 2b43 60be 1e58 193e
00000010: f343 803e a32d 7a3e b330 92be 3f68 463e
00000020: 433e 973b 3af1 4e3e ad3f 6c3d ceef 383d
00000030: 4188 96bc c3d9 64be 0525 46bd e33c 8bbe
00000040: e556 d13d 3b86 5fbe 9526 3b3d eb3d 87be
00000050: fc4a 013e ae41 55be f0f7 5abe 3f3a 22be
00000060: 286e f0b9 c619 2f3e dbd4 8e3e 19a3 c33d
00000070: 5ad9 863e 8447 513e 9965 29be 782a fcbc
00000080: 208a 42be 544a 843e e014 303e ab71 e73d
00000090: c57a 7d3e a352 9fbd eb32 34be 0713 3f3e
000000a0: ac67 b4bd 7955 53be 86ad 1cbe 43e6 243e
000000b0: d552 cd3c 1a4a cf3d 9ea7 8ebe c48a 343c
-0.18549642 -0.17722367 -0.21900623 0.1497502 0.2505184 0.24431472 -0.2855278 0.19375704
0.0046155765 0.20209208 0.057677913 0.04515057 -0.018375518 -0.22348695 -0.04837515 -0.2719489
0.10221652 -0.21828549 0.04569109 -0.26414427 0.1262626 -0.20825836 -0.21383643 -0.15842532
-0.0004585844 0.17099676 0.2789677 0.09552593 0.263377 0.20437437 -0.16542663 -0.03078197
-0.18998003 0.25837958 0.17195463 0.11300977 0.24753864 -0.077794336 -0.17597549 0.18659602
-0.08808836 -0.20638074 -0.15300569 0.16103463 0.025063911 0.101215556 -0.27862257 0.011019412

foundation_model.up_path.1.conv_block.block.2.bias f4 [4]
00000000: d538 ae3d a406 813d e5ac c4bd 1eb0 8a3e
0.085069336 0.06300095 -0.096032895 0.27087492

foundation_model.last.weight f4 [8, 4, 1]
00000000: 3cb4 e1be 6834 5abe 30d9 34bd e041 a6bc
00000010: 5600 cd3e cc0f 3abe f82a 0f3e 8459 bd3e
00000020: 80e8 c43e c2ab 8bbe f06c f63e 1e06 edbe
00000030: 2064 d83d 3c5a 16be 3c78 383e 2ce6 52be
00000040: aaeb c93e 18d5 b6bd 9014 bdbd 30ef 4e3d
00000050: 2082 d13d 1646 84be 8a55 e83e 0641 a3be
00000060: 247b c6be d00a 92be 389e e5be 2840 cebd
00000070: ac4e e2be fed2 debe b004 01bd e824 493e
-0.4408282 -0.21309054 -0.04415244 -0.020295084 0.4003932 -0.18170089 0.13981235 0.36982358
0.38458633 -0.27279478 0.48129988 -0.4629373 0.10565972 -0.14682859 0.18014616 -0.20595616
0.3943761 -0.08927363 -0.092324376 0.050521076 0.102298975 -0.2583472 0.4537776 -0.31885546
-0.38765824 -0.28523874 -0.44847274 -0.100708306 -0.44200647 -0.4352035 -0.03149861 0.19642985

foundation_model.last.bias f4 [8]
00000000: 4eda c63e 0801 a0be 14b5 5bbe f823 b83d
00000010: 525c c4be c4ed 0cbe f034 c23e d015 69bd
0.38838428 -0.31250787 -0.21455795 0.089912355 -0.38351685 -0.13762575 0.37931013 -0.056905568
