wandb/run-20230704_032044-zqebj2b1/files/checkpoints/best.pt (torch, 119813 bytes, 66 tensors)

foundation_model.down_path.0.block.0.weight f4 [4, 8, 3]
0.28455794 -0.010274991 0.22394592 0.17061697 0.033991158 0.10351776 0.2876004 0.0681125
0.010468427 0.046364527 0.19139162 -0.10016113 -0.0024048889 0.086259395 -0.10936676 0.17954105
0.29102966 0.14209257 -0.08961263 0.17667003 -0.06778039 0.1372239 0.05817239 -0.090677865
-0.1148244 -0.3291731 -0.25278687 -0.06431466 0.08446707 0.15965553 -0.30980983 -0.07344174
0.03961683 -0.0628589 0.2046485 -0.07121585 0.04437067 -0.14155132 -0.07807206 -0.11610571
-0.015600378 -0.1461139 -0.103564724 -0.022203213 -0.03778791 0.0053522526 0.13996617 -0.14335193
0.20124699 0.2154318 0.017671516 0.022437915 0.285062 -0.025131833 -0.0017065284 0.0054457816
0.10309261 -0.073831715 -0.024703486 -0.12770605 -0.08604476 0.09743478 -0.013180019 0.30032456
0.11287221 0.096252546 -0.0018156078 0.11260531 0.04901873 0.10578707 -0.09445223 -0.05781493
-0.039467294 -0.07744602 0.26521772 0.123343416 -0.114319906 0.25463194 0.00423593 0.09617027
0.07836906 -0.123758376 0.07501493 0.011865549 0.086220175 -0.04394045 -0.08312377 0.21509096
0.097940855 0.037127614 0.12722485 -0.048844274 0.19066675 -0.088240206 0.049531832 -0.058944102
00000000: 94b1 913e 7058 28bc 1452 653e 37b6 2e3e
00000010: 503a 0b3d 1f01 d43d 5c40 933e 917e 8b3d
00000020: c483 2b3c bbe8 3d3d 2afc 433e 4721 cdbd
00000030: 579b 1dbb c4a8 b03d aefb dfbd 9cd9 373e
00000040: d701 953e b780 113e d486 b7bd fde8 343e
00000050: 72d0 8abd 6c84 0c3e 2c46 6e3d 51b5 b9bd
00000060: 0e29 ebbd 6089 a8be 486d 81be 68b7 83bd
00000070: 12fd ac3d bd7c 233e 659f 9ebe 9f68 96bd
00000080: 4245 223d 2bbc 80bd 608f 513e 9ed9 91bd
00000090: 05be 353d d4f2 10be 3fe4 9fbd d5c8 edbd
000000a0: ba98 7fbc e29e 15be be19 d4bd 83e3 b5bc
000000b0: 7fc7 1abd f361 af3b 4b53 0f3e d9ca 12be
000000c0: b113 4e3e 279a 5c3e dbc3 903c b8cf b73c
000000d0: a5f3 913e 46e1 cdbc 97ad dfba 8772 b23b
000000e0: 3822 d33d 1535 97bd f75e cabc 60c5 02be
000000f0: 3c38 b0bd e38b c73d 02f1 57bc 24c4 993e
00000100: 8c29 e73d 0e20 c53d b0f9 edba 9d9d e63d
00000110: ddc7 483d e4a6 d83d 2c70 c1bd 59cf 6cbd
00000120: 75a8 21bd 059c 9ebd 9eca 873e 799b fc3d
00000130: 8e20 eabd 1e5f 823e 8ecd 8a3b ebf4 c43d
00000140: f57f a03d 0875 fdbd 6da1 993d b867 423c
00000150: 3494 b03d e7fa 33bd cc3c aabd ce40 5c3e
00000160: 3795 c83d 2013 183d 3b47 023e ef10 48bd
00000170: 253e 433e 48b7 b4bd e4e1 4a3d 5f6f 71bd

foundation_model.down_path.0.block.0.bias f4 [4]
-0.012834161 -0.029814972 0.11211501 0.067052335
00000000: 5f46 52bc 873e f4bc 8e9c e53d bc52 893d

foundation_model.down_path.0.block.2.weight f4 [4, 4, 3]
0.39393574 0.20780066 0.2523532 -0.25851783 -0.17450202 0.10704608 0.10756726 0.017845485
0.044843886 0.19429508 -0.079970926 -0.14164817 0.29423693 -0.03496823 0.1772463 -0.19692418
-0.20086369 -0.17486739 -0.15324375 0.30149686 0.0013284812 0.27921262 0.28650445 0.2802297
-0.050464395 0.10245259 -0.13858226 0.121368155 -0.18690735 -0.3704853 0.28112456 0.21683297
0.24275146 0.0977278 0.32374075 -0.15460965 0.33423305 0.07954376 0.05540652 -0.21016352
0.03168937 -0.34368128 -0.077774085 0.15168856 0.10983765 0.19149868 -0.1382437 0.21721362
00000000: f2b1 c93e b2c9 543e 7034 813e 735c 84be
00000010: a8b0 32be fa3a db3d 394c dc3d b230 923c
00000020: 39ae 373d 4af5 463e ccc7 a3bd 380c 11be
00000030: 39a6 963e d93a 0fbd 0e80 353e 7ea6 49be
00000040: 36af 4dbe 7010 33be eeeb 1cbe cc5d 9a3e
00000050: 6f20 ae3a f5f4 8e3e b6b0 923e 447a 8f3e
00000060: c1b3 4ebd aad2 d13d 82e8 0dbe de8f f83d
00000070: a464 3fbe 40b0 bdbe 8fef 8f3e 7609 5e3e
00000080: d793 783e 8325 c83d 59c1 a53e fe51 1ebe
00000090: 9820 ab3e d7e7 a23d f2f1 623d 1b35 57be
000000a0: b6cc 013d fef6 afbe 0548 9fbd 3f54 1b3e
000000b0: 90f2 e03d 3b18 443e c28f 0dbe 3f6d 5e3e

foundation_model.down_path.0.block.2.bias f4 [4]
-0.15072764 -0.1738232 -0.108211614 0.09884958
00000000: 5958 1abe b5fe 31be 0d9e ddbd a671 ca3d

foundation_model.down_path.1.block.0.weight f4 [8, 4, 3]
-0.008908218 -0.03168083 -0.07694815 -0.07594771 0.18686527 0.26575452 0.27246627 0.00048270586
0.3247584 0.0027011381 0.0424473 0.24912381 0.11061186 0.118157566 -0.07342076 -0.008078739
0.2819185 -0.08607326 0.20176138 -0.15413822 0.1806723 0.2141885 0.25539005 0.22604887
0.28170052 0.21384889 0.22595167 0.12388401 -0.0044148355 0.26427844 0.25919753 0.30491945
-0.03586955 -0.10959374 0.2234055 0.21646631 -0.16709287 0.27892643 0.2619001 0.37754726
-0.1686638 0.17943834 -0.004881472 0.29558763 0.2962752 0.05929249 0.2698414 0.30525434
-0.16950032 0.2002757 0.3025111 0.1335878 -0.049617242 0.16334131 0.28152457 0.0037860936
0.32753557 0.3277689 0.29190746 0.17069088 0.341051 0.21093859 0.36909512 -0.10878245
-0.1298866 0.18340348 0.05507841 0.34028086 -0.077223636 -0.0014941861 0.22242144 -0.2251641
0.23541926 0.05136132 0.1828981 0.28943604 0.14564899 -0.11545432 0.14921305 -0.12917267
0.12129513 -0.11457849 -0.019887842 0.26196605 -0.358404 0.0067222957 -0.22597785 -0.33051255
-0.048687693 -0.3005632 0.0424586 -0.33338624 -0.28160644 -0.16562836 0.06738163 0.055135906
00000000: c6f3 11bc c2c3 01bd fe96 9dbd 798a 9bbd
00000010: 9c59 3f3e fa10 883e b380 8b3e af13 fd39
00000020: bc46 a63e 9405 313b 38dd 2d3d 501a 7f3e
00000030: 7988 e23d 98fc f13d a05d 96bd b05c 04bc
00000040: 9f57 903e 2d47 b0bd 899a 4e3e 69d6 1dbe
00000050: 2902 393e 3b54 5b3e 7cc2 823e 5b79 673e
00000060: 0d3b 903e 34fb 5a3e e05f 673e e6b6 fd3d
00000070: 53aa 90bb 814f 873e 8ab5 843e 671e 9c3e
00000080: f3eb 12bd af72 e0bd 69c4 643e 58a9 5d3e
00000090: 651a 2bbe 72cf 8e3e c517 863e e04d c13e
000000a0: 34b6 2cbe afbe 373e c1f4 9fbb 4357 973e
000000b0: 62b1 973e afdc 723d a728 8a3e 4c4a 9c3e
000000c0: 7e91 2dbe 1315 4d3e bce2 9a3e 3ecb 083e
000000d0: 733b 4bbd f242 273e fd23 903e 1c20 783b
000000e0: beb2 a73e 53d1 a73e e574 953e 97c9 2e3e
000000f0: 3d9e ae3e 4900 583e 09fa bc3e 55c9 debd
00000100: fe00 05be 1fce 3b3e e699 613d 4b39 ae3e
00000110: 6d27 9ebd 91d8 c3ba 72c2 633e 6b91 66be
00000120: bf11 713e 3f60 523d a449 3b3e f630 943e
00000130: 0225 153e 5173 ecbd 4ecb 183e d745 04be
00000140: 9569 f83d 21a8 eabd d4eb a2bc 6a20 863e
00000150: bb80 b7be b446 dc3b bd66 67be f138 a9be
00000160: bf6c 47bd 6be3 99be 12e9 2d3d 9ab1 aabe
00000170: b82e 90be 7b9a 29be 61ff 893d 30d6 613d

foundation_model.down_path.1.block.0.bias f4 [8]
0.15954773 0.06412302 -0.19597225 0.029141271 -0.07408293 0.14464465 -0.23745322 0.15343489
00000000: 7b60 233e ee52 833d f3ac 48be adb9 ee3c
00000010: cbb8 97bd ba1d 143e f026 73be 091e 1d3e

foundation_model.down_path.1.block.2.weight f4 [8, 8, 3]
0.07452872 -0.20397629 -0.18889433 -0.035345916 0.14477937 -0.17137773 -0.12499488 -0.12348255
-0.27417058 -0.19568224 0.11270593 -0.12289657 -0.18288183 0.13635972 -0.09568794 -0.067501724
-0.23201914 -0.06844316 -0.10543162 0.12034499 -0.272264 0.21378553 0.2861087 0.037450586
0.06654212 0.09170991 0.20164953 0.09668393 0.2055372 0.22682838 0.28169757 -0.010506672
-0.051481903 0.23963982 -0.0090092905 -0.0024007014 0.10580316 0.12228724 -0.08470386 0.03193146
0.26933408 0.026154056 0.18079394 -0.014174509 0.17949143 -0.13265468 -0.29619542 -0.25170243
0.045980345 0.018656386 0.04852873 -0.06320952 0.18196048 0.019231405 0.13226819 0.110110104
0.12218199 0.027569586 -0.03356371 0.16060056 -0.042529736 0.051172923 0.07868507 0.17514557
-0.027317157 0.061872043 0.12086136 0.2155827 0.21545489 -0.12918094 -0.110190615 -0.0009174646
-0.14102145 0.07673333 -0.07582107 0.08107492 0.19408831 -0.016088968 0.13133109 0.038341362
0.27698237 0.08504236 0.058584098 0.16989946 0.052094996 0.13783345 0.27815124 0.07827835
0.121353604 0.12097348 0.23707929 0.02252752 0.16417736 -0.13766958 -0.14537355 -0.039330743
-0.22210836 -0.009565469 -0.20616347 -0.16186059 -0.076650366 -0.0871026 -0.0011235941 0.03563296
-0.2775428 0.046288133 -0.09847199 0.059454452 -0.11557018 -0.1446722 0.06520402 -0.025535397
-0.082723245 -0.13412796 -0.024618575 -0.25250065 -0.19097246 -0.016869565 0.1999107 -0.06416391
0.1423799 -0.106543526 0.013697386 0.1553577 0.2484515 0.008943541 0.10161581 0.24174392
0.1121223 0.20672753 0.19816792 0.23141995 -0.06286854 -0.112078905 0.16956787 0.11248289
0.045333 -0.08358362 0.20885028 0.2475217 0.13119496 -0.1410336 -0.17388731 -0.23585726
0.17898269 0.14497182 0.038164075 0.0384137 -0.066512085 -0.0073493314 0.123039335 0.13911875
0.22085345 -0.0905467 0.029301692 0.2888537 0.061946552 0.057868324 0.011727727 0.09712557
0.1545783 -0.05273217 0.044889584 -0.105513625 0.008376492 -0.2047887 0.046520803 -0.12358614
0.1292282 -0.075346515 0.21017747 -0.0672828 -0.14335646 0.06306126 0.1955463 0.05850633
0.1853543 0.300821 0.16183276 -0.007473707 0.022462739 0.0092619555 0.14385827 0.10511693
-0.11554409 0.10083949 0.22875781 0.007500617 -0.0024315335 -0.05733352 -0.19506703 -0.2942675
00000000: 83a2 983d 29df 50be 846d 41be e1c6 10bd
00000010: 0b41 143e a57d 2fbe 51fd ffbd 6be4 fcbd
00000020: 1660 8cbe ed60 48be 5ed2 e63d 32b1 fbbd
00000030: 6045 3bbe e2a1 0b3e 0af8 c3bd 583e 8abd
00000040: 6d96 6dbe ed2b 8cbd 88ec d7bd 6f77 f63d
00000050: 3066 8bbe 98ea 5a3e d77c 923e c965 193d
00000060: 3c47 883d 68d2 bb3d 377d 4e3e 3902 c63d
00000070: 5878 523e b345 683e aa3a 903e 2d24 2cbc
00000080: b0de 52bd 2464 753e b49b 13bc 1655 1dbb
00000090: 54af d83d bc71 fa3d 3879 adbd 90ca 023d
000000a0: 28e6 893e 0841 d63c 0c22 393e 333c 68bc
000000b0: 9acc 373e a1d6 07be eda6 97be 24df 80be
000000c0: e355 3c3d 47d5 983c 10c6 463d fe73 81bd
000000d0: d953 3a3e 2e8b 9d3c 5071 073e 6881 e13d
000000e0: 8d3a fa3d 9dd9 e13c 1a7a 09bd 7974 243e
000000f0: a933 2ebd b39a 513d a325 a13d 5c59 333e
00000100: 3bc8 dfbc 8a6d 7d3d 2986 f73d b6c1 5c3e
00000110: 35a0 5c3e 0248 04be 9eab e1bd 0282 70ba
00000120: ed67 10be 5d26 9d3d 1448 9bbd 9c0a a63d
00000130: 16bf 463e 03cd 83bc a87b 063e d50b 1d3d
00000140: a2d0 8d3e b02a ae3d e1f5 6f3d 20fa 2d3e
00000150: 9061 553d 3624 0d3e d769 8e3e 6650 a03d
00000160: 3d88 f83d f2c0 f73d eac4 723e a28b b83c
00000170: 1c1e 283e 41f9 0cbe cedc 14be 4619 21bd
00000180: 6070 63be 7cb8 1cbc 841c 53be c8be 25be
00000190: defa 9cbd d962 b2bd 9045 93ba def3 113d
000001a0: 171a 8ebe a098 3d3d afab c9bd 8386 733d
000001b0: 0fb0 ecbd f324 14be af89 853d 9c2f d1bc
000001c0: ce6a a9bd d758 09be e5ac c9bc c447 81be
000001d0: 498e 43be 0b32 8abc 64b5 4c3e 5e68 83bd
000001e0: 09cc 113e 7e33 dabd 006b 603c 1716 1f3e
000001f0: 126a 7e3e ee87 123c f31b d03d b88b 773e
00000200: 60a0 e53d 62b0 533e 88ec 4a3e 5af9 6c3e
00000210: 39c1 80bd a089 e5bd 33a3 2d3e 6e5d e63d
00000220: 19af 393d e42d abbd d9dc 553e 5476 7d3e
00000230: f957 063e 1d6b 10be 840f 32be 9184 71be
00000240: 3d47 373e 7e73 143e ef51 1c3d af57 1d3d
00000250: 7d37 88bd a9d2 f0bb 0cfc fb3d 2575 0e3e
00000260: 6827 623e 8c70 b9bd 1a0a f03c a2e4 933e
00000270: abbb 7d3d 5607 6d3d a725 403c c5e9 c63d
00000280: c649 1e3e b0fd 57bd 24de 373d 8717 d8bd
00000290: 8e3d 093c 21b4 51be 998c 3e3d bb1a fdbd
000002a0: 6654 043e 464f 9abd c338 573e 91cb 89bd
000002b0: 09cc 12be 4326 813d 4a3d 483e 55a4 6f3d
000002c0: 85cd 3d3e 3605 9a3e 7db7 253e 00e6 f4bb
000002d0: c703 b83c 75bf 173c 954f 133e 8c47 d73d
000002e0: 61a2 ecbd ef84 ce3d 7d3f 6a3e bcc7 f53b
000002f0: 5d5a 1fbb 8ed6 6abd a7bf 47be 3baa 96be

foundation_model.down_path.1.block.2.bias f4 [8]
0.1261557 -0.1446049 0.009071035 0.094498746 0.14701004 0.045135684 -0.073689155 0.069747396
00000000: f62e 013e 4f13 14be ae9e 143c 8f88 c13d
00000010: cd89 163e 32e0 383d 57ea 96bd b9d7 8e3d

foundation_model.down_path.2.block.0.weight f4 [16, 8, 3]
0.07667619 -0.04674769 0.09360255 -0.07093621 -0.0018526318 -0.19883965 -0.1578703 -0.053918187
-0.008698957 -0.2639994 0.108069524 0.069898166 0.032614753 0.059663605 0.109011814 0.02609656
-0.17782222 -0.18601176 0.11117389 -0.12908384 -0.16715351 -0.09222221 -0.038828377 0.024317302
-0.028946942 0.030835781 -0.0771887 0.17506194 0.031166943 0.24357206 0.028059069 0.23078793
0.0025010037 0.2435295 0.04692117 0.049492706 -0.13899624 -0.0050515165 -0.18553115 -0.012170086
0.004349507 0.28225452 0.21448006 -0.00059144315 -0.012660595 0.115803055 -0.0112721175 0.21045902
0.06399516 0.009408004 0.18173824 0.04198614 -0.19464187 0.049358074 -0.11823322 -0.038301952
0.09191647 0.11580806 -0.2155919 -0.20841046 0.08381797 0.21020319 -0.08487869 0.0013684038
0.020687655 -0.21648858 -0.2690986 -0.22003199 0.106570736 -0.075471714 -0.19505896 -0.040995885
0.31524247 0.26615518 0.15348853 -0.1095673 -0.08924422 -0.16081007 -0.13430166 -0.09704473
0.052000154 -0.21598198 0.021983217 -0.12109082 0.24075082 -0.08468803 0.1543495 0.032521803
-0.020557202 -0.021409526 -0.14760256 -0.13286139 0.029161673 -0.17544737 0.02524102 -0.18329741
0.23659594 0.25470763 0.07284972 0.08555046 -0.24656731 -0.019143404 -0.19886014 0.0318921
-0.28114757 -0.11296295 0.054265965 0.10267089 0.029020036 0.17623553 0.22267348 -0.19353698
-0.12689538 0.014131904 0.0031038115 -0.00071607024 0.025854083 -0.04416102 -0.1780283 -0.18315178
0.2289383 0.14634243 0.04641011 -0.21226875 -0.23168726 -0.046715945 -0.18104953 -0.17661478
0.036024626 -0.2280408 -0.048099134 -0.0057821814 -0.00092635484 0.10356824 0.07782628 -0.15249598
0.03918743 -0.19710243 0.044881504 -0.18281117 -0.1231161 -0.21949017 -0.0576394 -0.21541283
0.1350842 0.16527337 0.114175916 -0.2064202 -0.14380406 -0.22532669 0.01931187 -0.23988938
0.09735819 0.12281885 -0.10773446 -0.21632652 0.036960945 0.040480215 -0.07128418 0.005562032
-0.26544753 0.081743725 0.04957084 -0.10903411 0.012677028 -0.006470057 0.059513338 0.020630663
0.07675196 -0.32779223 -0.2769723 -0.052555773 -0.0019186322 -0.032469913 0.24492423 -0.13486838
0.03808452 0.21302876 0.12734836 0.09193435 -0.20057566 0.07600022 -0.076974995 0.18082629
-0.105569564 0.24634285 -0.12284843 0.025223276 0.2589439 0.12093815 0.24680774 0.17492044
-0.04887726 -0.31259853 -0.011774334 0.24761045 0.25014126 -0.024255669 0.12669231 0.25273818
0.1437178 0.17060018 -0.14332715 0.2518848 0.013431034 -0.25510535 -0.21723919 -0.09280162
0.14205669 0.13192001 -0.04865064 0.07226009 0.19598319 0.20361611 0.16855015 0.07072639
-0.060705435 0.06823746 -0.26991165 -0.035402793 0.2369392 -0.033317022 0.18827605 -0.014822516
0.19900276 0.0739679 0.1938084 0.26027122 -0.14315131 0.045590516 -0.14340444 0.038977154
0.09090024 0.21592902 0.11164853 0.01900103 0.11046508 -0.00877599 0.11173231 0.057075825
0.017851867 -0.020198924 0.03558215 0.09007853 -0.28766206 -0.26017603 -0.22695714 -0.24284948
-0.16092044 -0.009029353 -0.24670777 -0.13402715 -0.02370842 0.04725424 0.26689634 -0.033383887
00000000: 6808 9d3d 817a 3fbd b2b2 bf3d 0147 91bd
00000010: 02d4 f2ba 9f9c 4bbe c0a8 21be 51d9 5cbd
00000020: 1286 0ebc ee2a 87be 8e53 dd3d c526 8f3d
00000030: 0c97 053d d361 743d 9641 df3d 74c8 d53c
00000040: 0717 36be de79 3ebe 23af e33d 8e2e 04be
00000050: 4a2a 2bbe ffde bcbd 810a 1fbd 1435 c73c
00000060: 2322 edbc 529b fc3c 1c15 9ebd 7043 333e
00000070: d151 ff3c f46a 793e 22dc e53c ac53 6c3e
00000080: e1e7 233b cc5f 793e 6a30 403d ddb8 4a3d
00000090: 0855 0ebe 3187 a5bb e1fb 3dbe 0a65 47bc
000000a0: 4f86 8e3b aa83 903e a9a0 5b3e 140b 1bba
000000b0: 626e 4fbc 272a ed3d b0ae 38bc 9282 573e
000000c0: e50f 833d 0724 1a3c 9719 3a3e a9f9 2b3d
000000d0: 3350 47be b12b 4a3d 4224 f2bd 82e2 1cbd
000000e0: b43e bc3d c72c ed3d 1fc4 5cbe 8d69 55be
000000f0: c1a8 ab3d 813f 573e e1d4 adbd 035c b33a
00000100: 2879 a93c 2faf 5dbe 4bc7 89be 1150 61be
00000110: c241 da3d ea90 9abd 89bd 47be 4deb 27bd
00000120: 7667 a13e 7e45 883e 192c 1d3e d264 e0bd
00000130: acc5 b6bd 65ab 24be 6086 09be 63bf c6bd
00000140: 1dfe 543d 612a 5dbe 2616 b43c 77fe f7bd
00000150: 6287 763e eb70 adbd cc0d 1e3e 9535 053d
00000160: 9467 a8bc 0863 afbc 2025 17be d10c 08be
00000170: 76e4 ee3c 7aa8 33be 41c6 ce3c 51b2 3bbe
00000180: 3546 723e 0a69 823e 3c32 953d 1435 af3d
00000190: 247c 7cbe a1d2 9cbc fea1 4bbe 4aa1 023d
000001a0: 93f2 8fbe 1e59 e7bd fd45 5e3d 1e45 d23d
000001b0: 6dbb ed3c 1677 343e 8404 643e 8f2e 46be
000001c0: ddf0 01be 8089 673c 5169 4b3b a9b6 3bba
000001d0: f1cb d33c 30e2 34bd 0d4d 36be 248c 3bbe
000001e0: cd6e 6a3e cada 153e 8718 3e3d fb5c 59be
000001f0: 6d3f 6dbe 3859 3fbd 0c65 39be 81da 34be
00000200: 8f8e 133d 8783 69be 9903 45bd 7478 bdbb
00000210: 9fd6 72ba 961b d43d 6263 9f3d e827 1cbe
00000220: 0083 203d 38d5 49be abd5 373d da32 3bbe
00000230: 4b24 fcbd 08c2 60be 4b17 6cbd 2e95 5cbe
00000240: 8353 0a3e 6c3d 293e 10d5 e93d d15f 53be
00000250: 5f41 13be 0abc 66be ed33 9e3c 90a5 75be
00000260: bb63 c73d 7388 fb3d e2a3 dcbd b384 5dbe
00000270: 5c64 173d 95ce 253d 71fd 91bd b541 b63b
00000280: bde8 87be 4169 a73d cb0a 4b3d 474d dfbd
00000290: 4fb3 4f3c c602 d4bb 42c4 733d a301 a93c
000002a0: 2230 9d3d 62d4 a7be 50cf 8dbe b944 57bd
000002b0: 9d7a fbba 2cff 04bd 6bcd 7a3e f01a 0abe
000002c0: 83fe 1b3d 3624 5a3e 9c67 023e 1448 bc3d
000002d0: b563 4dbe 01a6 9b3d 11a5 9dbd 872a 393e
000002e0: db34 d8bd 4d41 7c3e f597 fbbd 0ba1 ce3c
000002f0: 4b94 843e 6cae f73d 2bbb 7c3e 581e 333e
00000300: 8633 48bd ea0c a0be 23e9 40bc 988d 7d3e
00000310: 8412 803e d3b3 c6bc a1bb 013e e666 813e
00000320: c22a 133e d0b1 2e3e 5ac4 12be 0bf7 803e
00000330: d70d 5c3c 2b9d 82be f373 5ebe c70e bebd
00000340: 4f77 113e 0a16 073e e545 47bd 19fd 933d
00000350: d1af 483e be80 503e 6998 2c3e ffd8 903d
00000360: 43a6 78bd 15c0 8b3d dc31 8abe 8502 11bd
00000370: 31a0 723e 6e77 08bd 70cb 403e 23da 72bc
00000380: 61c7 4b3e 7b7c 973d b675 463e 4542 853e
00000390: 4296 12be 1fbd 3a3d 9dd8 12be 82a6 1f3d
000003a0: e829 ba3d 7f1c 5d3e fca7 e43d 0ca8 9b3c
000003b0: 843b e23d 2cc9 0fbc e9d3 e43d 57c8 693d
000003c0: 143e 923c 3778 a5bc 97be 113d 187b b83d
000003d0: 7148 93be cb35 85be 7467 68be 89ad 78be
000003e0: 54c8 24be daef 13bc f6a0 7cbe 6a3e 09be
000003f0: 2938 c2bc a98d 413d a3a6 883e 8bbd 08bd

foundation_model.down_path.2.block.0.bias f4 [16]
0.17842782 -0.18823375 0.095995925 0.17996012 0.10646175 0.09543156 0.05550159 -0.04904995
0.0062164096 -0.0204851 0.087544195 -0.06286661 0.02120855 -0.14814818 0.1267339 0.20312896
00000000: c8b5 363e 59c0 40be 8399 c43d 7747 383e
00000010: 9e08 da3d 9f71 c33d a355 633d 9ae8 48bd
00000020: 06b3 cb3b 5ed0 a7bc 5f4a b33d 36c0 80bd
00000030: 8ebd ad3c 28b4 17be 88c6 013e 0a01 503e

foundation_model.down_path.2.block.2.weight f4 [16, 16, 3]
0.09555533 0.114553235 0.11131064 -0.105110675 -0.12159864 -0.19355732 0.038014654 0.014292086
0.200005 0.061254036 0.080469064 0.052610897 0.20600067 0.21604405 0.23979789 0.15079594
0.0154072745 0.15491562 0.1902354 0.14977616 0.19696765 -0.22233014 -0.05727393 -0.16408075
-0.06346668 -0.036398437 -0.244513 -0.1758619 -0.077618465 -0.27370027 0.053135768 0.10167011
0.17264877 0.17150657 0.13269596 0.12125497 -0.0664681 -0.1220516 -0.23538543 -0.21603514
-0.15505466 -0.15813172 0.19157815 0.19435777 0.027700031 0.0942619 -0.049322367 0.03424366
0.1730362 0.058930352 -0.037572775 0.0033672848 -0.13568261 0.0019542957 0.20445913 0.24360761
0.17318128 0.07600541 0.024314394 -0.043246347 0.0037893448 0.09754771 0.25169733 0.108318724
0.264507 0.07021359 0.054714136 0.14854953 0.14291415 -0.07237754 -0.2334102 -0.16310264
-0.07073172 -0.18542263 -0.22571294 -0.0428689 -0.19142742 -0.2317976 0.13191442 0.044178918
0.19499204 0.068796046 0.21283686 0.04558607 -0.09732558 -0.14628136 -0.22268127 -0.15479746
-0.024497436 -0.054171488 0.0024972383 0.14677326 0.069583856 0.2064478 0.20809826 0.18646045
0.17839737 -0.03769858 -0.06296061 -0.14920753 -0.0963172 -0.2217251 0.15415515 0.08566389
0.25507253 0.19195902 0.1987562 0.060273003 0.22452475 0.02797614 0.050297868 0.14953792
0.083447084 0.06586832 0.12071623 0.18112239 0.092518024 -0.17338756 -0.021104326 -0.021507593
-0.13636278 -0.14229739 -0.22839805 -0.21781196 -0.1881634 -0.07406591 0.24864157 0.15748973
0.2355299 0.19411111 0.044842113 0.03754882 -0.22518165 -0.16350618 -0.15329562 -0.044134736
-0.03635776 -0.030066509 0.10592514 0.05577898 0.1522819 -0.013199448 0.19158849 0.09252042
-0.16036962 -0.0041959723 -0.21951762 0.004315151 -0.08606694 -0.074912116 -0.13110468 -0.061337955
-0.0012652249 0.0035680346 -0.23525748 -0.019112889 -0.11731941 -0.052549116 -0.15933216 0.009434151
-0.22913341 -0.1692474 -0.17451112 -0.23252073 0.016411725 0.036498543 0.062948294 0.021209467
0.07600211 0.06688943 0.063228704 -0.015927585 0.12046909 0.12646332 0.0011604894 0.014961572
-0.19323106 -0.042232208 -0.18907608 0.05292676 0.18483394 -0.030892812 0.06666134 0.0037030026
0.15632404 0.16382737 -0.22107929 -0.20010674 0.028586762 0.04421274 -0.21684161 0.01662425
0.05004584 0.2145475 -0.018094786 -0.20104176 -0.15791471 -0.15913011 -0.004269614 0.07478864
-0.0054778215 -0.01984769 0.2153307 -0.02723959 0.11472317 0.0922853 0.102071136 0.062215693
0.09596596 0.03655247 0.015552567 0.022444207 0.07286095 -0.19119534 -0.17882608 -0.17744596
-0.28636855 -0.09414495 -0.085249394 -0.2682197 -0.061818004 -0.10055059 0.13417996 0.026608739
0.21803494 0.11158429 0.07840251 0.24050818 -0.014907861 -0.26469192 -0.11765149 -0.0711662
-0.058657095 -0.20831777 0.1373428 0.009349469 0.19039553 0.10614004 -0.029386625 0.1472417
-0.11341546 -0.095467634 -0.14574763 0.07565794 0.12031771 -0.08585625 -0.032945607 -0.19834593
-0.06923826 -0.1260012 -0.1290748 -0.19433682 -0.1781868 -0.22548129 -0.09673356 -0.31898376
00000000: 83b2 c33d e39a ea3d d5f6 e33d 4444 d7bd
00000010: b508 f9bd e433 46be 41b5 1b3d 5a29 6a3c
00000020: 1cce 4c3e 83e5 7a3d f7cc a43d 867e 573d
00000030: d7f1 523e a73a 5d3e 948d 753e 406a 1a3e
00000040: cb6e 7c3c 33a2 1e3e 12cd 423e ec5e 193e
00000050: e3b1 493e 83aa 63be 1298 6abd c904 28be
00000060: d2fa 81bd 8716 15bd 9e61 7abe 2415 34be
00000070: 6ef6 9ebd 7122 8cbe e4a4 593d 6b38 d03d
00000080: d7ca 303e 6b9f 2f3e 73e1 073e 8754 f83d
00000090: 6d20 88bd 30f6 f9bd e108 71be 5138 5dbe
000000a0: a6c6 1ebe 48ed 21be 102d 443e b905 473e
000000b0: 2deb e23c 620c c13d 4006 4abd 1443 0c3d
000000c0: 6730 313e f460 713d e9e5 19bd aaad 5c3b
000000d0: 62f0 0abe a413 003b bc5d 513e 4674 793e
000000e0: 6f56 313e b9a8 9b3d fb2e c73c 1523 31bd
000000f0: a856 783b 18c7 c73d 79de 803e 35d6 dd3d
00000100: 766d 873e 25cc 8f3d ee1b 603d 5e1d 183e
00000110: 1658 123e ad3a 94bd 1503 6fbe 6104 27be
00000120: cbdb 90bd 6edf 3dbe 4b21 67be 4d97 2fbd
00000130: 8d05 44be 5a5c 6dbe 9314 073e f4f4 343d
00000140: feab 473e f1e4 8c3d e8f1 593e 75b8 3a3d
00000150: a252 c7bd c8ca 15be 8f06 64be 3a83 1ebe
00000160: d9ae c8bc ece2 5dbd b5a8 233b bb4b 163e
00000170: fb81 8e3d 0d67 533e b617 553e 7def 3e3e
00000180: cdad 363e d469 1abd 7ef1 80bd dcc9 18be
00000190: f441 c5bd e80b 63be d9da 1d3e 8d70 af3d
000001a0: de98 823e e890 443e bf86 4b3e d3e0 763d
000001b0: d1e9 653e 382e e53c 2305 4e3d 7820 193e
000001c0: 4ee6 aa3d f8e5 863d 123a f73d 2678 393e
000001d0: 177a bd3d 828c 31be fbe2 acbc b130 b0bc
000001e0: afa2 0bbe 68b6 11be 2ee1 69be 190a 5fbe
000001f0: e8ad 40be deaf 97bd e59b 7e3e fd44 213e
00000200: c02e 713e 10c5 463e 5dac 373d cbcc 193d
00000210: 0596 66be 2a6e 27be 87f9 1cbe a0c6 34bd
00000220: e0eb 14bd 0a4e f6bc 48ef d83d 8078 643d
00000230: c9ef 1b3e 7f42 58bc c62f 443e 597b bd3d
00000240: ef37 24be 5e7e 89bb 3ac9 60be 1c66 8d3b
00000250: dd43 b0bd 866b 99bd 4e40 06be 823d 7bbd
00000260: e7d5 a5ba b0d5 693b 56e7 70be a292 9cbc
00000270: 2945 f0bd be3d 57bd f827 23be b391 1a3c
00000280: f3a1 6abe 314f 2dbe 0bb3 32be ea19 6ebe
00000290: e271 863c 7f7f 153d 09eb 803d 7abf ad3c
000002a0: ffa6 9b3d 53fd 883d 0d7e 813d 917a 82bc
000002b0: 80b8 f63d 9a7f 013e 901b 983a 6221 753c
000002c0: 5dde 45be aefb 2cbd 299d 41be bbc9 583d
000002d0: 1c45 3d3e ec12 fdbc be85 883d 13ae 723b
000002e0: 6913 203e 5dc2 273e 9c62 62be c8e8 4cbe
000002f0: c92e ea3c 6b18 353d ba0b 5ebe 942f 883c
00000300: defc 4c3d 57b2 5b3e 843b 94bc e4dd 4dbe
00000310: 65b4 21be 01f3 22be 1ee8 8bbb c92a 993d
00000320: 4c7f b3bb 9f97 a2bc a77f 5c3e 9025 dfbc
00000330: fbf3 ea3d 1300 bd3d ac0a d13d e2d5 7e3d
00000340: cd89 c43d 0bb8 153d 32d0 7e3c eadc b73c
00000350: 1f38 953d b6c8 43be 2f1e 37be 65b4 35be
00000360: e69e 92be 11cf c0bd 3c97 aebd 1854 89be
00000370: e034 7dbd 78ed cdbd 7966 093e 92fa d93c
00000380: 8d44 5f3e 4e86 e43d 7f91 a03d c747 763e
00000390: 1a40 74bc b385 87be 44f3 f0bd 96bf 91bd
000003a0: 6c42 70bd 4151 55be 97a3 0c3e 842e 193c
000003b0: 0cf7 423e f35f d93d 38bc f0bc 87c6 163e
000003c0: 5d46 e8bd 8984 c3bd de3e 15be 8df2 9a3d
000003d0: 2269 f63d 67d5 afbd f9f1 06bd 321b 4bbe
000003e0: cacc 8dbd 7506 01be 2f2c 04be 3b00 47be
000003f0: 9a76 36be 91e4 66be 3f1c c6bd d751 a3be

foundation_model.down_path.2.block.2.bias f4 [16]
0.1332668 0.0954471 0.08347584 0.0031214226 0.101056166 -0.030287981 -0.0006594755 0.03630508
0.14770642 0.12863845 -0.06988407 0.13333721 0.014911344 0.01467871 0.01152006 0.105249345
00000000: 1877 083e c579 c33d 62f5 aa3d c890 4c3b
00000010: 89f6 ce3d 801e f8bc a7e0 2cba a3b4 143d
00000020: 5a40 173e ccb9 033e 611f 8fbd 8d89 083e
00000030: b64e 743c f97e 703c a2be 3c3c f88c d73d

foundation_model.up_path.0.up.weight f4 [16, 8, 2]
0.2137413 0.070097476 -0.048381835 0.18494013 -0.016776025 0.11374599 -0.19871083 0.12857941
0.04770288 -0.0071955323 0.08097011 -0.15499568 -0.17975587 -0.18253249 -0.18629396 0.14219451
-0.12625873 0.042528927 -0.24504697 0.21570301 0.011002451 0.03677517 -0.24290279 0.03806293
-0.10080522 0.24632329 -0.15763369 -0.05527109 -0.03196302 -0.15422869 0.22899407 0.22965828
0.16175479 -0.05571741 0.071480274 -0.12558931 -0.12786326 -0.041712224 0.09705028 -0.08385885
0.054599464 0.07444039 0.20536816 0.21018147 -0.04025823 -0.24544775 0.05322984 0.19266814
-0.21949899 -0.1312702 0.21262136 0.1310994 0.00017911196 0.21506959 -0.103658736 0.16390872
0.10177964 -0.016148359 -0.0985657 0.21168417 0.21005067 0.23314562 0.2141015 -0.20441017
-0.1940135 0.1382697 -0.046592414 0.15444785 0.1577476 0.18213561 -0.23534107 -0.07708895
0.21501687 0.22729462 0.0123490095 0.0034283996 -0.20182803 0.20237789 0.06708181 -0.19845936
0.21045184 -0.21818 0.08604601 -0.24439064 0.12519771 0.09488994 0.21594176 -0.15444735
0.14068577 -0.21550837 -0.056146294 0.2231693 0.055083573 -0.14605367 -0.11483085 0.24272513
-0.24354151 -0.21332607 0.037203044 -0.028972715 0.12066981 -0.052252054 -0.17860809 0.10164842
0.12554252 0.018435538 -0.13730675 -0.18726224 -0.13844895 0.027665555 -0.023605615 -0.17151296
-0.045272052 -0.09935582 -0.03433621 0.095461756 0.026907802 0.23846287 0.24740571 -0.1450268
-0.07933912 0.118020296 -0.10051179 -0.23853728 0.008340865 0.22477046 0.041306823 0.20509422
0.22687769 -0.22051895 0.06687707 0.14854196 0.16397455 0.03425449 0.028164 0.18367699
0.15908843 0.16797504 -0.04412502 0.03477356 0.06437588 -0.19112945 0.22063604 -0.16567388
-0.073482335 0.07134044 -0.082805276 -0.104218245 0.18977964 0.031602412 0.05549118 -0.07413763
0.2270087 0.19129595 -0.19972381 -0.22804523 -0.21409664 0.20145437 0.15753749 0.14047724
-0.16683793 0.06918913 0.20927465 0.20464519 0.2329765 0.10601121 0.046368986 -0.21162793
0.10421565 0.13969874 0.15895984 -0.05027789 -0.18980774 -0.04927504 -0.014520049 0.047772348
-0.17768192 0.021630079 -0.23555768 -0.16875279 -0.051038623 -0.1258857 -0.21497598 -0.09619728
0.064896405 0.08928782 0.0033330023 0.018031389 -0.22583395 -0.016322106 -0.019405663 0.2257773
-0.040786058 -0.10430932 0.07239702 -0.013678998 0.15004197 0.23144495 0.12992999 -0.1474368
-0.08977097 0.12683639 -0.04186532 -0.0956507 0.1636531 -0.2255246 -0.2445203 0.095871866
0.23601371 0.043395877 -0.16881186 -0.18032444 -0.0020734072 0.15917543 0.17180231 -0.09896478
-0.08315629 0.11591399 0.23961526 0.105651855 -0.15572238 0.0215832 -0.019529462 0.012223184
0.048754275 0.21810317 0.18471882 -0.21790272 0.22047755 0.0861367 -0.24787322 0.22185397
0.103910625 -0.23306382 -0.09533563 0.104999274 0.122110575 -0.21229395 -0.11212313 0.07060507
0.13751918 -0.24197382 0.21552292 -0.021743208 -0.019916743 0.11320686 0.19274712 0.2091119
0.1285502 -0.22109279 -0.021998674 -0.09780222 0.1832242 0.24828082 -0.15402156 0.015286416
00000000: 00df 5a3e 448f 8f3d 082c 46bd f260 3d3e
00000010: e06d 89bc a8f3 e83d da7a 4bbe 52aa 033e
00000020: 1864 433d 80c8 ebbb a8d3 a53d 30b7 1ebe
00000030: ec11 38be cce9 3abe d8c3 3ebe 709b 113e
00000040: f849 01be d032 2e3d 98ed 7abe 40e1 5c3e
00000050: a043 343c 90a1 163d 82bb 78be e0e7 1b3d
00000060: f872 cebd 2c3c 7c3e ba6a 21be f063 62bd
00000070: a8eb 02bd 20ee 1dbe 6c7d 6a3e 8a2b 6b3e
00000080: 0ca3 253e f037 64bd 4064 923d 7c9a 00be
00000090: 96ee 02be 70da 2abd 4cc2 c63d 30be abbd
000000a0: b0a3 5f3d 3474 983d 084c 523e d039 573e
000000b0: d0e5 24bd a856 7bbe 8807 5a3d cc4a 453e
000000c0: 58c4 60be b26b 06be 6ab9 593e ec3e 063e
000000d0: 00d0 3b39 343b 5c3e 084b d4bd b0d7 273e
000000e0: d871 d03d 9049 84bc d0dc c9bd bcc3 583e
000000f0: 8617 573e babd 6e3e 6c3d 5b3e e650 51be
00000100: 7aab 46be 9296 0d3e b0d7 3ebd 9427 1e3e
00000110: 9688 213e c281 3a3e 40fd 70be d0e0 9dbd
00000120: 622d 5c3e ecbf 683e 8053 4a3c 00af 603b
00000130: 02ac 4ebe 263c 4f3e 3062 893d ee38 4bbe
00000140: b080 573e 946a 5fbe e438 b03d 8a41 7abe
00000150: d433 003e a855 c23d d61f 5d3e 7227 1ebe
00000160: ee0f 103e 3aae 5cbe a8f9 65bd 7e86 643e
00000170: 509f 613d 188f 15be 702c ebbd f08c 783e
00000180: f262 79be 2672 5abe 3862 183d 3058 edbc
00000190: bc21 f73d 4006 56bd 0ae5 36be 0c2d d03d
000001a0: 388e 003e 2006 973c 249a 0cbe acc1 3fbe
000001b0: 90c5 0dbe e0a2 e23c 9060 c1bc 18a1 2fbe
000001c0: 306f 39bd 107b cbbd 20a4 0cbd 7481 c33d
000001d0: c06d dc3c 9c2f 743e ec57 7d3e e881 14be
000001e0: 8c7c a2bd a0b4 f13d 20d9 cdbd 1e43 74be
000001f0: 20a8 083c 3a2a 663e 5831 293d 3804 523e
00000200: a052 683e b8cf 61be d8f6 883d 621b 183e
00000210: f2e8 273e 704e 0c3d 30b8 e63c d215 3c3e
00000220: 14e8 223e a601 2c3e 70bc 34bd b86e 0e3d
00000230: 80d7 833d 70b7 43be 6aee 613e 6aa6 29be
00000240: e87d 96bd f01a 923d d095 a9bd 6070 d5bd
00000250: 9855 423e 8871 013d b84a 633d 78d5 97bd
00000260: f874 683e 16e3 433e 6684 4cbe b084 69be
00000270: 263c 5bbe 0e4a 4e3e 8251 213e 44d9 0f3e
00000280: 90d7 2abe 08b3 8d3d 184c 563e 828e 513e
00000290: 6491 6e3e 681c d93d 68ed 3d3d feb4 58be
000002a0: 046f d53d 300d 0f3e 5ec6 223e 30f0 4dbd
000002b0: f65c 42be a0d4 49bd 80e5 6dbc f0ac 433d
000002c0: 40f2 35be 9031 b13c 0836 71be 88cd 2cbe
000002d0: e00d 51bd 2ee8 00be aa22 5cbe 1403 c5bd
000002e0: 68e8 843d 88dc b63d 806e 5a3b 90b6 933c
000002f0: 0441 67be f0b5 85bc a0f8 9ebc 2a32 673e
00000300: 480f 27bd 20a0 d5bd e444 943d e01d 60bc
00000310: 9aa4 193e e8ff 6c3e 5e0c 053e acf9 16be
00000320: d8d9 b7bd 66e1 013e f87a 2bbd 84e4 c3bd
00000330: ae94 273e ecef 66be 8863 7abe 7858 c43d
00000340: 94ad 713e e0bf 313d 04dd 2cbe f8a6 38be
00000350: 00e2 07bb e2fe 223e f2ec 2f3e 0cae cabd
00000360: d84d aabd 5064 ed3d b45d 753e 0060 d83d
00000370: b075 1fbe 40cf b03c 40fc 9fbc c043 483c
00000380: 90b2 473d 7056 5f3e ee26 3d3e e421 5fbe
00000390: dec4 613e 7068 b03d 7ad2 7dbe b02d 633e
000003a0: 18cf d43d 48a8 6ebe 543f c3bd dc09 d73d
000003b0: 1c15 fa3d 9663 59be d0a0 e5bd 6499 903d
000003c0: d4d1 0c3e fcc7 77be 0ab2 5c3e d01e b2bc
000003d0: 7028 a3bc 00d9 e73d 805f 453e 6e21 563e
000003e0: aaa2 033e 2666 62be 9036 b4bc 884c c8bd
000003f0: 209f 3b3e 543d 7e3e d4b7 1dbe e073 7a3c

foundation_model.up_path.0.up.bias f4 [8]
-0.08436957 -0.14947164 0.11291516 -0.053993195 0.2292774 -0.20362231 0.08141899 0.14312556
00000000: f4c9 acbd 180f 19be 1040 e73d f827 5dbd
00000010: b2c7 6a3e 5e82 50be 00bf a63d 828f 123e

foundation_model.up_path.0.conv_block.block.0.weight f4 [8, 16, 3]
0.06818563 0.12524801 0.0066828197 -0.015366914 0.020680483 0.070633024 0.060340807 -0.02420922
0.039080296 -0.01159395 0.080960006 0.01896272 -0.111977234 0.029206881 -0.09672216 -0.05765267
0.09360005 0.106165715 0.13274883 -0.10245845 -0.13353032 -0.019877668 0.031126855 0.069585264
-0.020148033 0.11201714 0.10809534 0.074823156 -0.14418177 -0.12418375 -0.050834317 -0.08777727
0.08565471 0.042199537 -0.08539646 0.13125333 0.14425941 -0.14291282 0.027868362 0.04923385
0.113459826 -0.14414045 0.059758596 -0.028572757 0.062406607 0.0005993842 -0.11896296 0.054688204
-0.007559433 -0.108240046 0.03155194 -0.024896407 -0.020347144 0.09364611 -0.061239325 0.010140941
-0.02985422 0.0064522717 0.055920694 0.035284467 -0.007913988 0.053519238 -0.099851675 0.04706404
0.0132773705 -0.070770144 0.017501658 -0.07802914 -0.09392406 -0.07390967 0.06769736 0.101663955
-0.0021121174 -0.041066945 0.028938616 -0.1366128 -0.012009278 -0.0058853556 -0.05884318 -0.124439865
0.14407597 -0.1200727 0.004544084 0.08236674 -0.11682749 0.08543365 -0.10208608 -0.10231556
0.08045522 -0.11140975 -0.09202944 -0.11322775 0.12452423 0.07619392 0.013890383 -0.014009278
0.106840305 0.09842618 0.050324406 -0.08658205 0.070797466 -0.086255796 -0.08198884 -0.08451567
-0.1163455 0.11426321 -0.0035153492 0.07534598 -0.11683596 -0.01552449 0.12972677 -0.00378179
-0.00093998446 -0.015247019 -0.093809694 0.06980523 -0.10019228 0.058223546 -0.03555218 0.14137566
0.10733069 -0.12094527 -0.0010023748 0.13547534 0.014201371 0.07940099 0.07406272 -0.113059536
-0.031860225 0.14299697 -0.020423094 0.12203607 0.04276781 -0.07480661 0.08771568 -0.004255361
0.005745485 -0.06421054 0.10757939 0.05866728 -0.063027374 -0.099927366 0.05600549 -0.011768595
-0.07698876 -0.11958313 0.07820013 0.07942723 0.02202623 0.07307282 0.030454395 -0.123993106
0.11933121 0.08078784 -0.09573261 0.13236098 0.041991133 0.12361061 0.037146024 0.0131912185
0.08842257 -0.057561874 -0.020100577 -0.0923801 0.045898754 -0.076239504 0.07299379 -0.05994057
0.035050992 -0.13605818 0.04621258 -0.11965999 0.05380424 -0.10258222 -0.0054150536 -0.10448245
0.103183076 0.054747205 0.062260095 -0.13143082 0.13055675 0.010469737 -0.0136019 0.0864195
0.05326054 -0.1439231 -0.076007694 -0.07827767 0.02306668 -0.11838226 -0.08713393 0.06448434
0.08957721 -0.0908461 0.11899866 0.09567514 0.06662506 -0.11522522 0.03173319 0.04185916
0.032338753 0.07418381 0.14333463 -0.13778141 0.071771435 -0.0012534675 0.06273826 0.07090055
-0.056987267 0.0587322 0.02911247 0.061818387 -0.1160574 0.05031534 0.020110866 0.021803888
0.059338037 0.058391668 -0.044542823 -0.12357673 -0.10781919 0.07127723 -0.05212693 -0.012505957
-0.078682736 -0.022925986 0.10546314 0.005869268 0.10432126 0.014637552 0.11908822 0.12308958
0.120975606 0.06876001 -0.030611472 -0.09899351 -0.008472077 0.076914854 -0.048750333 -0.12604755
0.0420925 0.12409195 0.0054963194 -0.03316576 0.115699284 0.14119075 -0.035568956 0.09085514
-0.03447348 -0.08328242 0.049532536 -0.08998215 0.041585546 0.0012717579 0.05241603 0.009775941
00000000: e8a4 8b3d 0441 003e 8efb da3b 82c5 7bbc
00000010: 1e6a a93c 0ca8 903d ec27 773d 6a52 c6bc
00000020: a912 203d 8df4 3dbc 5cce a53d b557 9b3c
00000030: 5254 e5bd 4543 ef3c 4516 c6bd 3525 6cbd
00000040: 62b1 bf3d 696d d93d 4fef 073e bcd5 d1bd
00000050: 2cbc 08be 7ed6 a2bc bffd fe3c b882 8e3d
00000060: 7d0d a5bc 3e69 e53d 1761 dd3d e23c 993d
00000070: 63a4 13be 0d54 febd a537 50bd 92c4 b3bd
00000080: bd6b af3d 6cd9 2c3d 57e4 aebd 4667 063e
00000090: bdb8 133e bd57 12be 314c e43c 6fa9 493d
000000a0: a05d e83d 8e99 13be 6ec5 743d 6a11 eabc
000000b0: 129e 7f3d fe1f 1d3a daa2 f3bd bd00 603d
000000c0: 1fb5 f7bb f5ac ddbd 9b3c 013d 8df3 cbbc
000000d0: 0eaf a6bc 88c9 bf3d 16d6 7abd 3026 263c
000000e0: d690 f4bc 946d d33b 190d 653d 7286 103d
000000f0: aca9 01bc fd36 5b3d 097f ccbd 39c6 403d
00000100: 5489 593c f0ef 90bd a35f 8f3c becd 9fbd
00000110: 425b c0bd f45d 97bd eaa4 8a3d 3135 d03d
00000120: 736b 0abb d035 28bd ad10 ed3c 3ae4 0bbe
00000130: 90c2 44bc f1d9 c0bb 8c05 71bd 54da febd
00000140: a788 133e ade8 f5bd 8ae6 943b e5af a83d
00000150: 4043 efbd d6f7 ae3d 8212 d1bd d28a d1bd
00000160: b5c5 a43d cc2a e4bd ee79 bcbd f3e3 e7bd
00000170: 8f06 ff3d 8f0b 9c3d 7d94 633c 2c87 65bc
00000180: 17cf da3d aa93 c93d f720 4e3d ee51 b1bd
00000190: 43fe 903d e1a6 b0bd c4e9 a7bd 8d16 adbd
000001a0: 8d46 eebd d402 ea3d c661 66bb fe4e 9a3d
000001b0: b147 efbd 6e5a 7ebc 18d7 043e e8d7 77bb
000001c0: 4a69 76ba a2ce 79bc 4c1f c0bd 0bf6 8e3d
000001d0: 9c31 cdbd d07b 6e3d 2a9f 11bd c8c4 103e
000001e0: 31d0 db3d 27b2 f7bd 1e62 83ba 0cba 0a3e
000001f0: deac 683c fc9c a23d 32ae 973d c28b e7bd
00000200: de7f 02bd cc6d 123e 554e a7bc 0cee f93d
00000210: 4d2d 2f3d 3534 99bd 47a4 b33d 8e70 8bbb
00000220: 9f44 bc3b d180 83bd 9552 dc3d 1a4d 703d
00000230: 7f14 81bd b8a6 ccbd 0366 653d 11d1 40bc
00000240: 48ac 9dbd 00e8 f4bd 6427 a03d beaa a23d
00000250: 5a70 b43c 34a7 953d 7f7b f93c 19f0 fdbd
00000260: ec63 f43d 1874 a53d 750f c4bd a389 073e
00000270: e5fe 2b3d 8f27 fd3d 6e26 183d fb1f 583c
00000280: e416 b53d 00c6 6bbd f7a9 a4bc c731 bdbd
00000290: 5500 3c3d 7523 9cbd c57d 953d 3e84 75bd
000002a0: a191 0f3d d652 0bbe 6749 3d3d 4c10 f5bd
000002b0: d661 5c3d a116 d2bd c370 b1bb e5fa d5bd
000002c0: a651 d33d 9b3e 603d 7104 7f3d cd95 06be
000002d0: abb0 053e 4389 2b3c 81da 5ebc b5fc b03d
000002e0: b927 5a3d 9460 13be eca9 9bbd 0b50 a0bd
000002f0: 56f6 bc3c 6672 f2bd 4673 b2bd 5e10 843d
00000300: 4274 b73d 850d babd 92b5 f33d 54f1 c33d
00000310: b872 883d 33fb ebbd a9fa 013d 8374 2b3d
00000320: a475 043d aeed 973d 50c6 123e 9216 0dbe
00000330: e7fc 923d 644b a4ba eb7c 803d 4f34 913d
00000340: 7b6b 69bd 2d91 703d 467d ee3c 4735 7d3d
00000350: 81af edbd 7517 4e3d 8bbf a43c 119e b23c
00000360: 710c 733d 1a2c 6f3d 8972 36bd cc15 fdbd
00000370: 4fd0 dcbd ccf9 913d 0c83 55bd c9e5 4cbc
00000380: 6a24 a1bd 47cf bbbc 0ffd d73d fd52 c03b
00000390: 62a6 d53d 58d2 6f3c 86e4 f33d 6416 fc3d
000003a0: 0fc2 f73d 0cd2 8c3d e9c4 fabc 1cbd cabd
000003b0: 77ce 0abc 8985 9d3d 6eae 47bd 9c12 01be
000003c0: 2f69 2c3d ec23 fe3d 781a b43b d2d8 07bd
000003d0: bff3 ec3d 4f94 103e c1b0 11bd 4212 ba3d
000003e0: 1034 0dbd f98f aabd a1e2 4a3d 9048 b8bd
000003f0: 9b55 2a3d 1db1 a63a 31b2 563d 452b 203c

foundation_model.up_path.0.conv_block.block.0.bias f4 [8]
-0.09355008 0.05353391 0.094806544 0.12392496 -0.010244454 0.09175074 0.10500141 -0.08124864
00000000: 2f97 bfbd 6046 5b3d ef29 c23d 5fcc fd3d
00000010: 5bd8 27bc d0e7 bb3d fb0a d73d b065 a6bd

foundation_model.up_path.0.conv_block.block.2.weight f4 [8, 8, 3]
0.13316797 -0.14534822 0.11735967 0.16016048 -0.102114685 -0.13911985 0.07533098 0.15024488
-0.06295124 -0.03943912 0.036883496 0.16030245 0.011260933 -0.14030047 -0.15732189 -0.14520614
-0.20254737 0.14245278 -0.08618914 -0.13477838 -0.10081267 0.10120488 -0.08995519 0.101485156
0.17391704 0.13248573 0.1849927 0.06600458 -0.09104168 0.01581047 0.19995242 0.032412093
0.15860932 0.04476519 0.15108725 0.028173005 -0.012614095 0.14550103 0.11423182 -0.1266857
0.18907729 0.18464416 0.07853784 0.1107548 -0.20056397 -0.061235826 0.16135721 -0.18609484
-0.09774668 0.079098314 0.18499748 0.029819895 0.090887524 -0.14234114 -0.0033800928 -0.055271808
0.1582235 0.018775675 -0.092526704 0.19545561 -0.0396937 0.12769674 -0.12768686 0.079725385
0.013311711 0.19523703 0.16936536 -0.14960581 -0.18532027 0.06527959 -0.18914352 0.049177848
0.06851385 -0.077234365 -0.101776935 0.13310353 -0.14069444 -0.039626464 0.04490484 0.15451147
-0.18702568 0.04805982 0.03301773 -0.039848533 -0.07517079 -0.084467255 -0.17732084 -0.12908739
-0.20140927 0.10604508 0.06949819 -0.16892397 0.19247681 -0.13626254 0.08848021 -0.004883538
-0.13935593 0.18569426 0.08823318 -0.014962934 -0.09731096 0.07586794 -0.1063081 -0.10216403
0.05698311 -0.19615829 0.039492242 -0.07581745 -0.037406713 0.09768 0.20253019 -0.18180552
-0.002612736 -0.032633334 -0.04538866 -0.020341318 -0.02779895 0.08421207 -0.00435864 -0.14936021
0.08506401 -0.07121302 -0.1572894 -0.09422808 0.07525143 0.20130178 -0.12753952 0.06280927
-0.13596043 0.018234232 0.040215652 0.1651196 0.103333406 -0.12048044 -0.08979459 0.10746511
-0.13695969 0.20112237 -0.00926291 -0.06518483 0.06422826 0.026653377 -0.17170133 0.18503708
-0.11173824 -0.114313334 0.10427584 0.074409276 -0.1582087 -0.007257562 -0.06270488 -0.18871558
-0.084706865 0.068657495 0.014309993 0.059660815 -0.17301323 -0.16350542 0.09809148 -0.009668184
-0.057536867 -0.0637876 0.15217657 -0.05793384 0.026149455 -0.14435929 0.109271556 -0.08548028
-0.027384892 -0.06455355 0.034509473 0.074966826 -0.016332569 -0.17448778 -0.18170887 0.05483166
0.12463431 0.1456768 0.07571669 -0.07998563 0.13415937 0.034253363 0.07377453 -0.10780848
-0.049889117 -0.18773924 0.036299564 -0.06881323 -0.005580595 -0.19853427 0.080714986 0.051746175
00000000: 2f5d 083e 2ad6 14be 445a f03d 1c01 243e
00000010: 8121 d1bd 6f75 0ebe 2147 9a3d cbd9 193e
00000020: 94ec 80bd ea8a 21bd 2613 173d 5326 243e
00000030: c77f 383c edaa 0fbe fd18 21be ebb0 14be
00000040: 9468 4fbe 24df 113e ef83 b0bd 5803 0abe
00000050: e076 cebd 8144 cf3d 6d3a b8bd 73d7 cf3d
00000060: 4f17 323e 57aa 073e ba6e 3d3e 692d 873d
00000070: 0f74 babd f584 813c 54c0 4c3e 8bc2 043d
00000080: 7b6a 223e b45b 373d 9eb6 1a3e 13cb e63c
00000090: 59ab 4ebc 39fe 143e 5ff2 e93d e5b9 01be
000000a0: 7a9d 413e 5c13 3d3e 72d8 a03d 6ad3 e23d
000000b0: a460 4dbe 6bd2 7abd d33a 253e a58f 3ebe
000000c0: 692f c8bd 4cfe a13d fb6f 3d3e da48 f43c
000000d0: 3d23 ba3d e0c1 11be 8c84 5dbb b164 62bd
000000e0: 5705 223e 72cf 993c a47e bdbd 8425 483e
000000f0: dc95 22bd efc2 023e 58c0 02be 1047 a33d
00000100: 5d19 5a3c 37ec 473e 1d6e 2d3e 4432 19be
00000110: 99c4 3dbe 4eb1 853d d7ae 41be b66e 493d
00000120: fd50 8c3d 0d2d 9ebd 6d70 d0bd 4b4c 083e
00000130: 3412 10be 5c4f 22bd 23ee 373d 4138 1e3e
00000140: a983 3fbe 60da 443d 993d 073d 3738 23bd
00000150: 25f3 99bd 2bfd acbd 9893 35be 7c2f 04be
00000160: 3b3e 4ebe 2a2e d93d 1155 8e3d 68fa 2cbe
00000170: a418 453e 6888 0bbe 1d35 b53d 1606 a0bb
00000180: 52b3 0ebe a326 3e3e 99b3 b43d 1827 75bc
00000190: f84a c7bd a760 9b3d 10b8 d9bd 603b d1bd
000001a0: 1f67 693d b8dd 48be 9ec2 213d 2e46 9bbd
000001b0: c837 19bd 740c c83d 1364 4f3e 3a2b 3abe
000001c0: 703a 2bbb 88aa 05bd 76e9 39bd d6a2 a6bc
000001d0: a0ba e3bc 6177 ac3d ecd2 8ebb e2f1 18be
000001e0: 0a36 ae3d 22d8 91bd 7910 21be a7fa c0bd
000001f0: 6c1d 9a3d 0e22 4e3e b899 02be 26a2 803d
00000200: 3639 0bbe f55f 953c 2bb9 243d 1d15 293e
00000210: 77a0 d33d 73be f6bd 3ae6 b7bd ab16 dc3d
00000220: 293f 0cbe 06f3 4d3e 76c3 17bc a07f 85bd
00000230: 1b8a 833d 2f58 da3c 79d2 2fbe 5c7a 3d3e
00000240: 05d7 e4bd 1c1d eabd 928e d53d e463 983d
00000250: 7601 22be d8d0 edbb 6b6b 80bd a83e 41be
00000260: cb7a adbd 4d9c 8c3d 7674 6a3c e65e 743d
00000270: 612a 31be f76d 27be 30e4 c83d 4e67 1ebc
00000280: c7ab 6bbd 13a3 82bd 2dd4 1b3e 094c 6dbd
00000290: 6237 d63c ecd2 13be c4c9 df3d 4910 afbd
000002a0: 4856 e0bc a734 84bd ce59 0d3d 3588 993d
000002b0: e1cb 85bc edac 32be e411 3abe 2a97 603d
000002c0: 4640 ff3d 4d2c 153e 5a11 9b3d 82cf a3bd
000002d0: 1361 093e 414d 0c3d 1a17 973d b1ca dcbd
000002e0: 8858 4cbd b73e 40be daae 143d f3ed 8cbd
000002f0: 6ddd b6bb 914c 4bbe e64d a53d ccf3 533d

foundation_model.up_path.0.conv_block.block.2.bias f4 [8]
0.089092664 -0.03729911 -0.036763214 0.17298678 -0.1504832 0.021044288 0.029326826 0.06685893
00000000: 3776 b63d f4c6 18bd 0695 16bd 7223 313e
00000010: 4518 1abe 1265 ac3c d03e f03c 56ed 883d

foundation_model.up_path.1.up.weight f4 [8, 4, 2]
-0.29837313 0.2241181 -0.20902033 -0.033707406 -0.118101284 0.34586135 0.049467377 -0.08834493
0.07224821 -0.072314 0.14675815 -0.11360409 0.16861373 0.22628622 -0.13000047 0.13232155
-0.3049294 -0.041647788 0.1625419 -0.30752575 0.22223523 -0.32965347 -0.123463415 0.09815946
0.34094232 0.23794256 0.038672682 0.13164552 -0.28731176 0.28942728 0.21177498 0.19473436
0.28866988 -0.12647094 0.054600693 0.09512961 0.3393103 -0.31566754 0.1441837 -0.14079328
-0.15854245 -0.052899856 -0.32133314 0.25586495 0.24309766 0.28808984 0.17186186 0.31661507
-0.18639043 -0.1620239 -0.16256426 -0.052832507 -0.08475895 0.071526825 0.28950673 0.07031843
-0.34886956 0.10370586 -0.24102569 0.005223259 0.24355812 0.2542482 0.28295472 -0.3345451
00000000: 5dc4 98be 377f 653e 6d09 56be c710 0abd
00000010: 16df f1bd bd14 b13e 4e9e 4a3d 30ee b4bd
00000020: dff6 933d 5d19 94bd c547 163e 43a9 e8bd
00000030: 14a9 2c3e 93b7 673e d81e 05be 4d7f 073e
00000040: b51f 9cbe df96 2abd 6271 263e 0474 9dbe
00000050: a291 633e 57c8 a8be 63da fcbd d407 c93d
00000060: fe8f ae3e 37a7 733e 3f67 1e3d 15ce 063e
00000070: 871a 93be d02f 943e 8adb 583e 7268 473e
00000080: 8acc 933e 9981 01be faa4 5f3d 50d3 c23d
00000090: 14ba ad3e 2d9f a1be e4a4 133e 1d2c 10be
000000a0: f458 22be 85ad 58bd c785 a4be bb00 833e
000000b0: 98ee 783e 8380 933e 8efc 2f3e 5f1b a23e
000000c0: 22dd 3ebe 98e9 25be 3f77 26be e666 58bd
000000d0: 1a96 adbd a87c 923d 3a3a 943e 1c03 903d
000000e0: 089f b2be bd63 d43d 70cf 76be df27 ab3b
000000f0: 4d67 793e d22c 823e 71df 903e 7f49 abbe

foundation_model.up_path.1.up.bias f4 [4]
-0.25278696 0.10082622 0.09858982 0.061172187
00000000: 4b6d 81be fa7d ce3d 76e9 c93d b08f 7a3d

foundation_model.up_path.1.conv_block.block.0.weight f4 [4, 8, 3]
-0.17966753 0.09759627 -0.077318415 -0.07357434 -0.061012346 0.01625329 0.08572934 0.13133748
-0.11837384 -0.05356245 0.112401694 -0.082711324 0.14444764 -0.105468474 -0.09445584 0.03445837
-0.20242287 0.1399806 0.06778127 0.14839232 -0.14794655 -0.18709987 0.16846845 -0.14341262
-0.116367206 -0.19679232 0.18951628 0.14180222 0.19988231 -0.17082804 -0.07461333 0.061652124
-0.06804353 -0.17740877 0.18682931 0.20337746 -0.12107578 -0.09145477 -0.03317529 0.021534754
0.066945195 -0.0020209942 -0.1464089 0.11629006 0.10721725 0.15270665 0.091174714 0.013402816
0.037281785 0.13938121 0.13944565 -0.06714176 0.10064937 -0.11437896 0.067314185 0.08250002
-0.13908176 -0.18661645 0.10853856 -0.15285546 -0.17367263 -0.16115242 -0.0818533 -0.09726592
-0.0863521 0.14131488 -0.08926621 -0.01586398 -0.17619051 -0.080762796 0.1338741 -0.03282367
-0.09342721 0.14880392 0.15584198 0.14985515 -0.053058945 -0.100129314 -0.047603983 -0.0689486
-0.0031925302 0.10614709 0.11528551 -0.053853747 -0.015057761 0.19351983 -0.14357316 0.15857266
-0.03255252 0.15555345 -0.15166087 -0.016237644 0.1445468 0.107409924 -0.10746005 0.034035407
00000000: c4fa 37be 8ee0 c73d 1e59 9ebd 25ae 96bd
00000010: 15e8 79bd 9f25 853c dd92 af3d 557d 063e
00000020: fc6d f2bd 4d64 5bbd dc32 e63d 8e64 a9bd
00000030: 15ea 133e dbff d7bd 1072 c1bd 3824 0d3d
00000040: f147 4fbe 1357 0f3e e8d0 8a3d 28f4 173e
00000050: 4d7f 17be 1c97 3fbe fe82 2c3e c2da 12be
00000060: ee51 eebd ed83 49be 8e10 423e 9a34 113e
00000070: f3ad 4c3e 8ced 2ebe e0ce 98bd f086 7c3d
00000080: 685a 8bbd a5aa 35be 2f50 3f3e 2e42 503e
00000090: 94f6 f7bd a34c bbbd d0e2 07bd a769 b03c
000000a0: 901a 893d a872 04bb 37ec 15be 7c29 ee3d
000000b0: b894 db3d 225f 1c3e cfb9 ba3d 7c97 5b3c
000000c0: c9b4 183d f3b9 0e3e d7ca 0e3e 9e81 89bd
000000d0: 4221 ce3d 843f eabd 05dc 893d c5f5 a83d
000000e0: 736b 0ebe 6218 3fbe 7749 de3d 2486 1cbe
000000f0: 3dd7 31be 2405 25be b4a2 a7bd 5b33 c7bd
00000100: 5fd9 b0bd d9b4 103e 34d1 b6bd 2df5 81bc
00000110: 496b 34be f766 a5bd 4b16 093e 1d72 06bd
00000120: c456 bfbd 0e60 183e 0a95 1f3e a173 193e
00000130: 5654 59bd 9910 cdbd 65fc 42bd ec34 8dbd
00000140: c539 51bb a563 d93d cf1a ec3d bf95 5cbd
00000150: d4b4 76bc 102a 463e d804 13be df60 223e
00000160: cb55 05bd 6749 1f3e fd4c 1bbe cf04 85bc
00000170: 1404 143e bcf9 db3d 0414 dcbd b668 0b3d

foundation_model.up_path.1.conv_block.block.0.bias f4 [4]
-0.021242388 0.05920945 0.16452755 0.18781032
00000000: 8404 aebc 9c85 723d e979 283e 5951 403e

foundation_model.up_path.1.conv_block.block.2.weight f4 [4, 4, 3]
-0.18549642 -0.17722367 -0.21900623 0.1497502 0.2505184 0.24431472 -0.2855278 0.19375704
0.0046155765 0.20209208 0.057677913 0.04515057 -0.018375518 -0.22348695 -0.04837515 -0.2719489
0.10221652 -0.21828549 0.04569109 -0.26414427 0.1262626 -0.20825836 -0.21383643 -0.15842532
-0.0004585844 0.17099676 0.2789677 0.09552593 0.263377 0.20437437 -0.16542663 -0.03078197
-0.18998003 0.25837958 0.17195463 0.11300977 0.24753864 -0.077794336 -0.17597549 0.18659602
-0.08808836 -0.20638074 -0.15300569 0.16103463 0.025063911 0.101215556 -0.27862257 0.011019412
00000000: c6f2 3dbe 1f7a 35be 2b43 60be 1e58 193e
00000010: f343 803e a32d 7a3e b330 92be 3f68 463e
00000020: 433e 973b 3af1 4e3e ad3f 6c3d ceef 383d
00000030: 4188 96bc c3d9 64be 0525 46bd e33c 8bbe
00000040: e556 d13d 3b86 5fbe 9526 3b3d eb3d 87be
00000050: fc4a 013e ae41 55be f0f7 5abe 3f3a 22be
00000060: 286e f0b9 c619 2f3e dbd4 8e3e 19a3 c33d
00000070: 5ad9 863e 8447 513e 9965 29be 782a fcbc
00000080: 208a 42be 544a 843e e014 303e ab71 e73d
00000090: c57a 7d3e a352 9fbd eb32 34be 0713 3f3e
000000a0: ac67 b4bd 7955 53be 86ad 1cbe 43e6 243e
000000b0: d552 cd3c 1a4a cf3d 9ea7 8ebe c48a 343c

foundation_model.up_path.1.conv_block.block.2.bias f4 [4]
0.085069336 0.06300095 -0.096032895 0.27087492
00000000: d538 ae3d a406 813d e5ac c4bd 1eb0 8a3e

foundation_model.last.weight f4 [8, 4, 1]
-0.4408282 -0.21309054 -0.04415244 -0.020295084 0.4003932 -0.18170089 0.13981235 0.36982358
0.38458633 -0.27279478 0.48129988 -0.4629373 0.10565972 -0.14682859 0.18014616 -0.20595616
0.3943761 -0.08927363 -0.092324376 0.050521076 0.102298975 -0.2583472 0.4537776 -0.31885546
-0.38765824 -0.28523874 -0.44847274 -0.100708306 -0.44200647 -0.4352035 -0.03149861 0.19642985
00000000: 3cb4 e1be 6834 5abe 30d9 34bd e041 a6bc
00000010: 5600 cd3e cc0f 3abe f82a 0f3e 8459 bd3e
00000020: 80e8 c43e c2ab 8bbe f06c f63e 1e06 edbe
00000030: 2064 d83d 3c5a 16be 3c78 383e 2ce6 52be
00000040: aaeb c93e 18d5 b6bd 9014 bdbd 30ef 4e3d
00000050: 2082 d13d 1646 84be 8a55 e83e 0641 a3be
00000060: 247b c6be d00a 92be 389e e5be 2840 cebd
00000070: ac4e e2be fed2 debe b004 01bd e824 493e

foundation_model.last.bias f4 [8]
0.38838428 -0.31250787 -0.21455795 0.089912355 -0.38351685 -0.13762575 0.37931013 -0.056905568
00000000: 4eda c63e 0801 a0be 14b5 5bbe f823 b83d
00000010: 525c c4be c4ed 0cbe f034 c23e d015 69bd
