wandb/run-20230701_193253-q4kb9a55/files/checkpoints/best.pt (torch, 119813 bytes, 66 tensors)

foundation_model.down_path.0.block.0.weight f4 [4, 8, 3]
0.1317655 -0.16585214 0.068740875 0.06392448 -0.07041741 -0.0011779236 0.15246019 -0.069288775
-0.12689675 0.004283098 0.15013051 -0.14225394 -0.016766576 0.07152171 -0.13382035 0.115113296
0.22776374 0.07813156 -0.18715328 0.077835225 -0.16673556 0.056128718 -0.023589026 -0.17188205
-0.058530074 -0.27365193 -0.19750673 0.02179883 0.17143263 0.24727881 -0.25894892 -0.021544794
0.09142233 -0.10746049 0.1608077 -0.11595244 -0.020389594 -0.0771332 0.0030517739 0.0027560235
0.1034394 -0.027575856 -0.0062689534 0.07569616 0.05910427 0.00095748145 0.13646479 -0.14801925
0.16005337 0.17414989 -0.023975797 -0.15509509 0.10823593 -0.20298961 -0.007245103 -0.00015508417
0.09772891 -0.037668295 0.010106935 -0.0944438 -0.13128048 0.19147429 -0.04377201 0.052243996
-0.13634466 -0.15275343 0.068835914 0.18349208 0.11988476 0.1306141 -0.07007825 -0.034066457
-0.042418167 -0.08298298 0.26155287 -0.034698054 -0.2737864 0.09694121 0.034852047 0.12460941
0.10732435 -0.08700129 0.111438505 0.04734521 0.24347901 -0.088588946 -0.17059761 -0.029727565
-0.14954126 -0.21016115 0.22703995 0.04726883 0.2883551 -0.07495403 0.062421925 -0.04572155
00000000: 89ed 063e 25d5 29be 04c8 8c3d d6ea 823d
00000010: 0137 90bd 8f64 9aba 861e 1c3e 46e7 8dbd
00000020: 39f1 01be 3b59 8c3b d0bb 193e 04ab 11be
00000030: 0f5a 89bc f979 923d 3408 09be 85c0 eb3d
00000040: e63a 693e 7003 a03d 1ca5 3fbe 1368 9f3d
00000050: babc 2abe 3ae7 653d c63d c1bc d901 30be
00000060: 3bbd 6fbd 1b1c 8cbe 343f 4abe 7693 b23c
00000070: 098c 2f3e a836 7d3e f494 84be b57e b0bc
00000080: a13b bb3d 3f14 dcbd c6aa 243e 7978 edbd
00000090: 1408 a7bc 03f8 9dbd 4500 483b 679e 343b
000000a0: 09d8 d33d c3e6 e1bc cb6b cdbb 9706 9b3d
000000b0: 5217 723d 7eff 7a3a 6dbd 0b3e 5c92 17be
000000c0: 08e5 233e 5954 323e e468 c4bc 3fd1 1ebe
000000d0: cdaa dd3d 82dc 4fbe 5468 edbb 179e 22b9
000000e0: 1826 c83d 124a 1abd 8f97 253c c06b c1bd
000000f0: 646e 06be d611 443e 474a 33bd cdfd 553d
00000100: ef9d 0bbe 656b 1cbe d8f9 8c3d 59e5 3b3e
00000110: 2486 f53d b4bf 053e 2f85 8fbd 4589 0bbd
00000120: acbe 2dbd fbf2 a9bd 42ea 853e 8c1f 0ebd
00000130: bb2d 8cbe 1d89 c63d 05c1 0e3d 3833 ff3d
00000140: decc db3d bb2d b2bd df39 e43d 0ded 413d
00000150: 9052 793e 1f6e b5bd 24b1 2ebe 3987 f3bc
00000160: 5821 19be 7c34 57be 297d 683e f69c 413d
00000170: 48a3 933e 8081 99bd 22ae 7f3d 8546 3bbd

foundation_model.down_path.0.block.0.bias f4 [4]
-0.003078103 -0.09433054 0.12066958 0.09999843
00000000: 00ba 49bb 5f30 c1bd 9d21 f73d facb cc3d

foundation_model.down_path.0.block.2.weight f4 [4, 4, 3]
0.29909903 0.11436194 0.15809722 -0.10370305 -0.014850619 0.26761192 -0.0427503 -0.13231058
-0.09931818 0.12943873 -0.15095003 -0.23958997 0.08048765 -0.2509566 -0.041954372 -0.15764572
-0.15875967 -0.11766034 -0.17041153 0.27912617 -0.029316356 0.2999507 0.32814312 0.32209358
-0.26025346 -0.101294346 -0.3428251 0.16658399 -0.14159635 -0.33659908 0.24672589 0.17910886
0.211961 0.14794502 0.36389744 -0.14064798 0.13094625 -0.117897294 -0.15050025 -0.19876257
0.041859705 -0.348299 -0.089994095 0.14842004 0.11328022 0.25526816 -0.095957816 0.26249635
00000000: 8223 993e 9836 ea3d 3de4 213e 4462 d4bd
00000010: 0350 73bc 6e04 893e f01a 2fbd 6d7c 07be
00000020: 5467 cbbd 968b 043e a592 1abe 1357 75be
00000030: b6d6 a43d 627d 80be 59d8 2bbd e16d 21be
00000040: e591 22be e8f7 f0bd 5c80 2ebe a0e9 8e3e
00000050: db28 f0bc 2393 993e 6002 a83e 73e9 a43e
00000060: f13f 85be 6973 cfbd c686 afbe fe94 2a3e
00000070: a2fe 10be b756 acbe b6a5 7c3e 5068 373e
00000080: 4e0c 593e e67e 173e c450 ba3e 0606 10be
00000090: c616 063e 2374 f1bd bd1c 1abe 6a88 4bbe
000000a0: 1575 2b3d 3f54 b2be d34e b8bd 6cfb 173e
000000b0: 76ff e73d 82b2 823e 8885 c4bd ec65 863e

foundation_model.down_path.0.block.2.bias f4 [4]
-0.15618834 -0.16905174 -0.080805704 0.14011213
00000000: d6ef 1fbe e61b 2dbe 767d a5bd 8e79 0f3e

foundation_model.down_path.1.block.0.weight f4 [8, 4, 3]
-0.19997782 -0.22513579 -0.26708812 -0.1159256 0.15019776 0.22784065 0.24170953 -0.026664853
0.30402994 0.021653099 0.062351882 0.2688451 -0.07489147 -0.06284584 -0.25763595 -0.022191789
0.27107662 -0.0979523 0.22867484 -0.13570222 0.20482852 0.23583615 0.27848768 0.25035703
0.09464664 0.025003722 0.035526272 0.11328673 -0.017098054 0.25343558 0.2716131 0.32251346
-0.020351766 -0.09282288 0.23832098 0.23175076 -0.3356049 0.11539148 0.09499538 0.39264873
-0.16091183 0.18815173 0.0110896155 0.32090983 0.31411836 0.05680767 0.26546562 0.3026693
-0.3187339 0.050857805 0.14929654 0.14967315 -0.03717751 0.18489382 0.32241622 0.040126897
0.36027107 0.33342138 0.29717416 0.17802905 0.30121836 0.16649753 0.3318883 -0.23947127
-0.25918642 0.05522319 -0.029703585 0.25431576 -0.16090156 -0.07794687 0.14722714 -0.30540073
0.056973528 -0.12544397 0.0044270097 0.28270796 0.13643911 -0.12559378 0.15995567 -0.12066212
0.1300567 -0.0909683 0.0026410723 0.28718883 -0.1872808 0.17776687 -0.05549992 -0.30418855
-0.022988437 -0.27666512 0.022708947 -0.3468404 -0.30223438 -0.18506044 0.04828162 0.03395041
00000000: fcc6 4cbe ff89 66be c6bf 88be 676a edbd
00000010: 71cd 193e 0f4f 693e b482 773e 4070 dabc
00000020: d0a9 9b3e d761 b13c b064 7f3d 11a6 893e
00000030: b360 99bd 52b5 80bd dce8 83be 8ecb b5bc
00000040: 8eca 8a3e 379b c8bd bd29 6a3e 86f5 0abe
00000050: 91be 513e 087f 713e f095 8e3e cc2e 803e
00000060: 19d6 c13d 9bd4 cc3c ff83 113d e002 e83d
00000070: 3811 8cbc 4fc2 813e df10 8b3e 7c20 a53e
00000080: bfb8 a6bc ec19 bebd 6a0a 743e 1250 6d3e
00000090: 68d4 abbe 5e52 ec3d f08c c23d 4109 c93e
000000a0: 12c6 24be d9aa 403e 38b1 353c 4b4e a43e
000000b0: 1fd4 a03e 29af 683d 1ceb 873e 78f7 9a3e
000000c0: 1731 a3be 4650 503d 31e1 183e eb43 193e
000000d0: 7247 18bd ce54 3d3e bd13 a53e 1a5c 243d
000000e0: 7375 b83e 35b6 aa3e 3627 983e 3f4d 363e
000000f0: 4b39 9a3e 547e 2a3e 43ed a93e f537 75be
00000100: 15b4 84be b631 623d ef54 f3bc ad35 823e
00000110: 61c3 24be 9ca2 9fbd b6c2 163e 7c5d 9cbe
00000120: 135d 693d 6274 00be 7310 913b 19bf 903e
00000130: b2b6 0b3e a89b 00be 6bcb 233e b41d f7bd
00000140: 952d 053e 974d babd d715 2d3b 6a0a 933e
00000150: 8ac6 3fbe 8508 363e e253 63bd 9abe 9bbe
00000160: 3f52 bcbc 0da7 8dbe 1d08 ba3c 1195 b1be
00000170: 77be 9abe 7c80 3dbe f3c2 453d 960f 0b3d

foundation_model.down_path.1.block.0.bias f4 [8]
0.16147503 0.053074624 -0.2239398 -0.012724804 -0.102856606 0.109633386 -0.2596612 0.15400192
00000000: b659 253e c764 593d 7a50 65be b27b 50bc
00000010: 7ca6 d2bd 7887 e03d 50f2 84be aeb2 1d3e

foundation_model.down_path.1.block.2.weight f4 [8, 8, 3]
0.038919367 -0.2406069 -0.2280831 -0.07102971 0.10802995 -0.20874849 -0.11698976 -0.11536709
-0.26755372 -0.19833283 0.10965831 -0.12846455 -0.20046453 0.11886822 -0.114193924 0.05620335
-0.10401056 0.05148739 -0.09471004 0.12852515 -0.2610025 0.15635362 0.229695 -0.015700432
0.07342323 0.09929892 0.20925887 0.09909038 0.20897667 0.23108925 0.25080258 -0.043091025
-0.08441641 0.21453202 -0.035536226 -0.028370358 0.0861781 0.10209334 -0.10499307 -0.138359
0.10277378 -0.1448188 0.16921774 -0.028143223 0.16894972 -0.056218486 -0.21967424 -0.17646128
-0.06410658 -0.08668444 -0.05682416 -0.19718547 0.05493459 -0.10860577 -0.019139081 -0.04174459
-0.030395487 -0.1579467 -0.21514864 -0.019702692 -0.21176054 -0.11854204 -0.0896251 0.18371059
-0.020013915 0.068156034 -0.0021232786 0.09063593 0.090923354 0.08631247 0.105813235 0.21380499
-0.09554512 0.12302313 -0.030590663 0.10632643 0.22133717 0.010017526 0.13442218 0.040344514
0.28006703 0.09835822 0.069778495 0.18365516 0.0609974 0.14652966 0.28746596 -0.04480581
-0.00060943566 -0.0012895443 0.24960537 0.036910016 0.17942902 -0.09971767 -0.10689237 -0.002241169
-0.24091211 -0.030131137 -0.23132919 -0.17961134 -0.09520782 -0.10823259 0.04507761 0.08107273
-0.23450351 0.09163733 -0.0556251 0.101002194 -0.09749873 -0.12859307 0.08055124 0.12227341
0.06643508 0.01233755 0.0030457068 -0.22813953 -0.16390488 -0.083951466 0.13013782 -0.13251801
0.16306432 -0.08853164 0.03236669 0.15919936 0.25194073 0.011159694 0.08756041 0.22608133
0.097124554 0.1880517 0.17724939 0.209285 -0.07539357 -0.12576015 0.1560745 -0.058859784
-0.12074866 -0.25374314 0.2084019 0.24750808 0.13202669 -0.07494091 -0.10744077 -0.1716574
0.20490845 0.1702461 0.06324141 0.045632917 -0.059095867 0.00085489935 0.1188847 0.13525288
0.21686076 -0.11375866 0.008457709 0.26441634 0.049647257 0.047472604 0.000677997 -0.065537654
-0.012819889 -0.22154376 0.05390229 -0.09489099 0.020456487 -0.11902576 0.13345855 -0.038805578
0.1581511 -0.048581567 0.23943663 -0.057819005 -0.13673945 0.07188182 0.19037302 0.053157747
0.18018045 0.29187936 0.151496 -0.020165265 0.014090876 0.00096567563 0.13556379 -0.03284962
-0.25036892 -0.034842845 0.24263434 0.017734805 0.009704147 0.0063526183 -0.1318447 -0.23267092
00000000: ea69 1f3d a861 76be 9e8e 69be 0678 91bd
00000010: ce3e dd3d 2ac2 55be 5498 efbd 9545 ecbd
00000020: cdfc 88be c317 4bbe 8994 e03d 368c 03be
00000030: 9346 4dbe 2e71 f33d 81de e9bd 7c35 663d
00000040: 7d03 d5bd 71e4 523d 56f7 c1bd 199c 033e
00000050: 1fa2 85be 2a1b 203e 2b35 6b3e 319e 80bc
00000060: eb5e 963d 3b5d cb3d f547 563e e6ef ca3d
00000070: fbfd 553e a9a2 6c3e 3269 803e 3780 30bd
00000080: 83e2 acbd 48ae 5b3e 6f8e 11bd f468 e8bc
00000090: 257e b03d 5016 d13d 9b06 d7bd fbad 0dbe
000000a0: 0f7b d23d 614b 14be 6a47 2d3e 9e8c e6bc
000000b0: 2801 2d3e 5b45 66bd 49f2 60be 44b2 34be
000000c0: 504a 83bd 9d87 b1bd 73c0 68bd fdea 49be
000000d0: 1803 613d b46c debd 90c9 9cbc 60fc 2abd
000000e0: f5ff f8bc c8bc 21be ed4f 5cbe 8a67 a1bc
000000f0: c1d7 58be 2bc6 f2bd 5d8d b7bd a11e 3c3e
00000100: 39f4 a3bc 6495 8b3d b426 0bbb 559f b93d
00000110: 0636 ba3d 98c4 b03d 9cb4 d83d b2ef 5a3e
00000120: 29ad c3bd 8df3 fb3d 4599 fabc acc1 d93d
00000130: 36a6 623e 8d20 243c f8a5 093e 4a40 253d
00000140: f264 8f3e 0970 c93d 07e8 8e3d 1910 3c3e
00000150: 69d8 793d df0b 163e bd2e 933e 4c86 37bd
00000160: 89c2 1fba ed05 a9ba 8d98 7f3e f52e 173d
00000170: 3ebc 373e c738 ccbd 63ea dabd 94e0 12bb
00000180: aab1 76be 93d5 f6bc 8fe1 6cbe 09ec 37be
00000190: 51fc c2bd 0ca9 ddbd 4da3 383d 7609 a63d
000001a0: b021 70be 5aac bb3d 25d7 63bd 3dda ce3d
000001b0: 6aad c7bd e7ad 03be 0cf8 a43d 7b6a fa3d
000001c0: 1d0f 883d 6f23 4a3c 7b9a 473b 699d 69be
000001d0: aed6 27be bfee abbd d942 053e cdb2 07be
000001e0: 55fa 263e 1450 b5bd ef92 043d 2805 233e
000001f0: 60fe 803e 26d7 363c df52 b33d dd81 673e
00000200: 3de9 c63d a090 403e dd80 353e cf4e 563e
00000210: f267 9abd 45c7 00be fed1 1f3e f516 71bd
00000220: 134b f7bd 9fea 81be 4f67 553e c272 7d3e
00000230: 0132 073e 9f7a 99bd e809 dcbd f5c6 2fbe
00000240: 85d3 513e fe54 2e3e b684 813d 95e9 3a3d
00000250: 820e 72bd 531b 603a d279 f33d bb7f 0a3e
00000260: bf10 5e3e 4dfa e8bd 3492 0a3c 9461 873e
00000270: ec5a 4b3d a272 423d 9cbb 313a 9b38 86bd
00000280: 830a 52bc 5edc 62be a6c8 5c3d 3556 c2bd
00000290: 5d94 a73c c7c3 f3bd 5ca9 083e 99f2 1ebd
000002a0: 5df2 213e 77fd 46bd e02e 753e 9fd3 6cbd
000002b0: 6d05 0cbe c736 933d 25f1 423e f0bb 593d
000002c0: 3981 383e 3671 953e c421 1b3e a031 a5bc
000002d0: 6bdd 663c 6525 7d3a 3cd1 0a3e 538d 06bd
000002e0: 5b30 80be 5fb7 0ebd 2375 783e 9548 913c
000002f0: 25fe 1e3c a029 d03b 4c02 07be 4941 6ebe

foundation_model.down_path.1.block.2.bias f4 [8]
0.13174757 -0.16484042 0.02944255 0.09400844 0.16458383 0.026520941 -0.100911774 0.0497601
00000000: d6e8 063e edcb 28be 8131 f13c 7f87 c03d
00000010: aa88 283e 7242 d93c d5aa cebd 3fd1 4b3d

foundation_model.down_path.2.block.0.weight f4 [16, 8, 3]
0.043078367 -0.08132163 0.06254568 -0.07792718 -0.0052241213 -0.20579405 -0.01685943 0.0865076
0.1312465 -0.26034248 0.11340796 0.07090082 0.027825164 0.05403157 0.105814956 0.0065543703
-0.19633526 -0.20981592 0.111863494 -0.12817077 -0.17203249 -0.08596859 -0.030769013 0.028731557
0.041339573 0.10378597 -0.002603947 0.16348584 0.01928194 0.22668014 -0.104800224 0.100047745
-0.13267328 0.22151345 0.020970456 0.021566179 -0.10678436 0.033085987 -0.1441114 -0.026147012
-0.01153485 0.26389375 0.22118786 0.003017522 -0.012425348 0.09079217 -0.039892547 0.18040614
0.019679857 -0.033974394 0.1406921 0.058773745 -0.17605828 0.066747576 0.058019392 0.13743372
0.26869515 0.097920686 -0.2329964 -0.23192763 0.06835858 0.1957599 -0.09907036 0.013532887
0.034947053 -0.20644534 -0.2699861 -0.21938002 0.10376233 -0.06758243 -0.18391198 -0.034791507
0.27225178 0.22323978 0.11212444 -0.1143679 -0.09060653 -0.1631362 0.03444779 0.07517407
0.22592224 -0.23186755 0.009178952 -0.13657449 0.22557078 -0.09998784 0.14036267 0.058698434
0.008492894 0.0062281485 -0.14753918 -0.128881 0.031789508 -0.1748018 0.031115536 -0.18096186
0.19505171 0.21330838 0.03402685 0.09637812 -0.23312157 -0.0071867304 -0.050244976 0.18285483
-0.13262853 -0.084056795 0.08548321 0.13083504 0.015671533 0.16400936 0.21193154 -0.19843519
-0.1282218 0.009090883 0.0071912436 0.00478691 0.02819246 -0.05369169 -0.18592234 -0.19588748
0.17975874 0.098814376 0.0016378099 -0.21722576 -0.24152012 -0.062271588 -0.040225025 -0.0385128
0.17115846 -0.20466441 -0.029438265 0.0079530785 -0.018404968 0.087951444 0.06478645 -0.14467737
0.040678337 -0.20258859 0.035276197 -0.19908603 -0.14473379 -0.19774863 -0.04288283 -0.20640337
0.0954718 0.12817426 0.07981328 -0.21506613 -0.15151939 -0.23706229 0.1816313 -0.0765234
0.26008952 0.1154554 -0.117889866 -0.23153129 0.021357238 0.027030986 -0.08291903 0.0209618
-0.2517664 0.09257095 0.058537625 -0.10214546 0.016463816 0.021707013 0.08692552 0.045167692
0.1300822 -0.2763178 -0.22583462 -0.060040932 -0.009033431 -0.041792713 0.1158987 -0.26430318
-0.09184761 0.21911554 0.1324519 0.09481142 -0.16112576 0.11519467 -0.037121892 0.17333937
-0.11348264 0.23735318 -0.10450452 0.04411666 0.2755242 0.123679206 0.24920206 0.17547716
0.013692708 -0.24794486 0.053632427 0.24614778 0.24766865 -0.029477794 0.0021661979 0.13387871
0.027359031 0.18174829 -0.13061965 0.26432994 0.059741877 -0.20532976 -0.16750082 -0.09363552
0.14050564 0.12839653 -0.02038365 0.099663824 0.2221276 0.20737852 0.17069149 0.07143765
-0.003407114 0.12094147 -0.2190514 -0.037981782 0.23473452 -0.039501708 0.051661674 -0.15279773
0.059860904 0.07889789 0.19866832 0.26348886 -0.09624849 0.086616315 -0.10372192 0.037858784
0.08979008 0.21234691 0.1383354 0.045256607 0.13335513 -0.0023354706 0.11809585 0.06214109
-0.039736476 -0.075800575 -0.018100535 0.110102616 -0.27198622 -0.25017452 -0.07355623 -0.09391305
-0.01508249 0.033018418 -0.20610921 -0.10232549 -0.046574984 0.026861716 0.24844684 0.0058126934
00000000: f172 303d f48b a6bd f317 803d 4998 9fbd
00000010: 1b2f abbb adbb 52be ca1c 8abc e62a b13d
00000020: 7c65 063e 9c4b 85be 6f42 e83d 7334 913d
00000030: 99f1 e33c 3550 5d3d 83b5 d83d 0bc6 d63b
00000040: 1c0c 49be fcd9 56be b018 e53d 333f 03be
00000050: 4929 30be 4d10 b0bd 4c0f fcbc 715e eb3c
00000060: af53 293d bd8d d43d fba6 2abb d568 273e
00000070: 29f5 9d3c d71e 683e 80a1 d6bd d5e5 cc3d
00000080: 81db 07be 6cd4 623e 3cca ab3c 8eab b03c
00000090: c2b1 dabd 2c85 073d f091 13be 4232 d6bc
000000a0: abfc 3cbc 151d 873e 127f 623e 9ec1 453b
000000b0: b093 4bbc 3ff1 b93d 5e66 23bd 63bc 383e
000000c0: a737 a13c bc28 0bbd 9711 103e bdbc 703d
000000d0: 9f48 34be f4b2 883d bea5 6d3d 6dbb 0c3e
000000e0: 6992 893e a48a c83d 9c96 6ebe 707e 6dbe
000000f0: 95ff 8b3d 4975 483e 67e5 cabd 0bb9 5d3c
00000100: a424 0f3d 6866 53be 9e3b 8abe 28a5 60be
00000110: 5881 d43d a868 8abd 6c53 3cbe 8a81 0ebd
00000120: 9664 8b3e f898 643e 80a1 e53d b839 eabd
00000130: eb8f b9bd 2d0d 27be 2019 0d3d ddf4 993d
00000140: 2958 673e b06e 6dbe 5163 163c 2fda 0bbe
00000150: 07fc 663e 6dc6 ccbd 3bbb 0f3e c56d 703d
00000160: c725 0b3c 7f15 cc3b 8314 17be 62f9 03be
00000170: b735 023d 3eff 32be 02e6 fe3c 114e 39be
00000180: a3bb 473e 836d 5a3e bd5f 0b3d e461 c53d
00000190: 6cb7 6ebe aa7e ebbb adcd 4dbd 4c3e 3b3e
000001a0: c6cf 07be f825 acbd d211 af3d 9ff9 053e
000001b0: 9661 803c 12f2 273e 9504 593e 9832 4bbe
000001c0: 934c 03be edf1 143c 86a4 eb3b 83db 9c3b
000001d0: e0f3 e63c d1eb 5bbd 6d62 3ebe ba96 48be
000001e0: ad12 383e 315f ca3d c8ab d63a 6e70 5ebe
000001f0: 0d51 77be 7e10 7fbd ffc2 24bd 99bf 1dbd
00000200: 2a44 2f3e 8c93 51be 8428 f1bc a14d 023c
00000210: 04c6 96bc e31f b43d c2ae 843d 4e26 14be
00000220: 549e 263d 6273 4fbe c67d 103d 35dd 4bbe
00000230: 1835 14be 9e7e 4abe e8a5 2fbd 685b 53be
00000240: b886 c33d 1d40 033e 2575 a33d 4c3a 5cbe
00000250: e627 1bbe 75c0 72be 8efd 393e 4db8 9cbd
00000260: 742a 853e e173 ec3d 3e70 f1bd 8a16 6dbe
00000270: 60f5 ae3c 1670 dd3c 74d1 a9bd 15b8 ab3c
00000280: 87e7 80be d795 bd3d 26c5 6f3d a431 d1bd
00000290: 20df 863c e8d2 b13c 0206 b23d c201 393d
000002a0: 4534 053e 8779 8dbe 3141 67be 7bed 75bd
000002b0: f500 14bc d62e 2bbd 4c5c ed3d bf52 87be
000002c0: 9a1a bcbd d35f 603e 79a1 073e 7d2c c23d
000002d0: 27fe 24be 2feb eb3d 200d 18bd e07f 313e
000002e0: 9669 e8bd b60c 733e 7706 d6bd acb3 343d
000002f0: 8211 8d3e 864b fd3d d32e 7f3e 49b0 333e
00000300: 6157 603c 42e5 7dbe adad 5b3d 2a0e 7c3e
00000310: da9c 7d3e 6a7b f1bc c5f6 0d3b 8017 093e
00000320: 0c20 e03c 391c 3a3e 28c1 05be 4156 873e
00000330: e6b3 743d f741 52be 5685 2bbe fbc3 bfbd
00000340: b6e0 0f3e 617a 033e 9dfb a6bc 8c1c cc3d
00000350: 6b75 633e 095b 543e c0c9 2e3e e74d 923d
00000360: e349 5fbb 29b0 f73d 034f 60be c992 1bbd
00000370: 3f5e 703e 8bcc 21bd 319b 533d 0277 1cbe
00000380: b530 753d 3895 a13d b56f 4b3e 03e8 863e
00000390: ee1d c5bd e563 b13d 286c d4bd d011 1b3d
000003a0: dde3 b73d 7871 593e cca7 0d3e fe5e 393d
000003b0: 3f8e 083e b20e 19bb 3ddc f13d a887 7e3d
000003c0: b7c2 22bd 553d 9bbd 9347 94bc 7b7d e13d
000003d0: c741 8bbe e016 80be a6a4 96bd 7c55 c0bd
000003e0: 8c1c 77bc 523e 073d 4b0e 53be 0790 d1bd
000003f0: 69c5 3ebd 1a0d dc3c d968 7e3e 6878 be3b

foundation_model.down_path.2.block.0.bias f4 [16]
0.19581588 -0.23609932 0.11743003 0.19552143 0.11999762 0.10991924 0.07652684 -0.086057745
-0.04295926 -0.060775667 0.10559249 -0.05807913 0.0037220651 -0.18580458 0.14015757 0.21776247
00000000: f583 483e 05c4 71be 287f f03d c536 483e
00000010: 50c1 f53d 571d e13d 1bba 9c3d 0b3f b0bd
00000020: 0df6 2fbd e8ef 78bd e040 d83d 62e4 6dbd
00000030: e4ed 733b 8e43 3ebe 7785 0f3e 20fd 5e3e

foundation_model.down_path.2.block.2.weight f4 [16, 16, 3]
0.07745023 0.09572436 0.09189152 -0.06886345 -0.08416544 -0.15639865 -0.0049521886 -0.029165903
0.1581996 0.03456009 0.05267358 0.023953125 0.16762793 0.17590299 0.19891605 0.09980035
-0.038115624 0.101183 0.14713648 0.105861045 0.15402803 -0.15601383 0.010477743 -0.09739984
0.015366581 0.04333741 -0.16592708 -0.10422738 -0.0054689758 -0.20358168 -0.0028658549 0.044696666
0.116591096 0.095811166 0.054719612 0.043618422 0.14170818 0.08918651 -0.0244287 -0.1937574
-0.13210416 -0.1356701 0.15620646 0.15767494 -0.010003777 0.0740531 -0.069907136 0.0147527745
0.15124707 0.038535055 -0.058195665 0.043435153 -0.09967727 0.036231223 0.1547328 0.19637552
0.12940198 0.043964732 -0.0064118924 -0.07354403 -0.0409676 0.054020483 0.20939936 0.05089572
0.20814556 0.015151238 0.0059910915 0.10206105 0.099129304 0.0001284813 -0.16595334 -0.100535244
0.00980586 -0.10956889 -0.15373708 0.030098937 -0.12383513 -0.16882668 0.07193739 -0.014148944
0.13956143 -0.014227909 0.1295564 -0.03340574 0.1187628 0.06671903 -0.008539894 -0.1272664
-0.0015095623 -0.034017988 -0.039358817 0.10668646 0.030490333 0.18289603 0.1869205 0.16616474
0.16086316 -0.054648966 -0.08085934 -0.11652114 -0.06752632 -0.19307072 0.11350323 0.046003837
0.21782042 0.16594218 0.1734147 0.034357548 0.18715261 -0.009812165 0.013105407 0.10093555
0.033851877 0.017802114 0.08060262 0.14185783 0.05483269 -0.11294148 0.037527006 0.034860935
-0.06714606 -0.07465135 -0.1631919 -0.15682667 -0.12855558 -0.016876863 0.19765307 0.1057333
0.18614997 0.11904739 -0.03310572 -0.035686012 -0.019522153 0.043497473 0.0523044 -0.023536649
-0.019096028 -0.013189525 0.07144023 0.021050138 0.11887733 -0.03310824 0.17372362 0.07426934
-0.13446045 0.014745778 -0.20521589 0.04240267 -0.059660442 -0.052803922 -0.11599127 -0.049084287
0.010135903 0.03195277 -0.21297838 0.00010898783 -0.09139069 -0.032985967 -0.14344294 0.019848727
-0.22570187 -0.17045707 -0.15865955 -0.21890393 0.029567229 0.06281033 0.08734011 0.04339008
0.099715024 0.088240586 0.079675786 0.010107114 0.14258704 0.14610569 -0.0008281826 0.008327877
-0.20106433 -0.032887563 -0.18394637 0.054740753 0.045838058 -0.173329 -0.07742458 0.050902877
0.20051698 0.20622839 -0.19501148 -0.17796364 0.048851974 0.06508567 -0.19937806 0.03473492
0.021947917 0.18711004 -0.050386235 -0.15234248 -0.11052755 -0.10740978 -0.073737785 0.004562211
-0.07674785 -0.062295068 0.17317186 -0.07325419 0.058416713 0.034538444 0.040480647 -0.01420326
0.017003784 -0.04464436 -0.051373444 -0.046023387 0.004675244 -0.10375588 -0.08635716 -0.08207701
-0.1914301 0.005825962 0.018585488 -0.17669913 0.037803598 -0.00088065007 0.052994613 -0.05973194
0.1320735 0.009442182 -0.03164987 0.1329083 0.2085579 -0.04393888 0.10342662 -0.031919915
-0.018529177 -0.16374269 0.081458725 -0.048665673 0.13106622 0.0741122 -0.060927834 0.114934064
0.011062327 0.017654747 -0.03552766 0.117772594 0.15498756 -0.05626538 0.11012314 -0.07142986
0.05842215 0.022142291 0.0045038504 -0.06845402 -0.033319365 -0.093200736 0.030467173 -0.15476471
00000000: 3a9e 9e3d 220b c43d 9f31 bc3d 4808 8dbd
00000010: ee5e acbd f826 20be f845 a2bb 55ed eebc
00000020: 13ff 213e e28e 0d3d 40c0 573d 5839 c43c
00000030: a8a6 2b3e ea1f 343e a6b0 4b3e 2064 cc3d
00000040: 211f 1cbd 0839 cf3d f2aa 163e adcd d83d
00000050: 86b9 1d3e 17c2 1fbe d7aa 2b3c 9179 c7bd
00000060: 1dc4 7b3c 9182 313d cae8 29be 2a75 d5bd
00000070: 1835 b3bb b777 50be 11d1 3bbb da13 373d
00000080: 50c7 ee3d a538 c43d ac21 603d 3ba9 323d
00000090: f31b 113e 6ba7 b63d b21e c8bc 5768 46be
000000a0: 5046 07be 1aed 0abe 96f4 1f3e 8a75 213e
000000b0: e2e6 23bc 27a9 973d 792b 8fbd 9fb5 713c
000000c0: 83e0 1a3e efd6 1d3d 945e 6ebd 0fe9 313d
000000d0: 9923 ccbd 3167 143d 4672 1e3e aa16 493e
000000e0: f481 043e 5d14 343d da1a d2bb 419e 96bd
000000f0: a4cd 27bd 9544 5d3d c96c 563e 0878 503d
00000100: 1c24 553e e63c 783c eb50 c43b 6205 d13d
00000110: 4e04 cb3d f0b8 0639 acef 29be 6ce5 cdbd
00000120: c2a8 203c a765 e0bd 416d 1dbe 0c92 f63c
00000130: 469d fdbd e7e0 2cbe e953 933d f9d0 67bc
00000140: 31e9 0e3e 2d1c 69bc 6faa 043e 75d4 08bd
00000150: e939 f33d fda3 883d e9ea 0bbc 2052 02be
00000160: 81dc c5ba 7256 0bbd b636 21bd 6e7e da3d
00000170: ddc6 f93c 1949 3b3e 1668 3f3e 1727 2a3e
00000180: 50b9 243e 98d7 5fbd 9599 a5bd a3a2 eebd
00000190: 3d4b 8abd 55b4 45be 6274 e83d 856e 3c3d
000001a0: 510c 5f3e bfec 293e a093 313e 80ba 0c3d
000001b0: efa4 3f3e 34c3 20bc 10b8 563c 4cb7 ce3d
000001c0: 44a8 0a3d bdd5 913c fd12 a53d 2e43 113e
000001d0: 3e98 603d dd4d e7bd ebb5 193d 57ca 0e3d
000001e0: e083 89bd cfe2 98bd c71b 27be 2c97 20be
000001f0: 13a4 03be 5941 8abc 9165 4a3e b38a d83d
00000200: 199e 3e3e 1ecf f33d dd99 07bd 7f2b 12bd
00000210: ecec 9fbc 682a 323d 233d 563d eecf c0bc
00000220: 466f 9cbc e118 58bc 414f 923d 5771 ac3c
00000230: f575 f33d 829c 07bd 9be4 313e 861a 983d
00000240: 00b0 09be 4798 713c 1d24 52be 6cae 2d3d
00000250: 825e 74bd ed48 58bd d58c edbd 9b0c 49bd
00000260: 0f11 263c e8e0 023d 0117 5abe 6590 e438
00000270: 0b2b bbbd 4b1c 07bd b5e2 12be cc99 a23c
00000280: 641e 67be 4c8c 2ebe a677 22be 5a28 60be
00000290: f936 f23c b4a2 803d 5fdf b23d ccb9 313d
000002a0: 6437 cc3d 7bb7 b43d 0f2d a33d 4f98 253c
000002b0: 5602 123e bb9c 153e 651a 59ba a671 083c
000002c0: cfe3 4dbe 1cb5 06bd 705c 3cbe d737 603d
000002d0: b0c0 3b3d 287d 31be c790 9ebd 897f 503d
000002e0: 5354 4d3e 892d 533e 17b1 47be 1a3c 36be
000002f0: 0219 483d a34b 853d c329 4cbe 3446 0e3d
00000300: 1ecc b33c c699 3f3e cc61 4ebd abff 1bbe
00000310: 455c e2bd a9f9 dbbd d603 97bd 9a7e 953b
00000320: fa2d 9dbd 1d29 7fbd f753 313e 4b06 96bd
00000330: 5d46 6f3d 2f78 0d3d 09cf 253d cab4 68bc
00000340: 854b 8b3c 01dd 36bd f66c 52bd 0583 3cbd
00000350: ca32 993b f67d d4bd 06dc b0bd fe17 a8bd
00000360: 4106 44be b6e7 be3b 9840 983c 9ef0 34be
00000370: f2d7 1a3d 6ddb 66ba e110 593d 7ba9 74bd
00000380: 473e 073e 62b3 1a3c 4ba3 01bd 1d19 083e
00000390: 3490 553e 41f9 33bd 56d1 d33d 75be 02bd
000003a0: 80ca 97bc 2aac 27be d5d3 a63d a855 47bd
000003b0: 3936 063e 23c8 973d 778f 79bd 8d62 eb3d
000003c0: c33e 353c b0a0 903c 7485 11bd c232 f13d
000003d0: 0fb5 1e3e 8776 66bd 3e88 e13d d249 92bd
000003e0: 104c 6f3d c063 b53c 0995 933b 9f31 8cbd
000003f0: e379 08bd 07e0 bebd 4b96 f93c a47a 1ebe

foundation_model.down_path.2.block.2.bias f4 [16]
0.16201293 0.12613998 0.109840356 -0.010609702 0.15602137 -0.16221422 -0.04637552 0.06118896
0.1741411 0.15719411 -0.17659386 0.16028331 -0.0049437927 0.03402047 0.014261494 0.12866752
00000000: b8e6 253e d72a 013e fbf3 e03d 51d4 2dbc
00000010: 11c4 1f3e 7c1b 26be 42f4 3dbd 46a1 7a3d
00000020: 0b52 323e 7ef7 203e 05d5 34be 4f21 243e
00000030: 8aff a1bb 0c59 0b3d 0ba9 693c 6bc1 033e

foundation_model.up_path.0.up.weight f4 [16, 8, 2]
0.2137413 0.070097476 -0.048381835 0.18494013 -0.016776025 0.11374599 -0.19871083 0.12857941
0.04770288 -0.0071955323 0.08097011 -0.15499568 -0.17975587 -0.18253249 -0.18629396 0.14219451
-0.12625873 0.042528927 -0.24504697 0.21570301 0.011002451 0.03677517 -0.24290279 0.03806293
-0.10080522 0.24632329 -0.15763369 -0.05527109 -0.03196302 -0.15422869 0.22899407 0.22965828
0.16175479 -0.05571741 0.071480274 -0.12558931 -0.12786326 -0.041712224 0.09705028 -0.08385885
0.054599464 0.07444039 0.20536816 0.21018147 -0.04025823 -0.24544775 0.05322984 0.19266814
-0.21949899 -0.1312702 0.21262136 0.1310994 0.00017911196 0.21506959 -0.103658736 0.16390872
0.10177964 -0.016148359 -0.0985657 0.21168417 0.21005067 0.23314562 0.2141015 -0.20441017
-0.1940135 0.1382697 -0.046592414 0.15444785 0.1577476 0.18213561 -0.23534107 -0.07708895
0.21501687 0.22729462 0.0123490095 0.0034283996 -0.20182803 0.20237789 0.06708181 -0.19845936
0.21045184 -0.21818 0.08604601 -0.24439064 0.12519771 0.09488994 0.21594176 -0.15444735
0.14068577 -0.21550837 -0.056146294 0.2231693 0.055083573 -0.14605367 -0.11483085 0.24272513
-0.24354151 -0.21332607 0.037203044 -0.028972715 0.12066981 -0.052252054 -0.17860809 0.10164842
0.12554252 0.018435538 -0.13730675 -0.18726224 -0.13844895 0.027665555 -0.023605615 -0.17151296
-0.045272052 -0.09935582 -0.03433621 0.095461756 0.026907802 0.23846287 0.24740571 -0.1450268
-0.07933912 0.118020296 -0.10051179 -0.23853728 0.008340865 0.22477046 0.041306823 0.20509422
0.22687769 -0.22051895 0.06687707 0.14854196 0.16397455 0.03425449 0.028164 0.18367699
0.15908843 0.16797504 -0.04412502 0.03477356 0.06437588 -0.19112945 0.22063604 -0.16567388
-0.073482335 0.07134044 -0.082805276 -0.104218245 0.18977964 0.031602412 0.05549118 -0.07413763
0.2270087 0.19129595 -0.19972381 -0.22804523 -0.21409664 0.20145437 0.15753749 0.14047724
-0.16683793 0.06918913 0.20927465 0.20464519 0.2329765 0.10601121 0.046368986 -0.21162793
0.10421565 0.13969874 0.15895984 -0.05027789 -0.18980774 -0.04927504 -0.014520049 0.047772348
-0.17768192 0.021630079 -0.23555768 -0.16875279 -0.051038623 -0.1258857 -0.21497598 -0.09619728
0.064896405 0.08928782 0.0033330023 0.018031389 -0.22583395 -0.016322106 -0.019405663 0.2257773
-0.040786058 -0.10430932 0.07239702 -0.013678998 0.15004197 0.23144495 0.12992999 -0.1474368
-0.08977097 0.12683639 -0.04186532 -0.0956507 0.1636531 -0.2255246 -0.2445203 0.095871866
0.23601371 0.043395877 -0.16881186 -0.18032444 -0.0020734072 0.15917543 0.17180231 -0.09896478
-0.08315629 0.11591399 0.23961526 0.105651855 -0.15572238 0.0215832 -0.019529462 0.012223184
0.048754275 0.21810317 0.18471882 -0.21790272 0.22047755 0.0861367 -0.24787322 0.22185397
0.103910625 -0.23306382 -0.09533563 0.104999274 0.122110575 -0.21229395 -0.11212313 0.07060507
0.13751918 -0.24197382 0.21552292 -0.021743208 -0.019916743 0.11320686 0.19274712 0.2091119
0.1285502 -0.22109279 -0.021998674 -0.09780222 0.1832242 0.24828082 -0.15402156 0.015286416
00000000: 00df 5a3e 448f 8f3d 082c 46bd f260 3d3e
00000010: e06d 89bc a8f3 e83d da7a 4bbe 52aa 033e
00000020: 1864 433d 80c8 ebbb a8d3 a53d 30b7 1ebe
00000030: ec11 38be cce9 3abe d8c3 3ebe 709b 113e
00000040: f849 01be d032 2e3d 98ed 7abe 40e1 5c3e
00000050: a043 343c 90a1 163d 82bb 78be e0e7 1b3d
00000060: f872 cebd 2c3c 7c3e ba6a 21be f063 62bd
00000070: a8eb 02bd 20ee 1dbe 6c7d 6a3e 8a2b 6b3e
00000080: 0ca3 253e f037 64bd 4064 923d 7c9a 00be
00000090: 96ee 02be 70da 2abd 4cc2 c63d 30be abbd
000000a0: b0a3 5f3d 3474 983d 084c 523e d039 573e
000000b0: d0e5 24bd a856 7bbe 8807 5a3d cc4a 453e
000000c0: 58c4 60be b26b 06be 6ab9 593e ec3e 063e
000000d0: 00d0 3b39 343b 5c3e 084b d4bd b0d7 273e
000000e0: d871 d03d 9049 84bc d0dc c9bd bcc3 583e
000000f0: 8617 573e babd 6e3e 6c3d 5b3e e650 51be
00000100: 7aab 46be 9296 0d3e b0d7 3ebd 9427 1e3e
00000110: 9688 213e c281 3a3e 40fd 70be d0e0 9dbd
00000120: 622d 5c3e ecbf 683e 8053 4a3c 00af 603b
00000130: 02ac 4ebe 263c 4f3e 3062 893d ee38 4bbe
00000140: b080 573e 946a 5fbe e438 b03d 8a41 7abe
00000150: d433 003e a855 c23d d61f 5d3e 7227 1ebe
00000160: ee0f 103e 3aae 5cbe a8f9 65bd 7e86 643e
00000170: 509f 613d 188f 15be 702c ebbd f08c 783e
00000180: f262 79be 2672 5abe 3862 183d 3058 edbc
00000190: bc21 f73d 4006 56bd 0ae5 36be 0c2d d03d
000001a0: 388e 003e 2006 973c 249a 0cbe acc1 3fbe
000001b0: 90c5 0dbe e0a2 e23c 9060 c1bc 18a1 2fbe
000001c0: 306f 39bd 107b cbbd 20a4 0cbd 7481 c33d
000001d0: c06d dc3c 9c2f 743e ec57 7d3e e881 14be
000001e0: 8c7c a2bd a0b4 f13d 20d9 cdbd 1e43 74be
000001f0: 20a8 083c 3a2a 663e 5831 293d 3804 523e
00000200: a052 683e b8cf 61be d8f6 883d 621b 183e
00000210: f2e8 273e 704e 0c3d 30b8 e63c d215 3c3e
00000220: 14e8 223e a601 2c3e 70bc 34bd b86e 0e3d
00000230: 80d7 833d 70b7 43be 6aee 613e 6aa6 29be
00000240: e87d 96bd f01a 923d d095 a9bd 6070 d5bd
00000250: 9855 423e 8871 013d b84a 633d 78d5 97bd
00000260: f874 683e 16e3 433e 6684 4cbe b084 69be
00000270: 263c 5bbe 0e4a 4e3e 8251 213e 44d9 0f3e
00000280: 90d7 2abe 08b3 8d3d 184c 563e 828e 513e
00000290: 6491 6e3e 681c d93d 68ed 3d3d feb4 58be
000002a0: 046f d53d 300d 0f3e 5ec6 223e 30f0 4dbd
000002b0: f65c 42be a0d4 49bd 80e5 6dbc f0ac 433d
000002c0: 40f2 35be 9031 b13c 0836 71be 88cd 2cbe
000002d0: e00d 51bd 2ee8 00be aa22 5cbe 1403 c5bd
000002e0: 68e8 843d 88dc b63d 806e 5a3b 90b6 933c
000002f0: 0441 67be f0b5 85bc a0f8 9ebc 2a32 673e
00000300: 480f 27bd 20a0 d5bd e444 943d e01d 60bc
00000310: 9aa4 193e e8ff 6c3e 5e0c 053e acf9 16be
00000320: d8d9 b7bd 66e1 013e f87a 2bbd 84e4 c3bd
00000330: ae94 273e ecef 66be 8863 7abe 7858 c43d
00000340: 94ad 713e e0bf 313d 04dd 2cbe f8a6 38be
00000350: 00e2 07bb e2fe 223e f2ec 2f3e 0cae cabd
00000360: d84d aabd 5064 ed3d b45d 753e 0060 d83d
00000370: b075 1fbe 40cf b03c 40fc 9fbc c043 483c
00000380: 90b2 473d 7056 5f3e ee26 3d3e e421 5fbe
00000390: dec4 613e 7068 b03d 7ad2 7dbe b02d 633e
000003a0: 18cf d43d 48a8 6ebe 543f c3bd dc09 d73d
000003b0: 1c15 fa3d 9663 59be d0a0 e5bd 6499 903d
000003c0: d4d1 0c3e fcc7 77be 0ab2 5c3e d01e b2bc
000003d0: 7028 a3bc 00d9 e73d 805f 453e 6e21 563e
000003e0: aaa2 033e 2666 62be 9036 b4bc 884c c8bd
000003f0: 209f 3b3e 543d 7e3e d4b7 1dbe e073 7a3c

foundation_model.up_path.0.up.bias f4 [8]
-0.08436957 -0.14947164 0.11291516 -0.053993195 0.2292774 -0.20362231 0.08141899 0.14312556
00000000: f4c9 acbd 180f 19be 1040 e73d f827 5dbd
00000010: b2c7 6a3e 5e82 50be 00bf a63d 828f 123e

foundation_model.up_path.0.conv_block.block.0.weight f4 [8, 16, 3]
0.06818563 0.12524801 0.0066828197 -0.015366914 0.020680483 0.070633024 0.060340807 -0.02420922
0.039080296 -0.01159395 0.080960006 0.01896272 -0.111977234 0.029206881 -0.09672216 -0.05765267
0.09360005 0.106165715 0.13274883 -0.10245845 -0.13353032 -0.019877668 0.031126855 0.069585264
-0.020148033 0.11201714 0.10809534 0.074823156 -0.14418177 -0.12418375 -0.050834317 -0.08777727
0.08565471 0.042199537 -0.08539646 0.13125333 0.14425941 -0.14291282 0.027868362 0.04923385
0.113459826 -0.14414045 0.059758596 -0.028572757 0.062406607 0.0005993842 -0.11896296 0.054688204
-0.007559433 -0.108240046 0.03155194 -0.024896407 -0.020347144 0.09364611 -0.061239325 0.010140941
-0.02985422 0.0064522717 0.055920694 0.035284467 -0.007913988 0.053519238 -0.099851675 0.04706404
0.0132773705 -0.070770144 0.017501658 -0.07802914 -0.09392406 -0.07390967 0.06769736 0.101663955
-0.0021121174 -0.041066945 0.028938616 -0.1366128 -0.012009278 -0.0058853556 -0.05884318 -0.124439865
0.14407597 -0.1200727 0.004544084 0.08236674 -0.11682749 0.08543365 -0.10208608 -0.10231556
0.08045522 -0.11140975 -0.09202944 -0.11322775 0.12452423 0.07619392 0.013890383 -0.014009278
0.106840305 0.09842618 0.050324406 -0.08658205 0.070797466 -0.086255796 -0.08198884 -0.08451567
-0.1163455 0.11426321 -0.0035153492 0.07534598 -0.11683596 -0.01552449 0.12972677 -0.00378179
-0.00093998446 -0.015247019 -0.093809694 0.06980523 -0.10019228 0.058223546 -0.03555218 0.14137566
0.10733069 -0.12094527 -0.0010023748 0.13547534 0.014201371 0.07940099 0.07406272 -0.113059536
-0.031860225 0.14299697 -0.020423094 0.12203607 0.04276781 -0.07480661 0.08771568 -0.004255361
0.005745485 -0.06421054 0.10757939 0.05866728 -0.063027374 -0.099927366 0.05600549 -0.011768595
-0.07698876 -0.11958313 0.07820013 0.07942723 0.02202623 0.07307282 0.030454395 -0.123993106
0.11933121 0.08078784 -0.09573261 0.13236098 0.041991133 0.12361061 0.037146024 0.0131912185
0.08842257 -0.057561874 -0.020100577 -0.0923801 0.045898754 -0.076239504 0.07299379 -0.05994057
0.035050992 -0.13605818 0.04621258 -0.11965999 0.05380424 -0.10258222 -0.0054150536 -0.10448245
0.103183076 0.054747205 0.062260095 -0.13143082 0.13055675 0.010469737 -0.0136019 0.0864195
0.05326054 -0.1439231 -0.076007694 -0.07827767 0.02306668 -0.11838226 -0.08713393 0.06448434
0.08957721 -0.0908461 0.11899866 0.09567514 0.06662506 -0.11522522 0.03173319 0.04185916
0.032338753 0.07418381 0.14333463 -0.13778141 0.071771435 -0.0012534675 0.06273826 0.07090055
-0.056987267 0.0587322 0.02911247 0.061818387 -0.1160574 0.05031534 0.020110866 0.021803888
0.059338037 0.058391668 -0.044542823 -0.12357673 -0.10781919 0.07127723 -0.05212693 -0.012505957
-0.078682736 -0.022925986 0.10546314 0.005869268 0.10432126 0.014637552 0.11908822 0.12308958
0.120975606 0.06876001 -0.030611472 -0.09899351 -0.008472077 0.076914854 -0.048750333 -0.12604755
0.0420925 0.12409195 0.0054963194 -0.03316576 0.115699284 0.14119075 -0.035568956 0.09085514
-0.03447348 -0.08328242 0.049532536 -0.08998215 0.041585546 0.0012717579 0.05241603 0.009775941
00000000: e8a4 8b3d 0441 003e 8efb da3b 82c5 7bbc
00000010: 1e6a a93c 0ca8 903d ec27 773d 6a52 c6bc
00000020: a912 203d 8df4 3dbc 5cce a53d b557 9b3c
00000030: 5254 e5bd 4543 ef3c 4516 c6bd 3525 6cbd
00000040: 62b1 bf3d 696d d93d 4fef 073e bcd5 d1bd
00000050: 2cbc 08be 7ed6 a2bc bffd fe3c b882 8e3d
00000060: 7d0d a5bc 3e69 e53d 1761 dd3d e23c 993d
00000070: 63a4 13be 0d54 febd a537 50bd 92c4 b3bd
00000080: bd6b af3d 6cd9 2c3d 57e4 aebd 4667 063e
00000090: bdb8 133e bd57 12be 314c e43c 6fa9 493d
000000a0: a05d e83d 8e99 13be 6ec5 743d 6a11 eabc
000000b0: 129e 7f3d fe1f 1d3a daa2 f3bd bd00 603d
000000c0: 1fb5 f7bb f5ac ddbd 9b3c 013d 8df3 cbbc
000000d0: 0eaf a6bc 88c9 bf3d 16d6 7abd 3026 263c
000000e0: d690 f4bc 946d d33b 190d 653d 7286 103d
000000f0: aca9 01bc fd36 5b3d 097f ccbd 39c6 403d
00000100: 5489 593c f0ef 90bd a35f 8f3c becd 9fbd
00000110: 425b c0bd f45d 97bd eaa4 8a3d 3135 d03d
00000120: 736b 0abb d035 28bd ad10 ed3c 3ae4 0bbe
00000130: 90c2 44bc f1d9 c0bb 8c05 71bd 54da febd
00000140: a788 133e ade8 f5bd 8ae6 943b e5af a83d
00000150: 4043 efbd d6f7 ae3d 8212 d1bd d28a d1bd
00000160: b5c5 a43d cc2a e4bd ee79 bcbd f3e3 e7bd
00000170: 8f06 ff3d 8f0b 9c3d 7d94 633c 2c87 65bc
00000180: 17cf da3d aa93 c93d f720 4e3d ee51 b1bd
00000190: 43fe 903d e1a6 b0bd c4e9 a7bd 8d16 adbd
000001a0: 8d46 eebd d402 ea3d c661 66bb fe4e 9a3d
000001b0: b147 efbd 6e5a 7ebc 18d7 043e e8d7 77bb
000001c0: 4a69 76ba a2ce 79bc 4c1f c0bd 0bf6 8e3d
000001d0: 9c31 cdbd d07b 6e3d 2a9f 11bd c8c4 103e
000001e0: 31d0 db3d 27b2 f7bd 1e62 83ba 0cba 0a3e
000001f0: deac 683c fc9c a23d 32ae 973d c28b e7bd
00000200: de7f 02bd cc6d 123e 554e a7bc 0cee f93d
00000210: 4d2d 2f3d 3534 99bd 47a4 b33d 8e70 8bbb
00000220: 9f44 bc3b d180 83bd 9552 dc3d 1a4d 703d
00000230: 7f14 81bd b8a6 ccbd 0366 653d 11d1 40bc
00000240: 48ac 9dbd 00e8 f4bd 6427 a03d beaa a23d
00000250: 5a70 b43c 34a7 953d 7f7b f93c 19f0 fdbd
00000260: ec63 f43d 1874 a53d 750f c4bd a389 073e
00000270: e5fe 2b3d 8f27 fd3d 6e26 183d fb1f 583c
00000280: e416 b53d 00c6 6bbd f7a9 a4bc c731 bdbd
00000290: 5500 3c3d 7523 9cbd c57d 953d 3e84 75bd
000002a0: a191 0f3d d652 0bbe 6749 3d3d 4c10 f5bd
000002b0: d661 5c3d a116 d2bd c370 b1bb e5fa d5bd
000002c0: a651 d33d 9b3e 603d 7104 7f3d cd95 06be
000002d0: abb0 053e 4389 2b3c 81da 5ebc b5fc b03d
000002e0: b927 5a3d 9460 13be eca9 9bbd 0b50 a0bd
000002f0: 56f6 bc3c 6672 f2bd 4673 b2bd 5e10 843d
00000300: 4274 b73d 850d babd 92b5 f33d 54f1 c33d
00000310: b872 883d 33fb ebbd a9fa 013d 8374 2b3d
00000320: a475 043d aeed 973d 50c6 123e 9216 0dbe
00000330: e7fc 923d 644b a4ba eb7c 803d 4f34 913d
00000340: 7b6b 69bd 2d91 703d 467d ee3c 4735 7d3d
00000350: 81af edbd 7517 4e3d 8bbf a43c 119e b23c
00000360: 710c 733d 1a2c 6f3d 8972 36bd cc15 fdbd
00000370: 4fd0 dcbd ccf9 913d 0c83 55bd c9e5 4cbc
00000380: 6a24 a1bd 47cf bbbc 0ffd d73d fd52 c03b
00000390: 62a6 d53d 58d2 6f3c 86e4 f33d 6416 fc3d
000003a0: 0fc2 f73d 0cd2 8c3d e9c4 fabc 1cbd cabd
000003b0: 77ce 0abc 8985 9d3d 6eae 47bd 9c12 01be
000003c0: 2f69 2c3d ec23 fe3d 781a b43b d2d8 07bd
000003d0: bff3 ec3d 4f94 103e c1b0 11bd 4212 ba3d
000003e0: 1034 0dbd f98f aabd a1e2 4a3d 9048 b8bd
000003f0: 9b55 2a3d 1db1 a63a 31b2 563d 452b 203c

foundation_model.up_path.0.conv_block.block.0.bias f4 [8]
-0.09355008 0.05353391 0.094806544 0.12392496 -0.010244454 0.09175074 0.10500141 -0.08124864
00000000: 2f97 bfbd 6046 5b3d ef29 c23d 5fcc fd3d
00000010: 5bd8 27bc d0e7 bb3d fb0a d73d b065 a6bd

foundation_model.up_path.0.conv_block.block.2.weight f4 [8, 8, 3]
0.13316797 -0.14534822 0.11735967 0.16016048 -0.102114685 -0.13911985 0.07533098 0.15024488
-0.06295124 -0.03943912 0.036883496 0.16030245 0.011260933 -0.14030047 -0.15732189 -0.14520614
-0.20254737 0.14245278 -0.08618914 -0.13477838 -0.10081267 0.10120488 -0.08995519 0.101485156
0.17391704 0.13248573 0.1849927 0.06600458 -0.09104168 0.01581047 0.19995242 0.032412093
0.15860932 0.04476519 0.15108725 0.028173005 -0.012614095 0.14550103 0.11423182 -0.1266857
0.18907729 0.18464416 0.07853784 0.1107548 -0.20056397 -0.061235826 0.16135721 -0.18609484
-0.09774668 0.079098314 0.18499748 0.029819895 0.090887524 -0.14234114 -0.0033800928 -0.055271808
0.1582235 0.018775675 -0.092526704 0.19545561 -0.0396937 0.12769674 -0.12768686 0.079725385
0.013311711 0.19523703 0.16936536 -0.14960581 -0.18532027 0.06527959 -0.18914352 0.049177848
0.06851385 -0.077234365 -0.101776935 0.13310353 -0.14069444 -0.039626464 0.04490484 0.15451147
-0.18702568 0.04805982 0.03301773 -0.039848533 -0.07517079 -0.084467255 -0.17732084 -0.12908739
-0.20140927 0.10604508 0.06949819 -0.16892397 0.19247681 -0.13626254 0.08848021 -0.004883538
-0.13935593 0.18569426 0.08823318 -0.014962934 -0.09731096 0.07586794 -0.1063081 -0.10216403
0.05698311 -0.19615829 0.039492242 -0.07581745 -0.037406713 0.09768 0.20253019 -0.18180552
-0.002612736 -0.032633334 -0.04538866 -0.020341318 -0.02779895 0.08421207 -0.00435864 -0.14936021
0.08506401 -0.07121302 -0.1572894 -0.09422808 0.07525143 0.20130178 -0.12753952 0.06280927
-0.13596043 0.018234232 0.040215652 0.1651196 0.103333406 -0.12048044 -0.08979459 0.10746511
-0.13695969 0.20112237 -0.00926291 -0.06518483 0.06422826 0.026653377 -0.17170133 0.18503708
-0.11173824 -0.114313334 0.10427584 0.074409276 -0.1582087 -0.007257562 -0.06270488 -0.18871558
-0.084706865 0.068657495 0.014309993 0.059660815 -0.17301323 -0.16350542 0.09809148 -0.009668184
-0.057536867 -0.0637876 0.15217657 -0.05793384 0.026149455 -0.14435929 0.109271556 -0.08548028
-0.027384892 -0.06455355 0.034509473 0.074966826 -0.016332569 -0.17448778 -0.18170887 0.05483166
0.12463431 0.1456768 0.07571669 -0.07998563 0.13415937 0.034253363 0.07377453 -0.10780848
-0.049889117 -0.18773924 0.036299564 -0.06881323 -0.005580595 -0.19853427 0.080714986 0.051746175
00000000: 2f5d 083e 2ad6 14be 445a f03d 1c01 243e
00000010: 8121 d1bd 6f75 0ebe 2147 9a3d cbd9 193e
00000020: 94ec 80bd ea8a 21bd 2613 173d 5326 243e
00000030: c77f 383c edaa 0fbe fd18 21be ebb0 14be
00000040: 9468 4fbe 24df 113e ef83 b0bd 5803 0abe
00000050: e076 cebd 8144 cf3d 6d3a b8bd 73d7 cf3d
00000060: 4f17 323e 57aa 073e ba6e 3d3e 692d 873d
00000070: 0f74 babd f584 813c 54c0 4c3e 8bc2 043d
00000080: 7b6a 223e b45b 373d 9eb6 1a3e 13cb e63c
00000090: 59ab 4ebc 39fe 143e 5ff2 e93d e5b9 01be
000000a0: 7a9d 413e 5c13 3d3e 72d8 a03d 6ad3 e23d
000000b0: a460 4dbe 6bd2 7abd d33a 253e a58f 3ebe
000000c0: 692f c8bd 4cfe a13d fb6f 3d3e da48 f43c
000000d0: 3d23 ba3d e0c1 11be 8c84 5dbb b164 62bd
000000e0: 5705 223e 72cf 993c a47e bdbd 8425 483e
000000f0: dc95 22bd efc2 023e 58c0 02be 1047 a33d
00000100: 5d19 5a3c 37ec 473e 1d6e 2d3e 4432 19be
00000110: 99c4 3dbe 4eb1 853d d7ae 41be b66e 493d
00000120: fd50 8c3d 0d2d 9ebd 6d70 d0bd 4b4c 083e
00000130: 3412 10be 5c4f 22bd 23ee 373d 4138 1e3e
00000140: a983 3fbe 60da 443d 993d 073d 3738 23bd
00000150: 25f3 99bd 2bfd acbd 9893 35be 7c2f 04be
00000160: 3b3e 4ebe 2a2e d93d 1155 8e3d 68fa 2cbe
00000170: a418 453e 6888 0bbe 1d35 b53d 1606 a0bb
00000180: 52b3 0ebe a326 3e3e 99b3 b43d 1827 75bc
00000190: f84a c7bd a760 9b3d 10b8 d9bd 603b d1bd
000001a0: 1f67 693d b8dd 48be 9ec2 213d 2e46 9bbd
000001b0: c837 19bd 740c c83d 1364 4f3e 3a2b 3abe
000001c0: 703a 2bbb 88aa 05bd 76e9 39bd d6a2 a6bc
000001d0: a0ba e3bc 6177 ac3d ecd2 8ebb e2f1 18be
000001e0: 0a36 ae3d 22d8 91bd 7910 21be a7fa c0bd
000001f0: 6c1d 9a3d 0e22 4e3e b899 02be 26a2 803d
00000200: 3639 0bbe f55f 953c 2bb9 243d 1d15 293e
00000210: 77a0 d33d 73be f6bd 3ae6 b7bd ab16 dc3d
00000220: 293f 0cbe 06f3 4d3e 76c3 17bc a07f 85bd
00000230: 1b8a 833d 2f58 da3c 79d2 2fbe 5c7a 3d3e
00000240: 05d7 e4bd 1c1d eabd 928e d53d e463 983d
00000250: 7601 22be d8d0 edbb 6b6b 80bd a83e 41be
00000260: cb7a adbd 4d9c 8c3d 7674 6a3c e65e 743d
00000270: 612a 31be f76d 27be 30e4 c83d 4e67 1ebc
00000280: c7ab 6bbd 13a3 82bd 2dd4 1b3e 094c 6dbd
00000290: 6237 d63c ecd2 13be c4c9 df3d 4910 afbd
000002a0: 4856 e0bc a734 84bd ce59 0d3d 3588 993d
000002b0: e1cb 85bc edac 32be e411 3abe 2a97 603d
000002c0: 4640 ff3d 4d2c 153e 5a11 9b3d 82cf a3bd
000002d0: 1361 093e 414d 0c3d 1a17 973d b1ca dcbd
000002e0: 8858 4cbd b73e 40be daae 143d f3ed 8cbd
000002f0: 6ddd b6bb 914c 4bbe e64d a53d ccf3 533d

foundation_model.up_path.0.conv_block.block.2.bias f4 [8]
0.089092664 -0.03729911 -0.036763214 0.17298678 -0.1504832 0.021044288 0.029326826 0.06685893
00000000: 3776 b63d f4c6 18bd 0695 16bd 7223 313e
00000010: 4518 1abe 1265 ac3c d03e f03c 56ed 883d

foundation_model.up_path.1.up.weight f4 [8, 4, 2]
-0.29837313 0.2241181 -0.20902033 -0.033707406 -0.118101284 0.34586135 0.049467377 -0.08834493
0.07224821 -0.072314 0.14675815 -0.11360409 0.16861373 0.22628622 -0.13000047 0.13232155
-0.3049294 -0.041647788 0.1625419 -0.30752575 0.22223523 -0.32965347 -0.123463415 0.09815946
0.34094232 0.23794256 0.038672682 0.13164552 -0.28731176 0.28942728 0.21177498 0.19473436
0.28866988 -0.12647094 0.054600693 0.09512961 0.3393103 -0.31566754 0.1441837 -0.14079328
-0.15854245 -0.052899856 -0.32133314 0.25586495 0.24309766 0.28808984 0.17186186 0.31661507
-0.18639043 -0.1620239 -0.16256426 -0.052832507 -0.08475895 0.071526825 0.28950673 0.07031843
-0.34886956 0.10370586 -0.24102569 0.005223259 0.24355812 0.2542482 0.28295472 -0.3345451
00000000: 5dc4 98be 377f 653e 6d09 56be c710 0abd
00000010: 16df f1bd bd14 b13e 4e9e 4a3d 30ee b4bd
00000020: dff6 933d 5d19 94bd c547 163e 43a9 e8bd
00000030: 14a9 2c3e 93b7 673e d81e 05be 4d7f 073e
00000040: b51f 9cbe df96 2abd 6271 263e 0474 9dbe
00000050: a291 633e 57c8 a8be 63da fcbd d407 c93d
00000060: fe8f ae3e 37a7 733e 3f67 1e3d 15ce 063e
00000070: 871a 93be d02f 943e 8adb 583e 7268 473e
00000080: 8acc 933e 9981 01be faa4 5f3d 50d3 c23d
00000090: 14ba ad3e 2d9f a1be e4a4 133e 1d2c 10be
000000a0: f458 22be 85ad 58bd c785 a4be bb00 833e
000000b0: 98ee 783e 8380 933e 8efc 2f3e 5f1b a23e
000000c0: 22dd 3ebe 98e9 25be 3f77 26be e666 58bd
000000d0: 1a96 adbd a87c 923d 3a3a 943e 1c03 903d
000000e0: 089f b2be bd63 d43d 70cf 76be df27 ab3b
000000f0: 4d67 793e d22c 823e 71df 903e 7f49 abbe

foundation_model.up_path.1.up.bias f4 [4]
-0.25278696 0.10082622 0.09858982 0.061172187
00000000: 4b6d 81be fa7d ce3d 76e9 c93d b08f 7a3d

foundation_model.up_path.1.conv_block.block.0.weight f4 [4, 8, 3]
-0.17966753 0.09759627 -0.077318415 -0.07357434 -0.061012346 0.01625329 0.08572934 0.13133748
-0.11837384 -0.05356245 0.112401694 -0.082711324 0.14444764 -0.105468474 -0.09445584 0.03445837
-0.20242287 0.1399806 0.06778127 0.14839232 -0.14794655 -0.18709987 0.16846845 -0.14341262
-0.116367206 -0.19679232 0.18951628 0.14180222 0.19988231 -0.17082804 -0.07461333 0.061652124
-0.06804353 -0.17740877 0.18682931 0.20337746 -0.12107578 -0.09145477 -0.03317529 0.021534754
0.066945195 -0.0020209942 -0.1464089 0.11629006 0.10721725 0.15270665 0.091174714 0.013402816
0.037281785 0.13938121 0.13944565 -0.06714176 0.10064937 -0.11437896 0.067314185 0.08250002
-0.13908176 -0.18661645 0.10853856 -0.15285546 -0.17367263 -0.16115242 -0.0818533 -0.09726592
-0.0863521 0.14131488 -0.08926621 -0.01586398 -0.17619051 -0.080762796 0.1338741 -0.03282367
-0.09342721 0.14880392 0.15584198 0.14985515 -0.053058945 -0.100129314 -0.047603983 -0.0689486
-0.0031925302 0.10614709 0.11528551 -0.053853747 -0.015057761 0.19351983 -0.14357316 0.15857266
-0.03255252 0.15555345 -0.15166087 -0.016237644 0.1445468 0.107409924 -0.10746005 0.034035407
00000000: c4fa 37be 8ee0 c73d 1e59 9ebd 25ae 96bd
00000010: 15e8 79bd 9f25 853c dd92 af3d 557d 063e
00000020: fc6d f2bd 4d64 5bbd dc32 e63d 8e64 a9bd
00000030: 15ea 133e dbff d7bd 1072 c1bd 3824 0d3d
00000040: f147 4fbe 1357 0f3e e8d0 8a3d 28f4 173e
00000050: 4d7f 17be 1c97 3fbe fe82 2c3e c2da 12be
00000060: ee51 eebd ed83 49be 8e10 423e 9a34 113e
00000070: f3ad 4c3e 8ced 2ebe e0ce 98bd f086 7c3d
00000080: 685a 8bbd a5aa 35be 2f50 3f3e 2e42 503e
00000090: 94f6 f7bd a34c bbbd d0e2 07bd a769 b03c
000000a0: 901a 893d a872 04bb 37ec 15be 7c29 ee3d
000000b0: b894 db3d 225f 1c3e cfb9 ba3d 7c97 5b3c
000000c0: c9b4 183d f3b9 0e3e d7ca 0e3e 9e81 89bd
000000d0: 4221 ce3d 843f eabd 05dc 893d c5f5 a83d
000000e0: 736b 0ebe 6218 3fbe 7749 de3d 2486 1cbe
000000f0: 3dd7 31be 2405 25be b4a2 a7bd 5b33 c7bd
00000100: 5fd9 b0bd d9b4 103e 34d1 b6bd 2df5 81bc
00000110: 496b 34be f766 a5bd 4b16 093e 1d72 06bd
00000120: c456 bfbd 0e60 183e 0a95 1f3e a173 193e
00000130: 5654 59bd 9910 cdbd 65fc 42bd ec34 8dbd
00000140: c539 51bb a563 d93d cf1a ec3d bf95 5cbd
00000150: d4b4 76bc 102a 463e d804 13be df60 223e
00000160: cb55 05bd 6749 1f3e fd4c 1bbe cf04 85bc
00000170: 1404 143e bcf9 db3d 0414 dcbd b668 0b3d

foundation_model.up_path.1.conv_block.block.0.bias f4 [4]
-0.021242388 0.05920945 0.16452755 0.18781032
00000000: 8404 aebc 9c85 723d e979 283e 5951 403e

foundation_model.up_path.1.conv_block.block.2.weight f4 [4, 4, 3]
-0.18549642 -0.17722367 -0.21900623 0.1497502 0.2505184 0.24431472 -0.2855278 0.19375704
0.0046155765 0.20209208 0.057677913 0.04515057 -0.018375518 -0.22348695 -0.04837515 -0.2719489
0.10221652 -0.21828549 0.04569109 -0.26414427 0.1262626 -0.20825836 -0.21383643 -0.15842532
-0.0004585844 0.17099676 0.2789677 0.09552593 0.263377 0.20437437 -0.16542663 -0.03078197
-0.18998003 0.25837958 0.17195463 0.11300977 0.24753864 -0.077794336 -0.17597549 0.18659602
-0.08808836 -0.20638074 -0.15300569 0.16103463 0.025063911 0.101215556 -0.27862257 0.011019412
00000000: c6f2 3dbe 1f7a 35be 2b43 60be 1e58 193e
00000010: f343 803e a32d 7a3e b330 92be 3f68 463e
00000020: 433e 973b 3af1 4e3e ad3f 6c3d ceef 383d
00000030: 4188 96bc c3d9 64be 0525 46bd e33c 8bbe
00000040: e556 d13d 3b86 5fbe 9526 3b3d eb3d 87be
00000050: fc4a 013e ae41 55be f0f7 5abe 3f3a 22be
00000060: 286e f0b9 c619 2f3e dbd4 8e3e 19a3 c33d
00000070: 5ad9 863e 8447 513e 9965 29be 782a fcbc
00000080: 208a 42be 544a 843e e014 303e ab71 e73d
00000090: c57a 7d3e a352 9fbd eb32 34be 0713 3f3e
000000a0: ac67 b4bd 7955 53be 86ad 1cbe 43e6 243e
000000b0: d552 cd3c 1a4a cf3d 9ea7 8ebe c48a 343c

foundation_model.up_path.1.conv_block.block.2.bias f4 [4]
0.085069336 0.06300095 -0.096032895 0.27087492
00000000: d538 ae3d a406 813d e5ac c4bd 1eb0 8a3e

foundation_model.last.weight f4 [8, 4, 1]
-0.4408282 -0.21309054 -0.04415244 -0.020295084 0.4003932 -0.18170089 0.13981235 0.36982358
0.38458633 -0.27279478 0.48129988 -0.4629373 0.10565972 -0.14682859 0.18014616 -0.20595616
0.3943761 -0.08927363 -0.092324376 0.050521076 0.102298975 -0.2583472 0.4537776 -0.31885546
-0.38765824 -0.28523874 -0.44847274 -0.100708306 -0.44200647 -0.4352035 -0.03149861 0.19642985
00000000: 3cb4 e1be 6834 5abe 30d9 34bd e041 a6bc
00000010: 5600 cd3e cc0f 3abe f82a 0f3e 8459 bd3e
00000020: 80e8 c43e c2ab 8bbe f06c f63e 1e06 edbe
00000030: 2064 d83d 3c5a 16be 3c78 383e 2ce6 52be
00000040: aaeb c93e 18d5 b6bd 9014 bdbd 30ef 4e3d
00000050: 2082 d13d 1646 84be 8a55 e83e 0641 a3be
00000060: 247b c6be d00a 92be 389e e5be 2840 cebd
00000070: ac4e e2be fed2 debe b004 01bd e824 493e

foundation_model.last.bias f4 [8]
0.38838428 -0.31250787 -0.21455795 0.089912355 -0.38351685 -0.13762575 0.37931013 -0.056905568
00000000: 4eda c63e 0801 a0be 14b5 5bbe f823 b83d
00000010: 525c c4be c4ed 0cbe f034 c23e d015 69bd
