wandb/run-20230701_195417-18zr7q09/files/checkpoints/best.pt (torch, 119813 bytes, 66 tensors)

foundation_model.down_path.0.block.0.weight f4 [4, 8, 3]
00000000: 20d3 873e 71f8 0cbd b282 4b3e 579a 043e
00000010: d4f0 23bc 2e2f 6c3d 7345 953e b77f 913d
00000020: ecc7 543c b189 933d 4468 5e3e 6aad 9bbd
00000030: 64eb 013e 1461 f83c ac38 74be be1c 053e
00000040: 0d0d 783e cadc bd3d 0d9f e4bc 9aca 6e3e
00000050: 2304 57bc f6e4 e43d a38a 023d 25a5 efbd
00000060: 31a8 c93d a2c2 eebd 311b 24bd 764d 6d3b
00000070: 61c9 1c3e d335 6a3e 9cea d3bd a3d1 083e
00000080: e881 7c3e 8048 a9bd 8d63 3c3e b20f c3bd
00000090: 27f6 d2bb 6c62 42be 53d9 66bc 2344 de3c
000000a0: 0fb0 023e ad0b 68bb 8ffa 103e fd00 653e
000000b0: 05ad 543e 00ea 8a3d 0cfc 4f3e 0b5e a8bd
000000c0: 068f e53c 0671 273d aef8 20be e7fe ffbd
000000d0: ba70 0c3e a2f6 31be b62e 3abe 910a 33be
000000e0: 0d3b 9dbd 72f4 00bd 7004 883c 24e8 b2bd
000000f0: 9b87 cbbd 1722 0d3e d73b 043d 7c5c d93d
00000100: c223 a8bd cb83 c9bd 47f0 94bd 46bb 273d
00000110: c518 bbbc ca30 f43d db0f a7bd 5057 38bd
00000120: d702 61be 4fca 83be eb07 ae3d 6476 d5bc
00000130: 7279 86be bc27 d83d 3273 32be eadf a8bd
00000140: 5d54 ccbd f42a c5bd 5abe d23d cbda 1c3d
00000150: b7ae 433e 13c0 2dbb 1d37 04be 2baf f43b
00000160: 3dc1 e2bd 059d 2fbe ac6d 2b3d b83c 0abe
00000170: a82a d33d 7fec 91bd 58fa 873d 6f9a 2dbd
0.26528263 -0.03441662 0.19874075 0.12949501 -0.010006148 0.05766218 0.29154548 0.07104438
0.012987118 0.07203997 0.21719462 -0.076014355 0.1268745 0.030319728 -0.23849744 0.12999246
0.24223728 0.09270628 -0.027907873 0.23319474 -0.013123545 0.11176483 0.031870496 -0.11701421
0.09846533 -0.11658217 -0.040064994 0.00362095 0.15311195 0.22872095 -0.103474826 0.1336122
0.2465893 -0.082657814 0.1839735 -0.09524478 -0.006438035 -0.18982857 -0.0140899 0.0271321
0.12762474 -0.003540735 0.1415808 0.22363658 0.20769127 0.06782913 0.20310992 -0.08221062
0.0280223 0.040879272 -0.15719864 -0.12499791 0.13714877 -0.17379239 -0.18181881 -0.174845
-0.07677279 -0.03148312 0.016603678 -0.087356836 -0.09937974 0.13782535 0.03228363 0.10613343
-0.08209945 -0.09839591 -0.07272392 0.040950082 -0.02283896 0.11923368 -0.08157321 -0.045005143
-0.2197374 -0.25740287 0.08497604 -0.02605743 -0.2626453 0.10554454 -0.17426756 -0.08245833
-0.099770285 -0.09627333 0.10290213 0.038294595 0.19109617 -0.002651219 -0.12911649 0.0074671707
-0.110720135 -0.17149742 0.041852638 -0.13499725 0.103108704 -0.07125186 0.06639546 -0.042383607

foundation_model.down_path.0.block.0.bias f4 [4]
00000000: 66f2 7cbb b4f6 f6bd 7dff 9d3d 0240 eb3d
-0.003859663 -0.12058774 0.07714746 0.11486818

foundation_model.down_path.0.block.2.weight f4 [4, 4, 3]
00000000: fcd9 c03e 9e0a 403e 4d25 6a3e 5b89 36bd
00000010: f1d6 513d d631 aa3e e28e ecbd f56d 59be
00000020: f539 35be da5d 0b3d d692 81be ceb1 b0be
00000030: b054 983d 8030 82be 775a 42bd db88 14be
00000040: 83c8 16be d200 e9bd 4283 45be eb58 883e
00000050: f544 21bd 82ec 8d3e e234 983e bb2d 963e
00000060: 6b7d 6cbe 1ee8 a4bd 6997 a7be 2d20 313e
00000070: 9ce1 06be 36c0 a5be 2802 693e 7835 1d3e
00000080: 2f08 413e f07e a73d 081d 9b3e 6de0 56be
00000090: 7312 383e ff57 adbd a2b1 e1bd 27de 3cbe
000000a0: 6d51 7e3d 8e0c a6be 07eb 14be c179 a83d
000000b0: 9c38 4f3d 2e2a 2e3e 1048 37be 1240 353e
0.3766631 0.1875405 0.22865792 -0.044564586 0.051230375 0.33241147 -0.1155069 -0.21233352
-0.1769789 0.03402505 -0.2530734 -0.34510654 0.07438028 -0.25427628 -0.047449555 -0.14505331
-0.14724927 -0.113771096 -0.19288352 0.2663034 -0.039372403 0.27719504 0.29727846 0.29331765
-0.23094718 -0.08052085 -0.32732704 0.1729743 -0.13172 -0.32373208 0.22754729 0.15352428
0.18850778 0.08178508 0.30295587 -0.20984049 0.17975788 -0.084640495 -0.11020209 -0.1844412
0.062089372 -0.32431453 -0.14542781 0.08226348 0.050591096 0.17008278 -0.17898583 0.17700222

foundation_model.down_path.0.block.2.bias f4 [4]
00000000: 6229 f5bd b008 15be 1dd7 4bbd 9bc7 1a3e
-0.11970784 -0.14554095 -0.049765695 0.15115206

foundation_model.down_path.1.block.0.weight f4 [8, 4, 3]
00000000: 25cc 1fbe b44e 39be abb1 66be c077 57be
00000010: 1449 633d 2d2e 0d3e deb6 263e 0ba8 e9bd
00000020: da2b 613e 52c7 80bd bed7 d5bc 9c65 3b3e
00000030: cdb8 c83d 597c d93d 9486 afbd 6c36 49be
00000040: 018f c33d ca21 8dbe f544 293d edfc a4be
00000050: 521a 953c 3eb7 f43d f950 203e a987 013e
00000060: dadd 853e 0b45 473e b523 533e 54ba 2abc
00000070: bee8 0cbe c5fe 063e 0f15 f23d 61dd 2d3e
00000080: e64a 34be 37fa 32be a8ca 273e ba15 1f3e
00000090: 3c6b b2be 9e3f ce3d 49c9 a93d 25bf a53e
000000a0: dd0c 64be 949b 013e 6362 3cbc 3a0e 9a3e
000000b0: 4df1 963e f2fb de3c c81a 793e c24f 8d3e
000000c0: 5594 85be bdfc e63d ec83 603e 5bf0 743d
000000d0: daaa fbbd 9181 b83d 0d0f 643e 76b3 71bd
000000e0: ac42 863e 9ffb 8d3e 2871 7b3e bcdf fd3d
000000f0: 556c a43e 49d5 423e 3551 b33e 410a 96be
00000100: 1b4a a0be a4c7 913a b506 eebd e83c 2c3e
00000110: 9bf2 7ebe f40d 6dbd 5789 333e 7567 8ebe
00000120: d8af 643e d6f3 1e3d 74db 2e3e c376 e13d
00000130: be92 14bd 20cf 98be c504 dabc 2a05 9cbe
00000140: 29b5 62bd f314 36be 30e5 a8bd 578d 4b3e
00000150: e5aa b0be 1302 a83c e137 5abe 18cc 1dbe
00000160: 0891 053e 1e69 fabd 7ff2 463e ba46 34be
00000170: 88ca 03be 3e71 92bd 9eda 253e d3f0 183e
-0.15605219 -0.18096429 -0.22528712 -0.21041775 0.055489615 0.13787146 0.16280696 -0.11409005
0.21989384 -0.06288017 -0.02610385 0.1830048 0.09800873 0.106194206 -0.085705906 -0.19649667
0.0954876 -0.27564842 0.04132553 -0.32224217 0.018201027 0.11949013 0.15655889 0.12649406
0.26145822 0.19459932 0.2061909 -0.010420401 -0.13760659 0.13183124 0.11820423 0.1697898
-0.17606696 -0.17478262 0.16385901 0.15535632 -0.34847438 0.10070728 0.08290345 0.32372394
-0.22270532 0.12657005 -0.011498067 0.3008898 0.29480973 0.027219746 0.24326622 0.27599913
-0.2608973 0.11278675 0.21925324 0.059799533 -0.12288447 0.09009088 0.22271366 -0.059009038
0.26222742 0.27731034 0.24554884 0.123961896 0.321139 0.19026674 0.35022894 -0.29304698
-0.31306538 0.001112212 -0.11622373 0.16820109 -0.24897234 -0.057874635 0.1753286 -0.27813306
0.22332704 0.03880676 0.17075902 0.1100898 -0.036272757 -0.29845524 -0.026613602 -0.3047269
-0.05534855 -0.17781429 -0.08246839 0.19878136 -0.34505382 0.020508802 -0.21310379 -0.15409887
0.13043606 -0.12227081 0.19428442 -0.17605105 -0.12870228 -0.071505055 0.16196677 0.14935617

foundation_model.down_path.1.block.0.bias f4 [8]
00000000: 873b eb3d 653d 213d 9abf 6abe bb9a 8c3a
00000010: 737f 21be a02b 1a3e 1b21 82be a972 e53d
0.11485963 0.03936519 -0.22924653 0.0010727266 -0.15771274 0.15055704 -0.25415882 0.1120351

foundation_model.down_path.1.block.2.weight f4 [8, 8, 3]
00000000: 7b7c 203e 40ac f9bd b8ec d9bd b0d5 4bbd
00000010: 1304 033e 0c4c 42be 4ab9 ecbd f6a0 e9bd
00000020: 92d8 87be 5ab1 abbd 80fb 673e d791 f2bb
00000030: 188a 11be 1142 343e df4d 56bd ea01 d1bd
00000040: 989a 86be 8592 d7bd 29ec e3bd a51e e73d
00000050: 9e4b 8ebe e579 133e 1d2b 5b3e c197 f6bc
00000060: a9de 8cbd f753 32bd cf34 893d 5820 973d
00000070: 474e 3c3e 79c2 4f3e b8ce 643e ef65 8fbd
00000080: e2ce e8bd a8f5 3b3d 51e7 50be 6ee7 4abe
00000090: f204 e0bc de66 86bc 8d5e 66be c165 b43c
000000a0: 36b4 853e 2d98 803c b8e7 2d3e 9c37 cfbc
000000b0: 1e06 2b3e 3ab7 a8bc ff6b 42be f9e2 16be
000000c0: 17ef a2bd d46a dabd 1db0 9fbd ec91 acbd
000000d0: 6053 253e a381 dfb9 8694 ba3d ed45 8f3d
000000e0: 0875 a53d 5a99 22be 057a 5dbe 67c0 e4bc
000000f0: db71 38be ec54 aabd 6e59 6bbd 30e8 393e
00000100: 9c23 b5bc 567b 8b3d 05cf f23d 34bf 5a3e
00000110: 653a 5a3e 6f4e b1bb 0c8c 353c 94c2 fa3d
00000120: e099 51be 182f 703c dc1d 0fbe 3de8 c93d
00000130: 3832 583e f1ea 143b c7e6 ed3d 4d36 bb3c
00000140: 7075 863e 8a1d 9abc 4e5a 29bd fb2a 893d
00000150: 7ff5 3ab9 3098 b13d ddb1 693e af12 e33d
00000160: 19cf 1d3e 8d7f 1d3e a286 863e d09f 3f3d
00000170: 1b41 443e d026 96bd 9445 abbd 1a11 bf3c
00000180: 0a8c f5bd 20c0 b83d a146 dfbd 2c8f 29be
00000190: f617 a0bd 9f6e bbbd 2f2b 1c3d 5a95 983d
000001a0: 6b40 78be 55fe 393e 33cd fa3c 70eb 433e
000001b0: a0a1 53bd cfe8 a8bd 967e 003e 8dbf f8bc
000001c0: e41d aebd ac83 0fbe 0f79 98bc b0b4 7ebe
000001d0: c6d7 3dbe 1fc3 c5bd ad61 f03d c136 12be
000001e0: d1ce 403d 8ed6 51be 4115 abbd 5e5d 0e3e
000001f0: 813d 6d3e 6dcb 0bbc f528 543d 6794 433e
00000200: 0dc4 763d 5744 9e3d e7ba 813d 18a4 d03d
00000210: 09fc 15be 2f00 4cbe 9b40 b33d c255 db3d
00000220: 5de3 263d b0de b7bd 95a5 553e f1e1 7a3e
00000230: 53d7 043e 5808 3abd 2b9e b0bd 171a 12be
00000240: 5681 473d fc90 723c 6f69 bebd 0855 273c
00000250: f5be c4bd 4412 09bd 36fd ab3d 91fe ce3d
00000260: f0da 3b3e 2275 89be 0653 1dbe 874f d83d
00000270: 9897 9bbd 79c5 a2bd af37 00be e03e bf3d
00000280: 1949 193e b9f8 72bd 6df7 273d 3574 e1bd
00000290: bfcd aa3b c1ee bdbd caa4 253e f5c2 07bc
000002a0: ba02 163e 2819 6cbd fed0 6a3e 04b7 30be
000002b0: fb18 81be 34e2 30bd 6bc5 9c3d bdb8 74bd
000002c0: f658 873d c963 763e 5f02 cd3d f332 8abd
000002d0: d331 7dbd 6c1c 99bd d6f4 7b3d 0d9a 17bd
000002e0: cf01 83be 6ed8 23bd 6bfa f33d 0b60 d3bd
000002f0: f0d3 e6bd d703 d63d e5d0 12bd 8849 06be
0.15672486 -0.12191057 -0.10640854 -0.049764335 0.12794523 -0.18974322 -0.115587786 -0.11407654
-0.26532418 -0.083834365 0.22654533 -0.0074026394 -0.14212835 0.17603327 -0.052320357 -0.10205443
-0.2628982 -0.10525993 -0.11129028 0.11285142 -0.27792066 0.14401968 0.21403165 -0.030101659
-0.068784066 -0.043537106 0.066995256 0.07379216 0.18389235 0.20289029 0.22344482 -0.07001864
-0.11367585 0.045888573 -0.2040074 -0.19814846 -0.027346108 -0.016406473 -0.22497006 0.022021176
0.26114053 0.015697563 0.16982925 -0.025295071 0.16701552 -0.020595182 -0.1898651 -0.1473502
-0.07955759 -0.10664907 -0.07797263 -0.0842627 0.16145086 -0.0004263046 0.0911036 0.06995759
0.080789626 -0.15878811 -0.21628578 -0.027923776 -0.18012182 -0.08316979 -0.057458334 0.18154979
-0.022111706 0.06810634 0.11855892 0.21362 0.21311338 -0.0054109613 0.011080753 0.12244144
-0.20468855 0.0146596655 -0.13976234 0.09858749 0.21112907 0.0022723044 0.11616283 0.022853041
0.26261473 -0.018812913 -0.041345887 0.06697651 -0.00017829797 0.086716056 0.22821756 0.11087548
0.15411033 0.15380688 0.26274592 0.04678327 0.19165461 -0.07331622 -0.0836288 0.023323584
-0.11989601 0.0902102 -0.10902143 -0.16558522 -0.0781707 -0.09151959 0.03812712 0.074503615
-0.24243324 0.18163426 0.030615425 0.19132781 -0.05166781 -0.0824753 0.12548289 -0.030364776
-0.08501795 -0.14015073 -0.018612413 -0.24873614 -0.18539342 -0.09656357 0.1173738 -0.142787
0.047072235 -0.20492002 -0.08353663 0.13902804 0.23167993 -0.008532387 0.051796872 0.1909958
0.060245562 0.077278785 0.06334477 0.101875484 -0.14646925 -0.19921945 0.08752557 0.107097164
0.040744174 -0.08978021 0.20863946 0.24500252 0.12972765 -0.045418113 -0.08623918 -0.14267765
0.04870733 0.014805075 -0.092974536 0.010213144 -0.09606735 -0.033464685 0.083979055 0.101071484
0.18345237 -0.26847178 -0.15363702 0.10562044 -0.075972736 -0.07947821 -0.12521242 0.09338164
0.14969291 -0.05931923 0.041007448 -0.11008493 0.005212515 -0.09274054 0.16176143 -0.0082862275
0.14649478 -0.05764118 0.22931287 -0.17257315 -0.2521437 -0.043184474 0.07654842 -0.059746493
0.06608765 0.24061503 0.10010218 -0.06747999 -0.061815094 -0.07476124 0.06151279 -0.03701215
-0.25587317 -0.040001325 0.11912998 -0.10321053 -0.112708926 0.10449951 -0.03584375 -0.13113987

foundation_model.down_path.1.block.2.bias f4 [8]
00000000: d2d5 ea3d 1aab 26be eccc 0fbc 9a0f cd3d
00000010: 1ad2 193e c691 b43c 838b d0bd c4f0 833d
0.11466564 -0.16276208 -0.0087768845 0.100127414 0.15021554 0.022042166 -0.1018286 0.06442407

foundation_model.down_path.2.block.0.weight f4 [16, 8, 3]
00000000: d5a3 3d3d aa24 a1bd 46ba 843d f7a8 a7bd
00000010: e8e1 12bc 1272 55be ca01 31be 51b4 86bd
00000020: 3037 bebc 76ea 8bbe c35e d33d df55 7e3d
00000030: 4c08 1c3c 5fb3 0f3d 041a af3d acd8 3c3c
00000040: 1c29 43be 0a25 50be 189b f13d 020c f9bd
00000050: 957d 29be 2943 393d c90f c93d e186 233e
00000060: c829 d43c 4584 b63d 0f7b 8fbc 4c91 123e
00000070: 464f e8ba 21f9 533e cc9e e43c aaeb 6a3e
00000080: 73ff b9ba 7b22 693e 5e7d ea3c 70f7 f43c
00000090: 9519 e7bd c862 d93c 11ac 1abe a314 59bd
000000a0: 1d59 19bd 60aa 743e b25d 3a3e 985d 0abd
000000b0: edc1 3dbd 8741 51bd 03b8 37be 837a 263d
000000c0: cfc4 9c3c 2419 0fbd 555f 0f3e caea 833d
000000d0: 14bb 2dbe d392 963d dede d0bd f8b2 a0bc
000000e0: bc07 df3d 3aa2 be3d 3bf6 75be 40d9 73be
000000f0: bda6 3a3d 5ffe 313e e40e f7bd 530a 0e3d
00000100: 3463 623d 3abf 3ebe f700 7ebe f9ac 49be
00000110: 6070 013e 58e1 923d 7a05 37bd 31a9 de3d
00000120: e5a6 8b3e 28e7 643e 51b5 e63d 16f2 e4bd
00000130: 6edf b2bd 2733 23be 2425 03be e007 afbd
00000140: 4e9c 813d c19d 6cbe d66b 0e3c 8953 0dbe
00000150: 9cb6 4f3e cb4b fcbd bf00 ef3d e541 a63d
00000160: 7046 003d f759 e63c e826 03be 0fa9 dfbd
00000170: 9d71 4f3d 07af 0abd 639f 2d3e c9f6 23bd
00000180: af9c 483e d08d 5b3e 68ed 113d 1733 cf3d
00000190: 841e 6abe e495 04bb 4632 53be 91aa e63c
000001a0: b9b4 93be bd7f 9dbd 18a8 bd3d 0fc4 0d3e
000001b0: c404 fbbb fb67 0f3e 4f4a 403e 7752 37be
000001c0: a854 dfbd 5049 ed3c 5f72 f23c 4aca da3c
000001d0: 38ae 4a3d 0a58 9d3d cc23 68bd fbcd 86bd
000001e0: 2ee8 3b3e e6d2 d13d e445 b23b 2554 5ebe
000001f0: 2689 76be 3374 78bd 17d0 46be 4b3a 45be
00000200: b620 8b3c 7a7d 5ebe a4ae 26bd e306 26bb
00000210: d906 d1bc 23a5 a33d a607 663d fc5d 0abe
00000220: cc6a 513d cb4f 44be 18c8 4f3d f773 3bbe
00000230: 35f0 03be 2faa 47bd 14fd d83d 8ac2 6dbd
00000240: 9912 c43d e035 033e bdff a23d ba9c 5abe
00000250: dbd7 18be c6bd 6ebe 6df0 d03c a9bc 6fbe
00000260: 5b33 d13d bece e93d a68b f6bd 14e7 6ebe
00000270: 5885 87bb 4774 1c3a a070 e0bd 6ad5 333d
00000280: 8d23 6abe 1b05 ee3d 3836 a23d dd10 a6bd
00000290: c03c 183d ff4b 1e3e 8817 633e b6bb 383e
000002a0: e068 0b3e 0e5a 8abe cef2 5fbe f876 99bd
000002b0: b362 cbbc e774 66bd 9fe3 8b3e fa9f dbbd
000002c0: 1c0a 893d ee16 583e 04eb 003e 8d2b bb3d
000002d0: 836d 01be 6601 1a3e a435 ffba 3902 0e3e
000002e0: b6b5 17be d304 523e 4819 06be f2a9 9f3c
000002f0: 564f 833e 5811 60bb 984b fa3d c095 4a3d
00000300: 8402 ba3b cf70 84be f2eb 2e3d e48a 603e
00000310: 1dd8 623e c4ed 5dbd f834 193e ee4f 8e3e
00000320: 4b47 2c3e 8d05 3e3e d041 03be b369 893e
00000330: 5364 883d 75f9 4fbe 1a7c 28be 9845 00be
00000340: 2da8 e43d 6047 d03d 1f74 8bbd 5212 673d
00000350: ef93 3a3e 5e45 673d 090b 8d3c d69c a4bd
00000360: 5757 8338 f0f1 013e e6bf 59be 5425 67bd
00000370: fd6b 5c3e 9dd6 66bd 3fb0 5c3e b811 433c
00000380: 3040 683e cd9b a43d 7184 4c3e b272 883e
00000390: 3ac2 89bd 1214 f53d de48 8ebd 1cb3 b23b
000003a0: 2be9 6a3d ffd3 3a3e 9303 ce3d 2201 2b3c
000003b0: cf4c d53d d532 0ebe f10c 8cbc 7d40 92bd
000003c0: 1a6d 0abd 7de7 90bd 7175 56bc 40e8 d73d
000003d0: bd88 8dbe a673 82be cf75 66be 3fbf 7abe
000003e0: 186f 2dbe 9ada ab3c 6768 61be 67bb e7bd
000003f0: d174 7bbd 184b 283c bdfe 6c3e 0d67 5c3c
0.04629882 -0.07868321 0.06480841 -0.08186524 -0.008964993 -0.20844296 -0.17285839 -0.065773614
-0.023219675 -0.27327317 0.10320809 0.06209361 0.0095234625 0.03508317 0.08549884 0.011526268
-0.1905865 -0.2032663 0.1179716 -0.121604934 -0.16551812 0.045230065 0.09817464 0.15969421
0.02589883 0.08911947 -0.017514734 0.14313239 -0.0017723821 0.20700504 0.027907752 0.22941461
-0.001419051 0.2276706 0.028624233 0.029903144 -0.11284176 0.02653636 -0.151047 -0.052998196
-0.0374385 0.23893118 0.18199804 -0.033780664 -0.04632752 -0.051087882 -0.17941289 0.04064418
0.019136814 -0.034936085 0.1400121 0.06441267 -0.16965896 0.07352223 -0.101987585 -0.019616589
0.10890147 0.09308286 -0.2401971 -0.23813343 0.04556917 0.17382191 -0.12063387 0.034677815
0.05527039 -0.18627635 -0.24805056 -0.1969489 0.12640524 0.07171887 -0.044682957 0.108721144
0.27275768 0.22353804 0.11265052 -0.11178987 -0.08734022 -0.15937482 -0.12807137 -0.08546424
0.06328641 -0.23107053 0.008692702 -0.13801397 0.20284504 -0.12319144 0.11670064 0.08118037
0.031317174 0.02811907 -0.1280781 -0.10920917 0.05064546 -0.033858325 0.16955332 -0.040030275
0.1959102 0.21440816 0.0356268 0.101171665 -0.22863203 -0.0020230943 -0.20624647 0.028157504
-0.28848818 -0.0769038 0.09260577 0.13844322 -0.00766048 0.14004509 0.18778346 -0.17902552
-0.10904819 0.028965622 0.029595552 0.026707787 0.049482554 0.07682808 -0.056674764 -0.065822564
0.18350288 0.10245304 0.0054404605 -0.21711786 -0.24075755 -0.06065769 -0.19415317 -0.19260518
0.016983371 -0.21727553 -0.040693894 -0.0025333695 -0.02551596 0.07990482 0.056159638 -0.13512415
0.05112724 -0.19171064 0.050727934 -0.18305956 -0.128846 -0.048746284 0.10595146 -0.058046855
0.0957386 0.1281352 0.079589345 -0.21348849 -0.14926092 -0.2331458 0.025505269 -0.23411812
0.102148734 0.11416386 -0.120383546 -0.23330337 -0.004135769 0.00059682544 -0.109589815 0.0439047
-0.22865124 0.116220675 0.07920498 -0.08108685 0.03716731 0.15458678 0.22176945 0.18040356
0.13614225 -0.2702183 -0.21869966 -0.074933946 -0.024827337 -0.05626383 0.273221 -0.107238725
0.06691381 0.21102497 0.12589651 0.09139166 -0.12639432 0.15039596 -0.0019470942 0.13868035
-0.14815411 0.20509653 -0.13095582 0.019490216 0.25646466 -0.0034190025 0.122214496 0.04945922
0.0056765694 -0.25867316 0.042705484 0.21927983 0.22152753 -0.05418183 0.14961612 0.27795357
0.16824071 0.18556805 -0.12818074 0.26838455 0.0665976 -0.20310004 -0.16453591 -0.12526548
0.111648895 0.10169864 -0.06809258 0.056413956 0.18220495 0.056462638 0.017217176 -0.080377266
6.262835e-05 0.12689948 -0.2126461 -0.056432083 0.2152557 -0.056357015 0.21551608 0.01190608
0.22680736 0.08037529 0.19972397 0.26650006 -0.06726499 0.11966719 -0.06947492 0.0054534804
0.057351273 0.18244933 0.100592755 0.010437282 0.10415041 -0.13886578 -0.017096015 -0.071412064
-0.033795454 -0.07075403 -0.013089524 0.10542345 -0.27643386 -0.25478858 -0.22505878 -0.24487017
-0.1693691 0.02097826 -0.22012483 -0.11315041 -0.0613907 0.01027181 0.2314405 0.013452304

foundation_model.down_path.2.block.0.bias f4 [16]
00000000: ad48 383e ce87 5cbe 4f36 cc3d 59b6 373e
00000010: cad3 dc3d 8df9 bc3d 04da 873d 0727 c7bd
00000020: d785 10bd 2c42 81bd 2cd0 bd3d f1ae 9abd
00000030: 80b7 b6bc d3ee 40be 08ea 013e 8767 553e
0.17996474 -0.2153618 0.09971296 0.17940654 0.10782583 0.092272855 0.0663338 -0.09724241
-0.03528389 -0.063114494 0.09268221 -0.07552899 -0.022304296 -0.18841104 0.12686932 0.20840274

foundation_model.down_path.2.block.2.weight f4 [16, 16, 3]
00000000: 783e 8e3d 4b2d b43d 0655 ad3d 40b4 68bd
00000010: c2ee 93bd a95a 14be f9fd 95bc c2a7 31bd
00000020: beb1 133e 0912 e93c 27e9 3f3d 25cf 983c
00000030: be31 203e 432f 293e f615 413e a91c c93d
00000040: 04b4 21bd db76 cd3d cf66 153e 84d0 d43d
00000050: 6f23 1c3e dbcc 0cbe 9000 ef3c ed3a a2bd
00000060: 4acc 663c 28f4 313d c9c6 29be 9868 dbbd
00000070: fb11 f2bb ce97 52be 6c15 273a 0d20 433d
00000080: dec0 f53d e2a1 cf3d fda5 723d 4f91 423d
00000090: 67fc a9bb 6b9f 71bd 3ff3 30be caf0 2cbe
000000a0: 6e2d dabd c0f9 e0bd 9f1f 1c3e 80b9 1d3e
000000b0: 9a28 59bc 1c9e 943d 9f7d 92bd 5f22 5d3c
000000c0: 6be2 113e d6ac f03c cc31 89bd feb9 7c3d
000000d0: b77a a3bd 5949 663d 8fe4 113e 4423 3b3e
000000e0: be42 ea3d e2de 1d3d 9392 4dbc 5952 a3bd
000000f0: 8bfc 58bd 6327 2a3d dc88 493e 62b7 4c3d
00000100: da5f 533e 9ba7 5a3c fead 8b3b af2a cb3d
00000110: b52c c43d e8e3 db3c db0a 0cbe 8c17 90bd
00000120: 3d62 883c ac4f ccbd ccf8 11be fe77 153d
00000130: 036e eabd d95c 22be 8ebf 983d 9812 5bbc
00000140: 14bc 0f3e bd1d e9bb ad2c 0b3e fbae ecbc
00000150: 1f5d d9bc fa6a 9dbd 38b8 1fbe 477c c7bd
00000160: 2ca7 003d 6f44 9d3a 5538 2dbd 8ea9 d23d
00000170: 4b44 d93c 5868 393e b67b 3c3e 7a7c 273e
00000180: dfa7 1b3e ff89 81bd be12 b6bd 797e cabd
00000190: 0a45 4abd 226d 33be 9549 cd3d 3945 023d
000001a0: d83d 503e e06d 233e ee25 2b3e 4a15 eb3c
000001b0: c551 323e 38aa b7bc 1c95 8c3a 9615 ca3d
000001c0: 5f9e 023d 6647 873c 6850 9e3d 5d21 0d3e
000001d0: 0b06 503d 28c7 acbd 02db 883d fa0a 833d
000001e0: 05cb 6ebd 3fcf 84bd f788 1cbe be74 17be
000001f0: 5f18 f4bd 9946 ffbb 023d 4c3e b920 dc3d
00000200: d7b8 403e 0e58 ff3d 797f e2bc a1f2 f9bc
00000210: 549a 27be e7bb d0bd 7756 c0bd 5f60 d73b
00000220: c815 4f3c 2509 a23c e79a 893d dcf4 8a3c
00000230: 2cae eb3d 900b 0fbd aa9e 2f3e 6fb6 933d
00000240: b67d ccbd b6c0 5b3d f28a 28be 1eae ebbb
00000250: 7153 c9bd 56bf b1bd d5ae 8fbd 23b9 42ba
00000260: 1f64 763d a64f 803d 1432 38be d950 0a3d
00000270: 51c3 4dbd 38e1 383c d026 c8bd 4a39 3d3d
00000280: 3726 4abe f12a 11be e38e 14be c5c3 50be
00000290: bd27 3f3d b267 6e3c d413 283d d144 83b9
000002a0: fc40 9f3d 79e9 893d b615 813d 18dc dabb
000002b0: 63d4 033e 933e 0a3e d282 b13c b28e 0a3d
000002c0: 036f 32be 8003 e1bc 3cb6 35be da82 803d
000002d0: 5ec0 543e 0cb3 1ebc 3760 b33d f01e 90bc
000002e0: d735 0a3e a85a 113e 8e56 2ebe ba20 1bbe
000002f0: 7ff2 9b3d 74bd a93d 3f11 38be e76e 623d
00000300: eb9d 283c 5a27 333e 9759 77bd 7744 04be
00000310: 7fb7 b1bd e2a0 b0bd 820f babd e144 49bc
00000320: 6bc2 bcbd 0985 92bd 5994 273e 8e7c a6bd
00000330: b47c 373d 5591 ac3c e60c ef3c 8d52 a2bc
00000340: 76fe 443c c1c4 45bd 96fe 59bd a7bf 3fbd
00000350: bbb6 813b 84d1 a4bd 0069 88bd acfb 85bd
00000360: 66b1 36be 73f0 883c e148 d13c b17c 2abe
00000370: e792 2f3d 8199 523b b666 503d 9e2a 70bd
00000380: b22e 093e 8967 613c c1e0 b7bc 9038 103e
00000390: 12f6 9c3d 3ede 2fbe e2be c7bc 0d13 05b9
000003a0: 7cd7 3d3c 5296 0cbe 2230 993d ee92 60bd
000003b0: a902 013e e83f 913d 6c03 83bd d40f e63d
000003c0: d8a4 543b 0d31 3d3c c8db 31bd 2c2f 953d
000003d0: c3ec e63d 2cb6 c2bd 2b40 e23d 5d6b 8fbd
000003e0: 70d9 713d d86a 5b3c 0557 54bb 5a82 9ebd
000003f0: e542 39bd b057 d3bd dd8c a43c 3bfa 2dbe
0.06945509 0.087977014 0.084634826 -0.056812525 -0.07223274 -0.14487709 -0.01830958 -0.043372877
0.14423272 0.028450983 0.04685321 0.018653462 0.15643975 0.16521935 0.18856034 0.098199196
-0.039478317 0.100324355 0.1459 0.10391334 0.15247892 -0.13750021 0.029175073 -0.079213955
0.014086792 0.043445736 -0.16579737 -0.10713309 -0.0073873973 -0.20565721 0.00063737365 0.047637988
0.11999677 0.101382986 0.05924033 0.04750186 -0.0051875594 -0.058989923 -0.17280291 -0.16888729
-0.10653196 -0.10985136 0.15246437 0.15402794 -0.013254309 0.072567195 -0.071528666 0.013496964
0.14246528 0.02937929 -0.06698951 0.061700813 -0.079823904 0.056222294 0.14247344 0.18275172
0.11438511 0.038542636 -0.012547153 -0.07974691 -0.05297522 0.04154147 0.19681114 0.049979575
0.20642033 0.013345624 0.004262685 0.099202506 0.0957884 0.026842073 -0.13676016 -0.07035741
0.016648406 -0.09976134 -0.14255065 0.036491387 -0.11446764 -0.15855731 0.07458411 -0.013371132
0.1403659 -0.007114141 0.13591261 -0.028892031 -0.026533661 -0.0768642 -0.15597618 -0.09740501
0.031409428 0.0011998544 -0.04229005 0.10286246 0.026521822 0.1810621 0.18406567 0.16356078
0.15200756 -0.06325149 -0.088902935 -0.09887404 -0.049382247 -0.175221 0.100238 0.031804297
0.20336092 0.15959883 0.16713688 0.028696675 0.17414005 -0.022420034 0.001072559 0.098673984
0.031889316 0.016513538 0.0773018 0.13782258 0.050787013 -0.084364235 0.066823974 0.06398578
-0.058299083 -0.064848416 -0.15286623 -0.14790627 -0.11918711 -0.0077903983 0.19945148 0.10748429
0.18820511 0.12467967 -0.027648674 -0.030511202 -0.16367465 -0.101920895 -0.09391492 0.0065727676
0.01263947 0.019779751 0.067189984 0.016962461 0.1150783 -0.034923136 0.1715037 0.07212531
-0.09984915 0.05365058 -0.16459253 -0.0071923872 -0.09830368 -0.086790726 -0.070157684 -0.00074281
0.060154077 0.06265192 -0.17987853 0.03376851 -0.050235096 0.011284165 -0.09773028 0.046197213
-0.1974114 -0.14176537 -0.14507632 -0.2038718 0.046668757 0.01455109 0.041034535 -0.0002503754
0.07776067 0.067339845 0.06302969 -0.0066790693 0.12873988 0.13500433 0.021668825 0.03382749
-0.1742516 -0.02746749 -0.17745298 0.06274958 0.20776507 -0.009686243 0.08758586 -0.017592877
0.13497101 0.14194739 -0.17025205 -0.15149203 0.07614612 0.082880884 -0.17975329 0.055281546
0.010291557 0.1749548 -0.060388174 -0.12916742 -0.08677577 -0.08624436 -0.09084989 -0.012284488
-0.0921677 -0.07154281 0.16365184 -0.08129226 0.04479666 0.021065393 0.029180955 -0.019814754
0.012023559 -0.048283342 -0.053221308 -0.046813633 0.0039585507 -0.080477744 -0.06660652 -0.06542143
-0.1784111 0.016716218 0.025547447 -0.16649128 0.042864706 0.0032134952 0.050879203 -0.058634393
0.13396719 0.013757595 -0.022446038 0.14084077 0.07664122 -0.17174622 -0.024383012 -0.00012690965
0.01158702 -0.13729218 0.07479884 -0.054827623 0.12598671 0.07092267 -0.06397137 0.11233488
0.0032446887 0.011547339 -0.04342249 0.07284388 0.112756275 -0.09507403 0.11047395 -0.070029
0.059045255 0.013392173 -0.00324005 -0.07739706 -0.04522981 -0.103194594 0.0200867 -0.16989987

foundation_model.down_path.2.block.2.bias f4 [16]
00000000: c7c5 163e 7e72 e63d 1399 c63d 3073 86bc
00000010: d251 0d3e b579 f9bd 473f 5fbc 0559 3f3d
00000020: fea4 213e ae4d 113e e701 efbd b1a3 173e
00000030: 6ae0 28bc 3d91 973c 059f 02bc b749 f03d
0.14723884 0.112523064 0.09697165 -0.016412348 0.13800743 -0.12181417 -0.013625926 0.046715755
0.15785596 0.14189789 -0.11670285 0.14808537 -0.010307411 0.018501872 -0.0079724835 0.1173281

foundation_model.up_path.0.up.weight f4 [16, 8, 2]
00000000: 00df 5a3e 448f 8f3d 082c 46bd f260 3d3e
00000010: e06d 89bc a8f3 e83d da7a 4bbe 52aa 033e
00000020: 1864 433d 80c8 ebbb a8d3 a53d 30b7 1ebe
00000030: ec11 38be cce9 3abe d8c3 3ebe 709b 113e
00000040: f849 01be d032 2e3d 98ed 7abe 40e1 5c3e
00000050: a043 343c 90a1 163d 82bb 78be e0e7 1b3d
00000060: f872 cebd 2c3c 7c3e ba6a 21be f063 62bd
00000070: a8eb 02bd 20ee 1dbe 6c7d 6a3e 8a2b 6b3e
00000080: 0ca3 253e f037 64bd 4064 923d 7c9a 00be
00000090: 96ee 02be 70da 2abd 4cc2 c63d 30be abbd
000000a0: b0a3 5f3d 3474 983d 084c 523e d039 573e
000000b0: d0e5 24bd a856 7bbe 8807 5a3d cc4a 453e
000000c0: 58c4 60be b26b 06be 6ab9 593e ec3e 063e
000000d0: 00d0 3b39 343b 5c3e 084b d4bd b0d7 273e
000000e0: d871 d03d 9049 84bc d0dc c9bd bcc3 583e
000000f0: 8617 573e babd 6e3e 6c3d 5b3e e650 51be
00000100: 7aab 46be 9296 0d3e b0d7 3ebd 9427 1e3e
00000110: 9688 213e c281 3a3e 40fd 70be d0e0 9dbd
00000120: 622d 5c3e ecbf 683e 8053 4a3c 00af 603b
00000130: 02ac 4ebe 263c 4f3e 3062 893d ee38 4bbe
00000140: b080 573e 946a 5fbe e438 b03d 8a41 7abe
00000150: d433 003e a855 c23d d61f 5d3e 7227 1ebe
00000160: ee0f 103e 3aae 5cbe a8f9 65bd 7e86 643e
00000170: 509f 613d 188f 15be 702c ebbd f08c 783e
00000180: f262 79be 2672 5abe 3862 183d 3058 edbc
00000190: bc21 f73d 4006 56bd 0ae5 36be 0c2d d03d
000001a0: 388e 003e 2006 973c 249a 0cbe acc1 3fbe
000001b0: 90c5 0dbe e0a2 e23c 9060 c1bc 18a1 2fbe
000001c0: 306f 39bd 107b cbbd 20a4 0cbd 7481 c33d
000001d0: c06d dc3c 9c2f 743e ec57 7d3e e881 14be
000001e0: 8c7c a2bd a0b4 f13d 20d9 cdbd 1e43 74be
000001f0: 20a8 083c 3a2a 663e 5831 293d 3804 523e
00000200: a052 683e b8cf 61be d8f6 883d 621b 183e
00000210: f2e8 273e 704e 0c3d 30b8 e63c d215 3c3e
00000220: 14e8 223e a601 2c3e 70bc 34bd b86e 0e3d
00000230: 80d7 833d 70b7 43be 6aee 613e 6aa6 29be
00000240: e87d 96bd f01a 923d d095 a9bd 6070 d5bd
00000250: 9855 423e 8871 013d b84a 633d 78d5 97bd
00000260: f874 683e 16e3 433e 6684 4cbe b084 69be
00000270: 263c 5bbe 0e4a 4e3e 8251 213e 44d9 0f3e
00000280: 90d7 2abe 08b3 8d3d 184c 563e 828e 513e
00000290: 6491 6e3e 681c d93d 68ed 3d3d feb4 58be
000002a0: 046f d53d 300d 0f3e 5ec6 223e 30f0 4dbd
000002b0: f65c 42be a0d4 49bd 80e5 6dbc f0ac 433d
000002c0: 40f2 35be 9031 b13c 0836 71be 88cd 2cbe
000002d0: e00d 51bd 2ee8 00be aa22 5cbe 1403 c5bd
000002e0: 68e8 843d 88dc b63d 806e 5a3b 90b6 933c
000002f0: 0441 67be f0b5 85bc a0f8 9ebc 2a32 673e
00000300: 480f 27bd 20a0 d5bd e444 943d e01d 60bc
00000310: 9aa4 193e e8ff 6c3e 5e0c 053e acf9 16be
00000320: d8d9 b7bd 66e1 013e f87a 2bbd 84e4 c3bd
00000330: ae94 273e ecef 66be 8863 7abe 7858 c43d
00000340: 94ad 713e e0bf 313d 04dd 2cbe f8a6 38be
00000350: 00e2 07bb e2fe 223e f2ec 2f3e 0cae cabd
00000360: d84d aabd 5064 ed3d b45d 753e 0060 d83d
00000370: b075 1fbe 40cf b03c 40fc 9fbc c043 483c
00000380: 90b2 473d 7056 5f3e ee26 3d3e e421 5fbe
00000390: dec4 613e 7068 b03d 7ad2 7dbe b02d 633e
000003a0: 18cf d43d 48a8 6ebe 543f c3bd dc09 d73d
000003b0: 1c15 fa3d 9663 59be d0a0 e5bd 6499 903d
000003c0: d4d1 0c3e fcc7 77be 0ab2 5c3e d01e b2bc
000003d0: 7028 a3bc 00d9 e73d 805f 453e 6e21 563e
000003e0: aaa2 033e 2666 62be 9036 b4bc 884c c8bd
000003f0: 209f 3b3e 543d 7e3e d4b7 1dbe e073 7a3c
0.2137413 0.070097476 -0.048381835 0.18494013 -0.016776025 0.11374599 -0.19871083 0.12857941
0.04770288 -0.0071955323 0.08097011 -0.15499568 -0.17975587 -0.18253249 -0.18629396 0.14219451
-0.12625873 0.042528927 -0.24504697 0.21570301 0.011002451 0.03677517 -0.24290279 0.03806293
-0.10080522 0.24632329 -0.15763369 -0.05527109 -0.03196302 -0.15422869 0.22899407 0.22965828
0.16175479 -0.05571741 0.071480274 -0.12558931 -0.12786326 -0.041712224 0.09705028 -0.08385885
0.054599464 0.07444039 0.20536816 0.21018147 -0.04025823 -0.24544775 0.05322984 0.19266814
-0.21949899 -0.1312702 0.21262136 0.1310994 0.00017911196 0.21506959 -0.103658736 0.16390872
0.10177964 -0.016148359 -0.0985657 0.21168417 0.21005067 0.23314562 0.2141015 -0.20441017
-0.1940135 0.1382697 -0.046592414 0.15444785 0.1577476 0.18213561 -0.23534107 -0.07708895
0.21501687 0.22729462 0.0123490095 0.0034283996 -0.20182803 0.20237789 0.06708181 -0.19845936
0.21045184 -0.21818 0.08604601 -0.24439064 0.12519771 0.09488994 0.21594176 -0.15444735
0.14068577 -0.21550837 -0.056146294 0.2231693 0.055083573 -0.14605367 -0.11483085 0.24272513
-0.24354151 -0.21332607 0.037203044 -0.028972715 0.12066981 -0.052252054 -0.17860809 0.10164842
0.12554252 0.018435538 -0.13730675 -0.18726224 -0.13844895 0.027665555 -0.023605615 -0.17151296
-0.045272052 -0.09935582 -0.03433621 0.095461756 0.026907802 0.23846287 0.24740571 -0.1450268
-0.07933912 0.118020296 -0.10051179 -0.23853728 0.008340865 0.22477046 0.041306823 0.20509422
0.22687769 -0.22051895 0.06687707 0.14854196 0.16397455 0.03425449 0.028164 0.18367699
0.15908843 0.16797504 -0.04412502 0.03477356 0.06437588 -0.19112945 0.22063604 -0.16567388
-0.073482335 0.07134044 -0.082805276 -0.104218245 0.18977964 0.031602412 0.05549118 -0.07413763
0.2270087 0.19129595 -0.19972381 -0.22804523 -0.21409664 0.20145437 0.15753749 0.14047724
-0.16683793 0.06918913 0.20927465 0.20464519 0.2329765 0.10601121 0.046368986 -0.21162793
0.10421565 0.13969874 0.15895984 -0.05027789 -0.18980774 -0.04927504 -0.014520049 0.047772348
-0.17768192 0.021630079 -0.23555768 -0.16875279 -0.051038623 -0.1258857 -0.21497598 -0.09619728
0.064896405 0.08928782 0.0033330023 0.018031389 -0.22583395 -0.016322106 -0.019405663 0.2257773
-0.040786058 -0.10430932 0.07239702 -0.013678998 0.15004197 0.23144495 0.12992999 -0.1474368
-0.08977097 0.12683639 -0.04186532 -0.0956507 0.1636531 -0.2255246 -0.2445203 0.095871866
0.23601371 0.043395877 -0.16881186 -0.18032444 -0.0020734072 0.15917543 0.17180231 -0.09896478
-0.08315629 0.11591399 0.23961526 0.105651855 -0.15572238 0.0215832 -0.019529462 0.012223184
0.048754275 0.21810317 0.18471882 -0.21790272 0.22047755 0.0861367 -0.24787322 0.22185397
0.103910625 -0.23306382 -0.09533563 0.104999274 0.122110575 -0.21229395 -0.11212313 0.07060507
0.13751918 -0.24197382 0.21552292 -0.021743208 -0.019916743 0.11320686 0.19274712 0.2091119
0.1285502 -0.22109279 -0.021998674 -0.09780222 0.1832242 0.24828082 -0.15402156 0.015286416

foundation_model.up_path.0.up.bias f4 [8]
00000000: f4c9 acbd 180f 19be 1040 e73d f827 5dbd
00000010: b2c7 6a3e 5e82 50be 00bf a63d 828f 123e
-0.08436957 -0.14947164 0.11291516 -0.053993195 0.2292774 -0.20362231 0.08141899 0.14312556

foundation_model.up_path.0.conv_block.block.0.weight f4 [8, 16, 3]
00000000: e8a4 8b3d 0441 003e 8efb da3b 82c5 7bbc
00000010: 1e6a a93c 0ca8 903d ec27 773d 6a52 c6bc
00000020: a912 203d 8df4 3dbc 5cce a53d b557 9b3c
00000030: 5254 e5bd 4543 ef3c 4516 c6bd 3525 6cbd
00000040: 62b1 bf3d 696d d93d 4fef 073e bcd5 d1bd
00000050: 2cbc 08be 7ed6 a2bc bffd fe3c b882 8e3d
00000060: 7d0d a5bc 3e69 e53d 1761 dd3d e23c 993d
00000070: 63a4 13be 0d54 febd a537 50bd 92c4 b3bd
00000080: bd6b af3d 6cd9 2c3d 57e4 aebd 4667 063e
00000090: bdb8 133e bd57 12be 314c e43c 6fa9 493d
000000a0: a05d e83d 8e99 13be 6ec5 743d 6a11 eabc
000000b0: 129e 7f3d fe1f 1d3a daa2 f3bd bd00 603d
000000c0: 1fb5 f7bb f5ac ddbd 9b3c 013d 8df3 cbbc
000000d0: 0eaf a6bc 88c9 bf3d 16d6 7abd 3026 263c
000000e0: d690 f4bc 946d d33b 190d 653d 7286 103d
000000f0: aca9 01bc fd36 5b3d 097f ccbd 39c6 403d
00000100: 5489 593c f0ef 90bd a35f 8f3c becd 9fbd
00000110: 425b c0bd f45d 97bd eaa4 8a3d 3135 d03d
00000120: 736b 0abb d035 28bd ad10 ed3c 3ae4 0bbe
00000130: 90c2 44bc f1d9 c0bb 8c05 71bd 54da febd
00000140: a788 133e ade8 f5bd 8ae6 943b e5af a83d
00000150: 4043 efbd d6f7 ae3d 8212 d1bd d28a d1bd
00000160: b5c5 a43d cc2a e4bd ee79 bcbd f3e3 e7bd
00000170: 8f06 ff3d 8f0b 9c3d 7d94 633c 2c87 65bc
00000180: 17cf da3d aa93 c93d f720 4e3d ee51 b1bd
00000190: 43fe 903d e1a6 b0bd c4e9 a7bd 8d16 adbd
000001a0: 8d46 eebd d402 ea3d c661 66bb fe4e 9a3d
000001b0: b147 efbd 6e5a 7ebc 18d7 043e e8d7 77bb
000001c0: 4a69 76ba a2ce 79bc 4c1f c0bd 0bf6 8e3d
000001d0: 9c31 cdbd d07b 6e3d 2a9f 11bd c8c4 103e
000001e0: 31d0 db3d 27b2 f7bd 1e62 83ba 0cba 0a3e
000001f0: deac 683c fc9c a23d 32ae 973d c28b e7bd
00000200: de7f 02bd cc6d 123e 554e a7bc 0cee f93d
00000210: 4d2d 2f3d 3534 99bd 47a4 b33d 8e70 8bbb
00000220: 9f44 bc3b d180 83bd 9552 dc3d 1a4d 703d
00000230: 7f14 81bd b8a6 ccbd 0366 653d 11d1 40bc
00000240: 48ac 9dbd 00e8 f4bd 6427 a03d beaa a23d
00000250: 5a70 b43c 34a7 953d 7f7b f93c 19f0 fdbd
00000260: ec63 f43d 1874 a53d 750f c4bd a389 073e
00000270: e5fe 2b3d 8f27 fd3d 6e26 183d fb1f 583c
00000280: e416 b53d 00c6 6bbd f7a9 a4bc c731 bdbd
00000290: 5500 3c3d 7523 9cbd c57d 953d 3e84 75bd
000002a0: a191 0f3d d652 0bbe 6749 3d3d 4c10 f5bd
000002b0: d661 5c3d a116 d2bd c370 b1bb e5fa d5bd
000002c0: a651 d33d 9b3e 603d 7104 7f3d cd95 06be
000002d0: abb0 053e 4389 2b3c 81da 5ebc b5fc b03d
000002e0: b927 5a3d 9460 13be eca9 9bbd 0b50 a0bd
000002f0: 56f6 bc3c 6672 f2bd 4673 b2bd 5e10 843d
00000300: 4274 b73d 850d babd 92b5 f33d 54f1 c33d
00000310: b872 883d 33fb ebbd a9fa 013d 8374 2b3d
00000320: a475 043d aeed 973d 50c6 123e 9216 0dbe
00000330: e7fc 923d 644b a4ba eb7c 803d 4f34 913d
00000340: 7b6b 69bd 2d91 703d 467d ee3c 4735 7d3d
00000350: 81af edbd 7517 4e3d 8bbf a43c 119e b23c
00000360: 710c 733d 1a2c 6f3d 8972 36bd cc15 fdbd
00000370: 4fd0 dcbd ccf9 913d 0c83 55bd c9e5 4cbc
00000380: 6a24 a1bd 47cf bbbc 0ffd d73d fd52 c03b
00000390: 62a6 d53d 58d2 6f3c 86e4 f33d 6416 fc3d
000003a0: 0fc2 f73d 0cd2 8c3d e9c4 fabc 1cbd cabd
000003b0: 77ce 0abc 8985 9d3d 6eae 47bd 9c12 01be
000003c0: 2f69 2c3d ec23 fe3d 781a b43b d2d8 07bd
000003d0: bff3 ec3d 4f94 103e c1b0 11bd 4212 ba3d
000003e0: 1034 0dbd f98f aabd a1e2 4a3d 9048 b8bd
000003f0: 9b55 2a3d 1db1 a63a 31b2 563d 452b 203c
0.06818563 0.12524801 0.0066828197 -0.015366914 0.020680483 0.070633024 0.060340807 -0.02420922
0.039080296 -0.01159395 0.080960006 0.01896272 -0.111977234 0.029206881 -0.09672216 -0.05765267
0.09360005 0.106165715 0.13274883 -0.10245845 -0.13353032 -0.019877668 0.031126855 0.069585264
-0.020148033 0.11201714 0.10809534 0.074823156 -0.14418177 -0.12418375 -0.050834317 -0.08777727
0.08565471 0.042199537 -0.08539646 0.13125333 0.14425941 -0.14291282 0.027868362 0.04923385
0.113459826 -0.14414045 0.059758596 -0.028572757 0.062406607 0.0005993842 -0.11896296 0.054688204
-0.007559433 -0.108240046 0.03155194 -0.024896407 -0.020347144 0.09364611 -0.061239325 0.010140941
-0.02985422 0.0064522717 0.055920694 0.035284467 -0.007913988 0.053519238 -0.099851675 0.04706404
0.0132773705 -0.070770144 0.017501658 -0.07802914 -0.09392406 -0.07390967 0.06769736 0.101663955
-0.0021121174 -0.041066945 0.028938616 -0.1366128 -0.012009278 -0.0058853556 -0.05884318 -0.124439865
0.14407597 -0.1200727 0.004544084 0.08236674 -0.11682749 0.08543365 -0.10208608 -0.10231556
0.08045522 -0.11140975 -0.09202944 -0.11322775 0.12452423 0.07619392 0.013890383 -0.014009278
0.106840305 0.09842618 0.050324406 -0.08658205 0.070797466 -0.086255796 -0.08198884 -0.08451567
-0.1163455 0.11426321 -0.0035153492 0.07534598 -0.11683596 -0.01552449 0.12972677 -0.00378179
-0.00093998446 -0.015247019 -0.093809694 0.06980523 -0.10019228 0.058223546 -0.03555218 0.14137566
0.10733069 -0.12094527 -0.0010023748 0.13547534 0.014201371 0.07940099 0.07406272 -0.113059536
-0.031860225 0.14299697 -0.020423094 0.12203607 0.04276781 -0.07480661 0.08771568 -0.004255361
0.005745485 -0.06421054 0.10757939 0.05866728 -0.063027374 -0.099927366 0.05600549 -0.011768595
-0.07698876 -0.11958313 0.07820013 0.07942723 0.02202623 0.07307282 0.030454395 -0.123993106
0.11933121 0.08078784 -0.09573261 0.13236098 0.041991133 0.12361061 0.037146024 0.0131912185
0.08842257 -0.057561874 -0.020100577 -0.0923801 0.045898754 -0.076239504 0.07299379 -0.05994057
0.035050992 -0.13605818 0.04621258 -0.11965999 0.05380424 -0.10258222 -0.0054150536 -0.10448245
0.103183076 0.054747205 0.062260095 -0.13143082 0.13055675 0.010469737 -0.0136019 0.0864195
0.05326054 -0.1439231 -0.076007694 -0.07827767 0.02306668 -0.11838226 -0.08713393 0.06448434
0.08957721 -0.0908461 0.11899866 0.09567514 0.06662506 -0.11522522 0.03173319 0.04185916
0.032338753 0.07418381 0.14333463 -0.13778141 0.071771435 -0.0012534675 0.06273826 0.07090055
-0.056987267 0.0587322 0.02911247 0.061818387 -0.1160574 0.05031534 0.020110866 0.021803888
0.059338037 0.058391668 -0.044542823 -0.12357673 -0.10781919 0.07127723 -0.05212693 -0.012505957
-0.078682736 -0.022925986 0.10546314 0.005869268 0.10432126 0.014637552 0.11908822 0.12308958
0.120975606 0.06876001 -0.030611472 -0.09899351 -0.008472077 0.076914854 -0.048750333 -0.12604755
0.0420925 0.12409195 0.0054963194 -0.03316576 0.115699284 0.14119075 -0.035568956 0.09085514
-0.03447348 -0.08328242 0.049532536 -0.08998215 0.041585546 0.0012717579 0.05241603 0.009775941

foundation_model.up_path.0.conv_block.block.0.bias f4 [8]
00000000: 2f97 bfbd 6046 5b3d ef29 c23d 5fcc fd3d
00000010: 5bd8 27bc d0e7 bb3d fb0a d73d b065 a6bd
-0.09355008 0.05353391 0.094806544 0.12392496 -0.010244454 0.09175074 0.10500141 -0.08124864

foundation_model.up_path.0.conv_block.block.2.weight f4 [8, 8, 3]
00000000: 2f5d 083e 2ad6 14be 445a f03d 1c01 243e
00000010: 8121 d1bd 6f75 0ebe 2147 9a3d cbd9 193e
00000020: 94ec 80bd ea8a 21bd 2613 173d 5326 243e
00000030: c77f 383c edaa 0fbe fd18 21be ebb0 14be
00000040: 9468 4fbe 24df 113e ef83 b0bd 5803 0abe
00000050: e076 cebd 8144 cf3d 6d3a b8bd 73d7 cf3d
00000060: 4f17 323e 57aa 073e ba6e 3d3e 692d 873d
00000070: 0f74 babd f584 813c 54c0 4c3e 8bc2 043d
00000080: 7b6a 223e b45b 373d 9eb6 1a3e 13cb e63c
00000090: 59ab 4ebc 39fe 143e 5ff2 e93d e5b9 01be
000000a0: 7a9d 413e 5c13 3d3e 72d8 a03d 6ad3 e23d
000000b0: a460 4dbe 6bd2 7abd d33a 253e a58f 3ebe
000000c0: 692f c8bd 4cfe a13d fb6f 3d3e da48 f43c
000000d0: 3d23 ba3d e0c1 11be 8c84 5dbb b164 62bd
000000e0: 5705 223e 72cf 993c a47e bdbd 8425 483e
000000f0: dc95 22bd efc2 023e 58c0 02be 1047 a33d
00000100: 5d19 5a3c 37ec 473e 1d6e 2d3e 4432 19be
00000110: 99c4 3dbe 4eb1 853d d7ae 41be b66e 493d
00000120: fd50 8c3d 0d2d 9ebd 6d70 d0bd 4b4c 083e
00000130: 3412 10be 5c4f 22bd 23ee 373d 4138 1e3e
00000140: a983 3fbe 60da 443d 993d 073d 3738 23bd
00000150: 25f3 99bd 2bfd acbd 9893 35be 7c2f 04be
00000160: 3b3e 4ebe 2a2e d93d 1155 8e3d 68fa 2cbe
00000170: a418 453e 6888 0bbe 1d35 b53d 1606 a0bb
00000180: 52b3 0ebe a326 3e3e 99b3 b43d 1827 75bc
00000190: f84a c7bd a760 9b3d 10b8 d9bd 603b d1bd
000001a0: 1f67 693d b8dd 48be 9ec2 213d 2e46 9bbd
000001b0: c837 19bd 740c c83d 1364 4f3e 3a2b 3abe
000001c0: 703a 2bbb 88aa 05bd 76e9 39bd d6a2 a6bc
000001d0: a0ba e3bc 6177 ac3d ecd2 8ebb e2f1 18be
000001e0: 0a36 ae3d 22d8 91bd 7910 21be a7fa c0bd
000001f0: 6c1d 9a3d 0e22 4e3e b899 02be 26a2 803d
00000200: 3639 0bbe f55f 953c 2bb9 243d 1d15 293e
00000210: 77a0 d33d 73be f6bd 3ae6 b7bd ab16 dc3d
00000220: 293f 0cbe 06f3 4d3e 76c3 17bc a07f 85bd
00000230: 1b8a 833d 2f58 da3c 79d2 2fbe 5c7a 3d3e
00000240: 05d7 e4bd 1c1d eabd 928e d53d e463 983d
00000250: 7601 22be d8d0 edbb 6b6b 80bd a83e 41be
00000260: cb7a adbd 4d9c 8c3d 7674 6a3c e65e 743d
00000270: 612a 31be f76d 27be 30e4 c83d 4e67 1ebc
00000280: c7ab 6bbd 13a3 82bd 2dd4 1b3e 094c 6dbd
00000290: 6237 d63c ecd2 13be c4c9 df3d 4910 afbd
000002a0: 4856 e0bc a734 84bd ce59 0d3d 3588 993d
000002b0: e1cb 85bc edac 32be e411 3abe 2a97 603d
000002c0: 4640 ff3d 4d2c 153e 5a11 9b3d 82cf a3bd
000002d0: 1361 093e 414d 0c3d 1a17 973d b1ca dcbd
000002e0: 8858 4cbd b73e 40be daae 143d f3ed 8cbd
000002f0: 6ddd b6bb 914c 4bbe e64d a53d ccf3 533d
0.13316797 -0.14534822 0.11735967 0.16016048 -0.102114685 -0.13911985 0.07533098 0.15024488
-0.06295124 -0.03943912 0.036883496 0.16030245 0.011260933 -0.14030047 -0.15732189 -0.14520614
-0.20254737 0.14245278 -0.08618914 -0.13477838 -0.10081267 0.10120488 -0.08995519 0.101485156
0.17391704 0.13248573 0.1849927 0.06600458 -0.09104168 0.01581047 0.19995242 0.032412093
0.15860932 0.04476519 0.15108725 0.028173005 -0.012614095 0.14550103 0.11423182 -0.1266857
0.18907729 0.18464416 0.07853784 0.1107548 -0.20056397 -0.061235826 0.16135721 -0.18609484
-0.09774668 0.079098314 0.18499748 0.029819895 0.090887524 -0.14234114 -0.0033800928 -0.055271808
0.1582235 0.018775675 -0.092526704 0.19545561 -0.0396937 0.12769674 -0.12768686 0.079725385
0.013311711 0.19523703 0.16936536 -0.14960581 -0.18532027 0.06527959 -0.18914352 0.049177848
0.06851385 -0.077234365 -0.101776935 0.13310353 -0.14069444 -0.039626464 0.04490484 0.15451147
-0.18702568 0.04805982 0.03301773 -0.039848533 -0.07517079 -0.084467255 -0.17732084 -0.12908739
-0.20140927 0.10604508 0.06949819 -0.16892397 0.19247681 -0.13626254 0.08848021 -0.004883538
-0.13935593 0.18569426 0.08823318 -0.014962934 -0.09731096 0.07586794 -0.1063081 -0.10216403
0.05698311 -0.19615829 0.039492242 -0.07581745 -0.037406713 0.09768 0.20253019 -0.18180552
-0.002612736 -0.032633334 -0.04538866 -0.020341318 -0.02779895 0.08421207 -0.00435864 -0.14936021
0.08506401 -0.07121302 -0.1572894 -0.09422808 0.07525143 0.20130178 -0.12753952 0.06280927
-0.13596043 0.018234232 0.040215652 0.1651196 0.103333406 -0.12048044 -0.08979459 0.10746511
-0.13695969 0.20112237 -0.00926291 -0.06518483 0.06422826 0.026653377 -0.17170133 0.18503708
-0.11173824 -0.114313334 0.10427584 0.074409276 -0.1582087 -0.007257562 -0.06270488 -0.18871558
-0.084706865 0.068657495 0.014309993 0.059660815 -0.17301323 -0.16350542 0.09809148 -0.009668184
-0.057536867 -0.0637876 0.15217657 -0.05793384 0.026149455 -0.14435929 0.109271556 -0.08548028
-0.027384892 -0.06455355 0.034509473 0.074966826 -0.016332569 -0.17448778 -0.18170887 0.05483166
0.12463431 0.1456768 0.07571669 -0.07998563 0.13415937 0.034253363 0.07377453 -0.10780848
-0.049889117 -0.18773924 0.036299564 -0.06881323 -0.005580595 -0.19853427 0.080714986 0.051746175

foundation_model.up_path.0.conv_block.block.2.bias f4 [8]
00000000: 3776 b63d f4c6 18bd 0695 16bd 7223 313e
00000010: 4518 1abe 1265 ac3c d03e f03c 56ed 883d
0.089092664 -0.03729911 -0.036763214 0.17298678 -0.1504832 0.021044288 0.029326826 0.06685893

foundation_model.up_path.1.up.weight f4 [8, 4, 2]
00000000: 5dc4 98be 377f 653e 6d09 56be c710 0abd
00000010: 16df f1bd bd14 b13e 4e9e 4a3d 30ee b4bd
00000020: dff6 933d 5d19 94bd c547 163e 43a9 e8bd
00000030: 14a9 2c3e 93b7 673e d81e 05be 4d7f 073e
00000040: b51f 9cbe df96 2abd 6271 263e 0474 9dbe
00000050: a291 633e 57c8 a8be 63da fcbd d407 c93d
00000060: fe8f ae3e 37a7 733e 3f67 1e3d 15ce 063e
00000070: 871a 93be d02f 943e 8adb 583e 7268 473e
00000080: 8acc 933e 9981 01be faa4 5f3d 50d3 c23d
00000090: 14ba ad3e 2d9f a1be e4a4 133e 1d2c 10be
000000a0: f458 22be 85ad 58bd c785 a4be bb00 833e
000000b0: 98ee 783e 8380 933e 8efc 2f3e 5f1b a23e
000000c0: 22dd 3ebe 98e9 25be 3f77 26be e666 58bd
000000d0: 1a96 adbd a87c 923d 3a3a 943e 1c03 903d
000000e0: 089f b2be bd63 d43d 70cf 76be df27 ab3b
000000f0: 4d67 793e d22c 823e 71df 903e 7f49 abbe
-0.29837313 0.2241181 -0.20902033 -0.033707406 -0.118101284 0.34586135 0.049467377 -0.08834493
0.07224821 -0.072314 0.14675815 -0.11360409 0.16861373 0.22628622 -0.13000047 0.13232155
-0.3049294 -0.041647788 0.1625419 -0.30752575 0.22223523 -0.32965347 -0.123463415 0.09815946
0.34094232 0.23794256 0.038672682 0.13164552 -0.28731176 0.28942728 0.21177498 0.19473436
0.28866988 -0.12647094 0.054600693 0.09512961 0.3393103 -0.31566754 0.1441837 -0.14079328
-0.15854245 -0.052899856 -0.32133314 0.25586495 0.24309766 0.28808984 0.17186186 0.31661507
-0.18639043 -0.1620239 -0.16256426 -0.052832507 -0.08475895 0.071526825 0.28950673 0.07031843
-0.34886956 0.10370586 -0.24102569 0.005223259 0.24355812 0.2542482 0.28295472 -0.3345451

foundation_model.up_path.1.up.bias f4 [4]
00000000: 4b6d 81be fa7d ce3d 76e9 c93d b08f 7a3d
-0.25278696 0.10082622 0.09858982 0.061172187

foundation_model.up_path.1.conv_block.block.0.weight f4 [4, 8, 3]
00000000: c4fa 37be 8ee0 c73d 1e59 9ebd 25ae 96bd
00000010: 15e8 79bd 9f25 853c dd92 af3d 557d 063e
00000020: fc6d f2bd 4d64 5bbd dc32 e63d 8e64 a9bd
00000030: 15ea 133e dbff d7bd 1072 c1bd 3824 0d3d
00000040: f147 4fbe 1357 0f3e e8d0 8a3d 28f4 173e
00000050: 4d7f 17be 1c97 3fbe fe82 2c3e c2da 12be
00000060: ee51 eebd ed83 49be 8e10 423e 9a34 113e
00000070: f3ad 4c3e 8ced 2ebe e0ce 98bd f086 7c3d
00000080: 685a 8bbd a5aa 35be 2f50 3f3e 2e42 503e
00000090: 94f6 f7bd a34c bbbd d0e2 07bd a769 b03c
000000a0: 901a 893d a872 04bb 37ec 15be 7c29 ee3d
000000b0: b894 db3d 225f 1c3e cfb9 ba3d 7c97 5b3c
000000c0: c9b4 183d f3b9 0e3e d7ca 0e3e 9e81 89bd
000000d0: 4221 ce3d 843f eabd 05dc 893d c5f5 a83d
000000e0: 736b 0ebe 6218 3fbe 7749 de3d 2486 1cbe
000000f0: 3dd7 31be 2405 25be b4a2 a7bd 5b33 c7bd
00000100: 5fd9 b0bd d9b4 103e 34d1 b6bd 2df5 81bc
00000110: 496b 34be f766 a5bd 4b16 093e 1d72 06bd
00000120: c456 bfbd 0e60 183e 0a95 1f3e a173 193e
00000130: 5654 59bd 9910 cdbd 65fc 42bd ec34 8dbd
00000140: c539 51bb a563 d93d cf1a ec3d bf95 5cbd
00000150: d4b4 76bc 102a 463e d804 13be df60 223e
00000160: cb55 05bd 6749 1f3e fd4c 1bbe cf04 85bc
00000170: 1404 143e bcf9 db3d 0414 dcbd b668 0b3d
-0.17966753 0.09759627 -0.077318415 -0.07357434 -0.061012346 0.01625329 0.08572934 0.13133748
-0.11837384 -0.05356245 0.112401694 -0.082711324 0.14444764 -0.105468474 -0.09445584 0.03445837
-0.20242287 0.1399806 0.06778127 0.14839232 -0.14794655 -0.18709987 0.16846845 -0.14341262
-0.116367206 -0.19679232 0.18951628 0.14180222 0.19988231 -0.17082804 -0.07461333 0.061652124
-0.06804353 -0.17740877 0.18682931 0.20337746 -0.12107578 -0.09145477 -0.03317529 0.021534754
0.066945195 -0.0020209942 -0.1464089 0.11629006 0.10721725 0.15270665 0.091174714 0.013402816
0.037281785 0.13938121 0.13944565 -0.06714176 0.10064937 -0.11437896 0.067314185 0.08250002
-0.13908176 -0.18661645 0.10853856 -0.15285546 -0.17367263 -0.16115242 -0.0818533 -0.09726592
-0.0863521 0.14131488 -0.08926621 -0.01586398 -0.17619051 -0.080762796 0.1338741 -0.03282367
-0.09342721 0.14880392 0.15584198 0.14985515 -0.053058945 -0.100129314 -0.047603983 -0.0689486
-0.0031925302 0.10614709 0.11528551 -0.053853747 -0.015057761 0.19351983 -0.14357316 0.15857266
-0.03255252 0.15555345 -0.15166087 -0.016237644 0.1445468 0.107409924 -0.10746005 0.034035407

foundation_model.up_path.1.conv_block.block.0.bias f4 [4]
00000000: 8404 aebc 9c85 723d e979 283e 5951 403e
-0.021242388 0.05920945 0.16452755 0.18781032

foundation_model.up_path.1.conv_block.block.2.weight f4 [4, 4, 3]
00000000: c6f2 3dbe 1f7a 35be 2b43 60be 1e58 193e
00000010: f343 803e a32d 7a3e b330 92be 3f68 463e
00000020: 433e 973b 3af1 4e3e ad3f 6c3d ceef 383d
00000030: 4188 96bc c3d9 64be 0525 46bd e33c 8bbe
00000040: e556 d13d 3b86 5fbe 9526 3b3d eb3d 87be
00000050: fc4a 013e ae41 55be f0f7 5abe 3f3a 22be
00000060: 286e f0b9 c619 2f3e dbd4 8e3e 19a3 c33d
00000070: 5ad9 863e 8447 513e 9965 29be 782a fcbc
00000080: 208a 42be 544a 843e e014 303e ab71 e73d
00000090: c57a 7d3e a352 9fbd eb32 34be 0713 3f3e
000000a0: ac67 b4bd 7955 53be 86ad 1cbe 43e6 243e
000000b0: d552 cd3c 1a4a cf3d 9ea7 8ebe c48a 343c
-0.18549642 -0.17722367 -0.21900623 0.1497502 0.2505184 0.24431472 -0.2855278 0.19375704
0.0046155765 0.20209208 0.057677913 0.04515057 -0.018375518 -0.22348695 -0.04837515 -0.2719489
0.10221652 -0.21828549 0.04569109 -0.26414427 0.1262626 -0.20825836 -0.21383643 -0.15842532
-0.0004585844 0.17099676 0.2789677 0.09552593 0.263377 0.20437437 -0.16542663 -0.03078197
-0.18998003 0.25837958 0.17195463 0.11300977 0.24753864 -0.077794336 -0.17597549 0.18659602
-0.08808836 -0.20638074 -0.15300569 0.16103463 0.025063911 0.101215556 -0.27862257 0.011019412

foundation_model.up_path.1.conv_block.block.2.bias f4 [4]
00000000: d538 ae3d a406 813d e5ac c4bd 1eb0 8a3e
0.085069336 0.06300095 -0.096032895 0.27087492

foundation_model.last.weight f4 [8, 4, 1]
00000000: 3cb4 e1be 6834 5abe 30d9 34bd e041 a6bc
00000010: 5600 cd3e cc0f 3abe f82a 0f3e 8459 bd3e
00000020: 80e8 c43e c2ab 8bbe f06c f63e 1e06 edbe
00000030: 2064 d83d 3c5a 16be 3c78 383e 2ce6 52be
00000040: aaeb c93e 18d5 b6bd 9014 bdbd 30ef 4e3d
00000050: 2082 d13d 1646 84be 8a55 e83e 0641 a3be
00000060: 247b c6be d00a 92be 389e e5be 2840 cebd
00000070: ac4e e2be fed2 debe b004 01bd e824 493e
-0.4408282 -0.21309054 -0.04415244 -0.020295084 0.4003932 -0.18170089 0.13981235 0.36982358
0.38458633 -0.27279478 0.48129988 -0.4629373 0.10565972 -0.14682859 0.18014616 -0.20595616
0.3943761 -0.08927363 -0.092324376 0.050521076 0.102298975 -0.2583472 0.4537776 -0.31885546
-0.38765824 -0.28523874 -0.44847274 -0.100708306 -0.44200647 -0.4352035 -0.03149861 0.19642985

foundation_model.last.bias f4 [8]
00000000: 4eda c63e 0801 a0be 14b5 5bbe f823 b83d
00000010: 525c c4be c4ed 0cbe f034 c23e d015 69bd
0.38838428 -0.31250787 -0.21455795 0.089912355 -0.38351685 -0.13762575 0.37931013 -0.056905568
