wandb/run-20230701_200119-jpnd2pfy/files/checkpoints/best.pt (torch, 119813 bytes, 66 tensors)

foundation_model.down_path.0.block.0.weight f4 [4, 8, 3]
0.40296438 0.11535142 0.3420548 0.0384234 -0.09352805 -0.026120191 0.52253056 0.30606046
0.2504898 0.04541822 0.18867196 -0.095510244 -0.03596433 0.031568814 -0.1314483 0.49639353
0.6044829 0.4610743 -0.06710971 0.19802445 -0.043936662 0.13389401 0.055340257 -0.09014235
0.11216418 -0.097230636 -0.023557413 0.037079133 0.18409817 0.25550807 -0.11168475 0.11949591
0.22991875 -0.12841994 0.13233545 -0.13319696 -0.11256684 -0.13990524 -0.09553624 -0.2092638
-0.11135137 -0.23920879 -0.18082686 -0.101997636 -0.11693234 -0.0028173267 0.1283018 -0.14703175
0.23340486 0.24648316 0.05166298 -0.12349738 0.13045202 -0.1712958 0.121968836 0.1284437
0.22358713 -0.06649992 -0.018556837 -0.119852245 -0.10488703 0.05270646 -0.05412686 0.46757808
0.28193566 0.26570424 0.10204656 0.21370204 0.15057027 0.12703602 -0.06809138 -0.033108823
-0.09536008 -0.13246067 0.2016757 0.008936419 -0.22628255 0.13383558 0.008818453 0.09816007
0.0806318 -0.0992509 0.09568073 0.034174725 0.10028059 -0.05403699 -0.11103438 0.255508
0.14137375 0.08307928 0.28847846 0.1170938 0.35043943 -0.05568424 0.07698356 -0.028391857
00000000: 5951 ce3e 5e3d ec3d cf21 af3e db61 1d3d
00000010: a28b bfbd 03fa d5bc 90c4 053f f5b3 9c3e
00000020: 3340 803e 7508 3a3d 3933 413e e09a c3bd
00000030: 554f 13bd 4d4e 013d 629a 06be 4b27 fe3e
00000040: 64bf 1a3f ee11 ec3e d170 89bd ecc6 4a3e
00000050: eef6 33bd 831b 093e 77ac 623d 8d9c b8bd
00000060: 55b6 e53d db20 c7bd 7afb c0bc 4ae0 173d
00000070: 3b84 3c3e f4d1 823e f9ba e4bd 46ba f43d
00000080: d26f 6b3e 8480 03be f282 073e c964 08be
00000090: 7289 e6bd 5243 0fbe 81a8 c3bd 4049 56be
000000a0: 300c e4bd 26f3 74be ad2a 39be 23e4 d0bd
000000b0: 397a efbd e6a2 38bb 8c61 033e 7e8f 16be
000000c0: af01 6f3e 1566 7c3e 909c 533d 32ec fcbd
000000d0: 3795 053e 2b68 2fbe ccca f93d bf86 033e
000000e0: 06f4 643e 1c31 88bd 8204 98bc 1875 f5bd
000000f0: 03cf d6bd bbe2 573d 20b4 5dbd 6566 ef3e
00000100: df59 903e 630a 883e c9fd d03d b5d4 5a3e
00000110: 182f 1a3e bb15 023e 7e73 8bbd 1e9d 07bd
00000120: 254c c3bd c5a3 07be 1384 4e3e 0f6a 123c
00000130: 9db6 67be 320c 093e 467b 103c 2608 c93d
00000140: 4922 a53d 0e44 cbbd 42f4 c33d ccfa 0b3d
00000150: e95f cd3d e455 5dbd fe65 e3bd f2d1 823e
00000160: 48c4 103e 7825 aa3d 73b3 933e e0ce ef3d
00000170: cc6c b33e 2815 64bd 8fa9 9d3d 0a96 e8bc

foundation_model.down_path.0.block.0.bias f4 [4]
-0.024440339 -0.26699057 0.15705663 0.14210735
00000000: 1b37 c8bc fdb2 88be 74d3 203e 9784 113e

foundation_model.down_path.0.block.2.weight f4 [4, 4, 3]
0.3559004 0.18146075 0.22793761 -0.31157443 -0.22548889 0.038729623 0.11618772 0.030504657
0.057045754 0.3446214 0.07447397 0.01840267 0.41368166 0.09039612 0.29631704 -0.08682705
-0.10137405 -0.07280621 -0.11706027 0.3229266 0.03455607 0.26258808 0.28198856 0.2721283
0.058096245 0.20737943 -0.016504703 0.16451944 -0.12777144 -0.32263494 0.3053836 0.25226814
0.27643007 0.16461417 0.36549258 -0.100129165 0.428106 0.19300844 0.1557615 -0.09046878
0.13380001 -0.2455938 -0.04322921 0.17804 0.14025193 0.22574204 -0.09098641 0.23093043
00000000: 9438 b63e d9d0 393e 7a68 693e af86 9fbe
00000010: 8fe6 66be f4a2 1e3d d4f3 ed3d e7e4 f93c
00000020: cfa8 693d 3772 b03e cf85 983d 32c1 963c
00000030: 15ce d33e 9a21 b93d deb6 973e 61d2 b1bd
00000040: 339d cfbd 6c1b 95bd 4bbd efbd a356 a53e
00000050: aa8a 0d3d f271 863e ce60 903e 6754 8b3e
00000060: 54f6 6d3d 465b 543e df34 87bc c977 283e
00000070: 84d6 02be 6830 a5be 3d5b 9c3e 4a29 813e
00000080: 3e88 8d3e 9e90 283e d821 bb3e 8510 cdbd
00000090: b630 db3e 01a4 453e f17f 1f3e b247 b9bd
000000a0: df02 093e f17c 7bbe 1d11 31bd 1e50 363e
000000b0: 349e 0f3e ec28 673e 1557 babd 0779 6c3e

foundation_model.down_path.0.block.2.bias f4 [4]
-0.031513806 -0.15006621 -0.05961186 0.07324751
00000000: 9f14 01bd f5aa 19be 912b 74bd ca02 963d

foundation_model.down_path.1.block.0.weight f4 [8, 4, 3]
-0.03221476 -0.05209927 -0.09582184 0.002806946 0.25806338 0.33179063 0.32030335 0.05729047
0.37811494 0.062048085 0.10217519 0.29756033 0.1324527 0.13596489 -0.050060753 0.078818485
0.35819668 -0.0035497327 0.2703047 -0.08062926 0.24753651 0.2803576 0.32243454 0.28740948
0.31248587 0.24984147 0.2600904 0.17828867 0.05203425 0.31104827 0.28820023 0.34330028
0.009117367 -0.07449713 0.25033364 0.244658 -0.10377527 0.33179656 0.3149137 0.45097744
-0.08970486 0.24973784 0.025496459 0.32575268 0.31924006 0.08796795 0.2903429 0.32517505
-0.11907492 0.2406399 0.34285054 0.19979478 0.017404264 0.23331165 0.31131998 0.039493505
0.35322347 0.35434034 0.3180113 0.19983356 0.36685592 0.24223886 0.39610392 -0.032371912
-0.054395493 0.24895841 0.11012116 0.3915066 -0.020324819 0.061489053 0.27584267 -0.15964924
0.2748215 0.09738869 0.2245533 0.34881628 0.20772405 -0.050708573 0.18265451 -0.08398367
0.15439756 -0.07923087 0.014236519 0.2848097 -0.3249054 0.031201415 -0.19884741 -0.40702716
-0.12803563 -0.38019088 -0.07291012 -0.4356275 -0.39082345 -0.29310918 -0.0631256 -0.07523749
00000000: a0f3 03bd 0b66 55bd 3e3e c4bd bdf4 373b
00000010: e220 843e 76e0 a93e cdfe a33e 69a9 6a3d
00000020: 4898 c13e 2226 7e3d 3a41 d13d d459 983e
00000030: aea1 073e 613a 0b3e 810c 4dbd 966b a13d
00000040: 8e65 b73e a2a2 68bb 6165 8a3e f420 a5bd
00000050: 367a 7d3e 088b 8f3e 2416 a53e 5627 933e
00000060: 26fe 9f3e 71d6 7f3e 922a 853e 4e91 363e
00000070: de21 553d b841 9f3e fb8e 933e 0ec5 af3e
00000080: 0261 153c f491 98bd bb2b 803e a087 7a3e
00000090: 2188 d4bd 3de1 a93e 5e3c a13e 84e6 e63e
000000a0: 2eb7 b7bd 47bb 7f3e f3dd d03c 0ec9 a63e
000000b0: 6f73 a33e 8a28 b43d d3a7 943e 587d a63e
000000c0: 8ddd f3bd 4e6a 763e 1b8a af3e 0197 4c3e
000000d0: 6393 8e3c 40e9 6e3e 5565 9f3e f1c3 213d
000000e0: b5d9 b43e 196c b53e 61d2 a23e 2ba1 4c3e
000000f0: 8ad4 bb3e 770d 783e 22ce ca3e 6998 04bd
00000100: cfcd 5ebd f4ee 7e3e 3487 e13d 8e73 c83e
00000110: 3c80 a6bc f2db 7b3d 403b 8d3e 177b 23be
00000120: 67b5 8c3e b973 c73d 4df1 653e 0c98 b23e
00000130: 9db5 543e cbb3 4fbd c909 3b3e a1ff abbd
00000140: 651a 1e3e cb43 a2bd 4a40 693c 94d2 913e
00000150: 005a a6be 1c9a ff3c a89e 4bbe dd65 d0be
00000160: c61b 03be 61a8 c2be e751 95bd 910a dfbe
00000170: 031a c8be 6812 96be ff47 81bd 1d16 9abd

foundation_model.down_path.1.block.0.bias f4 [8]
0.20351571 0.10909576 -0.15815525 0.05110559 -0.03321435 0.17510341 -0.20371374 0.105411805
00000000: 6c66 503e 996d df3d 73f3 21be 1854 513d
00000010: c50b 08bd 4f4e 333e 569a 50be 25e2 d73d

foundation_model.down_path.1.block.2.weight f4 [8, 8, 3]
-0.017236654 -0.28842977 -0.2730739 -0.15535848 0.016314479 -0.2916521 -0.120721504 -0.11744738
-0.2648654 -0.33194387 -0.04225012 -0.27090394 -0.2968545 0.008541149 -0.22168142 -0.09300393
-0.251143 -0.09884339 -0.069069564 0.14873292 -0.23350576 0.24676129 0.31366655 0.07736433
0.15031292 0.17429203 0.2787425 0.19487755 0.298427 0.3190675 0.29539046 0.013210881
-0.030543968 0.3319307 0.0859607 0.09368208 0.18834227 0.20445639 0.0012369108 0.08917002
0.31738487 0.07951997 0.14512454 -0.04092226 0.14466244 -0.1595654 -0.3205709 -0.27379036
0.0869986 0.058986045 0.08573128 -0.020956356 0.21957286 0.05645911 0.15368146 0.13102244
0.14208774 0.058516722 -0.005776276 0.18385611 -0.0165179 0.071766384 0.09840509 0.20749927
0.0052758115 0.09060084 0.12882043 0.2256543 0.22576119 -0.14475572 -0.12706234 -0.0230373
-0.10568061 0.10666998 -0.043684863 0.10366216 0.21369256 0.0026212104 0.15698266 0.06481449
0.29447696 0.11170018 0.080174886 0.18907847 0.07248185 0.15346564 0.28642893 0.08296501
0.120842986 0.11998627 0.25492793 0.045914996 0.18340902 -0.18809445 -0.19484468 -0.0896728
-0.29537043 -0.0896608 -0.27964094 -0.25819078 -0.1780913 -0.19003007 0.01575057 0.054855186
-0.25086436 -0.05500216 -0.19229978 -0.039290328 -0.20264693 -0.22659248 -0.028819278 -0.049239848
-0.103915416 -0.1523501 0.015564335 -0.20713241 -0.14645676 0.02316375 0.23028341 -0.02345932
0.19517632 -0.049366146 0.06844225 0.21117751 0.29781216 0.06277847 0.13918181 0.27321732
0.14632805 0.25937042 0.24520713 0.27582824 -0.0021996894 -0.05362937 0.22065078 0.14012569
0.07264181 -0.052804377 0.21048526 0.25150982 0.13456175 -0.18342772 -0.21814153 -0.2737989
0.24818812 0.21399409 0.1090912 0.110008866 0.007699771 0.06312651 0.16038814 0.17582697
0.25453624 -0.028085949 0.08325992 0.3348726 0.11811464 0.112034306 0.066107444 0.14986302
0.203727 -0.00019811181 0.054436855 -0.08794551 0.022482343 -0.23945373 0.0062437453 -0.15881322
0.14989842 -0.049162116 0.22942579 -0.044747554 -0.11871166 0.079586655 0.220169 0.08629084
0.20927636 0.31393242 0.1761967 0.009415243 0.039977185 0.028630571 0.15562233 0.116700806
-0.100750625 0.11203136 0.2492639 0.03470592 0.022736428 -0.09207512 -0.22870328 -0.32260385
00000000: e233 8dbc 11ad 93be 58d0 8bbe 4b16 1fbe
00000010: f1a5 853c 6d53 95be d63c f7bd 4188 f0bd
00000020: 709c 87be 8cf4 a9be 760e 2dbd ecb3 8abe
00000030: 50fd 97be 2df0 0b3c 7400 63be d878 bebd
00000040: d195 80be 676e cabd 5874 8dbd 714d 183e
00000050: 221c 6fbe feae 7c3e e798 a03e 3171 9e3d
00000060: a1eb 193e 9c79 323e 56b7 8e3e fb8d 473e
00000070: 6ccb 983e d15c a33e 6b3d 973e 7372 583c
00000080: 5837 fabc d2f2 a93e 2a0c b03d 64dc bf3d
00000090: ccdc 403e 045d 513e d71f a23a c59e b63d
000000a0: 4580 a23e 5edb a23d 879b 143e 1a9e 27bd
000000b0: 6422 143e 1d65 23be de21 a4be 402e 8cbe
000000c0: 522c b23d 5a9b 713d e293 af3d aaac abbc
000000d0: b5d7 603e ab41 673d ac5e 1d3e bf2a 063e
000000e0: 737f 113e 3baf 6f3d ea46 bdbb c744 3c3e
000000f0: 8c50 87bc 41fa 923d 9c88 c93d b07a 543e
00000100: b7e0 ac3b ef8c b93d 81e9 033e ec11 673e
00000110: f12d 673e d83a 14be a11c 02be b8b8 bcbc
00000120: 136f d8bd ca75 da3d e6ee 32bd d44c d43d
00000130: 39d2 5a3e 9dc8 2b3b 10c0 203e 76bd 843d
00000140: afc5 963e 10c3 e43d bb32 a43d c99d 413e
00000150: 5d71 943d 1926 1d3e d0a6 923e 8fe9 a93d
00000160: 877c f73d 5dbb f53d ea85 823e 5d11 3c3d
00000170: 93cf 3b3e d59b 40be 5d85 47be 5fa6 b7bd
00000180: cb3a 97be 15a0 b7bd 192d 8fbe 9531 84be
00000190: 915d 36be 3e97 42be 5707 813c d5af 603d
000001a0: 4b71 80be f249 61bd 3cea 44be e5ee 20bd
000001b0: ad82 4fbe dc07 68be 6816 ecbc b9af 49bd
000001c0: 9bd1 d4bd aa01 1cbe 8d01 7f3c 851a 54be
000001d0: c3f8 15be e8c1 bd3c 6acf 6b3e c32d c0bc
000001e0: 4ddc 473e 2834 4abd 732b 8c3d eb3e 583e
000001f0: d67a 983e 0092 803d ad85 0e3e 24e3 8b3e
00000200: 05d7 153e 33cc 843e 9417 7b3e 5c39 8d3e
00000210: aa28 10bb 78aa 5bbd 47f2 613e 1c7d 0f3e
00000220: 3bc5 943d 6749 58bd 7389 573e e5c5 803e
00000230: 8eca 093e 7ad4 3bbe 7e60 5fbe 5f2f 8cbe
00000240: 0725 7e3e 4421 5b3e 356b df3d 544c e13d
00000250: 5c4e fc3b 7948 813d ca3c 243e fc0b 343e
00000260: 9352 823e 8114 e6bc 2d84 aa3d 6c74 ab3e
00000270: 17e6 f13d 3e72 e53d 5763 873d b175 193e
00000280: d09d 503e 3cbc 4fb9 2ef9 5e3d c71c b4bd
00000290: e42c b83c 5c33 75be 5598 cc3b ef9f 22be
000002a0: f97e 193e 375e 49bd 98ee 6a3e 3649 37bd
000002b0: 191f f3bd 54fe a23d fb73 613e 40b9 b03d
000002c0: 8b4c 563e c0bb a03e e86c 343e 6442 1a3c
000002d0: 1ebf 233d a98a ea3c 765b 1f3e d500 ef3d
000002e0: 5856 cebd b370 e53d 093f 7f3e cb27 0e3d
000002f0: bf41 ba3c e191 bcbd 3131 6abe 552c a5be

foundation_model.down_path.1.block.2.bias f4 [8]
0.073955715 -0.09465407 0.034626316 0.11024446 0.10321163 0.066692285 -0.038359195 0.07827632
00000000: 1876 973d fed9 c1bd 53d4 0d3d d9c7 e13d
00000010: 9e60 d33d f795 883d 881e 1dbd 564f a03d

foundation_model.down_path.2.block.0.weight f4 [16, 8, 3]
0.1546068 0.032292355 0.17431197 -0.10468055 -0.027400276 -0.2398009 -0.19473724 -0.08900445
-0.06642971 -0.28701872 0.07701557 0.024669291 0.10862757 0.13812922 0.19234161 -0.01927325
-0.20939653 -0.23727638 0.08112369 -0.14340203 -0.18880206 -0.13926461 -0.08183168 -0.035725493
0.03724225 0.09383981 -0.013098518 0.18966994 0.050074402 0.25054476 0.05520405 0.25339353
0.025815742 0.25040883 0.05681099 0.0561921 -0.10302807 0.027743045 -0.14665397 0.017050665
0.032553043 0.29718614 0.23615028 0.023293944 0.005296232 0.12597512 0.0015960298 0.21542129
0.2099207 0.15033011 0.32249692 -0.17118263 -0.4166246 -0.16767055 -0.30517754 -0.2337441
-0.09047531 -0.048722453 -0.37929928 -0.36783615 0.22314459 0.34530038 0.06277346 -0.18904345
-0.18205126 -0.39933914 -0.46537253 -0.41968566 -0.078782804 -0.24471329 -0.36681113 -0.2082673
0.44446212 0.38668782 0.27915025 -0.3405602 -0.31486198 -0.37572443 -0.33370602 -0.29021746
-0.13151659 -0.3756778 -0.14097169 -0.27347082 0.36441687 0.045430675 0.2816287 -0.14917502
-0.20102493 -0.18743679 -0.34387287 -0.3216225 -0.14616878 -0.34539956 -0.14987239 -0.34506878
0.35956144 0.36816898 0.19573249 -0.07200328 -0.39256188 -0.15976724 -0.3567709 -0.12554948
-0.41972747 -0.18662623 -0.022464966 0.028982708 0.15027863 0.29102397 0.33977202 -0.3371631
-0.2684512 -0.11923691 -0.07122403 -0.06949907 -0.036784373 -0.19054078 -0.31821504 -0.3169949
0.34865376 0.2631032 0.17214939 -0.42390844 -0.442627 -0.26233843 -0.37677556 -0.37092867
-0.15770562 -0.34866676 -0.17908692 -0.13081981 0.12650919 0.22838412 0.2092315 -0.34584615
-0.16675279 -0.38824883 -0.1567267 -0.38060582 -0.30955052 -0.3763893 -0.22785193 -0.37505937
0.28253472 0.30682328 0.2620641 -0.44085047 -0.39481613 -0.46947387 -0.15750507 -0.42599997
-0.083025336 -0.025033103 -0.2594716 -0.36144176 0.17609754 0.18055187 0.0770177 -0.16383718
-0.44489437 -0.09050771 -0.07247426 -0.23716323 -0.10588134 -0.13686216 -0.08169431 -0.112111636
0.11001059 -0.2868608 -0.23883611 -0.054810777 -0.0015091647 -0.031547595 0.24847478 -0.11951626
0.04802117 0.19937754 0.11965673 0.082553364 -0.16046064 0.106238596 -0.042111807 0.19058049
-0.085394345 0.25623244 -0.108015686 0.04021003 0.26631317 0.11894555 0.24654317 0.17319418
-0.017965378 -0.27375725 0.019119373 0.26118425 0.2646354 -0.005099383 0.14036757 0.2647722
0.15756023 0.16924402 -0.13665959 0.24496692 0.04074267 -0.22364926 -0.18316336 -0.059402596
0.17007165 0.15536702 -0.016262736 0.102140576 0.21971132 0.21476898 0.18199573 0.0819271
-0.05325381 0.0731949 -0.24595185 -0.022325035 0.24512771 -0.024960153 0.18368828 -0.013895733
0.19028461 0.054734793 0.17121224 0.2307083 -0.123561 0.061834875 -0.113039725 0.05470382
0.10588792 0.2236583 0.12770231 0.036457703 0.120776735 -0.013368984 0.1047947 0.04584508
0.13262576 0.091046214 0.15243278 -0.11951368 -0.4976808 -0.47435856 -0.41487297 -0.43357843
-0.34555554 -0.10368233 -0.34227452 -0.23103274 0.09272812 0.16310547 0.38444 -0.19043411
00000000: 3f51 1e3e fd44 043d d67e 323e c262 d6bd
00000010: 8b76 e0bc 5e8e 75be 3369 47be f747 b6bd
00000020: 4d0c 88bd 1ef4 92be 57ba 9d3d 4117 ca3c
00000030: 2278 de3d bf71 0d3e 33f5 443e efe2 9dbc
00000040: 0b6c 56be 94f8 72be 2d24 a63d fbd7 12be
00000050: 5455 41be 629b 0ebe 5e97 a7bd e554 12bd
00000060: 548b 183d 162f c03d 2b9b 56bc d638 423e
00000070: d11a 4d3d 6747 803e a41d 623d ccbc 813e
00000080: 897b d33c 9635 803e a4b2 683d b029 663d
00000090: 6100 d3bd 6245 e33c 752c 16be d6ad 8b3c
000000a0: 5756 053d c828 983e 61d1 713e f1d2 be3c
000000b0: 048c ad3b 9fff 003e e031 d13a 6697 5c3e
000000c0: 74f5 563e 23f0 193e 511e a53e 804a 2fbe
000000d0: d24f d5be d4b1 2bbe 3b40 9cbe 9d5a 6fbe
000000e0: 1f4b b9bd 3291 47bd 8433 c2be 0555 bcbe
000000f0: 0480 643e 36cb b03e 5f8f 803d 9b94 41be
00000100: a56b 3abe 2e76 ccbe 4f45 eebe 0ae1 d6be
00000110: e158 a1bd 1f96 7abe abce bbbe 0644 55be
00000120: 8a90 e33e f2fb c53e c8ec 8e3e e85d aebe
00000130: 9735 a1be f45e c0be 84db aabe 6297 94be
00000140: 49ac 06be d758 c0be e25a 10be 5e04 8cbe
00000150: d994 ba3e 8415 3a3d a331 903e 56c1 18be
00000160: 7bd9 4dbe 6eef 3fbe 1b10 b0be b4ab a4be
00000170: 45ad 15be 36d8 b0be 2678 19be dbac b0be
00000180: 7018 b83e a580 bc3e 196e 483e 7576 93bd
00000190: dffd c8be 069a 23be adaa b6be 0b90 00be
000001a0: 85e6 d6be f21a 3fbe 7308 b8bc 256d ed3c
000001b0: a4e2 193e 1801 953e 99f6 ad3e a4a0 acbe
000001c0: 7072 89be 7b32 f4bd e7dd 91bd 8755 8ebd
000001d0: 36ab 16bd 1f1d 43be 15ed a2be 284d a2be
000001e0: bf82 b23e 76b5 863e ee47 303e 870a d9be
000001f0: 02a0 e2be 3951 86be bae8 c0be 5dea bdbe
00000200: 957d 21be 7384 b2be 9062 37be a1f5 05be
00000210: a08b 013e 87dd 693e c840 563e bf12 b1be
00000220: 3ec1 2abe 8dc8 c6be f77c 20be c4de c2be
00000230: 687d 9ebe 19b6 c0be 0452 69be c807 c0be
00000240: 64a8 903e f117 9d3e 442d 863e 27b7 e1be
00000250: 5725 cabe e15e f0be 0249 21be ab1c dabe
00000260: 3009 aabd 3912 cdbc 76d9 84be e50e b9be
00000270: ea52 343e 97e2 383e 75bb 9d3d efc4 27be
00000280: 32c9 e3be 1b5c b9bd 636d 94bd ebda 72be
00000290: 51d8 d8bd 9825 0cbe 594f a7bd c99a e5bd
000002a0: 3b4d e13d 6bdf 92be 7491 74be 4481 60bd
000002b0: 2acf c5ba 0d38 01bd 2c70 7e3e f1c4 f4bd
000002c0: d9b1 443d a029 4c3e 960e f53d bd11 a93d
000002d0: cb4f 24be 9f93 d93d 6e7d 2cbd 8827 433e
000002e0: 3be3 aebd e630 833e 5437 ddbd 46b3 243d
000002f0: 335a 883e b999 f33d d075 7c3e d159 313e
00000300: 212c 93bc e929 8cbe 3ba0 9c3c f1b9 853e
00000310: 4b7e 873e ba18 a7bb 84bc 0f3e 3990 873e
00000320: 7857 213e 4e4e 2d3e 7ef0 0bbe 9cd8 7a3e
00000330: c9e1 263d 5004 65be 2d8f 3bbe 2350 73bd
00000340: 4327 2e3e 8818 1f3e 6e39 85bc 142f d13d
00000350: 01fc 603e 66ec 5b3e 175d 3a3e 65c9 a73d
00000360: ab20 5abd 35e7 953d cdda 7bbe fee2 b6bc
00000370: c202 7b3e 3c79 ccbc c818 3c3e eeaa 63bc
00000380: f8d9 423e 9731 603d 4352 2f3e cc3e 6c3e
00000390: 8d0d fdbd 9146 7d3d 5f81 e7bd 1d11 603d
000003a0: c4db d83d ae06 653e 65c4 023e ac54 153d
000003b0: cb59 f73d 9509 5bbc 9b9e d63d 0dc8 3b3d
000003c0: 0ccf 073e 7076 ba3d 5717 1c3e 97c3 f4bd
000003d0: 05d0 febe 20df f2be 3b6a d4be fefd ddbe
000003e0: a8ec b0be 6757 d4bd 9b3e afbe d993 6cbe
000003f0: 3ee8 bd3d 1f05 273e 52d5 c43e 2901 43be

foundation_model.down_path.2.block.0.bias f4 [16]
0.14204492 -0.19716147 0.036806285 0.12481988 0.06283224 0.042045783 -0.0039847484 -0.034023073
0.03087914 0.009597981 0.046169054 -0.09706208 0.037566092 -0.15008426 0.07619124 0.1559559
00000000: 3974 113e b2e4 49be 30c2 163d 91a1 ff3d
00000010: 30ae 803d 3338 2c3d 7e92 82bb c75b 0bbd
00000020: 40f6 fc3c da40 1d3c c31b 3d3d 7cc8 c6bd
00000030: e7de 193d b0af 19be 270a 9c3d e7b2 1f3e

foundation_model.down_path.2.block.2.weight f4 [16, 16, 3]
0.08816575 0.11514605 0.10665228 -0.0949706 -0.116058536 -0.17909892 0.0994019 0.0906016
0.2729052 0.0986094 0.12833874 0.1018081 0.24125081 0.26072976 0.2843799 0.22903025
0.10858678 0.25065354 0.24982518 0.22313643 0.26998737 -0.22259948 -0.06558942 -0.16671799
-0.07106524 -0.050047938 -0.25015804 -0.18521516 -0.0901009 -0.27844205 0.119785845 0.17879127
0.25005868 0.24317229 0.20935924 0.20468418 -0.0791736 -0.13709539 -0.24941294 -0.19426301
-0.13771449 -0.1359564 0.22956696 0.2447073 0.08355293 0.10191915 -0.028831707 0.04869094
0.1614361 0.058117628 -0.039398618 0.011448651 -0.12818457 0.009661124 0.2504749 0.30673936
0.23923102 0.10945572 0.07080395 0.005851852 0.037052996 0.14196756 0.2927757 0.17605165
0.34503338 0.15930109 0.10271718 0.2149859 0.207677 -0.08172224 -0.24619593 -0.17468789
-0.08739975 -0.20615003 -0.24538349 -0.06303629 -0.21325871 -0.24831249 0.18620309 0.118206516
0.2622919 0.13530163 0.28647816 0.12816419 -0.11607981 -0.1703724 -0.24583091 -0.13220496
-0.010191941 -0.036085002 0.03732881 0.19385314 0.12070416 0.21006818 0.22262022 0.196879
0.16881682 -0.037862137 -0.06665964 -0.1346556 -0.084750004 -0.20388375 0.20582214 0.14908968
0.30610234 0.22470732 0.23917232 0.10028802 0.25417683 0.07188038 0.09026075 0.22165659
0.16665834 0.14664349 0.1734115 0.24427901 0.14827865 -0.18620178 -0.037222628 -0.030868255
-0.15488218 -0.16106862 -0.24192257 -0.23860389 -0.20726877 -0.0892135 0.30244988 0.22424921
0.28981832 0.26441896 0.12721497 0.11682246 -0.24819839 -0.18584104 -0.17021963 -0.027258623
-0.020373212 -0.012258739 0.1407601 0.10192803 0.19301775 -0.0029363113 0.2021591 0.100299
-0.063614465 0.097992726 -0.108554386 -0.0058257473 -0.08744677 -0.07104876 -0.17221057 -0.068978645
-0.0010700745 -0.02586077 -0.2311199 -0.0069946814 -0.110527545 -0.021370556 -0.11679682 -0.086991355
-0.28331953 -0.21833646 -0.20531753 -0.23255187 0.01998882 0.0047610635 0.036204934 -0.0005780669
0.05435998 0.05175047 0.051884364 -0.03627763 0.10441729 0.11386374 -0.079522714 -0.03091695
-0.22534294 -0.14503567 -0.26644704 -0.027939169 0.15118062 -0.05279314 0.048919484 -0.025522584
0.1293706 0.14044829 -0.23107836 -0.17995329 0.05345199 0.07873745 -0.15509966 0.07966976
-0.033690564 0.12879099 -0.1017372 -0.15200196 -0.123820856 -0.13128294 -0.18820472 -0.109253556
-0.18917233 -0.1617513 0.069668435 -0.17196725 -0.033638127 -0.054489132 -0.048111536 -0.13807203
-0.105060674 -0.16691017 -0.16302265 -0.15412657 -0.1076954 -0.054166056 -0.047339052 -0.05278955
-0.14058618 0.04010468 0.03950073 -0.12765315 0.0647852 0.017351639 -0.07099854 -0.175348
0.008476323 -0.11581803 -0.14622931 0.008023407 0.12812868 -0.117565274 0.016702577 0.00017312016
0.003164649 -0.1485045 -0.019316811 -0.14124502 0.031258665 -0.005873591 -0.13233477 0.036908112
-0.022337807 -0.012765413 -0.061838705 0.0949729 0.14973822 -0.04458393 0.048801675 -0.08281219
0.069021985 -0.03772759 -0.016442314 -0.049467284 -0.096570626 -0.12853363 0.01131229 -0.22975016
00000000: 3f90 b43d b1d1 eb3d 836c da3d f27f c2bd
00000010: 19b0 edbd b565 37be 3993 cb3d 558d b93d
00000020: 3bba 8b3e baf3 c93d 3b6b 033e c480 d03d
00000030: 740a 773e 5f7e 853e 3e9a 913e e886 6a3e
00000040: bf62 de3d a955 803e 2cd2 7f3e e07d 643e
00000050: c93b 8a3e 1ef1 63be bf53 86bd 1fb8 2abe
00000060: a78a 91bd 11ff 4cbd b714 80be 0ba9 3dbe
00000070: d286 b8bd f58f 8ebe 4852 f53d 0f15 373e
00000080: b107 803e 2802 793e 4562 563e bb98 513e
00000090: c525 a2bd bc62 0cbe 1b66 7fbe e2ec 46be
000000a0: 0705 0dbe 2838 0bbe 9a13 6b3e 8d94 7a3e
000000b0: cc1d ab3d fdba d03d 7930 ecbc 2770 473d
000000c0: 814f 253e c00c 6e3d 7260 21bd 1f93 3b3c
000000d0: d142 03be b149 1e3c 3f3e 803e f10c 9d3e
000000e0: faf8 743e 522a e03d a901 913d e4c0 bf3b
000000f0: e2c4 173d f25f 113e b2e6 953e e246 343e
00000100: 37a8 b03e d31f 233e 635d d23d 4425 5c3e
00000110: 48a9 543e fd5d a7bd c91a 7cbe 62e1 32be
00000120: a4fe b2bd fe18 53be cf45 7bbe 2c19 81bd
00000130: 7e60 5abe a145 7ebe 06ac 3e3e 4216 f23d
00000140: 204b 863e 838c 0a3e 44ad 923e 793d 033e
00000150: 40bb edbd 1a76 2ebe 19bb 7bbe bd60 07be
00000160: 19fc 26bc decd 13bd 18e6 183d 7081 463e
00000170: be33 f73d 1d1c 573e 8ef6 633e a69a 493e
00000180: 51de 2c3e 5415 1bbd d984 88bd 28e3 09be
00000190: 6991 adbd e7c6 50be 0ac3 523e f7aa 183e
000001a0: 72b9 9c3e ad19 663e 97e9 743e ce63 cd3d
000001b0: 7723 823e 0536 933d a1da b83d f2f9 623e
000001c0: 7ca8 2a3e b629 163e c992 313e 4724 7a3e
000001d0: 5cd6 173e aeab 3ebe c176 18bd 6cdf fcbc
000001e0: 6f99 1ebe 2cef 24be 8dba 77be 9454 74be
000001f0: 443e 54be 91b5 b6bd b6da 9a3e 96a1 653e
00000200: 1163 943e ec61 873e a444 023e 9d40 ef3d
00000210: b827 7ebe 1d4d 3ebe 0e4e 2ebe 7a4d dfbc
00000220: b9e5 a6bc e1d8 48bc 6a23 103e a5bf d03d
00000230: 72a6 453e 216f 40bb cc02 4f3e 9069 cd3d
00000240: 4d48 82bd 69b0 c83d c351 debd e9e5 bebb
00000250: 4b17 b3bd 0382 91bd f857 30be ad44 8dbd
00000260: be41 8cba f7d9 d3bc b2aa 6cbe a433 e5bb
00000270: 445c e2bd 4e11 afbc 2c33 efbd 8628 b2bd
00000280: 420f 91be 9893 5fbe c23e 52be 1422 6ebe
00000290: 98bf a33c b202 9c3b a04b 143d 6a89 17ba
000002a0: 92a8 5e3d 4df8 533d b384 543d da97 14bd
000002b0: bbd8 d53d 6431 e93d cedc a2bd 8b45 fdbc
000002c0: 4dc0 66be 3b84 14be bf6b 88be afe0 e4bc
000002d0: 18cf 1a3e 9f3d 58bd cc5f 483d bd14 d1bc
000002e0: ba79 043e add1 0f3e ce9f 6cbe ad45 38be
000002f0: 79f0 5a3d 1a41 a13d 72d2 1ebe e629 a33d
00000300: 1eff 09bd c9e1 033e 985b d0bd 67a6 1bbe
00000310: ca95 fdbd 096f 06be bdb8 40be 54c0 dfbd
00000320: 64b6 41be 22a2 25be 53ae 8e3d 2f18 30be
00000330: 22c8 09bd ff2f 5fbd 9a10 45bd c162 0dbe
00000340: 0d2a d7bd 80ea 2abe 69ef 26be 5bd3 1dbe
00000350: 688f dcbd 3add 5dbd 98e6 41bd db39 58bd
00000360: d3f5 0fbe ce44 243d 84cb 213d 82b7 02be
00000370: 1aae 843d 0625 8e3c af67 91bd 6d8e 33be
00000380: 47e0 0a3c 0132 edbd 23bd 15be 9c74 033c
00000390: 2a34 033e 10c6 f0bd d8d3 883c 9787 3539
000003a0: 0066 4f3b 9011 18be 4a3e 9ebc 89a2 10be
000003b0: 1609 003d 4177 c0bb c482 07be f62c 173d
000003c0: c7fd b6bc 0626 51bc 954a 7dbd 2781 c23d
000003d0: fa54 193e a49d 36bd 44e4 473d 7099 a9bd
000003e0: 665b 8d3d 3f88 1abd 08b2 86bc 359e 4abd
000003f0: d2c6 c5bd 529e 03be 2f57 393c a043 6bbe

foundation_model.down_path.2.block.2.bias f4 [16]
0.11334874 0.06643834 0.055421002 0.031247439 0.24927497 -0.07390928 -0.01856815 0.0007367409
0.1097645 0.110079095 -0.19072856 0.12761652 0.060333163 -0.019619549 0.04658157 0.0793048
00000000: 6223 e83d d310 883d 2201 633d a1fa ff3c
00000010: f041 7f3e c05d 97bd 3c1c 98bc d821 413a
00000020: 36cc e03d 2671 e13d 594e 43be e8ad 023e
00000030: e81f 773d 2db9 a0bc 51cc 3e3d 8e6a a23d

foundation_model.up_path.0.up.weight f4 [16, 8, 2]
0.2137413 0.070097476 -0.048381835 0.18494013 -0.016776025 0.11374599 -0.19871083 0.12857941
0.04770288 -0.0071955323 0.08097011 -0.15499568 -0.17975587 -0.18253249 -0.18629396 0.14219451
-0.12625873 0.042528927 -0.24504697 0.21570301 0.011002451 0.03677517 -0.24290279 0.03806293
-0.10080522 0.24632329 -0.15763369 -0.05527109 -0.03196302 -0.15422869 0.22899407 0.22965828
0.16175479 -0.05571741 0.071480274 -0.12558931 -0.12786326 -0.041712224 0.09705028 -0.08385885
0.054599464 0.07444039 0.20536816 0.21018147 -0.04025823 -0.24544775 0.05322984 0.19266814
-0.21949899 -0.1312702 0.21262136 0.1310994 0.00017911196 0.21506959 -0.103658736 0.16390872
0.10177964 -0.016148359 -0.0985657 0.21168417 0.21005067 0.23314562 0.2141015 -0.20441017
-0.1940135 0.1382697 -0.046592414 0.15444785 0.1577476 0.18213561 -0.23534107 -0.07708895
0.21501687 0.22729462 0.0123490095 0.0034283996 -0.20182803 0.20237789 0.06708181 -0.19845936
0.21045184 -0.21818 0.08604601 -0.24439064 0.12519771 0.09488994 0.21594176 -0.15444735
0.14068577 -0.21550837 -0.056146294 0.2231693 0.055083573 -0.14605367 -0.11483085 0.24272513
-0.24354151 -0.21332607 0.037203044 -0.028972715 0.12066981 -0.052252054 -0.17860809 0.10164842
0.12554252 0.018435538 -0.13730675 -0.18726224 -0.13844895 0.027665555 -0.023605615 -0.17151296
-0.045272052 -0.09935582 -0.03433621 0.095461756 0.026907802 0.23846287 0.24740571 -0.1450268
-0.07933912 0.118020296 -0.10051179 -0.23853728 0.008340865 0.22477046 0.041306823 0.20509422
0.22687769 -0.22051895 0.06687707 0.14854196 0.16397455 0.03425449 0.028164 0.18367699
0.15908843 0.16797504 -0.04412502 0.03477356 0.06437588 -0.19112945 0.22063604 -0.16567388
-0.073482335 0.07134044 -0.082805276 -0.104218245 0.18977964 0.031602412 0.05549118 -0.07413763
0.2270087 0.19129595 -0.19972381 -0.22804523 -0.21409664 0.20145437 0.15753749 0.14047724
-0.16683793 0.06918913 0.20927465 0.20464519 0.2329765 0.10601121 0.046368986 -0.21162793
0.10421565 0.13969874 0.15895984 -0.05027789 -0.18980774 -0.04927504 -0.014520049 0.047772348
-0.17768192 0.021630079 -0.23555768 -0.16875279 -0.051038623 -0.1258857 -0.21497598 -0.09619728
0.064896405 0.08928782 0.0033330023 0.018031389 -0.22583395 -0.016322106 -0.019405663 0.2257773
-0.040786058 -0.10430932 0.07239702 -0.013678998 0.15004197 0.23144495 0.12992999 -0.1474368
-0.08977097 0.12683639 -0.04186532 -0.0956507 0.1636531 -0.2255246 -0.2445203 0.095871866
0.23601371 0.043395877 -0.16881186 -0.18032444 -0.0020734072 0.15917543 0.17180231 -0.09896478
-0.08315629 0.11591399 0.23961526 0.105651855 -0.15572238 0.0215832 -0.019529462 0.012223184
0.048754275 0.21810317 0.18471882 -0.21790272 0.22047755 0.0861367 -0.24787322 0.22185397
0.103910625 -0.23306382 -0.09533563 0.104999274 0.122110575 -0.21229395 -0.11212313 0.07060507
0.13751918 -0.24197382 0.21552292 -0.021743208 -0.019916743 0.11320686 0.19274712 0.2091119
0.1285502 -0.22109279 -0.021998674 -0.09780222 0.1832242 0.24828082 -0.15402156 0.015286416
00000000: 00df 5a3e 448f 8f3d 082c 46bd f260 3d3e
00000010: e06d 89bc a8f3 e83d da7a 4bbe 52aa 033e
00000020: 1864 433d 80c8 ebbb a8d3 a53d 30b7 1ebe
00000030: ec11 38be cce9 3abe d8c3 3ebe 709b 113e
00000040: f849 01be d032 2e3d 98ed 7abe 40e1 5c3e
00000050: a043 343c 90a1 163d 82bb 78be e0e7 1b3d
00000060: f872 cebd 2c3c 7c3e ba6a 21be f063 62bd
00000070: a8eb 02bd 20ee 1dbe 6c7d 6a3e 8a2b 6b3e
00000080: 0ca3 253e f037 64bd 4064 923d 7c9a 00be
00000090: 96ee 02be 70da 2abd 4cc2 c63d 30be abbd
000000a0: b0a3 5f3d 3474 983d 084c 523e d039 573e
000000b0: d0e5 24bd a856 7bbe 8807 5a3d cc4a 453e
000000c0: 58c4 60be b26b 06be 6ab9 593e ec3e 063e
000000d0: 00d0 3b39 343b 5c3e 084b d4bd b0d7 273e
000000e0: d871 d03d 9049 84bc d0dc c9bd bcc3 583e
000000f0: 8617 573e babd 6e3e 6c3d 5b3e e650 51be
00000100: 7aab 46be 9296 0d3e b0d7 3ebd 9427 1e3e
00000110: 9688 213e c281 3a3e 40fd 70be d0e0 9dbd
00000120: 622d 5c3e ecbf 683e 8053 4a3c 00af 603b
00000130: 02ac 4ebe 263c 4f3e 3062 893d ee38 4bbe
00000140: b080 573e 946a 5fbe e438 b03d 8a41 7abe
00000150: d433 003e a855 c23d d61f 5d3e 7227 1ebe
00000160: ee0f 103e 3aae 5cbe a8f9 65bd 7e86 643e
00000170: 509f 613d 188f 15be 702c ebbd f08c 783e
00000180: f262 79be 2672 5abe 3862 183d 3058 edbc
00000190: bc21 f73d 4006 56bd 0ae5 36be 0c2d d03d
000001a0: 388e 003e 2006 973c 249a 0cbe acc1 3fbe
000001b0: 90c5 0dbe e0a2 e23c 9060 c1bc 18a1 2fbe
000001c0: 306f 39bd 107b cbbd 20a4 0cbd 7481 c33d
000001d0: c06d dc3c 9c2f 743e ec57 7d3e e881 14be
000001e0: 8c7c a2bd a0b4 f13d 20d9 cdbd 1e43 74be
000001f0: 20a8 083c 3a2a 663e 5831 293d 3804 523e
00000200: a052 683e b8cf 61be d8f6 883d 621b 183e
00000210: f2e8 273e 704e 0c3d 30b8 e63c d215 3c3e
00000220: 14e8 223e a601 2c3e 70bc 34bd b86e 0e3d
00000230: 80d7 833d 70b7 43be 6aee 613e 6aa6 29be
00000240: e87d 96bd f01a 923d d095 a9bd 6070 d5bd
00000250: 9855 423e 8871 013d b84a 633d 78d5 97bd
00000260: f874 683e 16e3 433e 6684 4cbe b084 69be
00000270: 263c 5bbe 0e4a 4e3e 8251 213e 44d9 0f3e
00000280: 90d7 2abe 08b3 8d3d 184c 563e 828e 513e
00000290: 6491 6e3e 681c d93d 68ed 3d3d feb4 58be
000002a0: 046f d53d 300d 0f3e 5ec6 223e 30f0 4dbd
000002b0: f65c 42be a0d4 49bd 80e5 6dbc f0ac 433d
000002c0: 40f2 35be 9031 b13c 0836 71be 88cd 2cbe
000002d0: e00d 51bd 2ee8 00be aa22 5cbe 1403 c5bd
000002e0: 68e8 843d 88dc b63d 806e 5a3b 90b6 933c
000002f0: 0441 67be f0b5 85bc a0f8 9ebc 2a32 673e
00000300: 480f 27bd 20a0 d5bd e444 943d e01d 60bc
00000310: 9aa4 193e e8ff 6c3e 5e0c 053e acf9 16be
00000320: d8d9 b7bd 66e1 013e f87a 2bbd 84e4 c3bd
00000330: ae94 273e ecef 66be 8863 7abe 7858 c43d
00000340: 94ad 713e e0bf 313d 04dd 2cbe f8a6 38be
00000350: 00e2 07bb e2fe 223e f2ec 2f3e 0cae cabd
00000360: d84d aabd 5064 ed3d b45d 753e 0060 d83d
00000370: b075 1fbe 40cf b03c 40fc 9fbc c043 483c
00000380: 90b2 473d 7056 5f3e ee26 3d3e e421 5fbe
00000390: dec4 613e 7068 b03d 7ad2 7dbe b02d 633e
000003a0: 18cf d43d 48a8 6ebe 543f c3bd dc09 d73d
000003b0: 1c15 fa3d 9663 59be d0a0 e5bd 6499 903d
000003c0: d4d1 0c3e fcc7 77be 0ab2 5c3e d01e b2bc
000003d0: 7028 a3bc 00d9 e73d 805f 453e 6e21 563e
000003e0: aaa2 033e 2666 62be 9036 b4bc 884c c8bd
000003f0: 209f 3b3e 543d 7e3e d4b7 1dbe e073 7a3c

foundation_model.up_path.0.up.bias f4 [8]
-0.08436957 -0.14947164 0.11291516 -0.053993195 0.2292774 -0.20362231 0.08141899 0.14312556
00000000: f4c9 acbd 180f 19be 1040 e73d f827 5dbd
00000010: b2c7 6a3e 5e82 50be 00bf a63d 828f 123e

foundation_model.up_path.0.conv_block.block.0.weight f4 [8, 16, 3]
0.06818563 0.12524801 0.0066828197 -0.015366914 0.020680483 0.070633024 0.060340807 -0.02420922
0.039080296 -0.01159395 0.080960006 0.01896272 -0.111977234 0.029206881 -0.09672216 -0.05765267
0.09360005 0.106165715 0.13274883 -0.10245845 -0.13353032 -0.019877668 0.031126855 0.069585264
-0.020148033 0.11201714 0.10809534 0.074823156 -0.14418177 -0.12418375 -0.050834317 -0.08777727
0.08565471 0.042199537 -0.08539646 0.13125333 0.14425941 -0.14291282 0.027868362 0.04923385
0.113459826 -0.14414045 0.059758596 -0.028572757 0.062406607 0.0005993842 -0.11896296 0.054688204
-0.007559433 -0.108240046 0.03155194 -0.024896407 -0.020347144 0.09364611 -0.061239325 0.010140941
-0.02985422 0.0064522717 0.055920694 0.035284467 -0.007913988 0.053519238 -0.099851675 0.04706404
0.0132773705 -0.070770144 0.017501658 -0.07802914 -0.09392406 -0.07390967 0.06769736 0.101663955
-0.0021121174 -0.041066945 0.028938616 -0.1366128 -0.012009278 -0.0058853556 -0.05884318 -0.124439865
0.14407597 -0.1200727 0.004544084 0.08236674 -0.11682749 0.08543365 -0.10208608 -0.10231556
0.08045522 -0.11140975 -0.09202944 -0.11322775 0.12452423 0.07619392 0.013890383 -0.014009278
0.106840305 0.09842618 0.050324406 -0.08658205 0.070797466 -0.086255796 -0.08198884 -0.08451567
-0.1163455 0.11426321 -0.0035153492 0.07534598 -0.11683596 -0.01552449 0.12972677 -0.00378179
-0.00093998446 -0.015247019 -0.093809694 0.06980523 -0.10019228 0.058223546 -0.03555218 0.14137566
0.10733069 -0.12094527 -0.0010023748 0.13547534 0.014201371 0.07940099 0.07406272 -0.113059536
-0.031860225 0.14299697 -0.020423094 0.12203607 0.04276781 -0.07480661 0.08771568 -0.004255361
0.005745485 -0.06421054 0.10757939 0.05866728 -0.063027374 -0.099927366 0.05600549 -0.011768595
-0.07698876 -0.11958313 0.07820013 0.07942723 0.02202623 0.07307282 0.030454395 -0.123993106
0.11933121 0.08078784 -0.09573261 0.13236098 0.041991133 0.12361061 0.037146024 0.0131912185
0.08842257 -0.057561874 -0.020100577 -0.0923801 0.045898754 -0.076239504 0.07299379 -0.05994057
0.035050992 -0.13605818 0.04621258 -0.11965999 0.05380424 -0.10258222 -0.0054150536 -0.10448245
0.103183076 0.054747205 0.062260095 -0.13143082 0.13055675 0.010469737 -0.0136019 0.0864195
0.05326054 -0.1439231 -0.076007694 -0.07827767 0.02306668 -0.11838226 -0.08713393 0.06448434
0.08957721 -0.0908461 0.11899866 0.09567514 0.06662506 -0.11522522 0.03173319 0.04185916
0.032338753 0.07418381 0.14333463 -0.13778141 0.071771435 -0.0012534675 0.06273826 0.07090055
-0.056987267 0.0587322 0.02911247 0.061818387 -0.1160574 0.05031534 0.020110866 0.021803888
0.059338037 0.058391668 -0.044542823 -0.12357673 -0.10781919 0.07127723 -0.05212693 -0.012505957
-0.078682736 -0.022925986 0.10546314 0.005869268 0.10432126 0.014637552 0.11908822 0.12308958
0.120975606 0.06876001 -0.030611472 -0.09899351 -0.008472077 0.076914854 -0.048750333 -0.12604755
0.0420925 0.12409195 0.0054963194 -0.03316576 0.115699284 0.14119075 -0.035568956 0.09085514
-0.03447348 -0.08328242 0.049532536 -0.08998215 0.041585546 0.0012717579 0.05241603 0.009775941
00000000: e8a4 8b3d 0441 003e 8efb da3b 82c5 7bbc
00000010: 1e6a a93c 0ca8 903d ec27 773d 6a52 c6bc
00000020: a912 203d 8df4 3dbc 5cce a53d b557 9b3c
00000030: 5254 e5bd 4543 ef3c 4516 c6bd 3525 6cbd
00000040: 62b1 bf3d 696d d93d 4fef 073e bcd5 d1bd
00000050: 2cbc 08be 7ed6 a2bc bffd fe3c b882 8e3d
00000060: 7d0d a5bc 3e69 e53d 1761 dd3d e23c 993d
00000070: 63a4 13be 0d54 febd a537 50bd 92c4 b3bd
00000080: bd6b af3d 6cd9 2c3d 57e4 aebd 4667 063e
00000090: bdb8 133e bd57 12be 314c e43c 6fa9 493d
000000a0: a05d e83d 8e99 13be 6ec5 743d 6a11 eabc
000000b0: 129e 7f3d fe1f 1d3a daa2 f3bd bd00 603d
000000c0: 1fb5 f7bb f5ac ddbd 9b3c 013d 8df3 cbbc
000000d0: 0eaf a6bc 88c9 bf3d 16d6 7abd 3026 263c
000000e0: d690 f4bc 946d d33b 190d 653d 7286 103d
000000f0: aca9 01bc fd36 5b3d 097f ccbd 39c6 403d
00000100: 5489 593c f0ef 90bd a35f 8f3c becd 9fbd
00000110: 425b c0bd f45d 97bd eaa4 8a3d 3135 d03d
00000120: 736b 0abb d035 28bd ad10 ed3c 3ae4 0bbe
00000130: 90c2 44bc f1d9 c0bb 8c05 71bd 54da febd
00000140: a788 133e ade8 f5bd 8ae6 943b e5af a83d
00000150: 4043 efbd d6f7 ae3d 8212 d1bd d28a d1bd
00000160: b5c5 a43d cc2a e4bd ee79 bcbd f3e3 e7bd
00000170: 8f06 ff3d 8f0b 9c3d 7d94 633c 2c87 65bc
00000180: 17cf da3d aa93 c93d f720 4e3d ee51 b1bd
00000190: 43fe 903d e1a6 b0bd c4e9 a7bd 8d16 adbd
000001a0: 8d46 eebd d402 ea3d c661 66bb fe4e 9a3d
000001b0: b147 efbd 6e5a 7ebc 18d7 043e e8d7 77bb
000001c0: 4a69 76ba a2ce 79bc 4c1f c0bd 0bf6 8e3d
000001d0: 9c31 cdbd d07b 6e3d 2a9f 11bd c8c4 103e
000001e0: 31d0 db3d 27b2 f7bd 1e62 83ba 0cba 0a3e
000001f0: deac 683c fc9c a23d 32ae 973d c28b e7bd
00000200: de7f 02bd cc6d 123e 554e a7bc 0cee f93d
00000210: 4d2d 2f3d 3534 99bd 47a4 b33d 8e70 8bbb
00000220: 9f44 bc3b d180 83bd 9552 dc3d 1a4d 703d
00000230: 7f14 81bd b8a6 ccbd 0366 653d 11d1 40bc
00000240: 48ac 9dbd 00e8 f4bd 6427 a03d beaa a23d
00000250: 5a70 b43c 34a7 953d 7f7b f93c 19f0 fdbd
00000260: ec63 f43d 1874 a53d 750f c4bd a389 073e
00000270: e5fe 2b3d 8f27 fd3d 6e26 183d fb1f 583c
00000280: e416 b53d 00c6 6bbd f7a9 a4bc c731 bdbd
00000290: 5500 3c3d 7523 9cbd c57d 953d 3e84 75bd
000002a0: a191 0f3d d652 0bbe 6749 3d3d 4c10 f5bd
000002b0: d661 5c3d a116 d2bd c370 b1bb e5fa d5bd
000002c0: a651 d33d 9b3e 603d 7104 7f3d cd95 06be
000002d0: abb0 053e 4389 2b3c 81da 5ebc b5fc b03d
000002e0: b927 5a3d 9460 13be eca9 9bbd 0b50 a0bd
000002f0: 56f6 bc3c 6672 f2bd 4673 b2bd 5e10 843d
00000300: 4274 b73d 850d babd 92b5 f33d 54f1 c33d
00000310: b872 883d 33fb ebbd a9fa 013d 8374 2b3d
00000320: a475 043d aeed 973d 50c6 123e 9216 0dbe
00000330: e7fc 923d 644b a4ba eb7c 803d 4f34 913d
00000340: 7b6b 69bd 2d91 703d 467d ee3c 4735 7d3d
00000350: 81af edbd 7517 4e3d 8bbf a43c 119e b23c
00000360: 710c 733d 1a2c 6f3d 8972 36bd cc15 fdbd
00000370: 4fd0 dcbd ccf9 913d 0c83 55bd c9e5 4cbc
00000380: 6a24 a1bd 47cf bbbc 0ffd d73d fd52 c03b
00000390: 62a6 d53d 58d2 6f3c 86e4 f33d 6416 fc3d
000003a0: 0fc2 f73d 0cd2 8c3d e9c4 fabc 1cbd cabd
000003b0: 77ce 0abc 8985 9d3d 6eae 47bd 9c12 01be
000003c0: 2f69 2c3d ec23 fe3d 781a b43b d2d8 07bd
000003d0: bff3 ec3d 4f94 103e c1b0 11bd 4212 ba3d
000003e0: 1034 0dbd f98f aabd a1e2 4a3d 9048 b8bd
000003f0: 9b55 2a3d 1db1 a63a 31b2 563d 452b 203c

foundation_model.up_path.0.conv_block.block.0.bias f4 [8]
-0.09355008 0.05353391 0.094806544 0.12392496 -0.010244454 0.09175074 0.10500141 -0.08124864
00000000: 2f97 bfbd 6046 5b3d ef29 c23d 5fcc fd3d
00000010: 5bd8 27bc d0e7 bb3d fb0a d73d b065 a6bd

foundation_model.up_path.0.conv_block.block.2.weight f4 [8, 8, 3]
0.13316797 -0.14534822 0.11735967 0.16016048 -0.102114685 -0.13911985 0.07533098 0.15024488
-0.06295124 -0.03943912 0.036883496 0.16030245 0.011260933 -0.14030047 -0.15732189 -0.14520614
-0.20254737 0.14245278 -0.08618914 -0.13477838 -0.10081267 0.10120488 -0.08995519 0.101485156
0.17391704 0.13248573 0.1849927 0.06600458 -0.09104168 0.01581047 0.19995242 0.032412093
0.15860932 0.04476519 0.15108725 0.028173005 -0.012614095 0.14550103 0.11423182 -0.1266857
0.18907729 0.18464416 0.07853784 0.1107548 -0.20056397 -0.061235826 0.16135721 -0.18609484
-0.09774668 0.079098314 0.18499748 0.029819895 0.090887524 -0.14234114 -0.0033800928 -0.055271808
0.1582235 0.018775675 -0.092526704 0.19545561 -0.0396937 0.12769674 -0.12768686 0.079725385
0.013311711 0.19523703 0.16936536 -0.14960581 -0.18532027 0.06527959 -0.18914352 0.049177848
0.06851385 -0.077234365 -0.101776935 0.13310353 -0.14069444 -0.039626464 0.04490484 0.15451147
-0.18702568 0.04805982 0.03301773 -0.039848533 -0.07517079 -0.084467255 -0.17732084 -0.12908739
-0.20140927 0.10604508 0.06949819 -0.16892397 0.19247681 -0.13626254 0.08848021 -0.004883538
-0.13935593 0.18569426 0.08823318 -0.014962934 -0.09731096 0.07586794 -0.1063081 -0.10216403
0.05698311 -0.19615829 0.039492242 -0.07581745 -0.037406713 0.09768 0.20253019 -0.18180552
-0.002612736 -0.032633334 -0.04538866 -0.020341318 -0.02779895 0.08421207 -0.00435864 -0.14936021
0.08506401 -0.07121302 -0.1572894 -0.09422808 0.07525143 0.20130178 -0.12753952 0.06280927
-0.13596043 0.018234232 0.040215652 0.1651196 0.103333406 -0.12048044 -0.08979459 0.10746511
-0.13695969 0.20112237 -0.00926291 -0.06518483 0.06422826 0.026653377 -0.17170133 0.18503708
-0.11173824 -0.114313334 0.10427584 0.074409276 -0.1582087 -0.007257562 -0.06270488 -0.18871558
-0.084706865 0.068657495 0.014309993 0.059660815 -0.17301323 -0.16350542 0.09809148 -0.009668184
-0.057536867 -0.0637876 0.15217657 -0.05793384 0.026149455 -0.14435929 0.109271556 -0.08548028
-0.027384892 -0.06455355 0.034509473 0.074966826 -0.016332569 -0.17448778 -0.18170887 0.05483166
0.12463431 0.1456768 0.07571669 -0.07998563 0.13415937 0.034253363 0.07377453 -0.10780848
-0.049889117 -0.18773924 0.036299564 -0.06881323 -0.005580595 -0.19853427 0.080714986 0.051746175
00000000: 2f5d 083e 2ad6 14be 445a f03d 1c01 243e
00000010: 8121 d1bd 6f75 0ebe 2147 9a3d cbd9 193e
00000020: 94ec 80bd ea8a 21bd 2613 173d 5326 243e
00000030: c77f 383c edaa 0fbe fd18 21be ebb0 14be
00000040: 9468 4fbe 24df 113e ef83 b0bd 5803 0abe
00000050: e076 cebd 8144 cf3d 6d3a b8bd 73d7 cf3d
00000060: 4f17 323e 57aa 073e ba6e 3d3e 692d 873d
00000070: 0f74 babd f584 813c 54c0 4c3e 8bc2 043d
00000080: 7b6a 223e b45b 373d 9eb6 1a3e 13cb e63c
00000090: 59ab 4ebc 39fe 143e 5ff2 e93d e5b9 01be
000000a0: 7a9d 413e 5c13 3d3e 72d8 a03d 6ad3 e23d
000000b0: a460 4dbe 6bd2 7abd d33a 253e a58f 3ebe
000000c0: 692f c8bd 4cfe a13d fb6f 3d3e da48 f43c
000000d0: 3d23 ba3d e0c1 11be 8c84 5dbb b164 62bd
000000e0: 5705 223e 72cf 993c a47e bdbd 8425 483e
000000f0: dc95 22bd efc2 023e 58c0 02be 1047 a33d
00000100: 5d19 5a3c 37ec 473e 1d6e 2d3e 4432 19be
00000110: 99c4 3dbe 4eb1 853d d7ae 41be b66e 493d
00000120: fd50 8c3d 0d2d 9ebd 6d70 d0bd 4b4c 083e
00000130: 3412 10be 5c4f 22bd 23ee 373d 4138 1e3e
00000140: a983 3fbe 60da 443d 993d 073d 3738 23bd
00000150: 25f3 99bd 2bfd acbd 9893 35be 7c2f 04be
00000160: 3b3e 4ebe 2a2e d93d 1155 8e3d 68fa 2cbe
00000170: a418 453e 6888 0bbe 1d35 b53d 1606 a0bb
00000180: 52b3 0ebe a326 3e3e 99b3 b43d 1827 75bc
00000190: f84a c7bd a760 9b3d 10b8 d9bd 603b d1bd
000001a0: 1f67 693d b8dd 48be 9ec2 213d 2e46 9bbd
000001b0: c837 19bd 740c c83d 1364 4f3e 3a2b 3abe
000001c0: 703a 2bbb 88aa 05bd 76e9 39bd d6a2 a6bc
000001d0: a0ba e3bc 6177 ac3d ecd2 8ebb e2f1 18be
000001e0: 0a36 ae3d 22d8 91bd 7910 21be a7fa c0bd
000001f0: 6c1d 9a3d 0e22 4e3e b899 02be 26a2 803d
00000200: 3639 0bbe f55f 953c 2bb9 243d 1d15 293e
00000210: 77a0 d33d 73be f6bd 3ae6 b7bd ab16 dc3d
00000220: 293f 0cbe 06f3 4d3e 76c3 17bc a07f 85bd
00000230: 1b8a 833d 2f58 da3c 79d2 2fbe 5c7a 3d3e
00000240: 05d7 e4bd 1c1d eabd 928e d53d e463 983d
00000250: 7601 22be d8d0 edbb 6b6b 80bd a83e 41be
00000260: cb7a adbd 4d9c 8c3d 7674 6a3c e65e 743d
00000270: 612a 31be f76d 27be 30e4 c83d 4e67 1ebc
00000280: c7ab 6bbd 13a3 82bd 2dd4 1b3e 094c 6dbd
00000290: 6237 d63c ecd2 13be c4c9 df3d 4910 afbd
000002a0: 4856 e0bc a734 84bd ce59 0d3d 3588 993d
000002b0: e1cb 85bc edac 32be e411 3abe 2a97 603d
000002c0: 4640 ff3d 4d2c 153e 5a11 9b3d 82cf a3bd
000002d0: 1361 093e 414d 0c3d 1a17 973d b1ca dcbd
000002e0: 8858 4cbd b73e 40be daae 143d f3ed 8cbd
000002f0: 6ddd b6bb 914c 4bbe e64d a53d ccf3 533d

foundation_model.up_path.0.conv_block.block.2.bias f4 [8]
0.089092664 -0.03729911 -0.036763214 0.17298678 -0.1504832 0.021044288 0.029326826 0.06685893
00000000: 3776 b63d f4c6 18bd 0695 16bd 7223 313e
00000010: 4518 1abe 1265 ac3c d03e f03c 56ed 883d

foundation_model.up_path.1.up.weight f4 [8, 4, 2]
-0.29837313 0.2241181 -0.20902033 -0.033707406 -0.118101284 0.34586135 0.049467377 -0.08834493
0.07224821 -0.072314 0.14675815 -0.11360409 0.16861373 0.22628622 -0.13000047 0.13232155
-0.3049294 -0.041647788 0.1625419 -0.30752575 0.22223523 -0.32965347 -0.123463415 0.09815946
0.34094232 0.23794256 0.038672682 0.13164552 -0.28731176 0.28942728 0.21177498 0.19473436
0.28866988 -0.12647094 0.054600693 0.09512961 0.3393103 -0.31566754 0.1441837 -0.14079328
-0.15854245 -0.052899856 -0.32133314 0.25586495 0.24309766 0.28808984 0.17186186 0.31661507
-0.18639043 -0.1620239 -0.16256426 -0.052832507 -0.08475895 0.071526825 0.28950673 0.07031843
-0.34886956 0.10370586 -0.24102569 0.005223259 0.24355812 0.2542482 0.28295472 -0.3345451
00000000: 5dc4 98be 377f 653e 6d09 56be c710 0abd
00000010: 16df f1bd bd14 b13e 4e9e 4a3d 30ee b4bd
00000020: dff6 933d 5d19 94bd c547 163e 43a9 e8bd
00000030: 14a9 2c3e 93b7 673e d81e 05be 4d7f 073e
00000040: b51f 9cbe df96 2abd 6271 263e 0474 9dbe
00000050: a291 633e 57c8 a8be 63da fcbd d407 c93d
00000060: fe8f ae3e 37a7 733e 3f67 1e3d 15ce 063e
00000070: 871a 93be d02f 943e 8adb 583e 7268 473e
00000080: 8acc 933e 9981 01be faa4 5f3d 50d3 c23d
00000090: 14ba ad3e 2d9f a1be e4a4 133e 1d2c 10be
000000a0: f458 22be 85ad 58bd c785 a4be bb00 833e
000000b0: 98ee 783e 8380 933e 8efc 2f3e 5f1b a23e
000000c0: 22dd 3ebe 98e9 25be 3f77 26be e666 58bd
000000d0: 1a96 adbd a87c 923d 3a3a 943e 1c03 903d
000000e0: 089f b2be bd63 d43d 70cf 76be df27 ab3b
000000f0: 4d67 793e d22c 823e 71df 903e 7f49 abbe

foundation_model.up_path.1.up.bias f4 [4]
-0.25278696 0.10082622 0.09858982 0.061172187
00000000: 4b6d 81be fa7d ce3d 76e9 c93d b08f 7a3d

foundation_model.up_path.1.conv_block.block.0.weight f4 [4, 8, 3]
-0.17966753 0.09759627 -0.077318415 -0.07357434 -0.061012346 0.01625329 0.08572934 0.13133748
-0.11837384 -0.05356245 0.112401694 -0.082711324 0.14444764 -0.105468474 -0.09445584 0.03445837
-0.20242287 0.1399806 0.06778127 0.14839232 -0.14794655 -0.18709987 0.16846845 -0.14341262
-0.116367206 -0.19679232 0.18951628 0.14180222 0.19988231 -0.17082804 -0.07461333 0.061652124
-0.06804353 -0.17740877 0.18682931 0.20337746 -0.12107578 -0.09145477 -0.03317529 0.021534754
0.066945195 -0.0020209942 -0.1464089 0.11629006 0.10721725 0.15270665 0.091174714 0.013402816
0.037281785 0.13938121 0.13944565 -0.06714176 0.10064937 -0.11437896 0.067314185 0.08250002
-0.13908176 -0.18661645 0.10853856 -0.15285546 -0.17367263 -0.16115242 -0.0818533 -0.09726592
-0.0863521 0.14131488 -0.08926621 -0.01586398 -0.17619051 -0.080762796 0.1338741 -0.03282367
-0.09342721 0.14880392 0.15584198 0.14985515 -0.053058945 -0.100129314 -0.047603983 -0.0689486
-0.0031925302 0.10614709 0.11528551 -0.053853747 -0.015057761 0.19351983 -0.14357316 0.15857266
-0.03255252 0.15555345 -0.15166087 -0.016237644 0.1445468 0.107409924 -0.10746005 0.034035407
00000000: c4fa 37be 8ee0 c73d 1e59 9ebd 25ae 96bd
00000010: 15e8 79bd 9f25 853c dd92 af3d 557d 063e
00000020: fc6d f2bd 4d64 5bbd dc32 e63d 8e64 a9bd
00000030: 15ea 133e dbff d7bd 1072 c1bd 3824 0d3d
00000040: f147 4fbe 1357 0f3e e8d0 8a3d 28f4 173e
00000050: 4d7f 17be 1c97 3fbe fe82 2c3e c2da 12be
00000060: ee51 eebd ed83 49be 8e10 423e 9a34 113e
00000070: f3ad 4c3e 8ced 2ebe e0ce 98bd f086 7c3d
00000080: 685a 8bbd a5aa 35be 2f50 3f3e 2e42 503e
00000090: 94f6 f7bd a34c bbbd d0e2 07bd a769 b03c
000000a0: 901a 893d a872 04bb 37ec 15be 7c29 ee3d
000000b0: b894 db3d 225f 1c3e cfb9 ba3d 7c97 5b3c
000000c0: c9b4 183d f3b9 0e3e d7ca 0e3e 9e81 89bd
000000d0: 4221 ce3d 843f eabd 05dc 893d c5f5 a83d
000000e0: 736b 0ebe 6218 3fbe 7749 de3d 2486 1cbe
000000f0: 3dd7 31be 2405 25be b4a2 a7bd 5b33 c7bd
00000100: 5fd9 b0bd d9b4 103e 34d1 b6bd 2df5 81bc
00000110: 496b 34be f766 a5bd 4b16 093e 1d72 06bd
00000120: c456 bfbd 0e60 183e 0a95 1f3e a173 193e
00000130: 5654 59bd 9910 cdbd 65fc 42bd ec34 8dbd
00000140: c539 51bb a563 d93d cf1a ec3d bf95 5cbd
00000150: d4b4 76bc 102a 463e d804 13be df60 223e
00000160: cb55 05bd 6749 1f3e fd4c 1bbe cf04 85bc
00000170: 1404 143e bcf9 db3d 0414 dcbd b668 0b3d

foundation_model.up_path.1.conv_block.block.0.bias f4 [4]
-0.021242388 0.05920945 0.16452755 0.18781032
00000000: 8404 aebc 9c85 723d e979 283e 5951 403e

foundation_model.up_path.1.conv_block.block.2.weight f4 [4, 4, 3]
-0.18549642 -0.17722367 -0.21900623 0.1497502 0.2505184 0.24431472 -0.2855278 0.19375704
0.0046155765 0.20209208 0.057677913 0.04515057 -0.018375518 -0.22348695 -0.04837515 -0.2719489
0.10221652 -0.21828549 0.04569109 -0.26414427 0.1262626 -0.20825836 -0.21383643 -0.15842532
-0.0004585844 0.17099676 0.2789677 0.09552593 0.263377 0.20437437 -0.16542663 -0.03078197
-0.18998003 0.25837958 0.17195463 0.11300977 0.24753864 -0.077794336 -0.17597549 0.18659602
-0.08808836 -0.20638074 -0.15300569 0.16103463 0.025063911 0.101215556 -0.27862257 0.011019412
00000000: c6f2 3dbe 1f7a 35be 2b43 60be 1e58 193e
00000010: f343 803e a32d 7a3e b330 92be 3f68 463e
00000020: 433e 973b 3af1 4e3e ad3f 6c3d ceef 383d
00000030: 4188 96bc c3d9 64be 0525 46bd e33c 8bbe
00000040: e556 d13d 3b86 5fbe 9526 3b3d eb3d 87be
00000050: fc4a 013e ae41 55be f0f7 5abe 3f3a 22be
00000060: 286e f0b9 c619 2f3e dbd4 8e3e 19a3 c33d
00000070: 5ad9 863e 8447 513e 9965 29be 782a fcbc
00000080: 208a 42be 544a 843e e014 303e ab71 e73d
00000090: c57a 7d3e a352 9fbd eb32 34be 0713 3f3e
000000a0: ac67 b4bd 7955 53be 86ad 1cbe 43e6 243e
000000b0: d552 cd3c 1a4a cf3d 9ea7 8ebe c48a 343c

foundation_model.up_path.1.conv_block.block.2.bias f4 [4]
0.085069336 0.06300095 -0.096032895 0.27087492
00000000: d538 ae3d a406 813d e5ac c4bd 1eb0 8a3e

foundation_model.last.weight f4 [8, 4, 1]
-0.4408282 -0.21309054 -0.04415244 -0.020295084 0.4003932 -0.18170089 0.13981235 0.36982358
0.38458633 -0.27279478 0.48129988 -0.4629373 0.10565972 -0.14682859 0.18014616 -0.20595616
0.3943761 -0.08927363 -0.092324376 0.050521076 0.102298975 -0.2583472 0.4537776 -0.31885546
-0.38765824 -0.28523874 -0.44847274 -0.100708306 -0.44200647 -0.4352035 -0.03149861 0.19642985
00000000: 3cb4 e1be 6834 5abe 30d9 34bd e041 a6bc
00000010: 5600 cd3e cc0f 3abe f82a 0f3e 8459 bd3e
00000020: 80e8 c43e c2ab 8bbe f06c f63e 1e06 edbe
00000030: 2064 d83d 3c5a 16be 3c78 383e 2ce6 52be
00000040: aaeb c93e 18d5 b6bd 9014 bdbd 30ef 4e3d
00000050: 2082 d13d 1646 84be 8a55 e83e 0641 a3be
00000060: 247b c6be d00a 92be 389e e5be 2840 cebd
00000070: ac4e e2be fed2 debe b004 01bd e824 493e

foundation_model.last.bias f4 [8]
0.38838428 -0.31250787 -0.21455795 0.089912355 -0.38351685 -0.13762575 0.37931013 -0.056905568
00000000: 4eda c63e 0801 a0be 14b5 5bbe f823 b83d
00000010: 525c c4be c4ed 0cbe f034 c23e d015 69bd
