wandb/run-20230701_194510-ogu53znm/files/checkpoints/best.pt (torch, 119813 bytes, 66 tensors)

foundation_model.down_path.0.block.0.weight f4 [4, 8, 3]
000000 5b e4 f6 3d a8 e4 34 be d8 44 6d 3d 2e c2 a2 3d
       0.12055274 -0.1766535 0.057926983 0.07947193
000010 f1 06 63 bd f2 cc 61 3c 3e dc 10 3e bb 8a a3 bd
       -0.05542654 0.013781773 0.14146516 -0.07985445
000020 96 b8 0c be 1c 92 b1 3b 56 6d 1a 3e 31 d0 10 be
       -0.13742289 0.005419029 0.15080771 -0.14141919
000030 c9 03 73 3b 32 fb 93 3d 55 cc fb bd 4b 78 e4 3d
       0.0037081114 0.07225646 -0.122948326 0.111557566
000040 3e 8e 65 3e 9a ca 98 3d fc 2c 48 be c0 a4 8e 3d
       0.22417542 0.07460518 -0.1954841 0.06965017
000050 e9 cd 32 be fd 72 86 3d 1b 25 67 bc 6e 5e 26 be
       -0.17461361 0.06564901 -0.014107968 -0.1624696
000060 9a 05 79 bd 00 2f 8d be 17 64 4c be d2 56 ab 3c
       -0.060796358 -0.2757492 -0.19960056 0.020915423
000070 7a 8d 2e 3e ac 0c 7c 3e d3 45 85 be 9c e4 bc bc
       0.17046157 0.24614209 -0.26029834 -0.023058228
000080 04 3b b8 3d f8 09 df bd 93 e9 22 3e d4 b4 ef bd
       0.08995631 -0.10890573 0.15909414 -0.11704412
000090 8a a4 7f bc 04 85 90 bd 0d 2e b7 3c 03 e9 3c ba
       -0.015603194 -0.07056621 0.022360826 -0.00072063523
0000a0 3a 8f cc 3d b8 2c ff bc 64 7d ab bb e1 0b 9d 3d
       0.09988256 -0.031149253 -0.0052334536 0.07668281
0000b0 6f c4 76 3d b6 c5 0c 3b d5 c4 0c 3e 16 70 16 be
       0.060245927 0.002148015 0.1374696 -0.14691195
0000c0 db ae 26 3e e4 21 35 3e 32 71 ad bc 45 5a 24 be
       0.1627764 0.1768871 -0.02117214 -0.1605006
0000d0 ef 59 d2 3d d4 5d 55 be f3 02 1e bc fd e6 27 bb
       0.1027106 -0.20836574 -0.009644258 -0.0025619857
0000e0 0a 1c c3 3d 58 9d 40 bd cd cc 70 3a 59 9c d3 bd
       0.095268324 -0.047025055 0.0009185791 -0.10332555
0000f0 f8 de 01 be 06 db 47 3e cd 89 36 bd 99 93 70 3d
       -0.12682712 0.19517145 -0.04456501 0.05873451
000100 b3 cb 04 be d0 98 15 be 02 35 8b 3d 4a f3 3a 3e
       -0.1296833 -0.14609075 0.0679722 0.1825687
000110 0e b4 f3 3d 5c ea 02 3e c6 ac 94 bd 51 2a 15 bd
       0.11899577 0.12784714 -0.072595164 -0.03641731
000120 78 3e 26 bd 60 2a a6 bd f0 c0 86 3e d1 2e 20 bd
       -0.04058692 -0.08113551 0.26319075 -0.039107148
000130 7d 5e 8e be 3e 4f bd 3d 79 61 02 3d db d9 f8 3d
       -0.27806464 0.0924363 0.03183124 0.12150928
000140 5b 78 d5 3d b9 e4 b0 bd 94 b1 e5 3d eb 71 43 3d
       0.104233466 -0.086373754 0.11215511 0.047716063
000150 05 9f 7e 3e b8 26 b8 bd 9b 6f 3c be fb 5f b6 bc
       0.24865349 -0.0899176 -0.18401949 -0.022262564
000160 8c 79 11 be 08 90 4f be d4 68 66 3e 97 79 39 3d
       -0.14206523 -0.20269787 0.22500926 0.045281973
000170 1f 8a 92 3e de 57 a0 bd 29 00 72 3d a6 e0 49 bd
       0.28621003 -0.07829259 0.059082184 -0.049286507

foundation_model.down_path.0.block.0.bias f4 [4]
000000 55 88 ba bc f5 e4 cf bd aa 68 04 3e 7e b1 db 3d
       -0.022770086 -0.10151092 0.12930551 0.10727213

foundation_model.down_path.0.block.2.weight f4 [4, 4, 3]
000000 c0 11 9c 3e 74 fb f4 3d 40 e1 25 3e 5b 12 c1 bd
       0.30482292 0.119620234 0.16199207 -0.09427329
000010 cc 48 a6 bb 51 c3 8d 3e a1 70 45 bd fd 28 0d be
       -0.005074596 0.27688077 -0.048203114 -0.13785167
000020 65 62 d8 bd fd d5 f9 3d b6 2e 23 be d1 57 7d be
       -0.10565642 0.12199018 -0.15935788 -0.2474053
000030 29 bd a2 3d e9 40 81 be 05 6c 32 bd 81 d0 24 be
       0.07946236 -0.25244835 -0.043560047 -0.16095163
000040 69 f8 23 be e9 45 f6 bd 05 62 34 be 42 45 8c 3e
       -0.1601273 -0.12025053 -0.17615516 0.2739659
000050 f7 18 0b bd 90 3c 96 3e 8c af a4 3e a9 75 a1 3e
       -0.033959355 0.2934308 0.32165182 0.3153508
000060 41 e5 88 be 79 7d df bd f2 81 b3 be 90 2b 26 3e
       -0.26737407 -0.10912604 -0.35060078 0.16227555
000070 c1 e7 14 be c1 5f ae be 91 8d 7e 3e 24 e3 37 3e
       -0.14541532 -0.3405743 0.24858691 0.17957741
000080 8e 94 5a 3e 3f fc 17 3e a9 9b ba 3e 18 ff 10 be
       0.21345732 0.14842318 0.36446884 -0.1415981
000090 d3 99 02 3e 18 86 fd bd 09 d4 1d be 23 a8 4d be
       0.12753992 -0.12379092 -0.15412916 -0.2008367
0000a0 cd de 22 3d 7b 58 b3 be 7f c7 bc bd cd d0 16 3e
       0.03976326 -0.35028443 -0.09217738 0.14728089
0000b0 ee c7 e4 3d 7f 93 81 3e 99 77 ce bd b4 fc 83 3e
       0.11170946 0.25307843 -0.10081405 0.25778735

foundation_model.down_path.0.block.2.bias f4 [4]
000000 ea 82 22 be da 32 27 be a5 55 90 bd e4 8d 15 3e
       -0.15870252 -0.16327992 -0.070475854 0.14604908

foundation_model.down_path.1.block.0.weight f4 [8, 4, 3]
000000 ec f0 49 be 6b 3d 63 be 49 51 87 be 7a 7f ef bd
       -0.1972081 -0.22191398 -0.26429203 -0.11694236
000010 03 65 18 3e 41 b7 67 3e d6 02 7e 3e df b8 b2 bc
       0.14882283 0.226285 0.2480577 -0.021816669
000020 75 65 9e 3e a2 f5 a2 3c bf f5 79 3d af a7 88 3e
       0.3093678 0.019892517 0.061025377 0.26690432
000030 8b 23 9e bd bd 2c 84 bd 3a db 84 be 4d 1e e8 bc
       -0.07721623 -0.06453846 -0.25948507 -0.028334761
000040 f0 b9 87 3e 3e 9b d4 bd b8 36 6b 3e 70 43 09 be
       0.26509047 -0.103811726 0.22970092 -0.13404632
000050 35 1a 53 3e 00 95 71 3e e2 c6 8e 3e 2f f8 7f 3e
       0.20615466 0.23591995 0.2788611 0.24997018
000060 75 3f c0 3d c1 32 ca 3c 40 d5 0e 3d dc d3 da 3d
       0.093871035 0.024682404 0.03487134 0.1068494
000070 32 7d c4 bc 03 5d 7c 3e 3f d7 8b 3e 53 d0 a5 3e
       -0.023985479 0.24644856 0.27312657 0.323855
000080 62 12 9f bc 59 98 c1 bd 54 0e 74 3e 4d a1 6c 3e
       -0.019417945 -0.09452886 0.23833591 0.23108406
000090 c3 cf ab be 53 4a ea 3d 81 d0 c1 3d 66 eb c4 3e
       -0.33556947 0.114399575 0.09463597 0.38460845
0000a0 f9 9d 2c be 41 ca 38 3e 94 3b 1e 3c ed b2 a3 3e
       -0.16857137 0.18045904 0.009657759 0.31972447
0000b0 85 19 a0 3e 5f 79 6d 3d f3 c3 87 3e 8a 1b 9b 3e
       0.3126947 0.057977077 0.26516685 0.30294448
0000c0 84 c0 a1 be 95 30 5c 3d 4b 8e 19 3e 80 23 0a 3e
       -0.3159219 0.05375727 0.14995687 0.13490105
0000d0 9b cb 56 bd 34 0d 2f 3e 39 02 9f 3e 5c 2b ef 3c
       -0.052440267 0.1709488 0.31056383 0.02919548
0000e0 29 1e b3 3e 4d 5e aa 3e 6c ab 97 3e 4e ff 34 3e
       0.34983948 0.3327507 0.29622972 0.17675516
0000f0 a4 c3 96 3e 3d bd 24 3e 17 84 a6 3e c7 f7 7c be
       0.29446137 0.16087814 0.32522652 -0.24703895
000100 5e a1 88 be ef e4 44 3d 7e 3e 12 bd a5 50 7e 3e
       -0.26685613 0.04806989 -0.03570413 0.24835451
000110 f4 a0 2b be 57 f3 a7 bd 38 53 10 3e ff cd 9d be
       -0.16760617 -0.0820071 0.14094245 -0.30821225
000120 1e c6 62 3d 51 89 02 be 00 38 56 3b f6 92 8d 3e
       0.05536472 -0.12747695 0.0032687187 0.27651185
000130 8c a5 05 3e ab 71 06 be a3 25 26 3e b2 48 ef bd
       0.13051432 -0.13129298 0.16225295 -0.116837874
000140 a6 cf 08 3e 18 6c ba bd 80 aa 31 3b 69 6e 92 3e
       0.13360462 -0.091026485 0.0027109683 0.2859986
000150 68 e7 3b be 17 34 39 3e d5 5e 56 bd e5 15 9d be
       -0.18349993 0.18086277 -0.052336533 -0.30680767
000160 9f 48 d5 bc 86 24 8f be ac 1e db 3c 90 54 af be
       -0.026035605 -0.27957553 0.026748024 -0.34244204
000170 d9 7b 98 be c5 d3 40 be 37 43 36 3d b0 fc f9 3c
       -0.29781988 -0.18830784 0.044497695 0.030515999

foundation_model.down_path.1.block.0.bias f4 [8]
000000 86 61 24 3e f1 e3 60 3d 77 ca 65 be 3c dc 06 bc
       0.16052827 0.054904882 -0.22440515 -0.008231219
000010 70 d9 bb bd 25 8e d8 3d fd 65 88 be c8 5c 11 3e
       -0.09172332 0.10573987 -0.2664031 0.1419555

foundation_model.down_path.1.block.2.weight f4 [8, 8, 3]
000000 b6 8d f7 3c 6f 56 7f be 94 19 72 be db c1 a4 bd
       0.03021894 -0.24935316 -0.2364257 -0.080447875
000010 35 79 c9 3d e0 a3 5f be 4e c0 f4 bd fd 9b f1 bd
       0.098375715 -0.21839857 -0.11950742 -0.117973305
000020 26 82 8a be f6 b3 59 be eb 2d c1 3d 60 3a 13 be
       -0.2705242 -0.21260056 0.09432586 -0.14377737
000030 6f b9 5b be bd 51 d5 3d 53 1a 04 be 15 9c 86 3d
       -0.21457456 0.10415981 -0.12900667 0.06572739
000040 51 14 c1 bd 1f ea 7b 3d fd d8 bc bd 48 46 05 3e
       -0.09427703 0.061502572 -0.09221075 0.13015091
000050 d2 70 84 be 2d b9 2b 3e 53 bd 76 3e 42 fe 8e bb
       -0.25867325 0.16769858 0.24095659 -0.004363806
000060 f2 8d 9f 3d 29 3b d4 3d 2d ae 5a 3e 5b ae d0 3d
       0.07790746 0.103628464 0.21355505 0.10189506
000070 8f 7e 58 3e 87 0d 6f 3e dc 9a 7d 3e d8 6f 3c bd
       0.21142028 0.23345004 0.24766105 -0.0460051
000080 2d d4 b3 bd b4 a1 5e 3e 12 b3 07 bd 35 e7 d6 bc
       -0.08780704 0.21741372 -0.03312976 -0.026233295
000090 0d 4d b4 3d a8 80 d5 3d 82 d0 d2 bd aa 8d 11 be
       0.08803759 0.1042493 -0.10293676 -0.14214197
0000a0 a8 d3 c9 3d 58 10 18 be ad 20 20 3e 7a b4 27 bd
       0.09854823 -0.14849985 0.15637465 -0.0409436
0000b0 94 80 1f 3e 68 53 84 bd a8 9e 69 be 4c 5d 3d be
       0.15576392 -0.06461221 -0.22814429 -0.18492621
0000c0 0d 33 8d 3d 9d fe 34 3d 68 ed 91 3d df 13 6b bd
       0.06894503 0.04418813 0.0712536 -0.057391997
0000d0 b8 5c 46 3e c7 55 ee 3c 73 fc ed 3d 02 0f c1 3d
       0.19371307 0.029093636 0.116204165 0.09426691
0000e0 94 5b dc 3d ac de 1c 3a cc db 70 bd f9 db 0b 3e
       0.10759655 0.00059841084 -0.058803365 0.13658132
0000f0 be a1 80 bd ae 05 01 3d 22 e0 74 3d 3d 7c ae 3c
       -0.0628085 0.031499557 0.059784062 0.021299476
000100 35 16 3c be c4 b7 c3 bd d3 0a e6 3d 72 a4 57 3e
       -0.18367846 -0.09556535 0.11232533 0.21058825
000110 e3 66 5c 3e bc 29 41 bd 99 9a ea bc d8 5c a0 3d
       0.21523623 -0.04715894 -0.028638171 0.078302085
000120 04 5d bc bd 0a 6b 01 3e 0a 81 e0 bc 10 67 dc 3d
       -0.09197429 0.12638488 -0.02740528 0.10761845
000130 53 e7 63 3e b0 90 34 3c 5f b2 05 3e da 9c 16 3d
       0.22256212 0.011020824 0.13056324 0.03677068
000140 48 82 8d 3e 5b 2a c6 3d d8 62 8c 3d 86 b6 3a 3e
       0.2763846 0.096760474 0.068547904 0.1823369
000150 16 c3 71 3d b4 20 14 3e 7a 24 92 3e d3 28 32 bd
       0.05902394 0.144656 0.28543454 -0.043495964
000160 ee a1 04 3a 96 83 e6 38 b3 96 78 3e bb ad f7 3c
       0.000505953 0.000109917644 0.24276237 0.030234208
000170 bf 4e 30 3e 2a 1b cd bd 23 ca db bd b1 d2 34 bb
       0.17217539 -0.10014947 -0.10731914 -0.0027591402
000180 8f d4 79 be cd 92 07 bd 81 8e 6f be 0d 46 3a be
       -0.24397491 -0.033098985 -0.23394205 -0.18190785
000190 6d 7a c8 bd 01 0a e3 bd e6 16 3d 3d c8 9f a8 3d
       -0.09788976 -0.110858925 0.046164416 0.08233601
0001a0 15 eb 6e be 01 ed ae 3d ff 46 79 bd 73 de c2 3d
       -0.23331864 0.08541299 -0.060858723 0.09515085
0001b0 94 9c cd bd 58 9f 06 be 73 59 9e 3d a0 1f 04 3e
       -0.100396305 -0.13146722 0.07731905 0.12902689
0001c0 b3 f6 95 3d de f4 9f 3c 5c b7 ba 3b 64 bb 66 be
       0.07322445 0.019525941 0.0056981277 -0.22532421
0001d0 ef 67 25 be b3 a3 97 bd 08 0c 0f 3e 85 72 fa bd
       -0.16152929 -0.0740427 0.13969433 -0.12228874
0001e0 99 e7 25 3e 94 0a b9 bd 1d 2f fb 3c d4 03 20 3e
       0.16201629 -0.09035221 0.030662114 0.1562646
0001f0 aa 3f 7e 3e 1b 96 fd 3b 04 ab a8 3d 3f 1a 63 3e
       0.24828973 0.007738841 0.08235744 0.22177981
000200 08 e5 bd 3d 74 c4 40 3e 1a d7 35 3e 75 c4 56 3e
       0.092722 0.18824941 0.17757836 0.2097338
000210 8e dd 99 bd 7b 5b ff bd 4f f1 20 3e 6b 29 76 bd
       -0.07512961 -0.124686204 0.15717052 -0.060098093
000220 2b f9 fb bd ad a6 82 be e8 fd 45 3e 42 52 6f 3e
       -0.123033844 -0.2551779 0.19335139 0.23371223
000230 c6 b7 ef 3d cc 95 a8 bd a9 0d ec bd a4 c5 37 be
       0.11704974 -0.082316965 -0.11526043 -0.17946488
000240 ac 70 47 3e 7d b2 24 3e 34 b1 5b 3d 2b 45 12 3d
       0.19476575 0.16083713 0.05363579 0.035710495
000250 b3 19 8c bd 52 82 0a bc 16 84 dd 3d a7 43 ff 3d
       -0.06840839 -0.008453922 0.10816209 0.124640755
000260 f2 81 53 3e 72 59 f9 bd 7c 23 21 38 32 91 83 3e
       0.20655039 -0.121752635 3.841844e-05 0.25696713
000270 c9 3a 29 3d 29 f3 20 3d 25 cd e0 bb 48 71 7d bd
       0.041315828 0.039294396 -0.0068603926 -0.06187561
000280 75 4f 19 bc 74 4e 5f be 16 0d 23 3d 23 f4 de bd
       -0.009357323 -0.21807271 0.0398074 -0.10886409
000290 c0 ed de 3b a1 08 00 be ed 77 02 3e e4 c6 35 bd
       0.0068032444 -0.12503292 0.1274106 -0.04437913
0002a0 22 ba 22 3e 03 7c 42 bd 65 5c 76 3e d9 cb 6f bd
       0.15891317 -0.047481548 0.24058683 -0.058544014
0002b0 0a 66 0c be f9 81 92 3d fe 4b 3e 3e 8f 0b 47 3d
       -0.137108 0.071536966 0.18583676 0.048595008
0002c0 67 c2 33 3e c8 69 94 3e 56 7e 19 3e 7c ab b1 bc
       0.17554627 0.28986955 0.149896 -0.021688215
0002d0 a0 d6 57 3c 47 49 a4 b9 eb aa 09 3e 42 1c 06 bd
       0.013173729 -0.00031335113 0.13444106 -0.032741793
0002e0 d5 12 80 be e4 ce 0c bd e5 34 6f 3e 1c 27 10 3c
       -0.25014368 -0.034376994 0.23360021 0.008798387
0002f0 ad 9d 77 39 57 1d 91 3b e0 96 08 be 75 9c 6f be
       0.00023614494 0.0044285464 -0.13338804 -0.23399527

foundation_model.down_path.1.block.2.bias f4 [8]
000000 55 a1 01 3e 28 1d 27 be 84 8b 1f bc 70 cc c0 3d
       0.126592 -0.16319716 -0.009737853 0.09413993
000010 cc 2b 27 3e b8 02 ca 3c 75 c8 d7 bd 85 73 50 3d
       0.16325301 0.0246595 -0.10536281 0.050891418

foundation_model.down_path.2.block.0.weight f4 [16, 8, 3]
000000 d3 da 57 3d e0 78 93 bd 52 28 94 3d 02 af 9e bd
       0.05269892 -0.072007895 0.07234253 -0.07748224
000010 79 87 74 bb 7f bc 52 be 9b ca e5 bd 36 43 15 bc
       -0.0037312193 -0.20579718 -0.112202846 -0.009110263
000020 ff a6 0b 3d 8e b2 83 be 28 2e ef 3d 37 42 93 3d
       0.034094807 -0.25722164 0.116787255 0.07190364
000030 77 47 0b 3d 9b dc 73 3d aa c4 e4 3d d1 93 0e 3c
       0.0340037 0.059536558 0.11170323 0.008702234
000040 24 c9 45 be 0e e5 55 be e4 99 ea 3d 48 bd ff bd
       -0.1931501 -0.20888159 0.114551336 -0.124872744
000050 16 6a 2d be 3e ed b4 bd 8f 05 05 bd 6a 1e cb 3c
       -0.16935 -0.08834313 -0.032476004 0.024794776
000060 9e ec 34 3d 14 58 dc 3d c7 6f 55 3a 20 c0 1f 3e
       0.04417097 0.10758987 0.00081419613 0.15600634
000070 49 6a 37 3c 2f d6 60 3e 7c a5 76 bc be 4e 3e 3e
       0.011194774 0.21956705 -0.015054103 0.18584725
000080 8b 77 41 bd 5c 2c 60 3e 1a 2e a0 3c 4b 31 a1 3c
       -0.047233146 0.21891922 0.019553233 0.019676825
000090 e6 f0 d8 bd 77 27 0d 3d ea 9b 12 be 85 2c 14 bd
       -0.10592823 0.034461465 -0.14317289 -0.03617527
0000a0 d9 15 b1 bc c5 1f 82 3e dd ab 55 3e f8 cb 15 bc
       -0.021616863 0.25414863 0.20866342 -0.009142868
0000b0 1d f2 c2 bc f4 52 bc 3d c9 28 1c bd c5 f7 39 3e
       -0.02379709 0.091955096 -0.038124833 0.18160923
0000c0 dc 74 03 3d 8e 4b b5 bc db 7e 1c 3e 09 6c 3f 3d
       0.032093868 -0.022130754 0.15282767 0.04673389
0000d0 61 df 3f be f7 84 60 3d 47 9e 82 bd d3 80 93 3c
       -0.18737556 0.054814305 -0.06377845 0.018005764
0000e0 56 eb 17 3e 7b 21 b0 3d 11 94 7b be 01 81 79 be
       0.14835867 0.08600136 -0.24568202 -0.24365617
0000f0 2f 9f 9c 3d 52 f1 50 3e 93 82 b9 bd 10 6f 80 3b
       0.07647549 0.20404556 -0.09058108 0.0039194897
000100 cb cf d3 3c d4 91 5c be 3a ec 8b be 1c 03 63 be
       0.02585592 -0.21540004 -0.27328664 -0.22169155
000110 fb d7 d0 3d df 8b a7 bd b2 3d 4b be 88 f3 49 bd
       0.10197445 -0.08180975 -0.19847754 -0.049304515
000120 8f 38 92 3e 33 26 71 3e 8a 7b fe 3d 68 c0 04 be
       0.28558776 0.23549728 0.12425907 -0.12964022
000130 89 61 d6 bd 24 53 35 be 7a a5 be bd 25 60 4e bd
       -0.10467822 -0.17707497 -0.09308906 -0.05038466
000140 17 cb cf 3d 6c ad 7a be 47 fc 67 bb 8b 86 18 be
       0.10146158 -0.24480218 -0.0035398172 -0.14895074
000150 95 af 70 3e b8 6d ba bd 67 c5 18 3e 2a e9 3d 3d
       0.23504479 -0.091029584 0.14919053 0.04636494
000160 ac 75 1a bb 64 ce 95 bb 39 2b 1d be 11 b7 08 be
       -0.0023568673 -0.004571723 -0.1534852 -0.13351084
000170 2b 45 e1 3c d0 14 41 be 5c df 87 3c 99 9a 47 be
       0.027498802 -0.18855596 0.016585998 -0.19492568
000180 d0 49 54 3e 41 b0 66 3e ac 4d 3d 3d 12 a5 b3 3d
       0.20731282 0.22528173 0.04621665 0.08771719
000190 31 e1 76 be 09 70 7b bc fe 9f 2c be cc 82 88 3d
       -0.24109341 -0.0153465355 -0.16857907 0.066655725
0001a0 55 c7 7e be 00 97 b9 bd 4c f1 a3 3d 63 50 00 3e
       -0.24880727 -0.09062004 0.08005008 0.12530665
0001b0 5d 11 c4 3c 80 6a 30 3e af 95 61 3e 20 47 53 be
       0.02393406 0.17228127 0.22029756 -0.20632601
0001c0 f8 89 0a be 37 e8 f4 3a 1d 3b f0 3b fd 9d bf 3b
       -0.13529193 0.0018684928 0.0073312656 0.005847691
0001d0 bd e8 ee 3c 66 4b 85 bd dd 30 49 be 6c c4 53 be
       0.029163713 -0.06508522 -0.19647546 -0.20680398
0001e0 7f 48 43 3e 53 1f e1 3d a0 8b 50 3c ee 3b 69 be
       0.19070624 0.10992303 0.012728602 -0.22776768
0001f0 ed 56 81 be 86 96 96 bd de c7 23 be 3a 7c 22 be
       -0.25261632 -0.07352929 -0.15994212 -0.15867701
000200 6f a0 53 3d 9f fe 5f be d7 ae 33 bd 95 58 d4 bb
       0.051666673 -0.21874474 -0.043867912 -0.0064802864
000210 38 18 22 bc c7 ae c5 3d 8f ef 96 3d ba 70 1f be
       -0.0098934695 0.09652477 0.07369911 -0.15570346
000220 27 1f ef 3c 85 da 5a be dc 48 fd 3c 95 1f 50 be
       0.02918966 -0.21372421 0.030918531 -0.20324548
000230 6d 01 18 be 20 9c 5a be c0 24 71 bd a7 97 63 be
       -0.14844294 -0.2134862 -0.05887294 -0.2222582
000240 8b 52 d9 3d 8b 86 0e 3e 7f 06 bb 3d fa 9a 61 be
       0.10611447 0.13918512 0.091320984 -0.22031775
000250 a6 2b 21 be b5 fd 79 be df d0 8d 3d 98 1a 42 be
       -0.15739307 -0.24413188 0.069246046 -0.18955457
000260 eb 0a 16 3e a5 9b e4 3d a1 18 fc bd 70 29 74 be
       0.14652602 0.11162499 -0.12309385 -0.23843932
000270 ca 98 e3 3c 9d db 08 3d 6c e3 9a bd 9e 2c 8d 3c
       0.027782816 0.033412565 -0.075629085 0.01723319
000280 7f f9 82 be 46 fa b3 3d c0 85 79 3d 2c 41 cc bd
       -0.25580975 0.0878797 0.06091857 -0.09973368
000290 45 a6 98 3c ed 38 5f 3c e2 fa 9f 3d 31 74 12 3d
       0.018633971 0.013624412 0.07811524 0.03575534
0002a0 16 55 08 3e c7 75 8b be a6 af 62 be 05 3e 8f bd
       0.13313708 -0.27238294 -0.22137317 -0.06994251
0002b0 25 c6 a1 bc b3 12 56 bd d0 91 58 3e b3 14 2f be
       -0.019747803 -0.052263927 0.21149373 -0.1709774
0002c0 af a2 d2 b9 af 96 58 3e 12 09 00 3e a8 b7 b3 3d
       -0.0004017553 0.21151231 0.1250346 0.08775264
0002d0 7d 70 1c be 82 9e fd 3d bc d6 e1 bc 36 fa 26 3e
       -0.15277286 0.123837486 -0.027568214 0.16306385
0002e0 92 a6 fe bd 3d 36 68 3e 85 45 ea bd 92 4e 0b 3d
       -0.124341145 0.2267694 -0.11439041 0.034010477
0002f0 d5 d2 88 3e 39 07 f1 3d 08 6c 79 3e 2e 42 2e 3e
       0.26723352 0.11768956 0.24357617 0.17017433
000300 75 94 5f 3c 23 19 7f be 8f 8e 53 3d 99 69 6f 3e
       0.013646235 -0.24911933 0.051649626 0.23380126
000310 dd 1a 71 3e 10 92 25 bd e3 06 c7 3d 88 98 66 3e
       0.23545404 -0.0404225 0.097181104 0.22519124
000320 6f 2e f0 3d 0d 70 35 3e e4 ff 0c be 81 9f 84 3e
       0.117276065 0.17718525 -0.1376949 0.25902942
000330 2e 3f 80 3d 1d 86 51 be b0 1f 2a be bf f2 d9 bd
       0.062620506 -0.20461316 -0.1661365 -0.10642003
000340 1c 45 03 3e 0c 6a f0 3d 0c be 16 bd 30 e6 ac 3d
       0.12819332 0.11738977 -0.036802337 0.08442342
000350 9a 65 55 3e 6c 0f 53 3e 3b 1f 2c 3e 12 82 8e 3d
       0.20839539 0.20611352 0.16808788 0.06958403
000360 54 9e 34 bc e4 a0 e7 3d 88 5e 68 be 06 ca 39 bd
       -0.0110240765 0.11309984 -0.22692311 -0.04535868
000370 db 35 68 3e b3 b0 3d bd ce 1d 22 3e 24 96 41 bd
       0.22676794 -0.04631109 0.15831682 -0.047262326
000380 32 14 27 3e e0 65 9d 3d 5c 24 49 3e 7b fe 85 3e
       0.16316298 0.07685447 0.19642776 0.26170716
000390 49 e7 c5 bd b5 38 b0 3d 16 c6 d5 bd 3e 43 ec 3c
       -0.09663255 0.08604566 -0.104381725 0.028840657
0003a0 6f 64 a4 3d 8f b9 50 3e 78 c2 00 3e c5 c2 05 3d
       0.08026969 0.20383285 0.12574184 0.03265645
0003b0 1e 3f fb 3d db 6c 12 bb cd 3b f1 3d 1a d3 7d 3d
       0.12267898 -0.0022342715 0.11778984 0.0619689
0003c0 7b dc e5 bc 7d c6 84 bd 6d 51 e2 bb 6e 8c d2 3d
       -0.028059235 -0.06483171 -0.0069066794 0.10280691
0003d0 74 7f 8e be b4 4f 83 be 0d 71 37 be d7 86 48 be
       -0.27831614 -0.25646746 -0.17914219 -0.19582687
0003e0 cc 89 f3 bd 62 18 d5 3c ef 58 5a be 4d 0d dc bd
       -0.11891517 0.026012603 -0.21322988 -0.107447244
0003f0 42 03 1e bd 48 10 0b 3d ea 53 83 3e d1 32 b6 ba
       -0.038577326 0.033951074 0.2564996 -0.0013900643

foundation_model.down_path.2.block.0.bias f4 [16]
000000 2b 38 42 3e 3b 85 6f be 65 b6 d7 3d 56 d8 3f 3e
       0.18966739 -0.23390667 0.10532836 0.1873487
000010 79 3b ef 3d 8a df d4 3d 64 f7 85 3d 08 6a ba bd
       0.116812654 0.10394199 0.06541327 -0.09102255
000020 a9 20 1f bd 1d 14 6b bd 87 d6 d5 3d 72 80 4e bd
       -0.038849507 -0.05739223 0.104413085 -0.050415464
000030 7c 47 77 bc fc 58 3f be 30 4b 07 3e 18 13 5a 3e
       -0.015092727 -0.18686289 0.13212276 0.21296346

foundation_model.down_path.2.block.2.weight f4 [16, 16, 3]
000000 76 dd 9c 3d 72 70 c2 3d a5 d3 ba 3d d8 bd 8c bd
       0.07659428 0.094941035 0.09122399 -0.06872147
000010 62 22 ad bd 95 6b 20 be 15 85 91 bb 99 3b e5 bc
       -0.084538236 -0.1566604 -0.0044409134 -0.02798252
000020 1f 03 23 3e dd 04 14 3d a8 20 60 3d 3d 68 d7 3c
       0.1591916 0.03613745 0.054718643 0.026294822
000030 98 21 31 3e 08 e4 39 3e 7b bc 51 3e 50 61 dc 3d
       0.17297971 0.18153393 0.20482056 0.107607484
000040 9d da f4 bc 96 d7 e0 3d 57 60 15 3e 68 00 d8 3d
       -0.0298894 0.1097862 0.14587532 0.105469525
000050 cf 3f 1d 3e 1f 0c 23 be 02 c9 d6 3b 8d c5 d0 bd
       0.15356372 -0.15922593 0.0065547237 -0.1019393
000060 ee 9e 1c 3c 9a b0 18 3d a1 8a 30 be 2e f5 dd bd
       0.009559376 0.037277795 -0.17240383 -0.1083778
000070 a7 ae 2a bc a1 a3 55 be db 78 c1 3b 1c 1f 5d 3d
       -0.010417617 -0.208632 0.0059042997 0.053984746
000080 64 f6 00 3e d7 d1 eb 3d 02 5f 97 3d 75 63 80 3d
       0.1259399 0.11514633 0.07391168 0.0626897
000090 55 9c 17 3e 6a 6c c0 3d 06 39 a2 bc 47 b3 43 be
       0.1480573 0.09395678 -0.019802582 -0.19111358
0000a0 57 58 05 be 41 09 09 be bf 47 22 3e 1e 60 24 3e
       -0.1302198 -0.13382436 0.15847681 0.16052291
0000b0 50 52 db bb e8 0c 99 3d ce 76 8c bd 3a 3b 81 3c
       -0.006693162 0.07473165 -0.06858598 0.015775312
0000c0 e3 d9 19 3e e6 41 1d 3d 7b 90 6a bd fd 4b 30 3d
       0.15024523 0.038392924 -0.057266694 0.043041218
0000d0 d1 44 cf bd 6e 2a 0d 3d d0 2c 1f 3e 07 4c 4c 3e
       -0.101205476 0.034464292 0.15544438 0.19950877
0000e0 67 0c 08 3e 1a 4b 3b 3d 14 e0 77 bb 28 e4 8e bd
       0.13285981 0.04572592 -0.003782277 -0.06977111
0000f0 6f 7f 0f bd aa 57 78 3d 17 6e 5e 3e 79 bb 6e 3d
       -0.03503364 0.060630478 0.21721683 0.058284257
000100 6b 70 5d 3e a6 6d cc 3c a1 b1 a2 3b 2f 91 d4 3d
       0.21624915 0.024954628 0.0049650227 0.10379254
000110 74 4a ce 3d 17 89 3e bb 95 45 2e be 7e a4 d8 bd
       0.100727946 -0.002907341 -0.17018731 -0.105782494
000120 d5 4b ed 3b 7c 78 e7 bd 2b 75 21 be 1b c0 e8 3c
       0.007241706 -0.113022774 -0.15767352 0.028411916
000130 ef 77 01 be 68 a4 2f be 3e 9a a3 3d 27 01 a2 bb
       -0.12643407 -0.1715256 0.07988404 -0.004943985
000140 9a 24 19 3e 95 55 a8 3b 07 b2 18 3e ef 38 5e bc
       0.14955369 0.0051371553 0.14911662 -0.013563379
000150 62 36 fd 3d 78 81 96 3d 60 c5 ef ba a0 be 00 be
       0.12363888 0.07348913 -0.0018293075 -0.12572718
000160 94 29 c5 ba ee 02 0b bd ac 41 17 bd 00 87 e1 3d
       -0.0015042298 -0.03393834 -0.036927864 0.11012077
000170 a8 34 11 3d ae 29 3c 3e 8a c2 41 3e 08 8a 2c 3e
       0.035450608 0.18375275 0.18921867 0.1684953
000180 57 46 24 3e fb b2 5f bd ff 3d a5 bd a6 87 ee bd
       0.16042458 -0.05461405 -0.080684654 -0.11646967
000190 51 e3 8a bd 26 92 45 be 0b ef eb 3d 5b 92 43 3d
       -0.067816384 -0.19294032 0.11520203 0.047746997
0001a0 a8 84 60 3e c3 1f 2c 3e 70 13 34 3e f3 e0 17 3d
       0.21925604 0.16808991 0.1758554 0.037079763
0001b0 59 e8 45 3e a9 97 5a bb 0f bc 9f 3c e7 05 df 3d
       0.19326915 -0.0033354557 0.019498853 0.10889798
0001c0 1c b2 2c 3d 3c 84 d6 3c 8e 0f a5 3d 61 20 11 3e
       0.042162046 0.026186101 0.080596074 0.14172508
0001d0 11 59 5f 3d 40 97 ec bd fe 1b 0e 3d 84 a8 03 3d
       0.0545283 -0.11552286 0.034694664 0.03214313
0001e0 f4 ed 8d bd f8 7c 9d bd 8c f1 28 be d9 ac 21 be
       -0.069301516 -0.076898515 -0.16498393 -0.15788592
0001f0 a3 6e 04 be be eb 8d bc 99 51 53 3e 52 c6 ea 3d
       -0.1293283 -0.017324325 0.20636596 0.11463608
000200 5f a7 47 3e c3 d7 0d 3e 6f 76 5b bc e4 0f 85 bc
       0.19497441 0.13851838 -0.013394936 -0.016242929
000210 c9 7f 55 bc 9a 22 46 3d 72 15 6f 3d 7e ee b3 bc
       -0.013030955 0.048372842 0.05837006 -0.021964308
000220 ad a0 90 bc a1 77 37 bc d4 b2 98 3d 6d 4f c8 3c
       -0.017654741 -0.011197955 0.07455984 0.024451936
000230 3c a4 fa 3d 03 ea 00 bd 05 8c 33 3e d8 35 9b 3d
       0.122383565 -0.03147317 0.17533882 0.07578629
000240 94 65 13 be b3 32 ee 3b 7d d4 58 be 5f 25 da 3c
       -0.14394218 0.0072692274 -0.21174808 0.026629148
000250 32 7e 8c bd f0 21 6f bd 62 b5 f4 bd a5 fa 53 bd
       -0.06860007 -0.058381975 -0.119486585 -0.051752705
000260 3c 38 0f 3c e4 3c 9c 3c 07 4c 66 be 96 17 3b bc
       0.008741435 0.019072004 -0.2248994 -0.011419198
000270 3b 4f d7 bd 2c 41 37 bd 4c 47 1d be e6 63 26 3c
       -0.10513159 -0.044739887 -0.15359229 0.010155654
000280 ea f0 6f be 7d 4d 36 be 75 7e 24 be e6 24 61 be
       -0.23431745 -0.17802997 -0.16063865 -0.21986732
000290 fe c3 f9 3c 8b c1 54 3d bd 75 9a 3d cd fe 04 3d
       0.030488964 0.05194239 0.07541988 0.03246956
0002a0 f4 3d b1 3d b2 5c 9a 3d 69 6c 8e 3d 8a 73 5c bb
       0.08654395 0.075372115 0.06954271 -0.0033638203
0002b0 fc 1d 05 3e c0 9b 0a 3e e9 cc 06 bc b6 5c 1d 3b
       0.1299972 0.13535976 -0.008227565 0.002401156
0002c0 0f e6 52 be 88 c9 3e bd 98 46 4a be e9 d7 2c 3d
       -0.20595573 -0.046578914 -0.19753492 0.042198095
0002d0 c1 d4 2e 3d 22 6b 33 be d4 41 a1 bd c4 d0 0c 3d
       0.042683367 -0.17521337 -0.07873884 0.034378782
0002e0 82 0e 3e 3e 3c 2f 45 3e af 0b 52 be 29 25 40 be
       0.18560222 0.192563 -0.2051227 -0.18764175
0002f0 82 e6 23 3d 26 f1 55 3d fd 65 58 be cb aa c1 3c
       0.04001475 0.05223193 -0.21132655 0.02364101
000300 f5 9a b9 3c b7 bc 3d 3e f7 44 69 bd 12 46 18 be
       0.022656897 0.1852902 -0.056950536 -0.1487048
000310 80 9a d9 bd 26 53 cd bd 6c 5e 99 bd ea 54 31 bc
       -0.10625172 -0.10025625 -0.07488713 -0.010823468
000320 bb 77 bb bd 40 8d 74 bd e6 78 2f 3e 53 13 a0 bd
       -0.09153696 -0.05970502 0.17135963 -0.07816186
000330 ef 73 85 3d 47 7b 0e 3d 7e b4 18 3d 91 ce f3 bb
       0.06516253 0.034785535 0.037281506 -0.007440396
000340 5b 45 62 3c fb c6 4a bd e6 af 5a bd 5f e2 78 bd
       0.013810481 -0.04950617 -0.053390406 -0.06076276
000350 c9 c5 12 bc c9 ba c8 bd 8f cf 93 bd 7c 41 88 bd
       -0.0089582885 -0.098012514 -0.07217323 -0.06653115
000360 a6 4a 3d be 55 de a3 3c c6 a1 0c 3d 01 88 2b be
       -0.18485507 0.020003477 0.034333967 -0.167511
000370 01 75 5e 3d 56 7a 78 3c c2 74 73 3d b2 77 86 bd
       0.054310802 0.015165886 0.05943752 -0.06565799
000380 07 5c 01 3e 52 9b d5 3c 88 b5 f9 bc 93 96 0b 3e
       0.12632762 0.026075039 -0.030482069 0.13631658
000390 f0 12 58 3e 04 89 7a bd 52 b3 ab 3d e4 2f d4 bc
       0.21100974 -0.061165825 0.08383812 -0.025901742
0003a0 ff d9 0d bc e1 43 1b be e6 21 ac 3d df bd 5d bd
       -0.008657931 -0.15162612 0.08404903 -0.054136153
0003b0 18 e3 fc 3d d7 39 9a 3d 2a 64 87 bd 0e e8 df 3d
       0.12348002 0.07530563 -0.06610902 0.10932933
0003c0 90 40 0f 3b ad 2c 22 3c bb 31 33 bd 1f ea ea 3d
       0.002185855 0.009898347 -0.0437486 0.11470436
0003d0 e8 e0 1c 3e 89 78 66 bd fc 69 d5 3d 4f b4 9b bd
       0.1532017 -0.056267295 0.104206055 -0.076027505
0003e0 03 58 5d 3d 3d 29 84 3c 6b 7c 0c ba 56 b6 95 bd
       0.054039013 0.016132945 -0.0005359116 -0.073101684
0003f0 46 81 3a bd 36 22 d5 bd 2a dc a1 3c 3a cc 24 be
       -0.04553344 -0.10406916 0.019758303 -0.16093531

foundation_model.down_path.2.block.2.bias f4 [16]
000000 c1 9f 1f 3e f7 be f6 3d 78 d6 d5 3d 1f e1 40 3b
       0.15588285 0.120481424 0.10441297 0.0029431058
000010 1e 46 25 3e 76 99 1d be 86 41 38 bd 45 d3 5c 3d
       0.16140029 -0.15390572 -0.044984363 0.05391242
000020 58 e6 2c 3e 15 16 18 3e d6 b0 30 be 69 f8 22 3e
       0.16884744 0.14852174 -0.17254958 0.15915073
000030 31 54 bc bb 45 03 d6 3c 17 39 7c 3c 3a 8e fb 3d
       -0.005747341 0.026124606 0.015394471 0.12282987

foundation_model.up_path.0.up.weight f4 [16, 8, 2]
000000 00 df 5a 3e 44 8f 8f 3d 08 2c 46 bd f2 60 3d 3e
       0.2137413 0.070097476 -0.048381835 0.18494013
000010 e0 6d 89 bc a8 f3 e8 3d da 7a 4b be 52 aa 03 3e
       -0.016776025 0.11374599 -0.19871083 0.12857941
000020 18 64 43 3d 80 c8 eb bb a8 d3 a5 3d 30 b7 1e be
       0.04770288 -0.0071955323 0.08097011 -0.15499568
000030 ec 11 38 be cc e9 3a be d8 c3 3e be 70 9b 11 3e
       -0.17975587 -0.18253249 -0.18629396 0.14219451
000040 f8 49 01 be d0 32 2e 3d 98 ed 7a be 40 e1 5c 3e
       -0.12625873 0.042528927 -0.24504697 0.21570301
000050 a0 43 34 3c 90 a1 16 3d 82 bb 78 be e0 e7 1b 3d
       0.011002451 0.03677517 -0.24290279 0.03806293
000060 f8 72 ce bd 2c 3c 7c 3e ba 6a 21 be f0 63 62 bd
       -0.10080522 0.24632329 -0.15763369 -0.05527109
000070 a8 eb 02 bd 20 ee 1d be 6c 7d 6a 3e 8a 2b 6b 3e
       -0.03196302 -0.15422869 0.22899407 0.22965828
000080 0c a3 25 3e f0 37 64 bd 40 64 92 3d 7c 9a 00 be
       0.16175479 -0.05571741 0.071480274 -0.12558931
000090 96 ee 02 be 70 da 2a bd 4c c2 c6 3d 30 be ab bd
       -0.12786326 -0.041712224 0.09705028 -0.08385885
0000a0 b0 a3 5f 3d 34 74 98 3d 08 4c 52 3e d0 39 57 3e
       0.054599464 0.07444039 0.20536816 0.21018147
0000b0 d0 e5 24 bd a8 56 7b be 88 07 5a 3d cc 4a 45 3e
       -0.04025823 -0.24544775 0.05322984 0.19266814
0000c0 58 c4 60 be b2 6b 06 be 6a b9 59 3e ec 3e 06 3e
       -0.21949899 -0.1312702 0.21262136 0.1310994
0000d0 00 d0 3b 39 34 3b 5c 3e 08 4b d4 bd b0 d7 27 3e
       0.00017911196 0.21506959 -0.103658736 0.16390872
0000e0 d8 71 d0 3d 90 49 84 bc d0 dc c9 bd bc c3 58 3e
       0.10177964 -0.016148359 -0.0985657 0.21168417
0000f0 86 17 57 3e ba bd 6e 3e 6c 3d 5b 3e e6 50 51 be
       0.21005067 0.23314562 0.2141015 -0.20441017
000100 7a ab 46 be 92 96 0d 3e b0 d7 3e bd 94 27 1e 3e
       -0.1940135 0.1382697 -0.046592414 0.15444785
000110 96 88 21 3e c2 81 3a 3e 40 fd 70 be d0 e0 9d bd
       0.1577476 0.18213561 -0.23534107 -0.07708895
000120 62 2d 5c 3e ec bf 68 3e 80 53 4a 3c 00 af 60 3b
       0.21501687 0.22729462 0.0123490095 0.0034283996
000130 02 ac 4e be 26 3c 4f 3e 30 62 89 3d ee 38 4b be
       -0.20182803 0.20237789 0.06708181 -0.19845936
000140 b0 80 57 3e 94 6a 5f be e4 38 b0 3d 8a 41 7a be
       0.21045184 -0.21818 0.08604601 -0.24439064
000150 d4 33 00 3e a8 55 c2 3d d6 1f 5d 3e 72 27 1e be
       0.12519771 0.09488994 0.21594176 -0.15444735
000160 ee 0f 10 3e 3a ae 5c be a8 f9 65 bd 7e 86 64 3e
       0.14068577 -0.21550837 -0.056146294 0.2231693
000170 50 9f 61 3d 18 8f 15 be 70 2c eb bd f0 8c 78 3e
       0.055083573 -0.14605367 -0.11483085 0.24272513
000180 f2 62 79 be 26 72 5a be 38 62 18 3d 30 58 ed bc
       -0.24354151 -0.21332607 0.037203044 -0.028972715
000190 bc 21 f7 3d 40 06 56 bd 0a e5 36 be 0c 2d d0 3d
       0.12066981 -0.052252054 -0.17860809 0.10164842
0001a0 38 8e 00 3e 20 06 97 3c 24 9a 0c be ac c1 3f be
       0.12554252 0.018435538 -0.13730675 -0.18726224
0001b0 90 c5 0d be e0 a2 e2 3c 90 60 c1 bc 18 a1 2f be
       -0.13844895 0.027665555 -0.023605615 -0.17151296
0001c0 30 6f 39 bd 10 7b cb bd 20 a4 0c bd 74 81 c3 3d
       -0.045272052 -0.09935582 -0.03433621 0.095461756
0001d0 c0 6d dc 3c 9c 2f 74 3e ec 57 7d 3e e8 81 14 be
       0.026907802 0.23846287 0.24740571 -0.1450268
0001e0 8c 7c a2 bd a0 b4 f1 3d 20 d9 cd bd 1e 43 74 be
       -0.07933912 0.118020296 -0.10051179 -0.23853728
0001f0 20 a8 08 3c 3a 2a 66 3e 58 31 29 3d 38 04 52 3e
       0.008340865 0.22477046 0.041306823 0.20509422
000200 a0 52 68 3e b8 cf 61 be d8 f6 88 3d 62 1b 18 3e
       0.22687769 -0.22051895 0.06687707 0.14854196
000210 f2 e8 27 3e 70 4e 0c 3d 30 b8 e6 3c d2 15 3c 3e
       0.16397455 0.03425449 0.028164 0.18367699
000220 14 e8 22 3e a6 01 2c 3e 70 bc 34 bd b8 6e 0e 3d
       0.15908843 0.16797504 -0.04412502 0.03477356
000230 80 d7 83 3d 70 b7 43 be 6a ee 61 3e 6a a6 29 be
       0.06437588 -0.19112945 0.22063604 -0.16567388
000240 e8 7d 96 bd f0 1a 92 3d d0 95 a9 bd 60 70 d5 bd
       -0.073482335 0.07134044 -0.082805276 -0.104218245
000250 98 55 42 3e 88 71 01 3d b8 4a 63 3d 78 d5 97 bd
       0.18977964 0.031602412 0.05549118 -0.07413763
000260 f8 74 68 3e 16 e3 43 3e 66 84 4c be b0 84 69 be
       0.2270087 0.19129595 -0.19972381 -0.22804523
000270 26 3c 5b be 0e 4a 4e 3e 82 51 21 3e 44 d9 0f 3e
       -0.21409664 0.20145437 0.15753749 0.14047724
000280 90 d7 2a be 08 b3 8d 3d 18 4c 56 3e 82 8e 51 3e
       -0.16683793 0.06918913 0.20927465 0.20464519
000290 64 91 6e 3e 68 1c d9 3d 68 ed 3d 3d fe b4 58 be
       0.2329765 0.10601121 0.046368986 -0.21162793
0002a0 04 6f d5 3d 30 0d 0f 3e 5e c6 22 3e 30 f0 4d bd
       0.10421565 0.13969874 0.15895984 -0.05027789
0002b0 f6 5c 42 be a0 d4 49 bd 80 e5 6d bc f0 ac 43 3d
       -0.18980774 -0.04927504 -0.014520049 0.047772348
0002c0 40 f2 35 be 90 31 b1 3c 08 36 71 be 88 cd 2c be
       -0.17768192 0.021630079 -0.23555768 -0.16875279
0002d0 e0 0d 51 bd 2e e8 00 be aa 22 5c be 14 03 c5 bd
       -0.051038623 -0.1258857 -0.21497598 -0.09619728
0002e0 68 e8 84 3d 88 dc b6 3d 80 6e 5a 3b 90 b6 93 3c
       0.064896405 0.08928782 0.0033330023 0.018031389
0002f0 04 41 67 be f0 b5 85 bc a0 f8 9e bc 2a 32 67 3e
       -0.22583395 -0.016322106 -0.019405663 0.2257773
000300 48 0f 27 bd 20 a0 d5 bd e4 44 94 3d e0 1d 60 bc
       -0.040786058 -0.10430932 0.07239702 -0.013678998
000310 9a a4 19 3e e8 ff 6c 3e 5e 0c 05 3e ac f9 16 be
       0.15004197 0.23144495 0.12992999 -0.1474368
000320 d8 d9 b7 bd 66 e1 01 3e f8 7a 2b bd 84 e4 c3 bd
       -0.08977097 0.12683639 -0.04186532 -0.0956507
000330 ae 94 27 3e ec ef 66 be 88 63 7a be 78 58 c4 3d
       0.1636531 -0.2255246 -0.2445203 0.095871866
000340 94 ad 71 3e e0 bf 31 3d 04 dd 2c be f8 a6 38 be
       0.23601371 0.043395877 -0.16881186 -0.18032444
000350 00 e2 07 bb e2 fe 22 3e f2 ec 2f 3e 0c ae ca bd
       -0.0020734072 0.15917543 0.17180231 -0.09896478
000360 d8 4d aa bd 50 64 ed 3d b4 5d 75 3e 00 60 d8 3d
       -0.08315629 0.11591399 0.23961526 0.105651855
000370 b0 75 1f be 40 cf b0 3c 40 fc 9f bc c0 43 48 3c
       -0.15572238 0.0215832 -0.019529462 0.012223184
000380 90 b2 47 3d 70 56 5f 3e ee 26 3d 3e e4 21 5f be
       0.048754275 0.21810317 0.18471882 -0.21790272
000390 de c4 61 3e 70 68 b0 3d 7a d2 7d be b0 2d 63 3e
       0.22047755 0.0861367 -0.24787322 0.22185397
0003a0 18 cf d4 3d 48 a8 6e be 54 3f c3 bd dc 09 d7 3d
       0.103910625 -0.23306382 -0.09533563 0.104999274
0003b0 1c 15 fa 3d 96 63 59 be d0 a0 e5 bd 64 99 90 3d
       0.122110575 -0.21229395 -0.11212313 0.07060507
0003c0 d4 d1 0c 3e fc c7 77 be 0a b2 5c 3e d0 1e b2 bc
       0.13751918 -0.24197382 0.21552292 -0.021743208
0003d0 70 28 a3 bc 00 d9 e7 3d 80 5f 45 3e 6e 21 56 3e
       -0.019916743 0.11320686 0.19274712 0.2091119
0003e0 aa a2 03 3e 26 66 62 be 90 36 b4 bc 88 4c c8 bd
       0.1285502 -0.22109279 -0.021998674 -0.09780222
0003f0 20 9f 3b 3e 54 3d 7e 3e d4 b7 1d be e0 73 7a 3c
       0.1832242 0.24828082 -0.15402156 0.015286416

foundation_model.up_path.0.up.bias f4 [8]
000000 f4 c9 ac bd 18 0f 19 be 10 40 e7 3d f8 27 5d bd
       -0.08436957 -0.14947164 0.11291516 -0.053993195
000010 b2 c7 6a 3e 5e 82 50 be 00 bf a6 3d 82 8f 12 3e
       0.2292774 -0.20362231 0.08141899 0.14312556

foundation_model.up_path.0.conv_block.block.0.weight f4 [8, 16, 3]
000000 e8 a4 8b 3d 04 41 00 3e 8e fb da 3b 82 c5 7b bc
       0.06818563 0.12524801 0.0066828197 -0.015366914
000010 1e 6a a9 3c 0c a8 90 3d ec 27 77 3d 6a 52 c6 bc
       0.020680483 0.070633024 0.060340807 -0.02420922
000020 a9 12 20 3d 8d f4 3d bc 5c ce a5 3d b5 57 9b 3c
       0.039080296 -0.01159395 0.080960006 0.01896272
000030 52 54 e5 bd 45 43 ef 3c 45 16 c6 bd 35 25 6c bd
       -0.111977234 0.029206881 -0.09672216 -0.05765267
000040 62 b1 bf 3d 69 6d d9 3d 4f ef 07 3e bc d5 d1 bd
       0.09360005 0.106165715 0.13274883 -0.10245845
000050 2c bc 08 be 7e d6 a2 bc bf fd fe 3c b8 82 8e 3d
       -0.13353032 -0.019877668 0.031126855 0.069585264
000060 7d 0d a5 bc 3e 69 e5 3d 17 61 dd 3d e2 3c 99 3d
       -0.020148033 0.11201714 0.10809534 0.074823156
000070 63 a4 13 be 0d 54 fe bd a5 37 50 bd 92 c4 b3 bd
       -0.14418177 -0.12418375 -0.050834317 -0.08777727
000080 bd 6b af 3d 6c d9 2c 3d 57 e4 ae bd 46 67 06 3e
       0.08565471 0.042199537 -0.08539646 0.13125333
000090 bd b8 13 3e bd 57 12 be 31 4c e4 3c 6f a9 49 3d
       0.14425941 -0.14291282 0.027868362 0.04923385
0000a0 a0 5d e8 3d 8e 99 13 be 6e c5 74 3d 6a 11 ea bc
       0.113459826 -0.14414045 0.059758596 -0.028572757
0000b0 12 9e 7f 3d fe 1f 1d 3a da a2 f3 bd bd 00 60 3d
       0.062406607 0.0005993842 -0.11896296 0.054688204
0000c0 1f b5 f7 bb f5 ac dd bd 9b 3c 01 3d 8d f3 cb bc
       -0.007559433 -0.108240046 0.03155194 -0.024896407
0000d0 0e af a6 bc 88 c9 bf 3d 16 d6 7a bd 30 26 26 3c
       -0.020347144 0.09364611 -0.061239325 0.010140941
0000e0 d6 90 f4 bc 94 6d d3 3b 19 0d 65 3d 72 86 10 3d
       -0.02985422 0.0064522717 0.055920694 0.035284467
0000f0 ac a9 01 bc fd 36 5b 3d 09 7f cc bd 39 c6 40 3d
       -0.007913988 0.053519238 -0.099851675 0.04706404
000100 54 89 59 3c f0 ef 90 bd a3 5f 8f 3c be cd 9f bd
       0.0132773705 -0.070770144 0.017501658 -0.07802914
000110 42 5b c0 bd f4 5d 97 bd ea a4 8a 3d 31 35 d0 3d
       -0.09392406 -0.07390967 0.06769736 0.101663955
000120 73 6b 0a bb d0 35 28 bd ad 10 ed 3c 3a e4 0b be
       -0.0021121174 -0.041066945 0.028938616 -0.1366128
000130 90 c2 44 bc f1 d9 c0 bb 8c 05 71 bd 54 da fe bd
       -0.012009278 -0.0058853556 -0.05884318 -0.124439865
000140 a7 88 13 3e ad e8 f5 bd 8a e6 94 3b e5 af a8 3d
       0.14407597 -0.1200727 0.004544084 0.08236674
000150 40 43 ef bd d6 f7 ae 3d 82 12 d1 bd d2 8a d1 bd
       -0.11682749 0.08543365 -0.10208608 -0.10231556
000160 b5 c5 a4 3d cc 2a e4 bd ee 79 bc bd f3 e3 e7 bd
       0.08045522 -0.11140975 -0.09202944 -0.11322775
000170 8f 06 ff 3d 8f 0b 9c 3d 7d 94 63 3c 2c 87 65 bc
       0.12452423 0.07619392 0.013890383 -0.014009278
000180 17 cf da 3d aa 93 c9 3d f7 20 4e 3d ee 51 b1 bd
       0.106840305 0.09842618 0.050324406 -0.08658205
000190 43 fe 90 3d e1 a6 b0 bd c4 e9 a7 bd 8d 16 ad bd
       0.070797466 -0.086255796 -0.08198884 -0.08451567
0001a0 8d 46 ee bd d4 02 ea 3d c6 61 66 bb fe 4e 9a 3d
       -0.1163455 0.11426321 -0.0035153492 0.07534598
0001b0 b1 47 ef bd 6e 5a 7e bc 18 d7 04 3e e8 d7 77 bb
       -0.11683596 -0.01552449 0.12972677 -0.00378179
0001c0 4a 69 76 ba a2 ce 79 bc 4c 1f c0 bd 0b f6 8e 3d
       -0.00093998446 -0.015247019 -0.093809694 0.06980523
0001d0 9c 31 cd bd d0 7b 6e 3d 2a 9f 11 bd c8 c4 10 3e
       -0.10019228 0.058223546 -0.03555218 0.14137566
0001e0 31 d0 db 3d 27 b2 f7 bd 1e 62 83 ba 0c ba 0a 3e
       0.10733069 -0.12094527 -0.0010023748 0.13547534
0001f0 de ac 68 3c fc 9c a2 3d 32 ae 97 3d c2 8b e7 bd
       0.014201371 0.07940099 0.07406272 -0.113059536
000200 de 7f 02 bd cc 6d 12 3e 55 4e a7 bc 0c ee f9 3d
       -0.031860225 0.14299697 -0.020423094 0.12203607
000210 4d 2d 2f 3d 35 34 99 bd 47 a4 b3 3d 8e 70 8b bb
       0.04276781 -0.07480661 0.08771568 -0.004255361
000220 9f 44 bc 3b d1 80 83 bd 95 52 dc 3d 1a 4d 70 3d
       0.005745485 -0.06421054 0.10757939 0.05866728
000230 7f 14 81 bd b8 a6 cc bd 03 66 65 3d 11 d1 40 bc
       -0.063027374 -0.099927366 0.05600549 -0.011768595
000240 48 ac 9d bd 00 e8 f4 bd 64 27 a0 3d be aa a2 3d
       -0.07698876 -0.11958313 0.07820013 0.07942723
000250 5a 70 b4 3c 34 a7 95 3d 7f 7b f9 3c 19 f0 fd bd
       0.02202623 0.07307282 0.030454395 -0.123993106
000260 ec 63 f4 3d 18 74 a5 3d 75 0f c4 bd a3 89 07 3e
       0.11933121 0.08078784 -0.09573261 0.13236098
000270 e5 fe 2b 3d 8f 27 fd 3d 6e 26 18 3d fb 1f 58 3c
       0.041991133 0.12361061 0.037146024 0.0131912185
000280 e4 16 b5 3d 00 c6 6b bd f7 a9 a4 bc c7 31 bd bd
       0.08842257 -0.057561874 -0.020100577 -0.0923801
000290 55 00 3c 3d 75 23 9c bd c5 7d 95 3d 3e 84 75 bd
       0.045898754 -0.076239504 0.07299379 -0.05994057
0002a0 a1 91 0f 3d d6 52 0b be 67 49 3d 3d 4c 10 f5 bd
       0.035050992 -0.13605818 0.04621258 -0.11965999
0002b0 d6 61 5c 3d a1 16 d2 bd c3 70 b1 bb e5 fa d5 bd
       0.05380424 -0.10258222 -0.0054150536 -0.10448245
0002c0 a6 51 d3 3d 9b 3e 60 3d 71 04 7f 3d cd 95 06 be
       0.103183076 0.054747205 0.062260095 -0.13143082
0002d0 ab b0 05 3e 43 89 2b 3c 81 da 5e bc b5 fc b0 3d
       0.13055675 0.010469737 -0.0136019 0.0864195
0002e0 b9 27 5a 3d 94 60 13 be ec a9 9b bd 0b 50 a0 bd
       0.05326054 -0.1439231 -0.076007694 -0.07827767
0002f0 56 f6 bc 3c 66 72 f2 bd 46 73 b2 bd 5e 10 84 3d
       0.02306668 -0.11838226 -0.08713393 0.06448434
000300 42 74 b7 3d 85 0d ba bd 92 b5 f3 3d 54 f1 c3 3d
       0.08957721 -0.0908461 0.11899866 0.09567514
000310 b8 72 88 3d 33 fb eb bd a9 fa 01 3d 83 74 2b 3d
       0.06662506 -0.11522522 0.03173319 0.04185916
000320 a4 75 04 3d ae ed 97 3d 50 c6 12 3e 92 16 0d be
       0.032338753 0.07418381 0.14333463 -0.13778141
000330 e7 fc 92 3d 64 4b a4 ba eb 7c 80 3d 4f 34 91 3d
       0.071771435 -0.0012534675 0.06273826 0.07090055
000340 7b 6b 69 bd 2d 91 70 3d 46 7d ee 3c 47 35 7d 3d
       -0.056987267 0.0587322 0.02911247 0.061818387
000350 81 af ed bd 75 17 4e 3d 8b bf a4 3c 11 9e b2 3c
       -0.1160574 0.05031534 0.020110866 0.021803888
000360 71 0c 73 3d 1a 2c 6f 3d 89 72 36 bd cc 15 fd bd
       0.059338037 0.058391668 -0.044542823 -0.12357673
000370 4f d0 dc bd cc f9 91 3d 0c 83 55 bd c9 e5 4c bc
       -0.10781919 0.07127723 -0.05212693 -0.012505957
000380 6a 24 a1 bd 47 cf bb bc 0f fd d7 3d fd 52 c0 3b
       -0.078682736 -0.022925986 0.10546314 0.005869268
000390 62 a6 d5 3d 58 d2 6f 3c 86 e4 f3 3d 64 16 fc 3d
       0.10432126 0.014637552 0.11908822 0.12308958
0003a0 0f c2 f7 3d 0c d2 8c 3d e9 c4 fa bc 1c bd ca bd
       0.120975606 0.06876001 -0.030611472 -0.09899351
0003b0 77 ce 0a bc 89 85 9d 3d 6e ae 47 bd 9c 12 01 be
       -0.008472077 0.076914854 -0.048750333 -0.12604755
0003c0 2f 69 2c 3d ec 23 fe 3d 78 1a b4 3b d2 d8 07 bd
       0.0420925 0.12409195 0.0054963194 -0.03316576
0003d0 bf f3 ec 3d 4f 94 10 3e c1 b0 11 bd 42 12 ba 3d
       0.115699284 0.14119075 -0.035568956 0.09085514
0003e0 10 34 0d bd f9 8f aa bd a1 e2 4a 3d 90 48 b8 bd
       -0.03447348 -0.08328242 0.049532536 -0.08998215
0003f0 9b 55 2a 3d 1d b1 a6 3a 31 b2 56 3d 45 2b 20 3c
       0.041585546 0.0012717579 0.05241603 0.009775941

foundation_model.up_path.0.conv_block.block.0.bias f4 [8]
000000 2f 97 bf bd 60 46 5b 3d ef 29 c2 3d 5f cc fd 3d
       -0.09355008 0.05353391 0.094806544 0.12392496
000010 5b d8 27 bc d0 e7 bb 3d fb 0a d7 3d b0 65 a6 bd
       -0.010244454 0.09175074 0.10500141 -0.08124864

foundation_model.up_path.0.conv_block.block.2.weight f4 [8, 8, 3]
000000 2f 5d 08 3e 2a d6 14 be 44 5a f0 3d 1c 01 24 3e
       0.13316797 -0.14534822 0.11735967 0.16016048
000010 81 21 d1 bd 6f 75 0e be 21 47 9a 3d cb d9 19 3e
       -0.102114685 -0.13911985 0.07533098 0.15024488
000020 94 ec 80 bd ea 8a 21 bd 26 13 17 3d 53 26 24 3e
       -0.06295124 -0.03943912 0.036883496 0.16030245
000030 c7 7f 38 3c ed aa 0f be fd 18 21 be eb b0 14 be
       0.011260933 -0.14030047 -0.15732189 -0.14520614
000040 94 68 4f be 24 df 11 3e ef 83 b0 bd 58 03 0a be
       -0.20254737 0.14245278 -0.08618914 -0.13477838
000050 e0 76 ce bd 81 44 cf 3d 6d 3a b8 bd 73 d7 cf 3d
       -0.10081267 0.10120488 -0.08995519 0.101485156
000060 4f 17 32 3e 57 aa 07 3e ba 6e 3d 3e 69 2d 87 3d
       0.17391704 0.13248573 0.1849927 0.06600458
000070 0f 74 ba bd f5 84 81 3c 54 c0 4c 3e 8b c2 04 3d
       -0.09104168 0.01581047 0.19995242 0.032412093
000080 7b 6a 22 3e b4 5b 37 3d 9e b6 1a 3e 13 cb e6 3c
       0.15860932 0.04476519 0.15108725 0.028173005
000090 59 ab 4e bc 39 fe 14 3e 5f f2 e9 3d e5 b9 01 be
       -0.012614095 0.14550103 0.11423182 -0.1266857
0000a0 7a 9d 41 3e 5c 13 3d 3e 72 d8 a0 3d 6a d3 e2 3d
       0.18907729 0.18464416 0.07853784 0.1107548
0000b0 a4 60 4d be 6b d2 7a bd d3 3a 25 3e a5 8f 3e be
       -0.20056397 -0.061235826 0.16135721 -0.18609484
0000c0 69 2f c8 bd 4c fe a1 3d fb 6f 3d 3e da 48 f4 3c
       -0.09774668 0.079098314 0.18499748 0.029819895
0000d0 3d 23 ba 3d e0 c1 11 be 8c 84 5d bb b1 64 62 bd
       0.090887524 -0.14234114 -0.0033800928 -0.055271808
0000e0 57 05 22 3e 72 cf 99 3c a4 7e bd bd 84 25 48 3e
       0.1582235 0.018775675 -0.092526704 0.19545561
0000f0 dc 95 22 bd ef c2 02 3e 58 c0 02 be 10 47 a3 3d
       -0.0396937 0.12769674 -0.12768686 0.079725385
000100 5d 19 5a 3c 37 ec 47 3e 1d 6e 2d 3e 44 32 19 be
       0.013311711 0.19523703 0.16936536 -0.14960581
000110 99 c4 3d be 4e b1 85 3d d7 ae 41 be b6 6e 49 3d
       -0.18532027 0.06527959 -0.18914352 0.049177848
000120 fd 50 8c 3d 0d 2d 9e bd 6d 70 d0 bd 4b 4c 08 3e
       0.06851385 -0.077234365 -0.101776935 0.13310353
000130 34 12 10 be 5c 4f 22 bd 23 ee 37 3d 41 38 1e 3e
       -0.14069444 -0.039626464 0.04490484 0.15451147
000140 a9 83 3f be 60 da 44 3d 99 3d 07 3d 37 38 23 bd
       -0.18702568 0.04805982 0.03301773 -0.039848533
000150 25 f3 99 bd 2b fd ac bd 98 93 35 be 7c 2f 04 be
       -0.07517079 -0.084467255 -0.17732084 -0.12908739
000160 3b 3e 4e be 2a 2e d9 3d 11 55 8e 3d 68 fa 2c be
       -0.20140927 0.10604508 0.06949819 -0.16892397
000170 a4 18 45 3e 68 88 0b be 1d 35 b5 3d 16 06 a0 bb
       0.19247681 -0.13626254 0.08848021 -0.004883538
000180 52 b3 0e be a3 26 3e 3e 99 b3 b4 3d 18 27 75 bc
       -0.13935593 0.18569426 0.08823318 -0.014962934
000190 f8 4a c7 bd a7 60 9b 3d 10 b8 d9 bd 60 3b d1 bd
       -0.09731096 0.07586794 -0.1063081 -0.10216403
0001a0 1f 67 69 3d b8 dd 48 be 9e c2 21 3d 2e 46 9b bd
       0.05698311 -0.19615829 0.039492242 -0.07581745
0001b0 c8 37 19 bd 74 0c c8 3d 13 64 4f 3e 3a 2b 3a be
       -0.037406713 0.09768 0.20253019 -0.18180552
0001c0 70 3a 2b bb 88 aa 05 bd 76 e9 39 bd d6 a2 a6 bc
       -0.002612736 -0.032633334 -0.04538866 -0.020341318
0001d0 a0 ba e3 bc 61 77 ac 3d ec d2 8e bb e2 f1 18 be
       -0.02779895 0.08421207 -0.00435864 -0.14936021
0001e0 0a 36 ae 3d 22 d8 91 bd 79 10 21 be a7 fa c0 bd
       0.08506401 -0.07121302 -0.1572894 -0.09422808
0001f0 6c 1d 9a 3d 0e 22 4e 3e b8 99 02 be 26 a2 80 3d
       0.07525143 0.20130178 -0.12753952 0.06280927
000200 36 39 0b be f5 5f 95 3c 2b b9 24 3d 1d 15 29 3e
       -0.13596043 0.018234232 0.040215652 0.1651196
000210 77 a0 d3 3d 73 be f6 bd 3a e6 b7 bd ab 16 dc 3d
       0.103333406 -0.12048044 -0.08979459 0.10746511
000220 29 3f 0c be 06 f3 4d 3e 76 c3 17 bc a0 7f 85 bd
       -0.13695969 0.20112237 -0.00926291 -0.06518483
000230 1b 8a 83 3d 2f 58 da 3c 79 d2 2f be 5c 7a 3d 3e
       0.06422826 0.026653377 -0.17170133 0.18503708
000240 05 d7 e4 bd 1c 1d ea bd 92 8e d5 3d e4 63 98 3d
       -0.11173824 -0.114313334 0.10427584 0.074409276
000250 76 01 22 be d8 d0 ed bb 6b 6b 80 bd a8 3e 41 be
       -0.1582087 -0.007257562 -0.06270488 -0.18871558
000260 cb 7a ad bd 4d 9c 8c 3d 76 74 6a 3c e6 5e 74 3d
       -0.084706865 0.068657495 0.014309993 0.059660815
000270 61 2a 31 be f7 6d 27 be 30 e4 c8 3d 4e 67 1e bc
       -0.17301323 -0.16350542 0.09809148 -0.009668184
000280 c7 ab 6b bd 13 a3 82 bd 2d d4 1b 3e 09 4c 6d bd
       -0.057536867 -0.0637876 0.15217657 -0.05793384
000290 62 37 d6 3c ec d2 13 be c4 c9 df 3d 49 10 af bd
       0.026149455 -0.14435929 0.109271556 -0.08548028
0002a0 48 56 e0 bc a7 34 84 bd ce 59 0d 3d 35 88 99 3d
       -0.027384892 -0.06455355 0.034509473 0.074966826
0002b0 e1 cb 85 bc ed ac 32 be e4 11 3a be 2a 97 60 3d
       -0.016332569 -0.17448778 -0.18170887 0.05483166
0002c0 46 40 ff 3d 4d 2c 15 3e 5a 11 9b 3d 82 cf a3 bd
       0.12463431 0.1456768 0.07571669 -0.07998563
0002d0 13 61 09 3e 41 4d 0c 3d 1a 17 97 3d b1 ca dc bd
       0.13415937 0.034253363 0.07377453 -0.10780848
0002e0 88 58 4c bd b7 3e 40 be da ae 14 3d f3 ed 8c bd
       -0.049889117 -0.18773924 0.036299564 -0.06881323
0002f0 6d dd b6 bb 91 4c 4b be e6 4d a5 3d cc f3 53 3d
       -0.005580595 -0.19853427 0.080714986 0.051746175

foundation_model.up_path.0.conv_block.block.2.bias f4 [8]
000000 37 76 b6 3d f4 c6 18 bd 06 95 16 bd 72 23 31 3e
       0.089092664 -0.03729911 -0.036763214 0.17298678
000010 45 18 1a be 12 65 ac 3c d0 3e f0 3c 56 ed 88 3d
       -0.1504832 0.021044288 0.029326826 0.06685893

foundation_model.up_path.1.up.weight f4 [8, 4, 2]
000000 5d c4 98 be 37 7f 65 3e 6d 09 56 be c7 10 0a bd
       -0.29837313 0.2241181 -0.20902033 -0.033707406
000010 16 df f1 bd bd 14 b1 3e 4e 9e 4a 3d 30 ee b4 bd
       -0.118101284 0.34586135 0.049467377 -0.08834493
000020 df f6 93 3d 5d 19 94 bd c5 47 16 3e 43 a9 e8 bd
       0.07224821 -0.072314 0.14675815 -0.11360409
000030 14 a9 2c 3e 93 b7 67 3e d8 1e 05 be 4d 7f 07 3e
       0.16861373 0.22628622 -0.13000047 0.13232155
000040 b5 1f 9c be df 96 2a bd 62 71 26 3e 04 74 9d be
       -0.3049294 -0.041647788 0.1625419 -0.30752575
000050 a2 91 63 3e 57 c8 a8 be 63 da fc bd d4 07 c9 3d
       0.22223523 -0.32965347 -0.123463415 0.09815946
000060 fe 8f ae 3e 37 a7 73 3e 3f 67 1e 3d 15 ce 06 3e
       0.34094232 0.23794256 0.038672682 0.13164552
000070 87 1a 93 be d0 2f 94 3e 8a db 58 3e 72 68 47 3e
       -0.28731176 0.28942728 0.21177498 0.19473436
000080 8a cc 93 3e 99 81 01 be fa a4 5f 3d 50 d3 c2 3d
       0.28866988 -0.12647094 0.054600693 0.09512961
000090 14 ba ad 3e 2d 9f a1 be e4 a4 13 3e 1d 2c 10 be
       0.3393103 -0.31566754 0.1441837 -0.14079328
0000a0 f4 58 22 be 85 ad 58 bd c7 85 a4 be bb 00 83 3e
       -0.15854245 -0.052899856 -0.32133314 0.25586495
0000b0 98 ee 78 3e 83 80 93 3e 8e fc 2f 3e 5f 1b a2 3e
       0.24309766 0.28808984 0.17186186 0.31661507
0000c0 22 dd 3e be 98 e9 25 be 3f 77 26 be e6 66 58 bd
       -0.18639043 -0.1620239 -0.16256426 -0.052832507
0000d0 1a 96 ad bd a8 7c 92 3d 3a 3a 94 3e 1c 03 90 3d
       -0.08475895 0.071526825 0.28950673 0.07031843
0000e0 08 9f b2 be bd 63 d4 3d 70 cf 76 be df 27 ab 3b
       -0.34886956 0.10370586 -0.24102569 0.005223259
0000f0 4d 67 79 3e d2 2c 82 3e 71 df 90 3e 7f 49 ab be
       0.24355812 0.2542482 0.28295472 -0.3345451

foundation_model.up_path.1.up.bias f4 [4]
000000 4b 6d 81 be fa 7d ce 3d 76 e9 c9 3d b0 8f 7a 3d
       -0.25278696 0.10082622 0.09858982 0.061172187
