wandb/run-20230701_195736-uchgjgcb/files/checkpoints/best.pt (torch, 119813 bytes, 66 tensors)

foundation_model.down_path.0.block.0.weight f4 [4, 8, 3]
0	0x3e71f32b	0.23627917
1	0xbd72b854	-0.05925782
2	0x3e337cbb	0.1752805
3	0x3e30a660	0.17250967
4	0x3d148c0c	0.03626637
5	0x3dd7f4ba	0.10544725
6	0x3e6ca6ae	0.23110458
7	0x3c382d82	0.011241319
8	0xbd3e8d65	-0.046521563
9	0x3d84167d	0.06449602
10	0x3e566dfb	0.20940392
11	0xbdaac0cc	-0.08337554
12	0x3e1a2f2e	0.1505706
13	0x3d18cd57	0.037305202
14	0xbe77eb04	-0.24210745
15	0x3dc92ae4	0.09822634
16	0x3e57b723	0.21065955
17	0x3d7acb7a	0.061229207
18	0xbd3cf143	-0.046128523
19	0x3e61a33d	0.22034927
20	0xbcc2acb3	-0.02376399
21	0x3e110344	0.14161402
22	0x3d7cf588	0.061757594
23	0xbdb2e109	-0.08734328
24	0x3d8a80bc	0.067628354
25	0xbe17a13c	-0.148076
26	0xbd92edec	-0.07174286
27	0x3d742b52	0.059611626
28	0x3e553585	0.20821197
29	0x3e914d96	0.28379506
30	0xbe3a4592	-0.18190601
31	0x3d5e810c	0.054322287
32	0x3e2b6420	0.16737413
33	0xbda10784	-0.078627616
34	0x3e4111a8	0.18854392
35	0xbdb7a786	-0.089674994
36	0xb99a1c74	-0.00029394368
37	0xbe3c4a85	-0.18387802
38	0x39141b57	0.00014124565
39	0xbd193996	-0.037408434
40	0x3d7e96c8	0.062155515
41	0xbd8ca435	-0.068672575
42	0x3de32ac4	0.11092141
43	0x3e44c8bf	0.19217204
44	0x3e33a6f7	0.17544161
45	0x3de4a660	0.11164546
46	0x3e7cb1d4	0.24677211
47	0xbd1e9a0f	-0.03872114
48	0x3e280477	0.16407953
49	0x3e36a581	0.17836572
50	0xbca07f0d	-0.019591833
51	0x3d33762f	0.04381388
52	0x3e9d16f5	0.30681577
53	0xbb7cefd3	-0.0038595095
54	0xbd9201a4	-0.07129219
55	0xbd835e74	-0.064145
56	0x3d09b9a6	0.033624314
57	0xbdf11a16	-0.117725536
58	0xbd8d0906	-0.06886487
59	0xbe30ae47	-0.17253982
60	0xbe231e31	-0.15929486
61	0x3e3d6d94	0.18498832
62	0x3d9f76d8	0.077863395
63	0x3e548240	0.20752811
64	0x3c9d734c	0.019220017
65	0x3b2c96a8	0.0026334915
66	0x3d27628a	0.04086546
67	0x3e1f483e	0.15554902
68	0x3dbbc5b6	0.0916857
69	0x3dc4edbc	0.09615657
70	0xbdd538b6	-0.104112074
71	0xbd8aee9c	-0.067837924
72	0xbd5b05da	-0.053472377
73	0xbdbf6432	-0.093452826
74	0x3e8030ea	0.25037318
75	0x3e36e367	0.17860185
76	0xbd76c9de	-0.06025111
77	0x3e9ea78b	0.309872
78	0xbd2a1ae6	-0.04152956
79	0x3d482e2a	0.04887215
80	0x3d006d58	0.03135428
81	0xbe0907a2	-0.13381818
82	0x3d87fba8	0.066397965
83	0x3b895d8c	0.00419206
84	0x3e887e7a	0.26658994
85	0x3d8299af	0.06376969
86	0xbe8133f1	-0.2523494
87	0x3e064f95	0.13116296
88	0x3c43db77	0.01195418
89	0xbd48bd96	-0.04900893
90	0x3e46db9c	0.19419712
91	0x3c770cd7	0.015078745
92	0x3e82feb0	0.25584936
93	0xbdd580bc	-0.10424945
94	0x3d06d694	0.03291948
95	0xbd99f11e	-0.075166926

foundation_model.down_path.0.block.0.bias f4 [4]
0	0x3c6453f3	0.013936031
1	0xbd9a8866	-0.07545547
2	0x3e2fd433	0.17170791
3	0x3e0cfa52	0.13767365

foundation_model.down_path.0.block.2.weight f4 [4, 4, 3]
0	0x3eb68132	0.35645443
1	0x3e282647	0.16420852
2	0x3e4d3d18	0.20042837
3	0x3b776275	0.0037747894
4	0x3dd0bd59	0.10192365
5	0x3ec0f10d	0.37683907
6	0x3de2f7ad	0.11082397
7	0x3c453fd0	0.01203914
8	0x3d488f85	0.048964996
9	0x3e8955da	0.26823312
10	0xbc62e035	-0.0138474
11	0xbde13bf7	-0.109977655
12	0x3e7a9a5d	0.24472947
13	0xbdac5c2c	-0.08416018
14	0x3e036a4a	0.12833515
15	0x3d59b439	0.05315039
16	0x3d5fd8f1	0.05465025
17	0x3dbe0dbb	0.09279963
18	0xbe1ead22	-0.15495732
19	0x3e9c590d	0.3053669
20	0x3b75db20	0.0037514642
21	0x3ea06671	0.31328157
22	0x3ea9e8d7	0.33185455
23	0x3ea739cc	0.32661283
24	0xbdba99c2	-0.09111358
25	0x3d7c01fd	0.061525334
26	0xbe489ab5	-0.19590266
27	0x3eb89b5e	0.36056036
28	0x3d7416de	0.05959212
29	0xbe0c0b84	-0.13676268
30	0x3e995f2b	0.2995542
31	0x3e6a65ee	0.22890446
32	0x3e867a85	0.2626535
33	0x3e31abd1	0.17350699
34	0x3ec8d06d	0.39221516
35	0xbdf6d913	-0.12053122
36	0x3e9a2d2f	0.30112597
37	0x3d12b73e	0.035819285
38	0x3c8ab21c	0.016930632
39	0x3c346395	0.01101007
40	0x3e8018c3	0.25018892
41	0xbe13e80e	-0.1444399
42	0xbd501b1e	-0.05080711
43	0x3e3b0a45	0.18265636
44	0x3e1b08e8	0.15140116
45	0x3e8c77c6	0.2743513
46	0xbda43561	-0.08017994
47	0x3e8edfe4	0.2790519

foundation_model.down_path.0.block.2.bias f4 [4]
0	0xbdd6e4f2	-0.104928866
1	0xbdff84b7	-0.12476485
2	0xbd1819be	-0.037133925
3	0x3e36df9f	0.17858742

foundation_model.down_path.1.block.0.weight f4 [8, 4, 3]
0	0xbcfad36e	-0.030618396
1	0xbd6cb7f6	-0.057792626
2	0xbdc7af8a	-0.09750278
3	0xbdc45b87	-0.0958777
4	0x3e2c0709	0.16799559
5	0x3e7c19ac	0.24619168
6	0x3e96bffe	0.29443353
7	0x3ca90154	0.020630516
8	0x3eb4ada1	0.35288718
9	0x3d244ccc	0.0401123
10	0x3d9fe20a	0.078067854
11	0x3e932d6a	0.28745586
12	0x3db0aa6a	0.08626254
13	0x3dbc5d08	0.09197432
14	0xbdc9291d	-0.09822295
15	0xbc4fa3c7	-0.012673325
16	0x3e8f662d	0.2800764
17	0xbdb3b8a8	-0.08775455
18	0x3e80950c	0.25113714
19	0xbdde63cc	-0.108588785
20	0x3e68e301	0.22742845
21	0x3e8110a6	0.25208014
22	0x3e944b70	0.28963804
23	0x3e869792	0.26287514
24	0x3e7eb573	0.24873905
25	0x3e395231	0.1809776
26	0x3e45a213	0.19300108
27	0x3def268f	0.11677276
28	0xbc635ffd	-0.013877866
29	0x3e834f0e	0.2564625
30	0x3e8e96d5	0.2784945
31	0x3ea78c09	0.32724026
32	0xbc84af20	-0.016196787
33	0xbdb7992c	-0.08964762
34	0x3e7b8d67	0.2456566
35	0x3e721e84	0.23644453
36	0xbe46ccab	-0.19414012
37	0x3e82edf6	0.25572175
38	0x3e730614	0.23732787
39	0x3ec2f89c	0.380803
40	0xbe2f803c	-0.17138761
41	0x3e3473e1	0.1762233
42	0x3c9d709a	0.019218732
43	0x3ea7ed8c	0.3279842
44	0x3ea4972a	0.3214658
45	0x3d9d0291	0.07666505
46	0x3e9460b5	0.28980032
47	0x3ea602c3	0.32423982
48	0xbe41add5	-0.18913968
49	0x3e35eb14	0.17765456
50	0x3e90f6b5	0.28313223
51	0x3e106bd3	0.14103632
52	0xbd385162	-0.044999488
53	0x3e378f22	0.17925695
54	0x3ea7ad0f	0.3274922
55	0x3d38ddca	0.04513339
56	0x3eba76ca	0.36418754
57	0x3eb65dd2	0.35618454
58	0x3ea48463	0.32132253
59	0x3e4c9874	0.19980031
60	0x3e9fb4cb	0.31192622
61	0x3e3878b9	0.18014802
62	0x3eaf600c	0.34252965
63	0xbdcf7556	-0.10129802
64	0xbdf94cbc	-0.12172839
65	0x3e4606ef	0.19338582
66	0x3dc737e2	0.09727456
67	0x3ec3449a	0.38138276
68	0xbd0c707e	-0.03428697
69	0x3d4aac64	0.04948081
70	0x3e8c8fe6	0.27453536
71	0xbe32e7f6	-0.17471299
72	0x3e5a49cd	0.21317215
73	0x3ce53d34	0.027983285
74	0x3e245a63	0.16050105
75	0x3e933785	0.28753296
76	0x3e11c76e	0.14236233
77	0xbdf35525	-0.118814744
78	0x3e369720	0.17831087
79	0xbdc8411a	-0.09778042
80	0x3e1a387e	0.15060613
81	0xbdaf2c81	-0.0855341
82	0x3c183dcb	0.009292076
83	0x3e94ed9e	0.29087538
84	0xbeb67662	-0.35637194
85	0x3c1e0d71	0.009646759
86	0xbe660957	-0.224645
87	0xbeafb699	-0.34318998
88	0xbd7e896f	-0.062142786
89	0xbea12b60	-0.31478405
90	0xbcd14418	-0.025545165
91	0xbecb40d9	-0.39697912
92	0xbeb3178d	-0.34978905
93	0xbe61c401	-0.22047426
94	0x3c612f0c	0.013744127
95	0xba6738da	-0.0008820422

foundation_model.down_path.1.block.0.bias f4 [8]
0	0x3e1fef0f	0.15618537
1	0x3d936961	0.07197834
2	0xbe49fe88	-0.19726002
3	0x3cf70084	0.030151613
4	0xbd64e4e6	-0.055882357
5	0x3e18056b	0.14845817
6	0xbe7a1426	-0.24421749
7	0x3e009a77	0.12558924

foundation_model.down_path.1.block.2.weight f4 [8, 8, 3]
0	0x3d445ff9	0.04794309
1	0xbe6b81cb	-0.22998731
2	0xbe5ac715	-0.21365006
3	0xbdcd8490	-0.1003505
4	0x3d9e1a08	0.07719809
5	0xbe74ad0a	-0.23894134
6	0xbe096bfa	-0.13420096
7	0xbe075f60	-0.13219976
8	0xbe911c63	-0.2834197
9	0xbe833618	-0.25627208
10	0x3d4eaf8a	0.050460376
11	0xbe3df71c	-0.18551296
12	0xbe81aeb0	-0.25328588
13	0x3d82e3c2	0.063910976
14	0xbe2b3591	-0.16719653
15	0xbddb54c6	-0.107095286
16	0xbe884a09	-0.26618984
17	0xbde5cdae	-0.11220871
18	0xbdb37053	-0.087616585
19	0x3e0a369e	0.13497397
20	0xbe81804c	-0.25293195
21	0x3e46df22	0.19421056
22	0x3e889062	0.26672655
23	0x3cae65ee	0.021288838
24	0x3d89edbd	0.06734798
25	0x3db9045d	0.09034035
26	0x3e4fd502	0.202961
27	0x3de843ca	0.11341055
28	0x3e638eac	0.22222394
29	0x3e79f4c6	0.2440978
30	0x3e6fd736	0.2342194
31	0xbd72e436	-0.05929967
32	0xbdd07d45	-0.10180143
33	0x3e7918b9	0.24325837
34	0xbbe44e33	-0.00696733
35	0xb952a277	-0.00020087684
36	0x3de7f972	0.11326875
37	0x3e039059	0.12848033
38	0xbda07b83	-0.07836058
39	0x3cc34bc3	0.023839837
40	0x3e877bbe	0.26461595
41	0x3c8a07fc	0.01684951
42	0x3e04cd48	0.12968934
43	0xbd87eb90	-0.06636727
44	0x3e0319f2	0.12802866
45	0xbda570d6	-0.08078162
46	0xbe7ba99c	-0.2457642
47	0xbe4ebd8f	-0.20189498
48	0x3d4de20a	0.050264396
49	0x3cc7e323	0.0244003
50	0x3d4f2bb1	0.050578777
51	0xbd684906	-0.056710266
52	0x3e4514ae	0.1924617
53	0x3ceb3936	0.028713804
54	0x3df89e9e	0.12139629
55	0x3dc8a6a1	0.09797407
56	0x3de079c1	0.10960723
57	0x3ce93955	0.02846972
58	0xbd00f6df	-0.031485435
59	0x3e274f32	0.16338804
60	0xbd210a4c	-0.03931646
61	0x3d5ecc18	0.054393858
62	0x3da76626	0.0817378
63	0x3e31a90d	0.17349644
64	0xbd0a2294	-0.033724383
65	0x3d6fff43	0.058593046
66	0x3dd0a411	0.10187543
67	0x3e4b9de5	0.1988445
68	0x3e4b8f07	0.1987878
69	0xbda1e0f7	-0.07904237
70	0xbd6d5509	-0.057942424
71	0x3d4cf56c	0.05003874
72	0xbdc55758	-0.096358
73	0x3dfaa712	0.122388974
74	0xbd013db0	-0.03155297
75	0x3dece4c2	0.115670696
76	0x3e6b7517	0.22993885
77	0x3ca0f599	0.01964836
78	0x3e0564b0	0.1302669
79	0x3d16c016	0.03680428
80	0x3e8d8443	0.2763997
81	0x3de4f05f	0.1117866
82	0x3dad7c9e	0.084710345
83	0x3e4abfe8	0.19799769
84	0x3d9cdcca	0.076593
85	0x3e26f0a0	0.16302729
86	0x3e9bbfca	0.3041976
87	0x3db7a49f	0.08966946
88	0x3e0764a8	0.13221991
89	0x3e07a022	0.1324468
90	0x3e69db6d	0.2283761
91	0x3c5a448b	0.013322006
92	0x3e22e9bd	0.15909477
93	0xbe06e45d	-0.13173051
94	0xbe0d965c	-0.13826889
95	0xbd09eee9	-0.033675108
96	0xbe74597a	-0.23862258
97	0xbcf9913b	-0.03046476
98	0xbe684675	-0.22683127
99	0xbe588b5a	-0.21146908
100	0xbe028297	-0.12745129
101	0xbe103f4b	-0.14086644
102	0x3c0d61e5	0.008629297
103	0x3d3cfedb	0.046141487
104	0xbe89bbc7	-0.26901075
105	0x3c3312c5	0.010929768
106	0xbe0b548c	-0.13606471
107	0x3cb53920	0.022121966
108	0xbe28aa90	-0.16471314
109	0xbe480cd8	-0.1953615
110	0x3c58b37d	0.013226387
111	0xbd1af76c	-0.037833616
112	0xbdbe2aeb	-0.0928553
113	0xbe18b1b7	-0.14911543
114	0xbb503a01	-0.0031772854
115	0xbe6cd65c	-0.23128647
116	0xbe2b1866	-0.16708526
117	0xbd174d31	-0.03693885
118	0x3e338e1b	0.17534678
119	0xbdb1b3de	-0.08676885
120	0x3e22505b	0.15850966
121	0xbdc3b47a	-0.095559075
122	0x3ce08891	0.02740887
123	0x3e2fc5cd	0.17165299
124	0x3e873538	0.2640779
125	0x3cc611ae	0.024178352
126	0x3da12ba3	0.07869651
127	0x3e5f2b92	0.21793965
128	0x3db4c63c	0.08826873
129	0x3e5c2748	0.2149936
130	0x3e528e49	0.2056209
131	0x3e74b702	0.23897937
132	0xbd5c422c	-0.053774044
133	0xbdd84e80	-0.10561848
134	0x3e363e3a	0.17797175
135	0x3dd35171	0.10318268
136	0x3d249ea0	0.04019034
137	0xbdb7bc24	-0.08971432
138	0x3e35d51c	0.17757076
139	0x3e5d16db	0.2159075
140	0x3dceaee4	0.100919515
141	0xbdd11442	-0.10208942
142	0xbe0a394e	-0.13498423
143	0xbe4bd444	-0.19905192
144	0x3e3bc564	0.18337017
145	0x3e1ab24c	0.15107077
146	0x3d2d4421	0.0423013
147	0x3d37df73	0.044890832
148	0xbd748c43	-0.059704076
149	0x3b3f8517	0.0029223615
150	0x3dde8866	0.1086586
151	0x3e007331	0.12543942
152	0x3e559e7f	0.20861243
153	0xbdb527a3	-0.08845451
154	0x3d091005	0.033462543
155	0x3e94e98b	0.2908443
156	0x3d82d78c	0.063887686
157	0x3d76f4a1	0.06029189
158	0x3c7c897b	0.015413637
159	0x3dc6bec7	0.09704357
160	0x3e1cd02f	0.1531379
161	0xbd67998a	-0.05654291
162	0x3cb4ef1e	0.022086676
163	0xbe0474b8	-0.1293515
164	0xbc263b5a	-0.010145986
165	0xbe1d4e70	-0.15361953
166	0x3dd04204	0.101688415
167	0xbd9446fd	-0.072401024
168	0x3e1f3ef9	0.15551366
169	0xbd5ac818	-0.05341348
170	0x3e72c5b0	0.23708224
171	0xbd40ec94	-0.04710062
172	0xbe005e4a	-0.12535968
173	0x3da7b151	0.08188117
174	0x3e40c38b	0.18824594
175	0x3d4e04af	0.050297435
176	0x3e367067	0.17816316
177	0x3ea068fa	0.3133009
178	0x3e3240cc	0.1740753
179	0x3b87f32a	0.0041488605
180	0x3d0eba89	0.034845863
181	0x3ca48c69	0.020086484
182	0x3e1fd0d8	0.15607011
183	0x3ddac5bc	0.10682246
184	0xbde571c6	-0.11203341
185	0x3dd8440b	0.10559853
186	0x3e61d478	0.22053707
187	0xbbadc967	-0.00530355
188	0xbc38ce98	-0.011279725
189	0xbcff4114	-0.031158961
190	0xbe2c0b94	-0.16801292
191	0xbe8a8eb2	-0.27061993

foundation_model.down_path.1.block.2.bias f4 [8]
0	0x3ddbb11a	0.10727139
1	0xbe190fcd	-0.14947434
2	0xbc246dd9	-0.010035955
3	0x3de89afc	0.11357686
4	0x3e13665c	0.14394516
5	0x3d2ab774	0.04167886
6	0xbdbbaa43	-0.09163334
7	0x3d8ee98f	0.069781415

foundation_model.down_path.2.block.0.weight f4 [16, 8, 3]
0	0x3d82f2e3	0.06393983
1	0xbd777497	-0.060413923
2	0x3daa4bc2	0.08315231
3	0xbdaae845	-0.08345083
4	0xbc34018b	-0.010986696
5	0xbe586634	-0.21132737
6	0xbe1d2874	-0.15347463
7	0xbd3e29e2	-0.04642666
8	0xbb728613	-0.0037006184
9	0xbe9565e4	-0.291793
10	0x3dac4a56	0.08412616
11	0x3d2ae835	0.041725356
12	0x3ce9369c	0.028468423
13	0x3d62a2de	0.055331104
14	0x3ddae95e	0.106890425
15	0xbcbea169	-0.023270326
16	0xbe66d5bd	-0.22542472
17	0xbe74d4e2	-0.23909333
18	0x3deac588	0.11463457
19	0xbdfee2cc	-0.12445602
20	0xbe29fd2c	-0.16600484
21	0xbdeba1f4	-0.115054995
22	0xbd6fef70	-0.058577955
23	0xba18caae	-0.00058285415
24	0x3c80df61	0.015731515
25	0x3da1ae7e	0.0789461
26	0xbce4d95b	-0.027935674
27	0x3e1051fd	0.14093776
28	0xbb6a8fd7	-0.0035791302
29	0x3e531b52	0.2061589
30	0x3b1ad296	0.0023624054
31	0x3e4fdbe9	0.20298733
32	0xbce0e0f8	-0.027451023
33	0x3e73ea45	0.23819835
34	0x3d20a08d	0.039215613
35	0x3d2b7efb	0.041869145
36	0xbdda7fcd	-0.10668907
37	0x3d02af5b	0.031905513
38	0xbe15d6d7	-0.14632736
39	0xbcdb7a1a	-0.026791621
40	0xbc417d1e	-0.011809615
41	0x3e87e066	0.2653839
42	0x3e3c56ef	0.18392538
43	0xbd0b1a96	-0.0339609
44	0xbd44f576	-0.048085652
45	0x3ddbec65	0.10738448
46	0xbcb2b405	-0.021814356
47	0x3e4c4587	0.19948398
48	0x3d32eeb9	0.043684695
49	0xbc31ac31	-0.010844276
50	0x3e27f5a2	0.16402295
51	0x3d59b4a3	0.053150784
52	0xbe397efb	-0.18114845
53	0x3d793d3f	0.060849424
54	0xbdc07904	-0.09398082
55	0xbc34d8ce	-0.011038018
56	0x3df001a0	0.1171906
57	0x3d3a41d3	0.04547293
58	0xbe9289dd	-0.28620806
59	0xbe9173e9	-0.28408745
60	0x3d90812e	0.07055889
61	0x3e4a8d40	0.19780445
62	0xbdc5dc2c	-0.09661135
63	0xbcaf91f6	-0.021431904
64	0x396580af	0.0002188708
65	0xbe76ac03	-0.24089055
66	0xbe85ae27	-0.2610943
67	0xbe558d39	-0.20854653
68	0x3decf9b1	0.11571062
69	0xbde4ab0d	-0.11165438
70	0xbe6a3085	-0.22870071
71	0xbda0eb30	-0.078573585
72	0x3e99f5aa	0.3007024
73	0x3e80b48f	0.25137755
74	0x3e0f728f	0.14008544
75	0xbdff76f8	-0.12473863
76	0xbdcd7f4c	-0.100340456
77	0xbe31297c	-0.17300981
78	0xbdfa8156	-0.122317
79	0xbda1fde5	-0.07909755
80	0x3d8f3cc4	0.06994012
81	0xbe934116	-0.28760594
82	0xbd401634	-0.046896175
83	0xbe45530d	-0.19269963
84	0x3e6dbd9e	0.23216864
85	0xbdbf2862	-0.09333874
86	0x3e16ca5d	0.14725633
87	0x3ca5eeea	0.020255525
88	0xbcec1417	-0.028818173
89	0xbd006b13	-0.031352114
90	0xbe11b34e	-0.14228556
91	0xbdfa7047	-0.122284465
92	0x3d214cd5	0.039379913
93	0xbe5fa30b	-0.2183954
94	0xbc66a9e9	-0.014078596
95	0xbe67320c	-0.22577685
96	0x3e622884	0.22085768
97	0x3e75195e	0.23935458
98	0x3d783a94	0.06060274
99	0x3dbcdc85	0.09221748
100	0xbe732047	-0.23742782
101	0xbc40c30d	-0.011765254
102	0xbe47423e	-0.19458863
103	0x3d245b29	0.040126
104	0xbe8d55d3	-0.2760454
105	0xbdf051ee	-0.11734377
106	0x3d5add45	0.053433675
107	0x3dca7d00	0.09887123
108	0x3ca0b63e	0.01961815
109	0x3e2c3601	0.16817476
110	0x3e5e17a7	0.2168871
111	0xbe6b2210	-0.22962213
112	0xbe22df1e	-0.15905425
113	0xbcaf33d7	-0.021387024
114	0x3c9ad047	0.018898143
115	0x3c914583	0.017733341
116	0x3d2c1c05	0.04201891
117	0xbdc069f2	-0.093952075
118	0xbe68671e	-0.22695586
119	0xbe72716c	-0.2367608
120	0x3e562cc4	0.20915514
121	0x3e031a17	0.12802921
122	0x3cfec26c	0.031098567
123	0xbe693800	-0.22775269
124	0xbe80ba68	-0.25142217
125	0xbd93aa4a	-0.072102144
126	0xbe3d76fd	-0.18502422
127	0xbe3b464b	-0.18288533
128	0x3cda2cb6	0.026632648
129	0xbe88311e	-0.26599973
130	0xbdb7282b	-0.08943208
131	0xbd53dc43	-0.05172373
132	0xbc224415	-0.009903927
133	0x3dc57069	0.09640581
134	0x3d97289f	0.07380795
135	0xbe40a244	-0.188119
136	0xbafd623e	-0.0019331647
137	0xbe7a8f9d	-0.24468847
138	0x3d2087a6	0.039191864
139	0xbe4562c3	-0.19275956
140	0xbe0c929b	-0.137278
141	0xbe811162	-0.25208575
142	0xbdc4ed9d	-0.09615634
143	0xbe84e890	-0.2595868
144	0x3df5b89d	0.11998103
145	0x3e1b7555	0.15181477
146	0x3dd37be2	0.10326363
147	0xbe6300fb	-0.22168343
148	0xbe21ca94	-0.15799934
149	0xbe787da6	-0.24266681
150	0x3d10a820	0.035316586
151	0xbe652c94	-0.22380286
152	0x3de62be8	0.11238843
153	0x3d820c7a	0.06350036
154	0xbe2daf8a	-0.16961494
155	0xbe9073a7	-0.28213236
156	0x3cbb6827	0.022876812
157	0x3ce297aa	0.02766021
158	0xbda775b0	-0.08176744
159	0xbc63c5dc	-0.013902154
160	0xbe921db8	-0.285383
161	0x3d74143c	0.05958961
162	0x3d8d0190	0.06885064
163	0xbdb85525	-0.09000615
164	0x3cf50bea	0.029912908
165	0xbc9671c3	-0.018364793
166	0x3d42ed35	0.0475895
167	0x3bcb0081	0.0061951284
168	0x3e015dd8	0.12633455
169	0xbe8f1ca9	-0.27951553
170	0xbe69fcb8	-0.22850311
171	0xbd8ff043	-0.07028248
172	0xbca66eeb	-0.020316562
173	0xbd5202fb	-0.051272374
174	0x3e7e60d3	0.24841623
175	0xbe07555e	-0.13216159
176	0x3d296abf	0.041361567
177	0x3e61b118	0.22040212
178	0x3e09c9a9	0.13455833
179	0x3dccddb5	0.10003225
180	0xbe0fcdec	-0.14043397
181	0x3e0a7418	0.13520849
182	0xbc936c93	-0.017996108
183	0x3e32f1b3	0.17475013
184	0xbde6b8a0	-0.11265683
185	0x3e75e56a	0.24013296
186	0xbdff374c	-0.12461719
187	0x3cbe8248	0.023255482
188	0x3e83d3ef	0.2574763
189	0x3e028df9	0.12749471
190	0x3e81a828	0.25323606
191	0x3e3a1ffb	0.18176262
192	0xba986558	-0.0011626882
193	0xbe87677b	-0.26446137
194	0x3d142a2e	0.03617304
195	0x3e66b197	0.22528683
196	0x3e691b80	0.22764397
197	0xbd420cc3	-0.04737545
198	0x3e026510	0.12733865
199	0x3e827581	0.25480273
200	0x3e14d9d4	0.1453622
201	0x3e3d197a	0.1846675
202	0xbe05ab46	-0.13053617
203	0x3e889288	0.26674294
204	0x3d975061	0.07388378
205	0xbe47fddb	-0.19530432
206	0xbe2162ba	-0.15760317
207	0xbdc942c1	-0.098271854
208	0x3e0beb09	0.13663878
209	0x3e01beff	0.12670515
210	0xbd602828	-0.054725796
211	0x3d871547	0.06595855
212	0x3e429609	0.19002546
213	0x3e5a6b14	0.2132991
214	0x3e345d16	0.17613634
215	0x3da0d645	0.07853369
216	0xbc48d9e0	-0.012258977
217	0x3deacc8b	0.11464795
218	0xbe6594bb	-0.22420017
219	0xbd47379b	-0.048637014
220	0x3e63c3f4	0.22242719
221	0xbd479a3c	-0.048731074
222	0x3e463107	0.1935464
223	0xbc3ccf60	-0.011524051
224	0x3e4fa331	0.20277096
225	0x3db1bd32	0.08678664
226	0x3e5218be	0.20517251
227	0x3e8b728e	0.27235836
228	0xbda797e8	-0.08183271
229	0x3dd5d1e0	0.10440421
230	0xbdaeea5d	-0.08540795
231	0x3d20a646	0.03922107
232	0x3db7b035	0.08969156
233	0x3e5c0e5f	0.21489857
234	0x3de84748	0.11341721
235	0x3c9e60e8	0.019333318
236	0x3de31f0a	0.110899046
237	0x3bfb29fa	0.007664916
238	0x3e01f6bc	0.12691778
239	0x3d94bf33	0.07263031
240	0xbc3b2eca	-0.01142473
241	0xbd4695ae	-0.04848259
242	0x3c2151fa	0.009846205
243	0x3dc6bb87	0.09703737
244	0xbe91a977	-0.28449604
245	0xbe86e3b2	-0.26345593
246	0xbe59ef39	-0.21282662
247	0xbe6cd670	-0.23128676
248	0xbe201f52	-0.15636948
249	0xbcd2891f	-0.02570015
250	0xbe8851e2	-0.26624972
251	0xbe24a1d7	-0.16077362
252	0xbd204cc9	-0.039135728
253	0x3d0a33a1	0.033740643
254	0x3e82f8db	0.25580487
255	0xbd1d07dd	-0.038337577

foundation_model.down_path.2.block.0.bias f4 [16]
0	0x3e411bc6	0.18858251
1	0xbe607e9a	-0.21923295
2	0x3dcb8bf7	0.099388056
3	0x3e383606	0.17989358
4	0x3de6d91d	0.1127188
5	0x3dbca5b2	0.092112914
6	0x3d6b8261	0.057497386
7	0xbda2e1db	-0.07953235
8	0xbcab63f6	-0.020921689
9	0xbd4a79c0	-0.049432516
10	0x3dbfbf10	0.09362614
11	0xbd76d436	-0.060260974
12	0xbccccb16	-0.024999183
13	0xbe349f7f	-0.17638968
14	0x3e031fd4	0.1280511
15	0x3e55f9d2	0.2089608

foundation_model.down_path.2.block.2.weight f4 [16, 16, 3]
0	0x3da2fe4d	0.0795866
1	0x3dcd3f92	0.10021891
2	0x3dc38cfb	0.09548374
3	0xbd80723f	-0.06271791
4	0xbda54ee1	-0.080716856
5	0xbe1af033	-0.15130691
6	0x3bc5de0f	0.0060384343
7	0xbc977862	-0.01849002
8	0x3e2c3110	0.16815591
9	0x3d3b8ea0	0.045790315
10	0x3d8613f6	0.06546776
11	0x3d1536da	0.036429264
12	0x3e3768cb	0.17911069
13	0x3e417eda	0.18896046
14	0x3e588fa4	0.21148545
15	0x3dee823a	0.116459325
16	0xbca91f77	-0.020644886
17	0x3df276cc	0.11839065
18	0x3e1dd5e2	0.15413621
19	0x3de684bb	0.11255785
20	0x3e24a6bd	0.1607923
21	0xbe2b55af	-0.16731904
22	0xbaa1437c	-0.0012303437
23	0xbdde95ea	-0.108684376
24	0x3c3cc9bd	0.0115227075
25	0x3d2494fe	0.040181153
26	0xbe2c6832	-0.16836622
27	0xbde56e51	-0.11202682
28	0xbc3910d5	-0.011295517
29	0xbe566ea2	-0.2094064
30	0x3c4421ae	0.0119709205
31	0x3d726c6e	0.059185438
32	0x3e061cb2	0.13096884
33	0x3e0a8d9d	0.13530584
34	0x3db9c273	0.09070291
35	0x3da597a8	0.08085567
36	0xbb77a4a0	-0.0037787333
37	0xbd68349f	-0.05669081
38	0xbe2f442d	-0.17115851
39	0xbe44ca82	-0.19217876
40	0xbe080787	-0.13284121
41	0xbe0a0353	-0.1347783
42	0x3e2cceb5	0.16875727
43	0x3e2f1367	0.17097245
44	0x3b5847ee	0.0033001858
45	0x3da73cb1	0.08165873
46	0xbd79892c	-0.060921833
47	0x3cbb84cb	0.022890469
48	0x3e188d26	0.14897594
49	0x3d14c84b	0.036323827
50	0xbd7a1658	-0.061056465
51	0x3d78abe4	0.060710803
52	0xbda76868	-0.08174211
53	0x3d671a63	0.05642165
54	0x3e2c4ce0	0.168262
55	0x3e569081	0.20953561
56	0x3e0f8891	0.1401694
57	0x3d5f446d	0.054508615
58	0x3b805867	0.0039167884
59	0xbd832841	-0.06404162
60	0xbcf3a1c3	-0.02974022
61	0x3d846363	0.06464269
62	0x3e60ac3b	0.219407
63	0x3d9097bb	0.0706019
64	0x3e689653	0.22713594
65	0x3d0c1e5b	0.034208637
66	0x3c6d88b8	0.014497928
67	0x3de1430a	0.10999115
68	0x3dd7ef8a	0.10543735
69	0xbc599f04	-0.013282541
70	0xbe3568fe	-0.17715833
71	0xbde3219d	-0.110903956
72	0x3b727cf8	0.0037000757
73	0xbde8a986	-0.11360459
74	0xbe20d6d2	-0.15706947
75	0x3ca6072c	0.020267092
76	0xbe05c5fa	-0.13063803
77	0xbe32edeb	-0.17473571
78	0x3db50b40	0.088400364
79	0x3a6514d5	0.0008738761
80	0x3e1db89f	0.15402459
81	0x3d34d99d	0.044152845
82	0x3e3ee992	0.18643788
83	0x3cc357ce	0.02384558
84	0xbd16afa6	-0.036788605
85	0xbdb3e16d	-0.08783231
86	0xbe2a4fba	-0.16631976
87	0xbdecc974	-0.11561862
88	0x3c3a12dd	0.011357036
89	0xbc933fd7	-0.017974777
90	0xbcd7c62f	-0.026339618
91	0x3df3d7ed	0.11906419
92	0x3d2bdabc	0.04195665
93	0x3e40870b	0.18801515
94	0x3e443918	0.19162405
95	0x3e2d6e71	0.16936661
96	0x3e2280e9	0.15869488
97	0xbd64517d	-0.055741776
98	0xbda6e0c9	-0.08148343
99	0xbdcd60ef	-0.10028254
100	0xbd51e8fd	-0.051247586
101	0xbe3476dc	-0.17623466
102	0x3e029547	0.12752257
103	0x3d701d85	0.058621902
104	0x3e6bafe8	0.23016322
105	0x3e34a640	0.17641544
106	0x3e3c6d53	0.18401079
107	0x3d3af5bc	0.045644507
108	0x3e4aaad3	0.19791727
109	0x3ae10670	0.0017168056
110	0x3ccc9da1	0.024977507
111	0x3df7285a	0.12068243
112	0x3d5c11f1	0.053728048
113	0x3d1d03ec	0.03833382
114	0x3db89dce	0.09014474
115	0x3e1999a9	0.15000023
116	0x3d81a2f3	0.06329908
117	0xbe016b6c	-0.12638634
118	0x3ccbecf1	0.024893256
119	0x3cb86ff9	0.02251433
120	0xbd982ffa	-0.07431026
121	0xbda509f0	-0.08058536
122	0xbe2ce43b	-0.16883938
123	0xbe2ba24b	-0.16761129
124	0xbe0c449f	-0.13698052
125	0xbccdb1bd	-0.025109166
126	0x3e5b92bc	0.21442693
127	0x3dfa3054	0.12216249
128	0x3e4f66b1	0.20254017
129	0x3e375ff8	0.17907703
130	0x3cd1b4f1	0.025598975
131	0x3cbb47b5	0.022861341
132	0xbe354338	-0.17701423
133	0xbde86cbb	-0.11348864
134	0xbdd75cef	-0.105157726
135	0xbc4119da	-0.011785949
136	0xbbe63c84	-0.007026257
137	0xba0632b9	-0.00051192526
138	0x3dad1ed9	0.08453149
139	0x3d0adeb6	0.0339038
140	0x3e071d31	0.1319473
141	0xbcdee03a	-0.027206529
142	0x3e374bbc	0.17899984
143	0x3da35341	0.07974864
144	0xbdb2db30	-0.08733213
145	0x3d875c0b	0.06609353
146	0xbe1b5907	-0.1517068
147	0x3c491c22	0.012274774
148	0xbda35885	-0.07975868
149	0xbd8d318a	-0.068942145
150	0xbda90706	-0.08253293
151	0xbc5383f2	-0.012909876
152	0x3d454f98	0.04817161
153	0x3d8c7113	0.06857505
154	0xbe312ff4	-0.17303449
155	0x3d2ab436	0.04167577
156	0xbd5d85a2	-0.05408252
157	0x3bfec899	0.007775378
158	0xbdceaf6e	-0.10092054
159	0x3d3484cc	0.044071957
160	0xbe4a6807	-0.19766246
161	0xbe0fff27	-0.14062177
162	0xbdf2c54f	-0.1185404
163	0xbe350662	-0.17678216
164	0x3d979ed7	0.07403343
165	0x3d278fc0	0.040908575
166	0x3d8778cf	0.06614839
167	0x3cc42324	0.023942538
168	0x3da256b3	0.07926693
169	0x3d8c35b5	0.06846181
170	0x3d835d7f	0.06414317
171	0xbc22ee1c	-0.009944465
172	0x3e002f86	0.12518129
173	0x3e0677b9	0.13131608
174	0x3cf36ee9	0.029715972
175	0x3d2d420b	0.04229931
176	0xbe292207	-0.16516887
177	0xbd4f2f0e	-0.050581984
178	0xbe4be5b0	-0.19911838
179	0x3d26e12f	0.040742096
180	0x3e44d5f4	0.19222242
181	0xbccd7381	-0.02507949
182	0x3d93b376	0.07211964
183	0x3c3fc4c2	0.011704626
184	0x3e27cd39	0.1638688
185	0x3e2f56bd	0.17122932
186	0xbe252f1f	-0.16131257
187	0xbe113815	-0.1418155
188	0x3db15cf2	0.08660306
189	0x3de06ae3	0.10957887
190	0xbe1c77ae	-0.15280029
191	0x3daa5141	0.08316279
192	0x3cd34713	0.025790727
193	0x3e43cacf	0.19120334
194	0xbd373628	-0.04472938
195	0xbe17c8da	-0.14822713
196	0xbddba977	-0.10725682
197	0xbdda0c66	-0.10646896
198	0xbdc144d9	-0.0943696
199	0xbc86ed4a	-0.01647057
200	0xbdc2573e	-0.094892964
201	0xbd8961ba	-0.06708093
202	0x3e2c3c01	0.16819765
203	0xbd9ca8b8	-0.07649368
204	0x3d4785bb	0.04871152
205	0x3ccc2a24	0.024922438
206	0x3d07bed6	0.03314098
207	0xbcf5086c	-0.029911242
208	0x3abc9c98	0.001438993
209	0xbd6e5799	-0.05818901
210	0xbd9a3acd	-0.075307466
211	0xbd8e47ca	-0.069472864
212	0xbc8acf05	-0.016944418
213	0xbd998176	-0.07495396
214	0xbd78385e	-0.06060063
215	0xbd7657fa	-0.060142495
216	0xbe1c22b0	-0.15247607
217	0x3d2d3bc5	0.04229333
218	0x3d4bdd8a	0.049771823
219	0xbe1134bd	-0.14180274
220	0x3d89eb38	0.067343175
221	0x3cdbc378	0.026826605
222	0x3d09db55	0.033656437
223	0xbd9bb57e	-0.07602976
224	0x3df04c81	0.11733342
225	0x3c02f870	0.007993802
226	0xbce152d7	-0.027505321
227	0x3e0ad23b	0.13556759
228	0x3de02f36	0.10946505
229	0xbe0dffaa	-0.1386706
230	0x3bfd07cf	0.007721878
231	0xbd043840	-0.032280207
232	0xbcaabcb2	-0.02084193
233	0xbe2db824	-0.16964775
234	0x3d8fa6cd	0.070142366
235	0xbd748b4d	-0.05970316
236	0x3df8d955	0.12150828
237	0x3d9a17ac	0.07524046
238	0xbd6dc8cb	-0.05805282
239	0x3df495c3	0.11942627
240	0x3c16cb5e	0.00920376
241	0x3c850b2b	0.016240677
242	0xbd20c842	-0.03925348
243	0x3dd5e65e	0.1044433
244	0x3e134d96	0.14385065
245	0xbd840c65	-0.064476766
246	0x3db9d68c	0.09074125
247	0xbdb54330	-0.088507056
248	0x3d25049b	0.040287595
249	0x3c771f13	0.015083092
250	0xbaedb19f	-0.00181346
251	0xbd9aa71c	-0.07551405
252	0xbd3fb281	-0.046801094
253	0xbdd841f5	-0.10559455
254	0x3c830ea7	0.015998198
255	0xbe34d7c8	-0.17660439

foundation_model.down_path.2.block.2.bias f4 [16]
0	0x3e278bd2	0.16361931
1	0x3de7e1f3	0.11322393
2	0x3dc6f1df	0.09714102
3	0x3c865bc4	0.01640118
4	0x3e33cb03	0.17557912
5	0xbdde25a3	-0.108470224
6	0xbbe45769	-0.006968428
7	0x3d3316e1	0.04372299
8	0x3e2033e4	0.15644795
9	0x3e1f70c5	0.15570362
10	0xbe25cfc8	-0.16192544
11	0x3e36edac	0.17864102
12	0x3cf2dd08	0.029646412
13	0x3c296bc6	0.010340637
14	0x3ca64020	0.020294249
15	0x3e0acbfc	0.13554376

foundation_model.up_path.0.up.weight f4 [16, 8, 2]
0	0x3e5adf00	0.2137413
1	0x3d8f8f44	0.070097476
2	0xbd462c08	-0.048381835
3	0x3e3d60f2	0.18494013
4	0xbc896de0	-0.016776025
5	0x3de8f3a8	0.11374599
6	0xbe4b7ada	-0.19871083
7	0x3e03aa52	0.12857941
8	0x3d436418	0.04770288
9	0xbbebc880	-0.0071955323
10	0x3da5d3a8	0.08097011
11	0xbe1eb730	-0.15499568
12	0xbe3811ec	-0.17975587
13	0xbe3ae9cc	-0.18253249
14	0xbe3ec3d8	-0.18629396
15	0x3e119b70	0.14219451
16	0xbe0149f8	-0.12625873
17	0x3d2e32d0	0.042528927
18	0xbe7aed98	-0.24504697
19	0x3e5ce140	0.21570301
20	0x3c3443a0	0.011002451
21	0x3d16a190	0.03677517
22	0xbe78bb82	-0.24290279
23	0x3d1be7e0	0.03806293
24	0xbdce72f8	-0.10080522
25	0x3e7c3c2c	0.24632329
26	0xbe216aba	-0.15763369
27	0xbd6263f0	-0.05527109
28	0xbd02eba8	-0.03196302
29	0xbe1dee20	-0.15422869
30	0x3e6a7d6c	0.22899407
31	0x3e6b2b8a	0.22965828
32	0x3e25a30c	0.16175479
33	0xbd6437f0	-0.05571741
34	0x3d926440	0.071480274
35	0xbe009a7c	-0.12558931
36	0xbe02ee96	-0.12786326
37	0xbd2ada70	-0.041712224
38	0x3dc6c24c	0.09705028
39	0xbdabbe30	-0.08385885
40	0x3d5fa3b0	0.054599464
41	0x3d987434	0.07444039
42	0x3e524c08	0.20536816
43	0x3e5739d0	0.21018147
44	0xbd24e5d0	-0.04025823
45	0xbe7b56a8	-0.24544775
46	0x3d5a0788	0.05322984
47	0x3e454acc	0.19266814
48	0xbe60c458	-0.21949899
49	0xbe066bb2	-0.1312702
50	0x3e59b96a	0.21262136
51	0x3e063eec	0.1310994
52	0x393bd000	0.00017911196
53	0x3e5c3b34	0.21506959
54	0xbdd44b08	-0.103658736
55	0x3e27d7b0	0.16390872
56	0x3dd071d8	0.10177964
57	0xbc844990	-0.016148359
58	0xbdc9dcd0	-0.0985657
59	0x3e58c3bc	0.21168417
60	0x3e571786	0.21005067
61	0x3e6ebdba	0.23314562
62	0x3e5b3d6c	0.2141015
63	0xbe5150e6	-0.20441017
64	0xbe46ab7a	-0.1940135
65	0x3e0d9692	0.1382697
66	0xbd3ed7b0	-0.046592414
67	0x3e1e2794	0.15444785
68	0x3e218896	0.1577476
69	0x3e3a81c2	0.18213561
70	0xbe70fd40	-0.23534107
71	0xbd9de0d0	-0.07708895
72	0x3e5c2d62	0.21501687
73	0x3e68bfec	0.22729462
74	0x3c4a5380	0.0123490095
75	0x3b60af00	0.0034283996
76	0xbe4eac02	-0.20182803
77	0x3e4f3c26	0.20237789
78	0x3d896230	0.06708181
79	0xbe4b38ee	-0.19845936
80	0x3e5780b0	0.21045184
81	0xbe5f6a94	-0.21818
82	0x3db038e4	0.08604601
83	0xbe7a418a	-0.24439064
84	0x3e0033d4	0.12519771
85	0x3dc255a8	0.09488994
86	0x3e5d1fd6	0.21594176
87	0xbe1e2772	-0.15444735
88	0x3e100fee	0.14068577
89	0xbe5cae3a	-0.21550837
90	0xbd65f9a8	-0.056146294
91	0x3e64867e	0.2231693
92	0x3d619f50	0.055083573
93	0xbe158f18	-0.14605367
94	0xbdeb2c70	-0.11483085
95	0x3e788cf0	0.24272513
96	0xbe7962f2	-0.24354151
97	0xbe5a7226	-0.21332607
98	0x3d186238	0.037203044
99	0xbced5830	-0.028972715
100	0x3df721bc	0.12066981
101	0xbd560640	-0.052252054
102	0xbe36e50a	-0.17860809
103	0x3dd02d0c	0.10164842
104	0x3e008e38	0.12554252
105	0x3c970620	0.018435538
106	0xbe0c9a24	-0.13730675
107	0xbe3fc1ac	-0.18726224
108	0xbe0dc590	-0.13844895
109	0x3ce2a2e0	0.027665555
110	0xbcc16090	-0.023605615
111	0xbe2fa118	-0.17151296
112	0xbd396f30	-0.045272052
113	0xbdcb7b10	-0.09935582
114	0xbd0ca420	-0.03433621
115	0x3dc38174	0.095461756
116	0x3cdc6dc0	0.026907802
117	0x3e742f9c	0.23846287
118	0x3e7d57ec	0.24740571
119	0xbe1481e8	-0.1450268
120	0xbda27c8c	-0.07933912
121	0x3df1b4a0	0.118020296
122	0xbdcdd920	-0.10051179
123	0xbe74431e	-0.23853728
124	0x3c08a820	0.008340865
125	0x3e662a3a	0.22477046
126	0x3d293158	0.041306823
127	0x3e520438	0.20509422
128	0x3e6852a0	0.22687769
129	0xbe61cfb8	-0.22051895
130	0x3d88f6d8	0.06687707
131	0x3e181b62	0.14854196
132	0x3e27e8f2	0.16397455
133	0x3d0c4e70	0.03425449
134	0x3ce6b830	0.028164
135	0x3e3c15d2	0.18367699
136	0x3e22e814	0.15908843
137	0x3e2c01a6	0.16797504
138	0xbd34bc70	-0.04412502
139	0x3d0e6eb8	0.03477356
140	0x3d83d780	0.06437588
141	0xbe43b770	-0.19112945
142	0x3e61ee6a	0.22063604
143	0xbe29a66a	-0.16567388
144	0xbd967de8	-0.073482335
145	0x3d921af0	0.07134044
146	0xbda995d0	-0.082805276
147	0xbdd57060	-0.104218245
148	0x3e425598	0.18977964
149	0x3d017188	0.031602412
150	0x3d634ab8	0.05549118
151	0xbd97d578	-0.07413763
152	0x3e6874f8	0.2270087
153	0x3e43e316	0.19129595
154	0xbe4c8466	-0.19972381
155	0xbe6984b0	-0.22804523
156	0xbe5b3c26	-0.21409664
157	0x3e4e4a0e	0.20145437
158	0x3e215182	0.15753749
159	0x3e0fd944	0.14047724
160	0xbe2ad790	-0.16683793
161	0x3d8db308	0.06918913
162	0x3e564c18	0.20927465
163	0x3e518e82	0.20464519
164	0x3e6e9164	0.2329765
165	0x3dd91c68	0.10601121
166	0x3d3ded68	0.046368986
167	0xbe58b4fe	-0.21162793
168	0x3dd56f04	0.10421565
169	0x3e0f0d30	0.13969874
170	0x3e22c65e	0.15895984
171	0xbd4df030	-0.05027789
172	0xbe425cf6	-0.18980774
173	0xbd49d4a0	-0.04927504
174	0xbc6de580	-0.014520049
175	0x3d43acf0	0.047772348
176	0xbe35f240	-0.17768192
177	0x3cb13190	0.021630079
178	0xbe713608	-0.23555768
179	0xbe2ccd88	-0.16875279
180	0xbd510de0	-0.051038623
181	0xbe00e82e	-0.1258857
182	0xbe5c22aa	-0.21497598
183	0xbdc50314	-0.09619728
184	0x3d84e868	0.064896405
185	0x3db6dc88	0.08928782
186	0x3b5a6e80	0.0033330023
187	0x3c93b690	0.018031389
188	0xbe674104	-0.22583395
189	0xbc85b5f0	-0.016322106
190	0xbc9ef8a0	-0.019405663
191	0x3e67322a	0.2257773
192	0xbd270f48	-0.040786058
193	0xbdd5a020	-0.10430932
194	0x3d9444e4	0.07239702
195	0xbc601de0	-0.013678998
196	0x3e19a49a	0.15004197
197	0x3e6cffe8	0.23144495
198	0x3e050c5e	0.12992999
199	0xbe16f9ac	-0.1474368
200	0xbdb7d9d8	-0.08977097
201	0x3e01e166	0.12683639
202	0xbd2b7af8	-0.04186532
203	0xbdc3e484	-0.0956507
204	0x3e2794ae	0.1636531
205	0xbe66efec	-0.2255246
206	0xbe7a6388	-0.2445203
207	0x3dc45878	0.095871866
208	0x3e71ad94	0.23601371
209	0x3d31bfe0	0.043395877
210	0xbe2cdd04	-0.16881186
211	0xbe38a6f8	-0.18032444
212	0xbb07e200	-0.0020734072
213	0x3e22fee2	0.15917543
214	0x3e2fecf2	0.17180231
215	0xbdcaae0c	-0.09896478
216	0xbdaa4dd8	-0.08315629
217	0x3ded6450	0.11591399
218	0x3e755db4	0.23961526
219	0x3dd86000	0.105651855
220	0xbe1f75b0	-0.15572238
221	0x3cb0cf40	0.0215832
222	0xbc9ffc40	-0.019529462
223	0x3c4843c0	0.012223184
224	0x3d47b290	0.048754275
225	0x3e5f5670	0.21810317
226	0x3e3d26ee	0.18471882
227	0xbe5f21e4	-0.21790272
228	0x3e61c4de	0.22047755
229	0x3db06870	0.0861367
230	0xbe7dd27a	-0.24787322
231	0x3e632db0	0.22185397
232	0x3dd4cf18	0.103910625
233	0xbe6ea848	-0.23306382
234	0xbdc33f54	-0.09533563
235	0x3dd709dc	0.104999274
236	0x3dfa151c	0.122110575
237	0xbe596396	-0.21229395
238	0xbde5a0d0	-0.11212313
239	0x3d909964	0.07060507
240	0x3e0cd1d4	0.13751918
241	0xbe77c7fc	-0.24197382
242	0x3e5cb20a	0.21552292
243	0xbcb21ed0	-0.021743208
244	0xbca32870	-0.019916743
245	0x3de7d900	0.11320686
246	0x3e455f80	0.19274712
247	0x3e56216e	0.2091119
248	0x3e03a2aa	0.1285502
249	0xbe626626	-0.22109279
250	0xbcb43690	-0.021998674
251	0xbdc84c88	-0.09780222
252	0x3e3b9f20	0.1832242
253	0x3e7e3d54	0.24828082
254	0xbe1db7d4	-0.15402156
255	0x3c7a73e0	0.015286416

foundation_model.up_path.0.up.bias f4 [8]
0	0xbdacc9f4	-0.08436957
1	0xbe190f18	-0.14947164
2	0x3de74010	0.11291516
3	0xbd5d27f8	-0.053993195
4	0x3e6ac7b2	0.2292774
5	0xbe50825e	-0.20362231
6	0x3da6bf00	0.08141899
7	0x3e128f82	0.14312556

foundation_model.up_path.0.conv_block.block.0.weight f4 [8, 16, 3]
0	0x3d8ba4e8	0.06818563
1	0x3e004104	0.12524801
2	0x3bdafb8e	0.0066828197
3	0xbc7bc582	-0.015366914
4	0x3ca96a1e	0.020680483
5	0x3d90a80c	0.070633024
6	0x3d7727ec	0.060340807
7	0xbcc6526a	-0.02420922
8	0x3d2012a9	0.039080296
9	0xbc3df48d	-0.01159395
10	0x3da5ce5c	0.080960006
11	0x3c9b57b5	0.01896272
12	0xbde55452	-0.111977234
13	0x3cef4345	0.029206881
14	0xbdc61645	-0.09672216
15	0xbd6c2535	-0.05765267
16	0x3dbfb162	0.09360005
17	0x3dd96d69	0.106165715
18	0x3e07ef4f	0.13274883
19	0xbdd1d5bc	-0.10245845
20	0xbe08bc2c	-0.13353032
21	0xbca2d67e	-0.019877668
22	0x3cfefdbf	0.031126855
23	0x3d8e82b8	0.069585264
24	0xbca50d7d	-0.020148033
25	0x3de5693e	0.11201714
26	0x3ddd6117	0.10809534
27	0x3d993ce2	0.074823156
28	0xbe13a463	-0.14418177
29	0xbdfe540d	-0.12418375
30	0xbd5037a5	-0.050834317
31	0xbdb3c492	-0.08777727
32	0x3daf6bbd	0.08565471
33	0x3d2cd96c	0.042199537
34	0xbdaee457	-0.08539646
35	0x3e066746	0.13125333
36	0x3e13b8bd	0.14425941
37	0xbe1257bd	-0.14291282
38	0x3ce44c31	0.027868362
39	0x3d49a96f	0.04923385
40	0x3de85da0	0.113459826
41	0xbe13998e	-0.14414045
42	0x3d74c56e	0.059758596
43	0xbcea116a	-0.028572757
44	0x3d7f9e12	0.062406607
45	0x3a1d1ffe	0.0005993842
46	0xbdf3a2da	-0.11896296
47	0x3d6000bd	0.054688204
48	0xbbf7b51f	-0.007559433
49	0xbdddacf5	-0.108240046
50	0x3d013c9b	0.03155194
51	0xbccbf38d	-0.024896407
52	0xbca6af0e	-0.020347144
53	0x3dbfc988	0.09364611
54	0xbd7ad616	-0.061239325
55	0x3c262630	0.010140941
56	0xbcf490d6	-0.02985422
57	0x3bd36d94	0.0064522717
58	0x3d650d19	0.055920694
59	0x3d108672	0.035284467
60	0xbc01a9ac	-0.007913988
61	0x3d5b36fd	0.053519238
62	0xbdcc7f09	-0.099851675
63	0x3d40c639	0.04706404
64	0x3c598954	0.0132773705
65	0xbd90eff0	-0.070770144
66	0x3c8f5fa3	0.017501658
67	0xbd9fcdbe	-0.07802914
68	0xbdc05b42	-0.09392406
69	0xbd975df4	-0.07390967
70	0x3d8aa4ea	0.06769736
71	0x3dd03531	0.101663955
72	0xbb0a6b73	-0.0021121174
73	0xbd2835d0	-0.041066945
74	0x3ced10ad	0.028938616
75	0xbe0be43a	-0.1366128
76	0xbc44c290	-0.012009278
77	0xbbc0d9f1	-0.0058853556
78	0xbd71058c	-0.05884318
79	0xbdfeda54	-0.124439865
80	0x3e1388a7	0.14407597
81	0xbdf5e8ad	-0.1200727
82	0x3b94e68a	0.004544084
83	0x3da8afe5	0.08236674
84	0xbdef4340	-0.11682749
85	0x3daef7d6	0.08543365
86	0xbdd11282	-0.10208608
87	0xbdd18ad2	-0.10231556
88	0x3da4c5b5	0.08045522
89	0xbde42acc	-0.11140975
90	0xbdbc79ee	-0.09202944
91	0xbde7e3f3	-0.11322775
92	0x3dff068f	0.12452423
93	0x3d9c0b8f	0.07619392
94	0x3c63947d	0.013890383
95	0xbc65872c	-0.014009278
96	0x3ddacf17	0.106840305
97	0x3dc993aa	0.09842618
98	0x3d4e20f7	0.050324406
99	0xbdb151ee	-0.08658205
100	0x3d90fe43	0.070797466
101	0xbdb0a6e1	-0.086255796
102	0xbda7e9c4	-0.08198884
103	0xbdad168d	-0.08451567
104	0xbdee468d	-0.1163455
105	0x3dea02d4	0.11426321
106	0xbb6661c6	-0.0035153492
107	0x3d9a4efe	0.07534598
108	0xbdef47b1	-0.11683596
109	0xbc7e5a6e	-0.01552449
110	0x3e04d718	0.12972677
111	0xbb77d7e8	-0.00378179
112	0xba76694a	-0.00093998446
113	0xbc79cea2	-0.015247019
114	0xbdc01f4c	-0.093809694
115	0x3d8ef60b	0.06980523
116	0xbdcd319c	-0.10019228
117	0x3d6e7bd0	0.058223546
118	0xbd119f2a	-0.03555218
119	0x3e10c4c8	0.14137566
120	0x3ddbd031	0.10733069
121	0xbdf7b227	-0.12094527
122	0xba83621e	-0.0010023748
123	0x3e0aba0c	0.13547534
124	0x3c68acde	0.014201371
125	0x3da29cfc	0.07940099
126	0x3d97ae32	0.07406272
127	0xbde78bc2	-0.113059536
128	0xbd027fde	-0.031860225
129	0x3e126dcc	0.14299697
130	0xbca74e55	-0.020423094
131	0x3df9ee0c	0.12203607
132	0x3d2f2d4d	0.04276781
133	0xbd993435	-0.07480661
134	0x3db3a447	0.08771568
135	0xbb8b708e	-0.004255361
136	0x3bbc449f	0.005745485
137	0xbd8380d1	-0.06421054
138	0x3ddc5295	0.10757939
139	0x3d704d1a	0.05866728
140	0xbd81147f	-0.063027374
141	0xbdcca6b8	-0.099927366
142	0x3d656603	0.05600549
143	0xbc40d111	-0.011768595
144	0xbd9dac48	-0.07698876
145	0xbdf4e800	-0.11958313
146	0x3da02764	0.07820013
147	0x3da2aabe	0.07942723
148	0x3cb4705a	0.02202623
149	0x3d95a734	0.07307282
150	0x3cf97b7f	0.030454395
151	0xbdfdf019	-0.123993106
152	0x3df463ec	0.11933121
153	0x3da57418	0.08078784
154	0xbdc40f75	-0.09573261
155	0x3e0789a3	0.13236098
156	0x3d2bfee5	0.041991133
157	0x3dfd278f	0.12361061
158	0x3d18266e	0.037146024
159	0x3c581ffb	0.0131912185
160	0x3db516e4	0.08842257
161	0xbd6bc600	-0.057561874
162	0xbca4a9f7	-0.020100577
163	0xbdbd31c7	-0.0923801
164	0x3d3c0055	0.045898754
165	0xbd9c2375	-0.076239504
166	0x3d957dc5	0.07299379
167	0xbd75843e	-0.05994057
168	0x3d0f91a1	0.035050992
169	0xbe0b52d6	-0.13605818
170	0x3d3d4967	0.04621258
171	0xbdf5104c	-0.11965999
172	0x3d5c61d6	0.05380424
173	0xbdd216a1	-0.10258222
174	0xbbb170c3	-0.0054150536
175	0xbdd5fae5	-0.10448245
176	0x3dd351a6	0.103183076
177	0x3d603e9b	0.054747205
178	0x3d7f0471	0.062260095
179	0xbe0695cd	-0.13143082
180	0x3e05b0ab	0.13055675
181	0x3c2b8943	0.010469737
182	0xbc5eda81	-0.0136019
183	0x3db0fcb5	0.0864195
184	0x3d5a27b9	0.05326054
185	0xbe136094	-0.1439231
186	0xbd9ba9ec	-0.076007694
187	0xbda0500b	-0.07827767
188	0x3cbcf656	0.02306668
189	0xbdf27266	-0.11838226
190	0xbdb27346	-0.08713393
191	0x3d84105e	0.06448434
192	0x3db77442	0.08957721
193	0xbdba0d85	-0.0908461
194	0x3df3b592	0.11899866
195	0x3dc3f154	0.09567514
196	0x3d8872b8	0.06662506
197	0xbdebfb33	-0.11522522
198	0x3d01faa9	0.03173319
199	0x3d2b7483	0.04185916
200	0x3d0475a4	0.032338753
201	0x3d97edae	0.07418381
202	0x3e12c650	0.14333463
203	0xbe0d1692	-0.13778141
204	0x3d92fce7	0.071771435
205	0xbaa44b64	-0.0012534675
206	0x3d807ceb	0.06273826
207	0x3d91344f	0.07090055
208	0xbd696b7b	-0.056987267
209	0x3d70912d	0.0587322
210	0x3cee7d46	0.02911247
211	0x3d7d3547	0.061818387
212	0xbdedaf81	-0.1160574
213	0x3d4e1775	0.05031534
214	0x3ca4bf8b	0.020110866
215	0x3cb29e11	0.021803888
216	0x3d730c71	0.059338037
217	0x3d6f2c1a	0.058391668
218	0xbd367289	-0.044542823
219	0xbdfd15cc	-0.12357673
220	0xbddcd04f	-0.10781919
221	0x3d91f9cc	0.07127723
222	0xbd55830c	-0.05212693
223	0xbc4ce5c9	-0.012505957
224	0xbda1246a	-0.078682736
225	0xbcbbcf47	-0.022925986
226	0x3dd7fd0f	0.10546314
227	0x3bc052fd	0.005869268
228	0x3dd5a662	0.10432126
229	0x3c6fd258	0.014637552
230	0x3df3e486	0.11908822
231	0x3dfc1664	0.12308958
232	0x3df7c20f	0.120975606
233	0x3d8cd20c	0.06876001
234	0xbcfac4e9	-0.030611472
235	0xbdcabd1c	-0.09899351
236	0xbc0ace77	-0.008472077
237	0x3d9d8589	0.076914854
238	0xbd47ae6e	-0.048750333
239	0xbe01129c	-0.12604755
240	0x3d2c692f	0.0420925
241	0x3dfe23ec	0.12409195
242	0x3bb41a78	0.0054963194
243	0xbd07d8d2	-0.03316576
244	0x3decf3bf	0.115699284
245	0x3e10944f	0.14119075
246	0xbd11b0c1	-0.035568956
247	0x3dba1242	0.09085514
248	0xbd0d3410	-0.03447348
249	0xbdaa8ff9	-0.08328242
250	0x3d4ae2a1	0.049532536
251	0xbdb84890	-0.08998215
252	0x3d2a559b	0.041585546
253	0x3aa6b11d	0.0012717579
254	0x3d56b231	0.05241603
255	0x3c202b45	0.009775941

foundation_model.up_path.0.conv_block.block.0.bias f4 [8]
0	0xbdbf972f	-0.09355008
1	0x3d5b4660	0.05353391
2	0x3dc229ef	0.094806544
3	0x3dfdcc5f	0.12392496
4	0xbc27d85b	-0.010244454
5	0x3dbbe7d0	0.09175074
6	0x3dd70afb	0.10500141
7	0xbda665b0	-0.08124864

foundation_model.up_path.0.conv_block.block.2.weight f4 [8, 8, 3]
0	0x3e085d2f	0.13316797
1	0xbe14d62a	-0.14534822
2	0x3df05a44	0.11735967
3	0x3e24011c	0.16016048
4	0xbdd12181	-0.102114685
5	0xbe0e756f	-0.13911985
6	0x3d9a4721	0.07533098
7	0x3e19d9cb	0.15024488
8	0xbd80ec94	-0.06295124
9	0xbd218aea	-0.03943912
10	0x3d171326	0.036883496
11	0x3e242653	0.16030245
12	0x3c387fc7	0.011260933
13	0xbe0faaed	-0.14030047
14	0xbe2118fd	-0.15732189
15	0xbe14b0eb	-0.14520614
16	0xbe4f6894	-0.20254737
17	0x3e11df24	0.14245278
18	0xbdb083ef	-0.08618914
19	0xbe0a0358	-0.13477838
20	0xbdce76e0	-0.10081267
21	0x3dcf4481	0.10120488
22	0xbdb83a6d	-0.08995519
23	0x3dcfd773	0.101485156
24	0x3e32174f	0.17391704
25	0x3e07aa57	0.13248573
26	0x3e3d6eba	0.1849927
27	0x3d872d69	0.06600458
28	0xbdba740f	-0.09104168
29	0x3c8184f5	0.01581047
30	0x3e4cc054	0.19995242
31	0x3d04c28b	0.032412093
32	0x3e226a7b	0.15860932
33	0x3d375bb4	0.04476519
34	0x3e1ab69e	0.15108725
35	0x3ce6cb13	0.028173005
36	0xbc4eab59	-0.012614095
37	0x3e14fe39	0.14550103
38	0x3de9f25f	0.11423182
39	0xbe01b9e5	-0.1266857
40	0x3e419d7a	0.18907729
41	0x3e3d135c	0.18464416
42	0x3da0d872	0.07853784
43	0x3de2d36a	0.1107548
44	0xbe4d60a4	-0.20056397
45	0xbd7ad26b	-0.061235826
46	0x3e253ad3	0.16135721
47	0xbe3e8fa5	-0.18609484
48	0xbdc82f69	-0.09774668
49	0x3da1fe4c	0.079098314
50	0x3e3d6ffb	0.18499748
51	0x3cf448da	0.029819895
52	0x3dba233d	0.090887524
53	0xbe11c1e0	-0.14234114
54	0xbb5d848c	-0.0033800928
55	0xbd6264b1	-0.055271808
56	0x3e220557	0.1582235
57	0x3c99cf72	0.018775675
58	0xbdbd7ea4	-0.092526704
59	0x3e482584	0.19545561
60	0xbd2295dc	-0.0396937
61	0x3e02c2ef	0.12769674
62	0xbe02c058	-0.12768686
63	0x3da34710	0.079725385
64	0x3c5a195d	0.013311711
65	0x3e47ec37	0.19523703
66	0x3e2d6e1d	0.16936536
67	0xbe193244	-0.14960581
68	0xbe3dc499	-0.18532027
69	0x3d85b14e	0.06527959
70	0xbe41aed7	-0.18914352
71	0x3d496eb6	0.049177848
72	0x3d8c50fd	0.06851385
73	0xbd9e2d0d	-0.077234365
74	0xbdd0706d	-0.101776935
75	0x3e084c4b	0.13310353
76	0xbe101234	-0.14069444
77	0xbd224f5c	-0.039626464
78	0x3d37ee23	0.04490484
79	0x3e1e3841	0.15451147
80	0xbe3f83a9	-0.18702568
81	0x3d44da60	0.04805982
82	0x3d073d99	0.03301773
83	0xbd233837	-0.039848533
84	0xbd99f325	-0.07517079
85	0xbdacfd2b	-0.084467255
86	0xbe359398	-0.17732084
87	0xbe042f7c	-0.12908739
88	0xbe4e3e3b	-0.20140927
89	0x3dd92e2a	0.10604508
90	0x3d8e5511	0.06949819
91	0xbe2cfa68	-0.16892397
92	0x3e4518a4	0.19247681
93	0xbe0b8868	-0.13626254
94	0x3db5351d	0.08848021
95	0xbba00616	-0.004883538
96	0xbe0eb352	-0.13935593
97	0x3e3e26a3	0.18569426
98	0x3db4b399	0.08823318
99	0xbc752718	-0.014962934
100	0xbdc74af8	-0.09731096
101	0x3d9b60a7	0.07586794
102	0xbdd9b810	-0.1063081
103	0xbdd13b60	-0.10216403
104	0x3d69671f	0.05698311
105	0xbe48ddb8	-0.19615829
106	0x3d21c29e	0.039492242
107	0xbd9b462e	-0.07581745
108	0xbd1937c8	-0.037406713
109	0x3dc80c74	0.09768
110	0x3e4f6413	0.20253019
111	0xbe3a2b3a	-0.18180552
112	0xbb2b3a70	-0.002612736
113	0xbd05aa88	-0.032633334
114	0xbd39e976	-0.04538866
115	0xbca6a2d6	-0.020341318
116	0xbce3baa0	-0.02779895
117	0x3dac7761	0.08421207
118	0xbb8ed2ec	-0.00435864
119	0xbe18f1e2	-0.14936021
120	0x3dae360a	0.08506401
121	0xbd91d822	-0.07121302
122	0xbe211079	-0.1572894
123	0xbdc0faa7	-0.09422808
124	0x3d9a1d6c	0.07525143
125	0x3e4e220e	0.20130178
126	0xbe0299b8	-0.12753952
127	0x3d80a226	0.06280927
128	0xbe0b3936	-0.13596043
129	0x3c955ff5	0.018234232
130	0x3d24b92b	0.040215652
131	0x3e29151d	0.1651196
132	0x3dd3a077	0.103333406
133	0xbdf6be73	-0.12048044
134	0xbdb7e63a	-0.08979459
135	0x3ddc16ab	0.10746511
136	0xbe0c3f29	-0.13695969
137	0x3e4df306	0.20112237
138	0xbc17c376	-0.00926291
139	0xbd857fa0	-0.06518483
140	0x3d838a1b	0.06422826
141	0x3cda582f	0.026653377
142	0xbe2fd279	-0.17170133
143	0x3e3d7a5c	0.18503708
144	0xbde4d705	-0.11173824
145	0xbdea1d1c	-0.114313334
146	0x3dd58e92	0.10427584
147	0x3d9863e4	0.074409276
148	0xbe220176	-0.1582087
149	0xbbedd0d8	-0.007257562
150	0xbd806b6b	-0.06270488
151	0xbe413ea8	-0.18871558
152	0xbdad7acb	-0.084706865
153	0x3d8c9c4d	0.068657495
154	0x3c6a7476	0.014309993
155	0x3d745ee6	0.059660815
156	0xbe312a61	-0.17301323
157	0xbe276df7	-0.16350542
158	0x3dc8e430	0.09809148
159	0xbc1e674e	-0.009668184
160	0xbd6babc7	-0.057536867
161	0xbd82a313	-0.0637876
162	0x3e1bd42d	0.15217657
163	0xbd6d4c09	-0.05793384
164	0x3cd63762	0.026149455
165	0xbe13d2ec	-0.14435929
166	0x3ddfc9c4	0.109271556
167	0xbdaf1049	-0.08548028
168	0xbce05648	-0.027384892
169	0xbd8434a7	-0.06455355
170	0x3d0d59ce	0.034509473
171	0x3d998835	0.074966826
172	0xbc85cbe1	-0.016332569
173	0xbe32aced	-0.17448778
174	0xbe3a11e4	-0.18170887
175	0x3d60972a	0.05483166
176	0x3dff4046	0.12463431
177	0x3e152c4d	0.1456768
178	0x3d9b115a	0.07571669
179	0xbda3cf82	-0.07998563
180	0x3e096113	0.13415937
181	0x3d0c4d41	0.034253363
182	0x3d97171a	0.07377453
183	0xbddccab1	-0.10780848
184	0xbd4c5888	-0.049889117
185	0xbe403eb7	-0.18773924
186	0x3d14aeda	0.036299564
187	0xbd8cedf3	-0.06881323
188	0xbbb6dd6d	-0.005580595
189	0xbe4b4c91	-0.19853427
190	0x3da54de6	0.080714986
191	0x3d53f3cc	0.051746175

foundation_model.up_path.0.conv_block.block.2.bias f4 [8]
0	0x3db67637	0.089092664
1	0xbd18c6f4	-0.03729911
2	0xbd169506	-0.036763214
3	0x3e312372	0.17298678
4	0xbe1a1845	-0.1504832
5	0x3cac6512	0.021044288
6	0x3cf03ed0	0.029326826
7	0x3d88ed56	0.06685893

foundation_model.up_path.1.up.weight f4 [8, 4, 2]
0	0xbe98c45d	-0.29837313
1	0x3e657f37	0.2241181
2	0xbe56096d	-0.20902033
3	0xbd0a10c7	-0.033707406
4	0xbdf1df16	-0.118101284
5	0x3eb114bd	0.34586135
6	0x3d4a9e4e	0.049467377
7	0xbdb4ee30	-0.08834493
8	0x3d93f6df	0.07224821
9	0xbd94195d	-0.072314
10	0x3e1647c5	0.14675815
11	0xbde8a943	-0.11360409
12	0x3e2ca914	0.16861373
13	0x3e67b793	0.22628622
14	0xbe051ed8	-0.13000047
15	0x3e077f4d	0.13232155
16	0xbe9c1fb5	-0.3049294
17	0xbd2a96df	-0.041647788
18	0x3e267162	0.1625419
19	0xbe9d7404	-0.30752575
20	0x3e6391a2	0.22223523
21	0xbea8c857	-0.32965347
22	0xbdfcda63	-0.123463415
23	0x3dc907d4	0.09815946
24	0x3eae8ffe	0.34094232
25	0x3e73a737	0.23794256
26	0x3d1e673f	0.038672682
27	0x3e06ce15	0.13164552
28	0xbe931a87	-0.28731176
29	0x3e942fd0	0.28942728
30	0x3e58db8a	0.21177498
31	0x3e476872	0.19473436
32	0x3e93cc8a	0.28866988
33	0xbe018199	-0.12647094
34	0x3d5fa4fa	0.054600693
35	0x3dc2d350	0.09512961
36	0x3eadba14	0.3393103
37	0xbea19f2d	-0.31566754
38	0x3e13a4e4	0.1441837
39	0xbe102c1d	-0.14079328
40	0xbe2258f4	-0.15854245
41	0xbd58ad85	-0.052899856
42	0xbea485c7	-0.32133314
43	0x3e8300bb	0.25586495
44	0x3e78ee98	0.24309766
45	0x3e938083	0.28808984
46	0x3e2ffc8e	0.17186186
47	0x3ea21b5f	0.31661507
48	0xbe3edd22	-0.18639043
49	0xbe25e998	-0.1620239
50	0xbe26773f	-0.16256426
51	0xbd5866e6	-0.052832507
52	0xbdad961a	-0.08475895
53	0x3d927ca8	0.071526825
54	0x3e943a3a	0.28950673
55	0x3d90031c	0.07031843
56	0xbeb29f08	-0.34886956
57	0x3dd463bd	0.10370586
58	0xbe76cf70	-0.24102569
59	0x3bab27df	0.005223259
60	0x3e79674d	0.24355812
61	0x3e822cd2	0.2542482
62	0x3e90df71	0.28295472
63	0xbeab497f	-0.3345451

foundation_model.up_path.1.up.bias f4 [4]
0	0xbe816d4b	-0.25278696
1	0x3dce7dfa	0.10082622
2	0x3dc9e976	0.09858982
3	0x3d7a8fb0	0.061172187

foundation_model.up_path.1.conv_block.block.0.weight f4 [4, 8, 3]
0	0xbe37fac4	-0.17966753
1	0x3dc7e08e	0.09759627
2	0xbd9e591e	-0.077318415
3	0xbd96ae25	-0.07357434
4	0xbd79e815	-0.061012346
5	0x3c85259f	0.01625329
6	0x3daf92dd	0.08572934
7	0x3e067d55	0.13133748
8	0xbdf26dfc	-0.11837384
9	0xbd5b644d	-0.05356245
10	0x3de632dc	0.112401694
11	0xbda9648e	-0.082711324
12	0x3e13ea15	0.14444764
13	0xbdd7ffdb	-0.105468474
14	0xbdc17210	-0.09445584
15	0x3d0d2438	0.03445837
16	0xbe4f47f1	-0.20242287
17	0x3e0f5713	0.1399806
18	0x3d8ad0e8	0.06778127
19	0x3e17f428	0.14839232
20	0xbe177f4d	-0.14794655
21	0xbe3f971c	-0.18709987
22	0x3e2c82fe	0.16846845
23	0xbe12dac2	-0.14341262
24	0xbdee51ee	-0.116367206
25	0xbe4983ed	-0.19679232
26	0x3e42108e	0.18951628
27	0x3e11349a	0.14180222
28	0x3e4cadf3	0.19988231
29	0xbe2eed8c	-0.17082804
30	0xbd98cee0	-0.07461333
31	0x3d7c86f0	0.061652124
32	0xbd8b5a68	-0.06804353
33	0xbe35aaa5	-0.17740877
34	0x3e3f502f	0.18682931
35	0x3e50422e	0.20337746
36	0xbdf7f694	-0.12107578
37	0xbdbb4ca3	-0.09145477
38	0xbd07e2d0	-0.03317529
39	0x3cb069a7	0.021534754
40	0x3d891a90	0.066945195
41	0xbb0472a8	-0.0020209942
42	0xbe15ec37	-0.1464089
43	0x3dee297c	0.11629006
44	0x3ddb94b8	0.10721725
45	0x3e1c5f22	0.15270665
46	0x3dbab9cf	0.091174714
47	0x3c5b977c	0.013402816
48	0x3d18b4c9	0.037281785
49	0x3e0eb9f3	0.13938121
50	0x3e0ecad7	0.13944565
51	0xbd89819e	-0.06714176
52	0x3dce2142	0.10064937
53	0xbdea3f84	-0.11437896
54	0x3d89dc05	0.067314185
55	0x3da8f5c5	0.08250002
56	0xbe0e6b73	-0.13908176
57	0xbe3f1862	-0.18661645
58	0x3dde4977	0.10853856
59	0xbe1c8624	-0.15285546
60	0xbe31d73d	-0.17367263
61	0xbe250524	-0.16115242
62	0xbda7a2b4	-0.0818533
63	0xbdc7335b	-0.09726592
64	0xbdb0d95f	-0.0863521
65	0x3e10b4d9	0.14131488
66	0xbdb6d134	-0.08926621
67	0xbc81f52d	-0.01586398
68	0xbe346b49	-0.17619051
69	0xbda566f7	-0.080762796
70	0x3e09164b	0.1338741
71	0xbd06721d	-0.03282367
72	0xbdbf56c4	-0.09342721
73	0x3e18600e	0.14880392
74	0x3e1f950a	0.15584198
75	0x3e1973a1	0.14985515
76	0xbd595456	-0.053058945
77	0xbdcd1099	-0.100129314
78	0xbd42fc65	-0.047603983
79	0xbd8d34ec	-0.0689486
80	0xbb5139c5	-0.0031925302
81	0x3dd963a5	0.10614709
82	0x3dec1acf	0.11528551
83	0xbd5c95bf	-0.053853747
84	0xbc76b4d4	-0.015057761
85	0x3e462a10	0.19351983
86	0xbe1304d8	-0.14357316
87	0x3e2260df	0.15857266
88	0xbd0555cb	-0.03255252
89	0x3e1f4967	0.15555345
90	0xbe1b4cfd	-0.15166087
91	0xbc8504cf	-0.016237644
92	0x3e140414	0.1445468
93	0x3ddbf9bc	0.107409924
94	0xbddc1404	-0.10746005
95	0x3d0b68b6	0.034035407

foundation_model.up_path.1.conv_block.block.0.bias f4 [4]
0	0xbcae0484	-0.021242388
1	0x3d72859c	0.05920945
2	0x3e2879e9	0.16452755
3	0x3e405159	0.18781032
