wandb/run-20230704_030136-gdbj4zqd/files/checkpoints/best.pt (torch, 119813 bytes, 66 tensors)

foundation_model.down_path.0.block.0.weight f4 [4, 8, 3]
0.12055278 -0.1766535 0.057927 0.07947193 -0.055426523 0.013781795 0.14146511 -0.07985445
-0.13742284 0.0054190066 0.15080774 -0.14141917 0.0037080261 0.072256476 -0.12294819 0.111557566
0.22417544 0.07460518 -0.1954841 0.06965018 -0.1746136 0.065648995 -0.0141079975 -0.16246961
-0.060796365 -0.2757492 -0.19960058 0.02091542 0.17046161 0.2461421 -0.26029828 -0.023058238
0.089956336 -0.108905725 0.1590942 -0.11704405 -0.015602971 -0.07056622 0.022360984 -0.0007206113
0.09988261 -0.03114922 -0.0052334573 0.07668278 0.0602459 0.002148004 0.13746965 -0.1469119
0.16277643 0.17688711 -0.021172123 -0.1605006 0.102710605 -0.20836577 -0.009644229 -0.0025620062
0.09526834 -0.04702506 0.0009185655 -0.10332557 -0.12682723 0.19517149 -0.04456501 0.058734525
-0.12968329 -0.14609073 0.067972206 0.18256868 0.118995786 0.12784714 -0.07259514 -0.0364173
-0.040586915 -0.08113548 0.26319075 -0.03910717 -0.27806464 0.09243631 0.03183122 0.121509284
0.10423349 -0.086373754 0.11215517 0.04771608 0.24865349 -0.08991758 -0.18401933 -0.022262566
-0.14206523 -0.20269786 0.22500925 0.045282 0.28621003 -0.07829267 0.059082177 -0.049286515
00000000: 60e4 f63d a8e4 34be dd44 6d3d 2ec2 a23d
00000010: ec06 63bd 0acd 613c 3bdc 103e bb8a a3bd
00000020: 93b8 0cbe ec91 b13b 586d 1a3e 30d0 10be
00000030: 5b02 733b 34fb 933d 43cc fbbd 4b78 e43d
00000040: 3f8e 653e 9aca 983d fc2c 48be c1a4 8e3d
00000050: e8cd 32be fb72 863d 3b25 67bc 6f5e 26be
00000060: 9c05 79bd 002f 8dbe 1864 4cbe d156 ab3c
00000070: 7d8d 2e3e ad0c 7c3e d145 85be a1e4 bcbc
00000080: 073b b83d f709 dfbd 97e9 223e cab4 efbd
00000090: 9ba3 7fbc 0685 90bd 622e b73c 68e7 3cba
000000a0: 418f cc3d a62c ffbc 6c7d abbb dd0b 9d3d
000000b0: 68c4 763d 87c5 0c3b d8c4 0c3e 1370 16be
000000c0: ddae 263e e521 353e 2971 adbc 455a 24be
000000d0: f059 d23d d65d 55be d402 1ebc 55e7 27bb
000000e0: 0c1c c33d 599d 40bd e3cb 703a 5b9c d3bd
000000f0: ffde 01be 09db 473e cd89 36bd 9d93 703d
00000100: b2cb 04be cf98 15be 0335 8b3d 49f3 3a3e
00000110: 10b4 f33d 5cea 023e c3ac 94bd 4f2a 15bd
00000120: 773e 26bd 5c2a a6bd f0c0 863e d72e 20bd
00000130: 7d5e 8ebe 404f bd3d 7461 023d dcd9 f83d
00000140: 5e78 d53d b9e4 b0bd 9cb1 e53d f071 433d
00000150: 059f 7e3e b526 b8bd 906f 3cbe fc5f b6bc
00000160: 8c79 11be 0790 4fbe d368 663e 9e79 393d
00000170: 1f8a 923e e857 a0bd 2700 723d a8e0 49bd

foundation_model.down_path.0.block.0.bias f4 [4]
-0.02277009 -0.101510935 0.12930559 0.10727214
00000000: 5788 babc f7e4 cfbd af68 043e 7fb1 db3d

foundation_model.down_path.0.block.2.weight f4 [4, 4, 3]
0.30482283 0.11962024 0.16199209 -0.09427331 -0.005074587 0.27688083 -0.04820315 -0.13785167
-0.10565644 0.12199024 -0.15935795 -0.2474053 0.07946228 -0.25244838 -0.04356004 -0.16095164
-0.16012731 -0.12025054 -0.17615514 0.2739659 -0.03395938 0.29343084 0.32165173 0.3153507
-0.26737407 -0.1091261 -0.35060078 0.16227555 -0.14541534 -0.34057426 0.24858691 0.17957735
0.2134573 0.14842314 0.3644689 -0.14159812 0.12754002 -0.12379095 -0.15412916 -0.20083672
0.039763257 -0.35028443 -0.09217738 0.14728087 0.11170948 0.2530785 -0.10081408 0.25778735
00000000: bd11 9c3e 75fb f43d 41e1 253e 5d12 c1bd
00000010: b948 a6bb 53c3 8d3e ab70 45bd fd28 0dbe
00000020: 6762 d8bd 05d6 f93d bb2e 23be d157 7dbe
00000030: 1fbd a23d ea40 81be 036c 32bd 82d0 24be
00000040: 6af8 23be ea45 f6bd 0362 34be 4245 8c3e
00000050: fe18 0bbd 913c 963e 89af a43e a675 a13e
00000060: 41e5 88be 817d dfbd f281 b3be 902b 263e
00000070: c2e7 14be c05f aebe 918d 7e3e 20e3 373e
00000080: 8d94 5a3e 3cfc 173e ab9b ba3e 19ff 10be
00000090: da99 023e 1c86 fdbd 09d4 1dbe 24a8 4dbe
000000a0: ccde 223d 7b58 b3be 7fc7 bcbd ccd0 163e
000000b0: f1c7 e43d 8193 813e 9d77 cebd b4fc 833e

foundation_model.down_path.0.block.2.bias f4 [4]
-0.15870252 -0.16327994 -0.07047587 0.1460491
00000000: ea82 22be db32 27be a755 90bd e58d 153e

foundation_model.down_path.1.block.0.weight f4 [8, 4, 3]
-0.1972081 -0.22191395 -0.2642921 -0.116942324 0.14882283 0.22628503 0.24805768 -0.02181664
0.3093678 0.019892493 0.061025377 0.2669043 -0.077216245 -0.064538434 -0.25948513 -0.028334742
0.26509047 -0.10381171 0.22970088 -0.13404629 0.20615469 0.23591995 0.27886105 0.2499702
0.09387102 0.02468245 0.03487129 0.10684941 -0.023985492 0.24644862 0.27312654 0.3238551
-0.019417968 -0.09452886 0.23833592 0.23108405 -0.33556944 0.11439958 0.09463596 0.3846084
-0.16857137 0.18045907 0.009657747 0.31972444 0.3126947 0.057977043 0.26516682 0.30294454
-0.31592202 0.053757343 0.14995688 0.13490103 -0.05244028 0.17094879 0.31056383 0.02919555
0.3498395 0.33275068 0.2962297 0.17675516 0.29446134 0.16087808 0.32522652 -0.24703898
-0.26685613 0.048069935 -0.035704125 0.24835457 -0.16760617 -0.08200717 0.14094247 -0.30821222
0.055364728 -0.12747693 0.0032687003 0.27651185 0.13051431 -0.13129298 0.16225299 -0.11683786
0.1336046 -0.09102649 0.002710984 0.2859986 -0.1834999 0.18086277 -0.05233651 -0.3068077
-0.026035637 -0.2795755 0.026748007 -0.34244207 -0.2978199 -0.18830787 0.044497717 0.030516014
00000000: ecf0 49be 693d 63be 4b51 87be 757f efbd
00000010: 0365 183e 43b7 673e d502 7e3e cfb8 b2bc
00000020: 7565 9e3e 95f5 a23c bff5 793d aea7 883e
00000030: 8d23 9ebd ba2c 84bd 3cdb 84be 431e e8bc
00000040: f0b9 873e 3c9b d4bd b536 6b3e 6e43 09be
00000050: 371a 533e 0095 713e e0c6 8e3e 30f8 7f3e
00000060: 733f c03d d932 ca3c 33d5 0e3d ddd3 da3d
00000070: 397d c4bc 075d 7c3e 3ed7 8b3e 56d0 a53e
00000080: 6e12 9fbc 5998 c1bd 550e 743e 4ca1 6c3e
00000090: c2cf abbe 544a ea3d 80d0 c13d 64eb c43e
000000a0: f99d 2cbe 43ca 383e 873b 1e3c ecb2 a33e
000000b0: 8519 a03e 5679 6d3d f2c3 873e 8c1b 9b3e
000000c0: 88c0 a1be a930 5c3d 4c8e 193e 7f23 0a3e
000000d0: 9ecb 56bd 330d 2f3e 3902 9f3e 822b ef3c
000000e0: 2a1e b33e 4c5e aa3e 6bab 973e 4eff 343e
000000f0: a3c3 963e 39bd 243e 1784 a63e c9f7 7cbe
00000100: 5ea1 88be fbe4 443d 7d3e 12bd a950 7e3e
00000110: f4a0 2bbe 60f3 a7bd 3953 103e fecd 9dbe
00000120: 20c6 623d 5089 02be b137 563b f692 8d3e
00000130: 8ba5 053e ab71 06be a625 263e b048 efbd
00000140: a5cf 083e 196c babd c4aa 313b 696e 923e
00000150: 66e7 3bbe 1734 393e cf5e 56bd e615 9dbe
00000160: b048 d5bc 8524 8fbe a31e db3c 9154 afbe
00000170: da7b 98be c7d3 40be 3d43 363d b8fc f93c

foundation_model.down_path.1.block.0.bias f4 [8]
0.16052829 0.05490489 -0.22440518 -0.008231207 -0.09172334 0.10573986 -0.26640308 0.1419555
00000000: 8761 243e f3e3 603d 79ca 65be 2fdc 06bc
00000010: 72d9 bbbd 248e d83d fc65 88be c85c 113e

foundation_model.down_path.1.block.2.weight f4 [8, 8, 3]
0.030218933 -0.24935316 -0.2364257 -0.080447875 0.098375686 -0.2183986 -0.11950744 -0.11797332
-0.27052423 -0.21260057 0.09432586 -0.14377736 -0.21457455 0.1041598 -0.12900665 0.06572739
-0.09427704 0.061502583 -0.09221074 0.13015088 -0.25867328 0.16769858 0.24095659 -0.0043637976
0.07790745 0.10362842 0.21355507 0.101895064 0.21142022 0.23344998 0.24766102 -0.046005104
-0.087807015 0.21741374 -0.033129774 -0.026233282 0.0880376 0.104249306 -0.10293679 -0.14214195
0.09854823 -0.14849986 0.15637468 -0.040943656 0.15576395 -0.06461223 -0.22814429 -0.18492617
0.06894502 0.044188134 0.0712536 -0.057392005 0.1937131 0.029093629 0.11620415 0.094266884
0.10759654 0.00059839006 -0.05880339 0.13658132 -0.06280856 0.031499542 0.059784062 0.021299487
-0.18367848 -0.09556533 0.11232529 0.2105882 0.21523622 -0.047158938 -0.028638173 0.07830208
-0.09197427 0.12638487 -0.027405268 0.107618436 0.2225621 0.0110208215 0.13056323 0.036770664
0.2763846 0.09676048 0.06854792 0.1823369 0.05902393 0.144656 0.28543457 -0.043495957
0.00050595694 0.00010990608 0.24276234 0.030234205 0.17217536 -0.10014948 -0.10731914 -0.0027591398
-0.24397495 -0.033098962 -0.23394203 -0.18190785 -0.0978898 -0.11085887 0.04616437 0.08233601
-0.23331866 0.08541287 -0.06085871 0.09515081 -0.10039636 -0.13146727 0.077319026 0.1290269
0.07322447 0.019525941 0.005698141 -0.22532423 -0.16152924 -0.07404267 0.13969433 -0.122288726
0.16201627 -0.09035223 0.030662134 0.1562646 0.2482898 0.0077388375 0.08235743 0.22177982
0.09272201 0.1882494 0.1775783 0.2097338 -0.07512959 -0.124686174 0.15717052 -0.060098097
-0.12303384 -0.2551779 0.19335137 0.23371218 0.11704975 -0.08231698 -0.11526047 -0.17946489
0.19476573 0.16083713 0.05363582 0.03571057 -0.06840845 -0.008453897 0.10816208 0.12464075
0.20655037 -0.12175264 3.849256e-05 0.25696713 0.041315824 0.039294355 -0.006860388 -0.06187563
-0.009357336 -0.21807274 0.039807398 -0.10886411 0.00680324 -0.12503293 0.12741059 -0.04437914
0.15891312 -0.04748157 0.24058683 -0.058544017 -0.13710801 0.07153696 0.18583678 0.048595008
0.17554627 0.28986958 0.14989601 -0.02168821 0.013173739 -0.00031333845 0.13444106 -0.032741793
-0.25014368 -0.03437701 0.23360015 0.008798403 0.00023614446 0.004428519 -0.13338806 -0.23399527
00000000: b28d f73c 6f56 7fbe 9419 72be dbc1 a4bd
00000010: 3179 c93d e2a3 5fbe 51c0 f4bd ff9b f1bd
00000020: 2782 8abe f7b3 59be eb2d c13d 5f3a 13be
00000030: 6eb9 5bbe bc51 d53d 521a 04be 159c 863d
00000040: 5214 c1bd 22ea 7b3d fcd8 bcbd 4646 053e
00000050: d370 84be 2db9 2b3e 53bd 763e 30fe 8ebb
00000060: f18d 9f3d 233b d43d 2eae 5a3e 5cae d03d
00000070: 8b7e 583e 830d 6f3e da9a 7d3e d96f 3cbd
00000080: 2ad4 b3bd b5a1 5e3e 16b3 07bd 2ee7 d6bc
00000090: 0f4d b43d a980 d53d 86d0 d2bd a98d 11be
000000a0: a8d3 c93d 5910 18be af20 203e 89b4 27bd
000000b0: 9680 1f3e 6b53 84bd a89e 69be 495d 3dbe
000000c0: 0c33 8d3d 9efe 343d 68ed 913d e113 6bbd
000000d0: ba5c 463e c355 ee3c 71fc ed3d ff0e c13d
000000e0: 935b dc3d 47dd 1c3a d3db 70bd f9db 0b3e
000000f0: c6a1 80bd aa05 013d 22e0 743d 437c ae3c
00000100: 3616 3cbe c1b7 c3bd cd0a e63d 6fa4 573e
00000110: e266 5c3e bb29 41bd 9a9a eabc d75c a03d
00000120: 025d bcbd 096b 013e 0381 e0bc 0e67 dc3d
00000130: 52e7 633e ad90 343c 5eb2 053e d69c 163d
00000140: 4882 8d3e 5c2a c63d da62 8c3d 86b6 3a3e
00000150: 14c3 713d b420 143e 7b24 923e d128 32bd
00000160: 32a2 043a 617d e638 b196 783e b9ad f73c
00000170: bd4e 303e 2c1b cdbd 23ca dbbd afd2 34bb
00000180: 92d4 79be c792 07bd 808e 6fbe 0d46 3abe
00000190: 737a c8bd fa09 e3bd da16 3d3d c89f a83d
000001a0: 16eb 6ebe f1ec ae3d fc46 79bd 6ede c23d
000001b0: 9b9c cdbd 5b9f 06be 7059 9e3d a11f 043e
000001c0: b6f6 953d def4 9f3c 79b7 ba3b 65bb 66be
000001d0: ec67 25be afa3 97bd 080c 0f3e 8372 fabd
000001e0: 98e7 253e 970a b9bd 282f fb3c d403 203e
000001f0: ae3f 7e3e 1396 fd3b 03ab a83d 401a 633e
00000200: 0ae5 bd3d 73c4 403e 16d7 353e 75c4 563e
00000210: 8bdd 99bd 775b ffbd 4ff1 203e 6c29 76bd
00000220: 2af9 fbbd ada6 82be e7fd 453e 3f52 6f3e
00000230: c8b7 ef3d ce95 a8bd ae0d ecbd a5c5 37be
00000240: ab70 473e 7db2 243e 3cb1 5b3d 3f45 123d
00000250: bb19 8cbd 3782 0abc 1584 dd3d a643 ff3d
00000260: f181 533e 7359 f9bd 1273 2138 3291 833e
00000270: c83a 293d 1ef3 203d 1bcd e0bb 4d71 7dbd
00000280: 834f 19bc 764e 5fbe 150d 233d 26f4 debd
00000290: b7ed de3b a208 00be ec77 023e e7c6 35bd
000002a0: 1fba 223e 097c 42bd 655c 763e dacb 6fbd
000002b0: 0b66 0cbe f881 923d ff4b 3e3e 8f0b 473d
000002c0: 67c2 333e c969 943e 577e 193e 79ab b1bc
000002d0: abd6 573c 9347 a4b9 ebaa 093e 421c 06bd
000002e0: d512 80be e8ce 0cbd e134 6f3e 2d27 103c
000002f0: 8c9d 7739 1c1d 913b e196 08be 759c 6fbe

foundation_model.down_path.1.block.2.bias f4 [8]
0.126592 -0.16319716 -0.009737855 0.09413993 0.16325301 0.024659501 -0.105362795 0.050891425
00000000: 55a1 013e 281d 27be 868b 1fbc 70cc c03d
00000010: cc2b 273e b902 ca3c 73c8 d7bd 8773 503d

foundation_model.down_path.2.block.0.weight f4 [16, 8, 3]
0.05269892 -0.072007895 0.07234253 -0.07748225 -0.0037312235 -0.20579718 -0.11220279 -0.009110227
0.03409482 -0.25722164 0.11678724 0.071903646 0.034003712 0.05953656 0.11170325 0.008702225
-0.19315015 -0.20888157 0.11455133 -0.124872744 -0.16935 -0.08834314 -0.032476015 0.024794761
0.044170957 0.10758986 0.00081419694 0.15600635 0.011194773 0.21956705 -0.015054144 0.18584728
-0.04723314 0.21891922 0.019553237 0.019676825 -0.10592821 0.03446147 -0.14317286 -0.03617527
-0.021616867 0.25414863 0.20866343 -0.009142879 -0.023797086 0.0919551 -0.038124837 0.18160921
0.03209387 -0.02213075 0.15282768 0.046733882 -0.18737556 0.054814298 -0.0637784 0.018005783
0.14835872 0.08600136 -0.24568203 -0.24365617 0.0764755 0.2040456 -0.09058106 0.0039194864
0.025855917 -0.21540004 -0.27328664 -0.22169153 0.10197445 -0.08180976 -0.19847754 -0.049304504
0.28558773 0.23549727 0.12425909 -0.1296402 -0.10467822 -0.17707494 -0.09308904 -0.05038463
0.10146158 -0.24480218 -0.0035398067 -0.14895074 0.23504479 -0.091029584 0.14919053 0.04636493
-0.0023568738 -0.0045717238 -0.1534852 -0.13351084 0.027498785 -0.18855594 0.01658601 -0.19492567
0.20731282 0.22528175 0.04621665 0.087717205 -0.24109341 -0.015346538 -0.16857901 0.06665576
-0.24880725 -0.09062004 0.08005007 0.12530665 0.023934064 0.17228127 0.22029757 -0.20632601
-0.1352919 0.0018684863 0.007331256 0.005847693 0.0291637 -0.065085225 -0.19647546 -0.20680398
0.19070622 0.109923035 0.012728609 -0.22776769 -0.25261632 -0.07352929 -0.1599421 -0.15867698
0.051666696 -0.21874475 -0.04386791 -0.0064802924 -0.009893456 0.096524775 0.0736991 -0.15570343
0.029189665 -0.21372423 0.030918524 -0.20324548 -0.14844294 -0.21348618 -0.05887295 -0.2222582
0.10611448 0.1391851 0.09132099 -0.22031775 -0.15739305 -0.2441319 0.06924607 -0.18955454
0.14652608 0.111624986 -0.12309385 -0.2384393 0.027782816 0.033412576 -0.07562908 0.017233178
-0.25580975 0.087879695 0.06091857 -0.09973371 0.018633971 0.013624405 0.07811525 0.035755333
0.13313705 -0.27238294 -0.22137317 -0.0699425 -0.019747797 -0.052263923 0.21149373 -0.17097738
-0.0004018026 0.21151233 0.1250346 0.087752625 -0.15277287 0.123837516 -0.027568212 0.16306385
-0.124341145 0.2267694 -0.11439041 0.03401048 0.26723352 0.11768958 0.24357617 0.17017433
0.013646241 -0.24911933 0.051649626 0.23380126 0.23545405 -0.04042249 0.09718106 0.22519124
0.11727601 0.17718527 -0.1376949 0.25902942 0.06262049 -0.20461315 -0.16613649 -0.10642001
0.1281933 0.11738977 -0.036802333 0.08442343 0.20839539 0.20611353 0.16808787 0.069584034
-0.011024077 0.11309983 -0.22692311 -0.045358676 0.22676796 -0.046311084 0.15831676 -0.047262367
0.16316289 0.07685447 0.19642776 0.26170713 -0.09663253 0.08604565 -0.104381725 0.028840661
0.080269694 0.20383285 0.12574185 0.032656454 0.122678995 -0.0022342738 0.11778985 0.061968908
-0.028059235 -0.0648317 -0.006906685 0.1028069 -0.27831614 -0.25646746 -0.17914222 -0.1958268
-0.118915126 0.026012592 -0.21322986 -0.107447244 -0.038577322 0.033951078 0.2564996 -0.0013900637
00000000: d3da 573d e078 93bd 5228 943d 04af 9ebd
00000010: 8b87 74bb 7fbc 52be 94ca e5bd 1043 15bc
00000020: 03a7 0b3d 8eb2 83be 262e ef3d 3842 933d
00000030: 7a47 0b3d 9cdc 733d acc4 e43d c793 0e3c
00000040: 27c9 45be 0de5 55be e399 ea3d 48bd ffbd
00000050: 166a 2dbe 40ed b4bd 9205 05bd 621e cb3c
00000060: 9bec 343d 1358 dc3d d56f 553a 21c0 1f3e
00000070: 486a 373c 2fd6 603e a8a5 76bc c04e 3e3e
00000080: 8977 41bd 5c2c 603e 1c2e a03c 4b31 a13c
00000090: e4f0 d8bd 7827 0d3d e89b 12be 852c 14bd
000000a0: db15 b1bc c51f 823e deab 553e 04cc 15bc
000000b0: 1bf2 c2bc f552 bc3d ca28 1cbd c4f7 393e
000000c0: dd74 033d 8c4b b5bc dc7e 1c3e 076c 3f3d
000000d0: 61df 3fbe f584 603d 409e 82bd dd80 933c
000000e0: 59eb 173e 7b21 b03d 1294 7bbe 0181 79be
000000f0: 309f 9c3d 54f1 503e 9082 b9bd 096f 803b
00000100: cacf d33c d491 5cbe 3aec 8bbe 1b03 63be
00000110: fbd7 d03d e08b a7bd b23d 4bbe 85f3 49bd
00000120: 8e38 923e 3226 713e 8d7b fe3d 67c0 04be
00000130: 8961 d6bd 2253 35be 77a5 bebd 1d60 4ebd
00000140: 17cb cf3d 6cad 7abe 1afc 67bb 8b86 18be
00000150: 95af 703e b86d babd 67c5 183e 27e9 3d3d
00000160: c875 1abb 66ce 95bb 392b 1dbe 11b7 08be
00000170: 2245 e13c cf14 41be 62df 873c 989a 47be
00000180: d049 543e 42b0 663e ac4d 3d3d 14a5 b33d
00000190: 31e1 76be 0c70 7bbc fa9f 2cbe d182 883d
000001a0: 54c7 7ebe 0097 b9bd 4bf1 a33d 6350 003e
000001b0: 5f11 c43c 806a 303e b095 613e 2047 53be
000001c0: f689 0abe ffe7 f43a 083b f03b 019e bf3b
000001d0: b6e8 ee3c 674b 85bd dd30 49be 6cc4 53be
000001e0: 7e48 433e 541f e13d a88b 503c ef3b 69be
000001f0: ed56 81be 8696 96bd ddc7 23be 387c 22be
00000200: 75a0 533d a0fe 5fbe d6ae 33bd a258 d4bb
00000210: 2918 22bc c8ae c53d 8eef 963d b870 1fbe
00000220: 2a1f ef3c 86da 5abe d848 fd3c 951f 50be
00000230: 6d01 18be 1f9c 5abe c324 71bd a797 63be
00000240: 8c52 d93d 8a86 0e3e 8006 bb3d fa9a 61be
00000250: a52b 21be b6fd 79be e2d0 8d3d 961a 42be
00000260: ef0a 163e a49b e43d a118 fcbd 6f29 74be
00000270: ca98 e33c a0db 083d 6be3 9abd 982c 8d3c
00000280: 7ff9 82be 45fa b33d c085 793d 3041 ccbd
00000290: 45a6 983c e538 5f3c e3fa 9f3d 2f74 123d
000002a0: 1455 083e c775 8bbe a6af 62be 033e 8fbd
000002b0: 22c6 a1bc b212 56bd d091 583e b214 2fbe
000002c0: 08a9 d2b9 b096 583e 1209 003e a6b7 b33d
000002d0: 7e70 1cbe 869e fd3d bbd6 e1bc 36fa 263e
000002e0: 92a6 febd 3d36 683e 8545 eabd 934e 0b3d
000002f0: d5d2 883e 3c07 f13d 086c 793e 2e42 2e3e
00000300: 7c94 5f3c 2319 7fbe 8f8e 533d 9969 6f3e
00000310: de1a 713e 0e92 25bd dd06 c73d 8898 663e
00000320: 682e f03d 0e70 353e e4ff 0cbe 819f 843e
00000330: 2c3f 803d 1c86 51be af1f 2abe bcf2 d9bd
00000340: 1b45 033e 0c6a f03d 0bbe 16bd 31e6 ac3d
00000350: 9a65 553e 6d0f 533e 3a1f 2c3e 1382 8e3d
00000360: 559e 34bc e2a0 e73d 885e 68be 05ca 39bd
00000370: dc35 683e b1b0 3dbd ca1d 223e 2f96 41bd
00000380: 2c14 273e e065 9d3d 5c24 493e 7afe 853e
00000390: 47e7 c5bd b438 b03d 16c6 d5bd 4043 ec3c
000003a0: 7064 a43d 8fb9 503e 79c2 003e c6c2 053d
000003b0: 203f fb3d e56c 12bb ce3b f13d 1cd3 7d3d
000003c0: 7bdc e5bc 7bc6 84bd 7951 e2bb 6d8c d23d
000003d0: 747f 8ebe b44f 83be 0f71 37be d286 48be
000003e0: c689 f3bd 5c18 d53c ee58 5abe 4d0d dcbd
000003f0: 4103 1ebd 4910 0b3d ea53 833e cc32 b6ba

foundation_model.down_path.2.block.0.bias f4 [16]
0.18966739 -0.23390664 0.10532836 0.1873487 0.11681267 0.10394199 0.06541327 -0.09102255
-0.038849507 -0.057392232 0.10441308 -0.05041548 -0.015092762 -0.1868629 0.13212277 0.21296346
00000000: 2b38 423e 3985 6fbe 65b6 d73d 56d8 3f3e
00000010: 7b3b ef3d 8adf d43d 64f7 853d 086a babd
00000020: a920 1fbd 1e14 6bbd 86d6 d53d 7680 4ebd
00000030: a247 77bc fd58 3fbe 314b 073e 1813 5a3e

foundation_model.down_path.2.block.2.weight f4 [16, 16, 3]
0.076594286 0.094941035 0.091223985 -0.068721466 -0.08453823 -0.15666042 -0.004440911 -0.027982516
0.1591916 0.03613745 0.05471864 0.026294826 0.17297974 0.18153392 0.20482056 0.10760748
-0.0298894 0.1097862 0.14587533 0.105469525 0.15356371 -0.15922594 0.0065547265 -0.1019393
0.009559386 0.0372778 -0.17240383 -0.10837778 -0.010417617 -0.208632 0.0059043025 0.05398475
0.12593989 0.115146324 0.07391167 0.0626897 0.14805731 0.09395677 -0.019802624 -0.19111358
-0.13021982 -0.13382436 0.15847681 0.16052291 -0.006693164 0.07473165 -0.068585955 0.015775306
0.15024523 0.038392927 -0.057266694 0.04304121 -0.10120547 0.03446428 0.15544438 0.19950877
0.1328598 0.045725923 -0.003782271 -0.0697711 -0.035033632 0.060630474 0.2172168 0.058284264
0.21624915 0.024954626 0.004965021 0.10379254 0.10072795 -0.0029073479 -0.17018731 -0.10578249
0.007241713 -0.113022774 -0.15767352 0.02841192 -0.12643409 -0.17152557 0.07988404 -0.0049439906
0.14955369 0.0051371614 0.14911662 -0.013563379 0.12363888 0.07348911 -0.0018293217 -0.12572718
-0.0015042238 -0.033938337 -0.036927857 0.11012077 0.035450608 0.18375275 0.18921867 0.16849528
0.16042455 -0.054614052 -0.08068467 -0.116469674 -0.06781639 -0.19294031 0.11520203 0.047747
0.21925604 0.16808991 0.1758554 0.037079766 0.19326915 -0.0033354603 0.019498851 0.10889798
0.042162053 0.0261861 0.080596074 0.14172508 0.054528303 -0.11552286 0.03469468 0.032143123
-0.069301516 -0.07689851 -0.16498394 -0.15788594 -0.12932827 -0.01732432 0.20636596 0.11463609
0.1949744 0.13851838 -0.013394933 -0.016242936 -0.01303093 0.048372835 0.058370046 -0.021964306
-0.017654736 -0.011197952 0.07455983 0.024451936 0.12238357 -0.03147316 0.17533882 0.0757863
-0.14394218 0.0072692297 -0.21174808 0.02662913 -0.068600066 -0.05838199 -0.119486585 -0.051752713
0.008741441 0.019072004 -0.2248994 -0.0114192 -0.10513159 -0.04473988 -0.1535923 0.010155652
-0.23431747 -0.17802995 -0.16063865 -0.21986732 0.030488964 0.05194237 0.07541989 0.03246956
0.086543955 0.07537211 0.06954273 -0.0033638256 0.1299972 0.13535975 -0.008227565 0.00240116
-0.20595573 -0.046578914 -0.1975349 0.042198095 0.042683393 -0.1752134 -0.07873881 0.034378782
0.18560222 0.19256298 -0.20512272 -0.18764175 0.040014755 0.05223194 -0.21132655 0.023641007
0.022656891 0.1852902 -0.056950547 -0.14870478 -0.106251724 -0.10025626 -0.07488715 -0.010823479
-0.09153697 -0.05970501 0.17135963 -0.078161865 0.065162525 0.03478553 0.037281495 -0.0074403943
0.013810468 -0.049506184 -0.053390414 -0.060762774 -0.008958293 -0.09801251 -0.07217323 -0.06653113
-0.18485507 0.020003494 0.03433398 -0.16751097 0.054310814 0.015165895 0.05943752 -0.06565802
0.12632762 0.02607504 -0.030482072 0.13631654 0.2110097 -0.06116587 0.08383805 -0.025901739
-0.00865792 -0.15162612 0.08404903 -0.054136157 0.12348001 0.07530564 -0.06610902 0.10932931
0.0021858572 0.009898354 -0.04374859 0.11470437 0.15320168 -0.056267302 0.10420607 -0.076027505
0.054039005 0.01613294 -0.00053590565 -0.07310168 -0.04553343 -0.10406916 0.019758305 -0.16093533
00000000: 77dd 9c3d 7270 c23d a4d3 ba3d d7bd 8cbd
00000010: 6122 adbd 976b 20be 1085 91bb 973b e5bc
00000020: 1f03 233e dd04 143d a720 603d 3f68 d73c
00000030: 9a21 313e 07e4 393e 7bbc 513e 4f61 dc3d
00000040: 9dda f4bc 96d7 e03d 5860 153e 6800 d83d
00000050: ce3f 1d3e 200c 23be 08c9 d63b 8dc5 d0bd
00000060: f99e 1c3c 9bb0 183d a18a 30be 2bf5 ddbd
00000070: a7ae 2abc a1a3 55be e178 c13b 1d1f 5d3d
00000080: 63f6 003e d6d1 eb3d 005f 973d 7563 803d
00000090: 569c 173e 686c c03d 1d39 a2bc 47b3 43be
000000a0: 5858 05be 4109 09be bf47 223e 1e60 243e
000000b0: 5452 dbbb e80c 993d cb76 8cbd 373b 813c
000000c0: e3d9 193e e741 1d3d 7b90 6abd fb4b 303d
000000d0: d044 cfbd 6b2a 0d3d d02c 1f3e 074c 4c3e
000000e0: 660c 083e 1b4b 3b3d fadf 77bb 27e4 8ebd
000000f0: 6d7f 0fbd a957 783d 156e 5e3e 7bbb 6e3d
00000100: 6b70 5d3e a56d cc3c 9db1 a23b 2f91 d43d
00000110: 754a ce3d 3489 3ebb 9545 2ebe 7da4 d8bd
00000120: e44b ed3b 7c78 e7bd 2b75 21be 1dc0 e83c
00000130: f077 01be 66a4 2fbe 3e9a a33d 3301 a2bb
00000140: 9a24 193e a255 a83b 07b2 183e ef38 5ebc
00000150: 6236 fd3d 7581 963d dac5 efba a0be 00be
00000160: 6029 c5ba ed02 0bbd aa41 17bd 0087 e13d
00000170: a834 113d ae29 3c3e 8ac2 413e 078a 2c3e
00000180: 5546 243e fcb2 5fbd 013e a5bd a787 eebd
00000190: 52e3 8abd 2592 45be 0bef eb3d 5c92 433d
000001a0: a884 603e c31f 2c3e 7013 343e f4e0 173d
000001b0: 59e8 453e bd97 5abb 0ebc 9f3c e705 df3d
000001c0: 1eb2 2c3d 3b84 d63c 8e0f a53d 6120 113e
000001d0: 1259 5f3d 4097 ecbd 021c 0e3d 82a8 033d
000001e0: f4ed 8dbd f77c 9dbd 8df1 28be daac 21be
000001f0: a16e 04be bbeb 8dbc 9951 533e 54c6 ea3d
00000200: 5ea7 473e c3d7 0d3e 6c76 5bbc e80f 85bc
00000210: af7f 55bc 9822 463d 6e15 6f3d 7dee b3bc
00000220: aaa0 90bc 9d77 37bc d3b2 983d 6d4f c83c
00000230: 3da4 fa3d 00ea 00bd 058c 333e d935 9b3d
00000240: 9465 13be b832 ee3b 7dd4 58be 5525 da3c
00000250: 317e 8cbd f421 6fbd 62b5 f4bd a7fa 53bd
00000260: 4338 0f3c e43c 9c3c 074c 66be 9917 3bbc
00000270: 3b4f d7bd 2a41 37bd 4d47 1dbe e463 263c
00000280: ebf0 6fbe 7c4d 36be 757e 24be e624 61be
00000290: fec3 f93c 86c1 543d be75 9a3d cdfe 043d
000002a0: f53d b13d b15c 9a3d 6b6c 8e3d a173 5cbb
000002b0: fc1d 053e bf9b 0a3e e9cc 06bc c85c 1d3b
000002c0: 0fe6 52be 88c9 3ebd 9746 4abe e9d7 2c3d
000002d0: c8d4 2e3d 246b 33be d041 a1bd c4d0 0c3d
000002e0: 820e 3e3e 3b2f 453e b10b 52be 2925 40be
000002f0: 83e6 233d 29f1 553d fd65 58be c9aa c13c
00000300: f29a b93c b7bc 3d3e fa44 69bd 1146 18be
00000310: 819a d9bd 2753 cdbd 6f5e 99bd f654 31bc
00000320: bc77 bbbd 3e8d 74bd e678 2f3e 5413 a0bd
00000330: ee73 853d 467b 0e3d 7bb4 183d 8dce f3bb
00000340: 4d45 623c ffc6 4abd e8af 5abd 63e2 78bd
00000350: cec5 12bc c8ba c8bd 8fcf 93bd 7941 88bd
00000360: a64a 3dbe 5ede a33c caa1 0c3d ff87 2bbe
00000370: 0475 5e3d 607a 783c c274 733d b677 86bd
00000380: 075c 013e 539b d53c 8ab5 f9bc 9096 0b3e
00000390: ed12 583e 1089 7abd 49b3 ab3d e22f d4bc
000003a0: f3d9 0dbc e143 1bbe e621 ac3d e0bd 5dbd
000003b0: 16e3 fc3d d839 9a3d 2a64 87bd 0ce8 df3d
000003c0: 9940 0f3b b52c 223c b931 33bd 20ea ea3d
000003d0: e7e0 1c3e 8b78 66bd fe69 d53d 4fb4 9bbd
000003e0: 0158 5d3d 3a29 843c 057c 0cba 55b6 95bd
000003f0: 4381 3abd 3622 d5bd 2bdc a13c 3bcc 24be

foundation_model.down_path.2.block.2.bias f4 [16]
0.15588285 0.12048141 0.10441298 0.0029430976 0.16140029 -0.15390573 -0.04498434 0.053912427
0.16884744 0.14852174 -0.17254959 0.15915072 -0.0057473406 0.02612461 0.015394473 0.12282984
00000000: c19f 1f3e f5be f63d 79d6 d53d fce0 403b
00000010: 1e46 253e 7799 1dbe 8041 38bd 47d3 5c3d
00000020: 58e6 2c3e 1516 183e d7b0 30be 68f8 223e
00000030: 3054 bcbb 4703 d63c 1a39 7c3c 368e fb3d

foundation_model.up_path.0.up.weight f4 [16, 8, 2]
0.2137413 0.070097476 -0.048381835 0.18494013 -0.016776025 0.11374599 -0.19871083 0.12857941
0.04770288 -0.0071955323 0.08097011 -0.15499568 -0.17975587 -0.18253249 -0.18629396 0.14219451
-0.12625873 0.042528927 -0.24504697 0.21570301 0.011002451 0.03677517 -0.24290279 0.03806293
-0.10080522 0.24632329 -0.15763369 -0.05527109 -0.03196302 -0.15422869 0.22899407 0.22965828
0.16175479 -0.05571741 0.071480274 -0.12558931 -0.12786326 -0.041712224 0.09705028 -0.08385885
0.054599464 0.07444039 0.20536816 0.21018147 -0.04025823 -0.24544775 0.05322984 0.19266814
-0.21949899 -0.1312702 0.21262136 0.1310994 0.00017911196 0.21506959 -0.103658736 0.16390872
0.10177964 -0.016148359 -0.0985657 0.21168417 0.21005067 0.23314562 0.2141015 -0.20441017
-0.1940135 0.1382697 -0.046592414 0.15444785 0.1577476 0.18213561 -0.23534107 -0.07708895
0.21501687 0.22729462 0.0123490095 0.0034283996 -0.20182803 0.20237789 0.06708181 -0.19845936
0.21045184 -0.21818 0.08604601 -0.24439064 0.12519771 0.09488994 0.21594176 -0.15444735
0.14068577 -0.21550837 -0.056146294 0.2231693 0.055083573 -0.14605367 -0.11483085 0.24272513
-0.24354151 -0.21332607 0.037203044 -0.028972715 0.12066981 -0.052252054 -0.17860809 0.10164842
0.12554252 0.018435538 -0.13730675 -0.18726224 -0.13844895 0.027665555 -0.023605615 -0.17151296
-0.045272052 -0.09935582 -0.03433621 0.095461756 0.026907802 0.23846287 0.24740571 -0.1450268
-0.07933912 0.118020296 -0.10051179 -0.23853728 0.008340865 0.22477046 0.041306823 0.20509422
0.22687769 -0.22051895 0.06687707 0.14854196 0.16397455 0.03425449 0.028164 0.18367699
0.15908843 0.16797504 -0.04412502 0.03477356 0.06437588 -0.19112945 0.22063604 -0.16567388
-0.073482335 0.07134044 -0.082805276 -0.104218245 0.18977964 0.031602412 0.05549118 -0.07413763
0.2270087 0.19129595 -0.19972381 -0.22804523 -0.21409664 0.20145437 0.15753749 0.14047724
-0.16683793 0.06918913 0.20927465 0.20464519 0.2329765 0.10601121 0.046368986 -0.21162793
0.10421565 0.13969874 0.15895984 -0.05027789 -0.18980774 -0.04927504 -0.014520049 0.047772348
-0.17768192 0.021630079 -0.23555768 -0.16875279 -0.051038623 -0.1258857 -0.21497598 -0.09619728
0.064896405 0.08928782 0.0033330023 0.018031389 -0.22583395 -0.016322106 -0.019405663 0.2257773
-0.040786058 -0.10430932 0.07239702 -0.013678998 0.15004197 0.23144495 0.12992999 -0.1474368
-0.08977097 0.12683639 -0.04186532 -0.0956507 0.1636531 -0.2255246 -0.2445203 0.095871866
0.23601371 0.043395877 -0.16881186 -0.18032444 -0.0020734072 0.15917543 0.17180231 -0.09896478
-0.08315629 0.11591399 0.23961526 0.105651855 -0.15572238 0.0215832 -0.019529462 0.012223184
0.048754275 0.21810317 0.18471882 -0.21790272 0.22047755 0.0861367 -0.24787322 0.22185397
0.103910625 -0.23306382 -0.09533563 0.104999274 0.122110575 -0.21229395 -0.11212313 0.07060507
0.13751918 -0.24197382 0.21552292 -0.021743208 -0.019916743 0.11320686 0.19274712 0.2091119
0.1285502 -0.22109279 -0.021998674 -0.09780222 0.1832242 0.24828082 -0.15402156 0.015286416
00000000: 00df 5a3e 448f 8f3d 082c 46bd f260 3d3e
00000010: e06d 89bc a8f3 e83d da7a 4bbe 52aa 033e
00000020: 1864 433d 80c8 ebbb a8d3 a53d 30b7 1ebe
00000030: ec11 38be cce9 3abe d8c3 3ebe 709b 113e
00000040: f849 01be d032 2e3d 98ed 7abe 40e1 5c3e
00000050: a043 343c 90a1 163d 82bb 78be e0e7 1b3d
00000060: f872 cebd 2c3c 7c3e ba6a 21be f063 62bd
00000070: a8eb 02bd 20ee 1dbe 6c7d 6a3e 8a2b 6b3e
00000080: 0ca3 253e f037 64bd 4064 923d 7c9a 00be
00000090: 96ee 02be 70da 2abd 4cc2 c63d 30be abbd
000000a0: b0a3 5f3d 3474 983d 084c 523e d039 573e
000000b0: d0e5 24bd a856 7bbe 8807 5a3d cc4a 453e
000000c0: 58c4 60be b26b 06be 6ab9 593e ec3e 063e
000000d0: 00d0 3b39 343b 5c3e 084b d4bd b0d7 273e
000000e0: d871 d03d 9049 84bc d0dc c9bd bcc3 583e
000000f0: 8617 573e babd 6e3e 6c3d 5b3e e650 51be
00000100: 7aab 46be 9296 0d3e b0d7 3ebd 9427 1e3e
00000110: 9688 213e c281 3a3e 40fd 70be d0e0 9dbd
00000120: 622d 5c3e ecbf 683e 8053 4a3c 00af 603b
00000130: 02ac 4ebe 263c 4f3e 3062 893d ee38 4bbe
00000140: b080 573e 946a 5fbe e438 b03d 8a41 7abe
00000150: d433 003e a855 c23d d61f 5d3e 7227 1ebe
00000160: ee0f 103e 3aae 5cbe a8f9 65bd 7e86 643e
00000170: 509f 613d 188f 15be 702c ebbd f08c 783e
00000180: f262 79be 2672 5abe 3862 183d 3058 edbc
00000190: bc21 f73d 4006 56bd 0ae5 36be 0c2d d03d
000001a0: 388e 003e 2006 973c 249a 0cbe acc1 3fbe
000001b0: 90c5 0dbe e0a2 e23c 9060 c1bc 18a1 2fbe
000001c0: 306f 39bd 107b cbbd 20a4 0cbd 7481 c33d
000001d0: c06d dc3c 9c2f 743e ec57 7d3e e881 14be
000001e0: 8c7c a2bd a0b4 f13d 20d9 cdbd 1e43 74be
000001f0: 20a8 083c 3a2a 663e 5831 293d 3804 523e
00000200: a052 683e b8cf 61be d8f6 883d 621b 183e
00000210: f2e8 273e 704e 0c3d 30b8 e63c d215 3c3e
00000220: 14e8 223e a601 2c3e 70bc 34bd b86e 0e3d
00000230: 80d7 833d 70b7 43be 6aee 613e 6aa6 29be
00000240: e87d 96bd f01a 923d d095 a9bd 6070 d5bd
00000250: 9855 423e 8871 013d b84a 633d 78d5 97bd
00000260: f874 683e 16e3 433e 6684 4cbe b084 69be
00000270: 263c 5bbe 0e4a 4e3e 8251 213e 44d9 0f3e
00000280: 90d7 2abe 08b3 8d3d 184c 563e 828e 513e
00000290: 6491 6e3e 681c d93d 68ed 3d3d feb4 58be
000002a0: 046f d53d 300d 0f3e 5ec6 223e 30f0 4dbd
000002b0: f65c 42be a0d4 49bd 80e5 6dbc f0ac 433d
000002c0: 40f2 35be 9031 b13c 0836 71be 88cd 2cbe
000002d0: e00d 51bd 2ee8 00be aa22 5cbe 1403 c5bd
000002e0: 68e8 843d 88dc b63d 806e 5a3b 90b6 933c
000002f0: 0441 67be f0b5 85bc a0f8 9ebc 2a32 673e
00000300: 480f 27bd 20a0 d5bd e444 943d e01d 60bc
00000310: 9aa4 193e e8ff 6c3e 5e0c 053e acf9 16be
00000320: d8d9 b7bd 66e1 013e f87a 2bbd 84e4 c3bd
00000330: ae94 273e ecef 66be 8863 7abe 7858 c43d
00000340: 94ad 713e e0bf 313d 04dd 2cbe f8a6 38be
00000350: 00e2 07bb e2fe 223e f2ec 2f3e 0cae cabd
00000360: d84d aabd 5064 ed3d b45d 753e 0060 d83d
00000370: b075 1fbe 40cf b03c 40fc 9fbc c043 483c
00000380: 90b2 473d 7056 5f3e ee26 3d3e e421 5fbe
00000390: dec4 613e 7068 b03d 7ad2 7dbe b02d 633e
000003a0: 18cf d43d 48a8 6ebe 543f c3bd dc09 d73d
000003b0: 1c15 fa3d 9663 59be d0a0 e5bd 6499 903d
000003c0: d4d1 0c3e fcc7 77be 0ab2 5c3e d01e b2bc
000003d0: 7028 a3bc 00d9 e73d 805f 453e 6e21 563e
000003e0: aaa2 033e 2666 62be 9036 b4bc 884c c8bd
000003f0: 209f 3b3e 543d 7e3e d4b7 1dbe e073 7a3c

foundation_model.up_path.0.up.bias f4 [8]
-0.08436957 -0.14947164 0.11291516 -0.053993195 0.2292774 -0.20362231 0.08141899 0.14312556
00000000: f4c9 acbd 180f 19be 1040 e73d f827 5dbd
00000010: b2c7 6a3e 5e82 50be 00bf a63d 828f 123e

foundation_model.up_path.0.conv_block.block.0.weight f4 [8, 16, 3]
0.06818563 0.12524801 0.0066828197 -0.015366914 0.020680483 0.070633024 0.060340807 -0.02420922
0.039080296 -0.01159395 0.080960006 0.01896272 -0.111977234 0.029206881 -0.09672216 -0.05765267
0.09360005 0.106165715 0.13274883 -0.10245845 -0.13353032 -0.019877668 0.031126855 0.069585264
-0.020148033 0.11201714 0.10809534 0.074823156 -0.14418177 -0.12418375 -0.050834317 -0.08777727
0.08565471 0.042199537 -0.08539646 0.13125333 0.14425941 -0.14291282 0.027868362 0.04923385
0.113459826 -0.14414045 0.059758596 -0.028572757 0.062406607 0.0005993842 -0.11896296 0.054688204
-0.007559433 -0.108240046 0.03155194 -0.024896407 -0.020347144 0.09364611 -0.061239325 0.010140941
-0.02985422 0.0064522717 0.055920694 0.035284467 -0.007913988 0.053519238 -0.099851675 0.04706404
0.0132773705 -0.070770144 0.017501658 -0.07802914 -0.09392406 -0.07390967 0.06769736 0.101663955
-0.0021121174 -0.041066945 0.028938616 -0.1366128 -0.012009278 -0.0058853556 -0.05884318 -0.124439865
0.14407597 -0.1200727 0.004544084 0.08236674 -0.11682749 0.08543365 -0.10208608 -0.10231556
0.08045522 -0.11140975 -0.09202944 -0.11322775 0.12452423 0.07619392 0.013890383 -0.014009278
0.106840305 0.09842618 0.050324406 -0.08658205 0.070797466 -0.086255796 -0.08198884 -0.08451567
-0.1163455 0.11426321 -0.0035153492 0.07534598 -0.11683596 -0.01552449 0.12972677 -0.00378179
-0.00093998446 -0.015247019 -0.093809694 0.06980523 -0.10019228 0.058223546 -0.03555218 0.14137566
0.10733069 -0.12094527 -0.0010023748 0.13547534 0.014201371 0.07940099 0.07406272 -0.113059536
-0.031860225 0.14299697 -0.020423094 0.12203607 0.04276781 -0.07480661 0.08771568 -0.004255361
0.005745485 -0.06421054 0.10757939 0.05866728 -0.063027374 -0.099927366 0.05600549 -0.011768595
-0.07698876 -0.11958313 0.07820013 0.07942723 0.02202623 0.07307282 0.030454395 -0.123993106
0.11933121 0.08078784 -0.09573261 0.13236098 0.041991133 0.12361061 0.037146024 0.0131912185
0.08842257 -0.057561874 -0.020100577 -0.0923801 0.045898754 -0.076239504 0.07299379 -0.05994057
0.035050992 -0.13605818 0.04621258 -0.11965999 0.05380424 -0.10258222 -0.0054150536 -0.10448245
0.103183076 0.054747205 0.062260095 -0.13143082 0.13055675 0.010469737 -0.0136019 0.0864195
0.05326054 -0.1439231 -0.076007694 -0.07827767 0.02306668 -0.11838226 -0.08713393 0.06448434
0.08957721 -0.0908461 0.11899866 0.09567514 0.06662506 -0.11522522 0.03173319 0.04185916
0.032338753 0.07418381 0.14333463 -0.13778141 0.071771435 -0.0012534675 0.06273826 0.07090055
-0.056987267 0.0587322 0.02911247 0.061818387 -0.1160574 0.05031534 0.020110866 0.021803888
0.059338037 0.058391668 -0.044542823 -0.12357673 -0.10781919 0.07127723 -0.05212693 -0.012505957
-0.078682736 -0.022925986 0.10546314 0.005869268 0.10432126 0.014637552 0.11908822 0.12308958
0.120975606 0.06876001 -0.030611472 -0.09899351 -0.008472077 0.076914854 -0.048750333 -0.12604755
0.0420925 0.12409195 0.0054963194 -0.03316576 0.115699284 0.14119075 -0.035568956 0.09085514
-0.03447348 -0.08328242 0.049532536 -0.08998215 0.041585546 0.0012717579 0.05241603 0.009775941
00000000: e8a4 8b3d 0441 003e 8efb da3b 82c5 7bbc
00000010: 1e6a a93c 0ca8 903d ec27 773d 6a52 c6bc
00000020: a912 203d 8df4 3dbc 5cce a53d b557 9b3c
00000030: 5254 e5bd 4543 ef3c 4516 c6bd 3525 6cbd
00000040: 62b1 bf3d 696d d93d 4fef 073e bcd5 d1bd
00000050: 2cbc 08be 7ed6 a2bc bffd fe3c b882 8e3d
00000060: 7d0d a5bc 3e69 e53d 1761 dd3d e23c 993d
00000070: 63a4 13be 0d54 febd a537 50bd 92c4 b3bd
00000080: bd6b af3d 6cd9 2c3d 57e4 aebd 4667 063e
00000090: bdb8 133e bd57 12be 314c e43c 6fa9 493d
000000a0: a05d e83d 8e99 13be 6ec5 743d 6a11 eabc
000000b0: 129e 7f3d fe1f 1d3a daa2 f3bd bd00 603d
000000c0: 1fb5 f7bb f5ac ddbd 9b3c 013d 8df3 cbbc
000000d0: 0eaf a6bc 88c9 bf3d 16d6 7abd 3026 263c
000000e0: d690 f4bc 946d d33b 190d 653d 7286 103d
000000f0: aca9 01bc fd36 5b3d 097f ccbd 39c6 403d
00000100: 5489 593c f0ef 90bd a35f 8f3c becd 9fbd
00000110: 425b c0bd f45d 97bd eaa4 8a3d 3135 d03d
00000120: 736b 0abb d035 28bd ad10 ed3c 3ae4 0bbe
00000130: 90c2 44bc f1d9 c0bb 8c05 71bd 54da febd
00000140: a788 133e ade8 f5bd 8ae6 943b e5af a83d
00000150: 4043 efbd d6f7 ae3d 8212 d1bd d28a d1bd
00000160: b5c5 a43d cc2a e4bd ee79 bcbd f3e3 e7bd
00000170: 8f06 ff3d 8f0b 9c3d 7d94 633c 2c87 65bc
00000180: 17cf da3d aa93 c93d f720 4e3d ee51 b1bd
00000190: 43fe 903d e1a6 b0bd c4e9 a7bd 8d16 adbd
000001a0: 8d46 eebd d402 ea3d c661 66bb fe4e 9a3d
000001b0: b147 efbd 6e5a 7ebc 18d7 043e e8d7 77bb
000001c0: 4a69 76ba a2ce 79bc 4c1f c0bd 0bf6 8e3d
000001d0: 9c31 cdbd d07b 6e3d 2a9f 11bd c8c4 103e
000001e0: 31d0 db3d 27b2 f7bd 1e62 83ba 0cba 0a3e
000001f0: deac 683c fc9c a23d 32ae 973d c28b e7bd
00000200: de7f 02bd cc6d 123e 554e a7bc 0cee f93d
00000210: 4d2d 2f3d 3534 99bd 47a4 b33d 8e70 8bbb
00000220: 9f44 bc3b d180 83bd 9552 dc3d 1a4d 703d
00000230: 7f14 81bd b8a6 ccbd 0366 653d 11d1 40bc
00000240: 48ac 9dbd 00e8 f4bd 6427 a03d beaa a23d
00000250: 5a70 b43c 34a7 953d 7f7b f93c 19f0 fdbd
00000260: ec63 f43d 1874 a53d 750f c4bd a389 073e
00000270: e5fe 2b3d 8f27 fd3d 6e26 183d fb1f 583c
00000280: e416 b53d 00c6 6bbd f7a9 a4bc c731 bdbd
00000290: 5500 3c3d 7523 9cbd c57d 953d 3e84 75bd
000002a0: a191 0f3d d652 0bbe 6749 3d3d 4c10 f5bd
000002b0: d661 5c3d a116 d2bd c370 b1bb e5fa d5bd
000002c0: a651 d33d 9b3e 603d 7104 7f3d cd95 06be
000002d0: abb0 053e 4389 2b3c 81da 5ebc b5fc b03d
000002e0: b927 5a3d 9460 13be eca9 9bbd 0b50 a0bd
000002f0: 56f6 bc3c 6672 f2bd 4673 b2bd 5e10 843d
00000300: 4274 b73d 850d babd 92b5 f33d 54f1 c33d
00000310: b872 883d 33fb ebbd a9fa 013d 8374 2b3d
00000320: a475 043d aeed 973d 50c6 123e 9216 0dbe
00000330: e7fc 923d 644b a4ba eb7c 803d 4f34 913d
00000340: 7b6b 69bd 2d91 703d 467d ee3c 4735 7d3d
00000350: 81af edbd 7517 4e3d 8bbf a43c 119e b23c
00000360: 710c 733d 1a2c 6f3d 8972 36bd cc15 fdbd
00000370: 4fd0 dcbd ccf9 913d 0c83 55bd c9e5 4cbc
00000380: 6a24 a1bd 47cf bbbc 0ffd d73d fd52 c03b
00000390: 62a6 d53d 58d2 6f3c 86e4 f33d 6416 fc3d
000003a0: 0fc2 f73d 0cd2 8c3d e9c4 fabc 1cbd cabd
000003b0: 77ce 0abc 8985 9d3d 6eae 47bd 9c12 01be
000003c0: 2f69 2c3d ec23 fe3d 781a b43b d2d8 07bd
000003d0: bff3 ec3d 4f94 103e c1b0 11bd 4212 ba3d
000003e0: 1034 0dbd f98f aabd a1e2 4a3d 9048 b8bd
000003f0: 9b55 2a3d 1db1 a63a 31b2 563d 452b 203c

foundation_model.up_path.0.conv_block.block.0.bias f4 [8]
-0.09355008 0.05353391 0.094806544 0.12392496 -0.010244454 0.09175074 0.10500141 -0.08124864
00000000: 2f97 bfbd 6046 5b3d ef29 c23d 5fcc fd3d
00000010: 5bd8 27bc d0e7 bb3d fb0a d73d b065 a6bd

foundation_model.up_path.0.conv_block.block.2.weight f4 [8, 8, 3]
0.13316797 -0.14534822 0.11735967 0.16016048 -0.102114685 -0.13911985 0.07533098 0.15024488
-0.06295124 -0.03943912 0.036883496 0.16030245 0.011260933 -0.14030047 -0.15732189 -0.14520614
-0.20254737 0.14245278 -0.08618914 -0.13477838 -0.10081267 0.10120488 -0.08995519 0.101485156
0.17391704 0.13248573 0.1849927 0.06600458 -0.09104168 0.01581047 0.19995242 0.032412093
0.15860932 0.04476519 0.15108725 0.028173005 -0.012614095 0.14550103 0.11423182 -0.1266857
0.18907729 0.18464416 0.07853784 0.1107548 -0.20056397 -0.061235826 0.16135721 -0.18609484
-0.09774668 0.079098314 0.18499748 0.029819895 0.090887524 -0.14234114 -0.0033800928 -0.055271808
0.1582235 0.018775675 -0.092526704 0.19545561 -0.0396937 0.12769674 -0.12768686 0.079725385
0.013311711 0.19523703 0.16936536 -0.14960581 -0.18532027 0.06527959 -0.18914352 0.049177848
0.06851385 -0.077234365 -0.101776935 0.13310353 -0.14069444 -0.039626464 0.04490484 0.15451147
-0.18702568 0.04805982 0.03301773 -0.039848533 -0.07517079 -0.084467255 -0.17732084 -0.12908739
-0.20140927 0.10604508 0.06949819 -0.16892397 0.19247681 -0.13626254 0.08848021 -0.004883538
-0.13935593 0.18569426 0.08823318 -0.014962934 -0.09731096 0.07586794 -0.1063081 -0.10216403
0.05698311 -0.19615829 0.039492242 -0.07581745 -0.037406713 0.09768 0.20253019 -0.18180552
-0.002612736 -0.032633334 -0.04538866 -0.020341318 -0.02779895 0.08421207 -0.00435864 -0.14936021
0.08506401 -0.07121302 -0.1572894 -0.09422808 0.07525143 0.20130178 -0.12753952 0.06280927
-0.13596043 0.018234232 0.040215652 0.1651196 0.103333406 -0.12048044 -0.08979459 0.10746511
-0.13695969 0.20112237 -0.00926291 -0.06518483 0.06422826 0.026653377 -0.17170133 0.18503708
-0.11173824 -0.114313334 0.10427584 0.074409276 -0.1582087 -0.007257562 -0.06270488 -0.18871558
-0.084706865 0.068657495 0.014309993 0.059660815 -0.17301323 -0.16350542 0.09809148 -0.009668184
-0.057536867 -0.0637876 0.15217657 -0.05793384 0.026149455 -0.14435929 0.109271556 -0.08548028
-0.027384892 -0.06455355 0.034509473 0.074966826 -0.016332569 -0.17448778 -0.18170887 0.05483166
0.12463431 0.1456768 0.07571669 -0.07998563 0.13415937 0.034253363 0.07377453 -0.10780848
-0.049889117 -0.18773924 0.036299564 -0.06881323 -0.005580595 -0.19853427 0.080714986 0.051746175
00000000: 2f5d 083e 2ad6 14be 445a f03d 1c01 243e
00000010: 8121 d1bd 6f75 0ebe 2147 9a3d cbd9 193e
00000020: 94ec 80bd ea8a 21bd 2613 173d 5326 243e
00000030: c77f 383c edaa 0fbe fd18 21be ebb0 14be
00000040: 9468 4fbe 24df 113e ef83 b0bd 5803 0abe
00000050: e076 cebd 8144 cf3d 6d3a b8bd 73d7 cf3d
00000060: 4f17 323e 57aa 073e ba6e 3d3e 692d 873d
00000070: 0f74 babd f584 813c 54c0 4c3e 8bc2 043d
00000080: 7b6a 223e b45b 373d 9eb6 1a3e 13cb e63c
00000090: 59ab 4ebc 39fe 143e 5ff2 e93d e5b9 01be
000000a0: 7a9d 413e 5c13 3d3e 72d8 a03d 6ad3 e23d
000000b0: a460 4dbe 6bd2 7abd d33a 253e a58f 3ebe
000000c0: 692f c8bd 4cfe a13d fb6f 3d3e da48 f43c
000000d0: 3d23 ba3d e0c1 11be 8c84 5dbb b164 62bd
000000e0: 5705 223e 72cf 993c a47e bdbd 8425 483e
000000f0: dc95 22bd efc2 023e 58c0 02be 1047 a33d
00000100: 5d19 5a3c 37ec 473e 1d6e 2d3e 4432 19be
00000110: 99c4 3dbe 4eb1 853d d7ae 41be b66e 493d
00000120: fd50 8c3d 0d2d 9ebd 6d70 d0bd 4b4c 083e
00000130: 3412 10be 5c4f 22bd 23ee 373d 4138 1e3e
00000140: a983 3fbe 60da 443d 993d 073d 3738 23bd
00000150: 25f3 99bd 2bfd acbd 9893 35be 7c2f 04be
00000160: 3b3e 4ebe 2a2e d93d 1155 8e3d 68fa 2cbe
00000170: a418 453e 6888 0bbe 1d35 b53d 1606 a0bb
00000180: 52b3 0ebe a326 3e3e 99b3 b43d 1827 75bc
00000190: f84a c7bd a760 9b3d 10b8 d9bd 603b d1bd
000001a0: 1f67 693d b8dd 48be 9ec2 213d 2e46 9bbd
000001b0: c837 19bd 740c c83d 1364 4f3e 3a2b 3abe
000001c0: 703a 2bbb 88aa 05bd 76e9 39bd d6a2 a6bc
000001d0: a0ba e3bc 6177 ac3d ecd2 8ebb e2f1 18be
000001e0: 0a36 ae3d 22d8 91bd 7910 21be a7fa c0bd
000001f0: 6c1d 9a3d 0e22 4e3e b899 02be 26a2 803d
00000200: 3639 0bbe f55f 953c 2bb9 243d 1d15 293e
00000210: 77a0 d33d 73be f6bd 3ae6 b7bd ab16 dc3d
00000220: 293f 0cbe 06f3 4d3e 76c3 17bc a07f 85bd
00000230: 1b8a 833d 2f58 da3c 79d2 2fbe 5c7a 3d3e
00000240: 05d7 e4bd 1c1d eabd 928e d53d e463 983d
00000250: 7601 22be d8d0 edbb 6b6b 80bd a83e 41be
00000260: cb7a adbd 4d9c 8c3d 7674 6a3c e65e 743d
00000270: 612a 31be f76d 27be 30e4 c83d 4e67 1ebc
00000280: c7ab 6bbd 13a3 82bd 2dd4 1b3e 094c 6dbd
00000290: 6237 d63c ecd2 13be c4c9 df3d 4910 afbd
000002a0: 4856 e0bc a734 84bd ce59 0d3d 3588 993d
000002b0: e1cb 85bc edac 32be e411 3abe 2a97 603d
000002c0: 4640 ff3d 4d2c 153e 5a11 9b3d 82cf a3bd
000002d0: 1361 093e 414d 0c3d 1a17 973d b1ca dcbd
000002e0: 8858 4cbd b73e 40be daae 143d f3ed 8cbd
000002f0: 6ddd b6bb 914c 4bbe e64d a53d ccf3 533d

foundation_model.up_path.0.conv_block.block.2.bias f4 [8]
0.089092664 -0.03729911 -0.036763214 0.17298678 -0.1504832 0.021044288 0.029326826 0.06685893
00000000: 3776 b63d f4c6 18bd 0695 16bd 7223 313e
00000010: 4518 1abe 1265 ac3c d03e f03c 56ed 883d

foundation_model.up_path.1.up.weight f4 [8, 4, 2]
-0.29837313 0.2241181 -0.20902033 -0.033707406 -0.118101284 0.34586135 0.049467377 -0.08834493
0.07224821 -0.072314 0.14675815 -0.11360409 0.16861373 0.22628622 -0.13000047 0.13232155
-0.3049294 -0.041647788 0.1625419 -0.30752575 0.22223523 -0.32965347 -0.123463415 0.09815946
0.34094232 0.23794256 0.038672682 0.13164552 -0.28731176 0.28942728 0.21177498 0.19473436
0.28866988 -0.12647094 0.054600693 0.09512961 0.3393103 -0.31566754 0.1441837 -0.14079328
-0.15854245 -0.052899856 -0.32133314 0.25586495 0.24309766 0.28808984 0.17186186 0.31661507
-0.18639043 -0.1620239 -0.16256426 -0.052832507 -0.08475895 0.071526825 0.28950673 0.07031843
-0.34886956 0.10370586 -0.24102569 0.005223259 0.24355812 0.2542482 0.28295472 -0.3345451
00000000: 5dc4 98be 377f 653e 6d09 56be c710 0abd
00000010: 16df f1bd bd14 b13e 4e9e 4a3d 30ee b4bd
00000020: dff6 933d 5d19 94bd c547 163e 43a9 e8bd
00000030: 14a9 2c3e 93b7 673e d81e 05be 4d7f 073e
00000040: b51f 9cbe df96 2abd 6271 263e 0474 9dbe
00000050: a291 633e 57c8 a8be 63da fcbd d407 c93d
00000060: fe8f ae3e 37a7 733e 3f67 1e3d 15ce 063e
00000070: 871a 93be d02f 943e 8adb 583e 7268 473e
00000080: 8acc 933e 9981 01be faa4 5f3d 50d3 c23d
00000090: 14ba ad3e 2d9f a1be e4a4 133e 1d2c 10be
000000a0: f458 22be 85ad 58bd c785 a4be bb00 833e
000000b0: 98ee 783e 8380 933e 8efc 2f3e 5f1b a23e
000000c0: 22dd 3ebe 98e9 25be 3f77 26be e666 58bd
000000d0: 1a96 adbd a87c 923d 3a3a 943e 1c03 903d
000000e0: 089f b2be bd63 d43d 70cf 76be df27 ab3b
000000f0: 4d67 793e d22c 823e 71df 903e 7f49 abbe

foundation_model.up_path.1.up.bias f4 [4]
-0.25278696 0.10082622 0.09858982 0.061172187
00000000: 4b6d 81be fa7d ce3d 76e9 c93d b08f 7a3d

foundation_model.up_path.1.conv_block.block.0.weight f4 [4, 8, 3]
-0.17966753 0.09759627 -0.077318415 -0.07357434 -0.061012346 0.01625329 0.08572934 0.13133748
-0.11837384 -0.05356245 0.112401694 -0.082711324 0.14444764 -0.105468474 -0.09445584 0.03445837
-0.20242287 0.1399806 0.06778127 0.14839232 -0.14794655 -0.18709987 0.16846845 -0.14341262
-0.116367206 -0.19679232 0.18951628 0.14180222 0.19988231 -0.17082804 -0.07461333 0.061652124
-0.06804353 -0.17740877 0.18682931 0.20337746 -0.12107578 -0.09145477 -0.03317529 0.021534754
0.066945195 -0.0020209942 -0.1464089 0.11629006 0.10721725 0.15270665 0.091174714 0.013402816
0.037281785 0.13938121 0.13944565 -0.06714176 0.10064937 -0.11437896 0.067314185 0.08250002
-0.13908176 -0.18661645 0.10853856 -0.15285546 -0.17367263 -0.16115242 -0.0818533 -0.09726592
-0.0863521 0.14131488 -0.08926621 -0.01586398 -0.17619051 -0.080762796 0.1338741 -0.03282367
-0.09342721 0.14880392 0.15584198 0.14985515 -0.053058945 -0.100129314 -0.047603983 -0.0689486
-0.0031925302 0.10614709 0.11528551 -0.053853747 -0.015057761 0.19351983 -0.14357316 0.15857266
-0.03255252 0.15555345 -0.15166087 -0.016237644 0.1445468 0.107409924 -0.10746005 0.034035407
00000000: c4fa 37be 8ee0 c73d 1e59 9ebd 25ae 96bd
00000010: 15e8 79bd 9f25 853c dd92 af3d 557d 063e
00000020: fc6d f2bd 4d64 5bbd dc32 e63d 8e64 a9bd
00000030: 15ea 133e dbff d7bd 1072 c1bd 3824 0d3d
00000040: f147 4fbe 1357 0f3e e8d0 8a3d 28f4 173e
00000050: 4d7f 17be 1c97 3fbe fe82 2c3e c2da 12be
00000060: ee51 eebd ed83 49be 8e10 423e 9a34 113e
00000070: f3ad 4c3e 8ced 2ebe e0ce 98bd f086 7c3d
00000080: 685a 8bbd a5aa 35be 2f50 3f3e 2e42 503e
00000090: 94f6 f7bd a34c bbbd d0e2 07bd a769 b03c
000000a0: 901a 893d a872 04bb 37ec 15be 7c29 ee3d
000000b0: b894 db3d 225f 1c3e cfb9 ba3d 7c97 5b3c
000000c0: c9b4 183d f3b9 0e3e d7ca 0e3e 9e81 89bd
000000d0: 4221 ce3d 843f eabd 05dc 893d c5f5 a83d
000000e0: 736b 0ebe 6218 3fbe 7749 de3d 2486 1cbe
000000f0: 3dd7 31be 2405 25be b4a2 a7bd 5b33 c7bd
00000100: 5fd9 b0bd d9b4 103e 34d1 b6bd 2df5 81bc
00000110: 496b 34be f766 a5bd 4b16 093e 1d72 06bd
00000120: c456 bfbd 0e60 183e 0a95 1f3e a173 193e
00000130: 5654 59bd 9910 cdbd 65fc 42bd ec34 8dbd
00000140: c539 51bb a563 d93d cf1a ec3d bf95 5cbd
00000150: d4b4 76bc 102a 463e d804 13be df60 223e
00000160: cb55 05bd 6749 1f3e fd4c 1bbe cf04 85bc
00000170: 1404 143e bcf9 db3d 0414 dcbd b668 0b3d

foundation_model.up_path.1.conv_block.block.0.bias f4 [4]
-0.021242388 0.05920945 0.16452755 0.18781032
00000000: 8404 aebc 9c85 723d e979 283e 5951 403e

foundation_model.up_path.1.conv_block.block.2.weight f4 [4, 4, 3]
-0.18549642 -0.17722367 -0.21900623 0.1497502 0.2505184 0.24431472 -0.2855278 0.19375704
0.0046155765 0.20209208 0.057677913 0.04515057 -0.018375518 -0.22348695 -0.04837515 -0.2719489
0.10221652 -0.21828549 0.04569109 -0.26414427 0.1262626 -0.20825836 -0.21383643 -0.15842532
-0.0004585844 0.17099676 0.2789677 0.09552593 0.263377 0.20437437 -0.16542663 -0.03078197
-0.18998003 0.25837958 0.17195463 0.11300977 0.24753864 -0.077794336 -0.17597549 0.18659602
-0.08808836 -0.20638074 -0.15300569 0.16103463 0.025063911 0.101215556 -0.27862257 0.011019412
00000000: c6f2 3dbe 1f7a 35be 2b43 60be 1e58 193e
00000010: f343 803e a32d 7a3e b330 92be 3f68 463e
00000020: 433e 973b 3af1 4e3e ad3f 6c3d ceef 383d
00000030: 4188 96bc c3d9 64be 0525 46bd e33c 8bbe
00000040: e556 d13d 3b86 5fbe 9526 3b3d eb3d 87be
00000050: fc4a 013e ae41 55be f0f7 5abe 3f3a 22be
00000060: 286e f0b9 c619 2f3e dbd4 8e3e 19a3 c33d
00000070: 5ad9 863e 8447 513e 9965 29be 782a fcbc
00000080: 208a 42be 544a 843e e014 303e ab71 e73d
00000090: c57a 7d3e a352 9fbd eb32 34be 0713 3f3e
000000a0: ac67 b4bd 7955 53be 86ad 1cbe 43e6 243e
000000b0: d552 cd3c 1a4a cf3d 9ea7 8ebe c48a 343c

foundation_model.up_path.1.conv_block.block.2.bias f4 [4]
0.085069336 0.06300095 -0.096032895 0.27087492
00000000: d538 ae3d a406 813d e5ac c4bd 1eb0 8a3e

foundation_model.last.weight f4 [8, 4, 1]
-0.4408282 -0.21309054 -0.04415244 -0.020295084 0.4003932 -0.18170089 0.13981235 0.36982358
0.38458633 -0.27279478 0.48129988 -0.4629373 0.10565972 -0.14682859 0.18014616 -0.20595616
0.3943761 -0.08927363 -0.092324376 0.050521076 0.102298975 -0.2583472 0.4537776 -0.31885546
-0.38765824 -0.28523874 -0.44847274 -0.100708306 -0.44200647 -0.4352035 -0.03149861 0.19642985
00000000: 3cb4 e1be 6834 5abe 30d9 34bd e041 a6bc
00000010: 5600 cd3e cc0f 3abe f82a 0f3e 8459 bd3e
00000020: 80e8 c43e c2ab 8bbe f06c f63e 1e06 edbe
00000030: 2064 d83d 3c5a 16be 3c78 383e 2ce6 52be
00000040: aaeb c93e 18d5 b6bd 9014 bdbd 30ef 4e3d
00000050: 2082 d13d 1646 84be 8a55 e83e 0641 a3be
00000060: 247b c6be d00a 92be 389e e5be 2840 cebd
00000070: ac4e e2be fed2 debe b004 01bd e824 493e

foundation_model.last.bias f4 [8]
0.38838428 -0.31250787 -0.21455795 0.089912355 -0.38351685 -0.13762575 0.37931013 -0.056905568
00000000: 4eda c63e 0801 a0be 14b5 5bbe f823 b83d
00000010: 525c c4be c4ed 0cbe f034 c23e d015 69bd
