wandb/run-20230704_031047-c3f6cqbo/files/checkpoints/best.pt (torch, 119813 bytes, 66 tensors)

foundation_model.down_path.0.block.0.weight f4 [4, 8, 3]
000000 3d 51 ce 3e 24 3d ec 3d d4 21 af 3e 02 62 1d 3d
       0.40296355 0.11535099 0.34205496 0.038423546
000010 95 8b bf bd 7d f9 d5 bc a4 c4 05 3f 2f b4 9c 3e
       -0.09352795 -0.026119942 0.52253175 0.3060622
000020 64 40 80 3e ca 08 3a 3d 3f 33 41 3e 76 9a c3 bd
       0.25049126 0.04541854 0.18867205 -0.095509455
000030 59 50 13 bd 27 4d 01 3d 3a 9a 06 be 54 27 fe 3e
       -0.035965297 0.03156772 -0.1314477 0.4963938
000040 5e bf 1a 3f f0 11 ec 3e 6b 70 89 bd 11 c7 4a 3e
       0.60448253 0.46107435 -0.06710895 0.198025
000050 75 f6 33 bd a4 1b 09 3e 25 ad 62 3d 38 9c b8 bd
       -0.04393621 0.1338945 0.055340905 -0.09014171
000060 10 b6 e5 3d 63 21 c7 bd a0 fd c0 bc a3 df 17 3d
       0.11216366 -0.09723165 -0.023558438 0.03707851
000070 f7 83 3c 3e d4 d1 82 3e 3e bb e4 bd e9 b9 f4 3d
       0.18409716 0.2555071 -0.11168526 0.11949522
000080 a3 6f 6b 3e 7e 80 03 be f2 82 07 3e cf 64 08 be
       0.22991805 -0.12841985 0.13233545 -0.13319705
000090 6b 8b e6 bd e4 43 0f be 85 a9 c3 bd 28 49 56 be
       -0.112570606 -0.13990742 -0.09553818 -0.20926344
0000a0 29 0c e4 bd 33 f3 74 be c5 2a 39 be 8d e4 d0 bd
       -0.11135132 -0.23920898 -0.18082722 -0.101998426
0000b0 ee 79 ef bd 16 9b 38 bb c6 61 03 3e 64 8f 16 be
       -0.11693178 -0.002816861 0.12830266 -0.14703137
0000c0 a5 01 6f 3e 17 66 7c 3e 5e 9c 53 3d 23 ec fc bd
       0.23340471 0.24648319 0.051662795 -0.12349727
0000d0 25 95 05 3e 01 68 2f be 0a cb f9 3d d6 86 03 3e
       0.13045175 -0.17129518 0.1219693 0.12844405
0000e0 fa f3 64 3e 26 31 88 bd af 04 98 bc e8 74 f5 bd
       0.22358695 -0.06649999 -0.01855692 -0.11985189
0000f0 1e cf d6 bd e5 dd 57 3d d9 b5 5d bd 78 66 ef 3e
       -0.10488723 0.05270185 -0.0541285 0.46757865
000100 ee 59 90 3e 70 0a 88 3e e9 fd d0 3d cb d4 5a 3e
       0.2819361 0.26570463 0.102046795 0.21370237
000110 37 2f 1a 3e b3 15 02 3e 99 73 8b bd 1e 9d 07 bd
       0.15057074 0.1270359 -0.06809158 -0.033108823
000120 29 4c c3 bd c0 a3 07 be 0a 84 4e 3e 13 6a 12 3c
       -0.09536011 -0.1324606 0.20167556 0.008936423
000130 8a b6 67 be 3b 0c 09 3e 22 7a 10 3c 23 08 c9 3d
       -0.22628227 0.13383572 0.008818181 0.09816005
000140 18 22 a5 3d 77 44 cb bd 42 f4 c3 3d fd fa 0b 3d
       0.080631435 -0.09925168 0.09568073 0.034174908
000150 16 60 cd 3d 02 58 5d bd ca 65 e3 bd f2 d1 82 3e
       0.100280926 -0.05403901 -0.11103399 0.255508
000160 47 c4 10 3e 99 25 aa 3d 73 b3 93 3e 93 ce ef 3d
       0.14137374 0.083079524 0.28847846 0.11709323
000170 bb 6c b3 3e 2f 15 64 bd 7b a9 9d 3d 76 95 e8 bc
       0.35043892 -0.055684265 0.076983415 -0.028391581

foundation_model.down_path.0.block.0.bias f4 [4]
000000 39 38 c8 bc d2 b2 88 be 4a d3 20 3e a5 84 11 3e
       -0.024440872 -0.2669893 0.157056 0.14210756

foundation_model.down_path.0.block.2.weight f4 [4, 4, 3]
000000 9a 38 b6 3e de d0 39 3e 4b 68 69 3e bf 86 9f be
       0.3559006 0.18146083 0.22793691 -0.3115749
000010 bc e6 66 be 09 a2 1e 3d 60 f3 ed 3d 21 e5 f9 3c
       -0.22548956 0.038728748 0.11618686 0.030504765
000020 9c a8 69 3d 3d 72 b0 3e a8 85 98 3d c9 c0 96 3c
       0.057045564 0.34462157 0.07447368 0.018402474
000030 2b ce d3 3e 7b 21 b9 3d d5 b6 97 3e c7 d2 b1 bd
       0.4136823 0.09039589 0.29631677 -0.08682781
000040 a7 9d cf bd e9 1b 95 bd 96 bd ef bd 85 56 a5 3e
       -0.10137492 -0.07280714 -0.117060825 0.32292572
000050 8b 8b 0d 3d 36 72 86 3e ea 60 90 3e 3a 54 8b 3e
       0.034556907 0.2625901 0.2819894 0.27212697
000060 ba f6 6d 3d fa 5a 54 3e 04 36 87 bc b2 77 28 3e
       0.058096625 0.2073783 -0.016505249 0.1645191
000070 87 d6 02 be 77 30 a5 be 12 5b 9c 3e 58 29 81 3e
       -0.12777148 -0.32263538 0.3053823 0.25226855
000080 6b 88 8d 3e fe 91 28 3e 95 21 bb 3e 0c 12 cd bd
       0.2764314 0.16461942 0.3654906 -0.10013208
000090 96 30 db 3e ae a3 45 3e fd 7f 1f 3e 3b 48 b9 bd
       0.42810506 0.1930072 0.15576167 -0.0904698
0000a0 5f 02 09 3e 6b 7d 7b be f1 10 31 bd 49 50 36 3e
       0.13379811 -0.24559562 -0.043229047 0.17804064
0000b0 3f 9e 0f 3e b8 28 67 3e 64 57 ba bd 06 79 6c 3e
       0.1402521 0.22574127 -0.090987 0.23093042

foundation_model.down_path.0.block.2.bias f4 [4]
000000 a4 14 01 bd 1e ab 19 be 9b 2b 74 bd 67 02 96 3d
       -0.031513825 -0.15006682 -0.059611898 0.07324677

foundation_model.down_path.1.block.0.weight f4 [8, 4, 3]
000000 9c f3 03 bd 9f 66 55 bd 44 3e c4 bd ae ed 37 3b
       -0.032214746 -0.05209982 -0.09582189 0.0028065252
000010 e4 20 84 3e 76 e0 a9 3e d4 fe a3 3e 79 a9 6a 3d
       0.25806344 0.33179063 0.32030356 0.057290528
000020 3d 98 c1 3e 4c 25 7e 3d 43 41 d1 3d c4 59 98 3e
       0.3781146 0.062047288 0.10217526 0.29755986
000030 bb a1 07 3e 4e 3a 0b 3e 37 0c 4d bd 76 6b a1 3d
       0.13245289 0.1359646 -0.050060477 0.07881825
000040 7a 65 b7 3e f8 a2 68 bb 89 65 8a 3e 05 21 a5 bd
       0.35819608 -0.0035497528 0.2703059 -0.080629386
000050 0f 7a 7d 3e 0d 8b 8f 3e 1c 16 a5 3e 3b 27 93 3e
       0.24753593 0.28035775 0.3224343 0.28740868
000060 17 fe 9f 3e 76 d6 7f 3e 86 2a 85 3e 24 91 36 3e
       0.31248543 0.24984154 0.26009005 0.17828804
000070 7b 21 55 3d c2 41 9f 3e 16 8f 93 3e 2f c5 af 3e
       0.052033883 0.31104857 0.28820103 0.34330127
000080 1d 61 15 3c b4 91 98 bd be 2b 80 3e a2 87 7a 3e
       0.009117392 -0.07449666 0.25033373 0.24465802
000090 f6 87 d4 bd 40 e1 a9 3e 44 3c a1 3e 76 e6 e6 3e
       -0.10377495 0.33179665 0.31491292 0.45097703
0000a0 7e b7 b7 bd 4c bb 7f 3e 6c de d0 3c 29 c9 a6 3e
       -0.08970545 0.24973792 0.025496684 0.32575348
0000b0 5f 73 a3 3e 84 28 b4 3d d8 a7 94 3e 3b 7d a6 3e
       0.3192396 0.0879679 0.29034305 0.32517418
0000c0 40 dd f3 bd 53 6a 76 3e f7 89 af 3e f8 96 4c 3e
       -0.119074345 0.24063997 0.34284946 0.19979465
0000d0 71 92 8e 3c 39 e9 6e 3e 78 65 9f 3e 57 c4 21 3d
       0.017403813 0.23331155 0.31132102 0.039493885
0000e0 9d d9 b4 3e 28 6c b5 3e 6a d2 a2 3e 26 a1 4c 3e
       0.35322276 0.3543408 0.31801158 0.19983348
0000f0 99 d4 bb 3e 54 0d 78 3e 29 ce ca 3e 65 98 04 bd
       0.36685637 0.24223834 0.39610413 -0.032371897
000100 fc cd 5e bd 06 ef 7e 3e 4c 87 e1 3d 85 73 c8 3e
       -0.05439566 0.24895868 0.11012134 0.39150634
000110 f0 80 a6 bc 69 dc 7b 3d 27 3b 8d 3e 1a 7b 23 be
       -0.020325154 0.061489496 0.27584192 -0.15964928
000120 5a b5 8c 3e c2 73 c7 3d 57 f1 65 3e 00 98 b2 3e
       0.2748211 0.09738876 0.22455345 0.34881592
000130 86 b5 54 3e 29 b4 4f bd cc 09 3b 3e af ff ab bd
       0.2077237 -0.050708923 0.18265456 -0.08398377
000140 51 1a 1e 3e ac 43 a2 bd cb 40 69 3c 92 d2 91 3e
       0.15439726 -0.07923064 0.014236639 0.28480965
000150 ff 59 a6 be 11 9b ff 3c 80 9e 4b be da 65 d0 be
       -0.32490537 0.031201871 -0.19884682 -0.40702707
000160 a9 1b 03 be 4d a8 c2 be 0e 52 95 bd 8c 0a df be
       -0.1280352 -0.38019028 -0.07291041 -0.43562734
000170 06 1a c8 be 6d 12 96 be aa 47 81 bd db 15 9a bd
       -0.39082354 -0.29310933 -0.06312497 -0.075237

foundation_model.down_path.1.block.0.bias f4 [8]
000000 74 66 50 3e a3 6d df 3d 6d f3 21 be d7 53 51 3d
       0.20351583 0.109095834 -0.15815516 0.051105347
000010 b7 0b 08 bd 58 4e 33 3e 53 9a 50 be 11 e2 d7 3d
       -0.033214297 0.17510355 -0.2037137 0.105411656

foundation_model.down_path.1.block.2.weight f4 [8, 8, 3]
000000 14 34 8d bc 0a ad 93 be 56 d0 8b be 54 16 1f be
       -0.017236747 -0.28842956 -0.27307385 -0.15535861
000010 74 a5 85 3c 71 53 95 be d2 3c f7 bd 47 88 f0 bd
       0.016314246 -0.29165223 -0.120721474 -0.11744743
000020 7b 9c 87 be 96 f4 a9 be c3 0e 2d bd fc b3 8a be
       -0.26486573 -0.33194417 -0.042250406 -0.27090442
000030 63 fd 97 be 8f ee 0b 3c b1 00 63 be f5 78 be bd
       -0.29685506 0.0085407635 -0.22168233 -0.093004145
000040 cb 95 80 be 86 6e ca bd 5d 74 8d bd 72 4d 18 3e
       -0.25114283 -0.09884362 -0.0690696 0.14873293
000050 0e 1c 6f be 01 af 7c 3e ee 98 a0 3e 62 71 9e 3d
       -0.23350546 0.24676134 0.31366676 0.0773647
000060 87 eb 19 3e 90 79 32 3e 35 b7 8e 3e 1e 8e 47 3e
       0.15031253 0.17429185 0.2787415 0.19487807
000070 6d cb 98 3e bb 5c a3 3e 9e 3d 97 3e 2f 72 58 3c
       0.29842702 0.31906685 0.29539198 0.013210817
000080 fc 37 fa bc ea f2 a9 3e 4a 0b b0 3d 16 dc bf 3d
       -0.030544274 0.3319314 0.08595903 0.0936815
000090 d3 dc 40 3e a9 5c 51 3e e5 10 a2 3a a8 9f b6 3d
       0.18834238 0.20445503 0.0012364654 0.08917171
0000a0 4d 80 a2 3e 4b db a2 3d 84 9b 14 3e 0c 9e 27 bd
       0.3173851 0.07951983 0.1451245 -0.04092221
0000b0 62 22 14 3e 0c 65 23 be eb 21 a4 be 3f 2e 8c be
       0.14466241 -0.15956515 -0.32057127 -0.27379033
0000c0 3c 2c b2 3d 49 9b 71 3d c6 93 af 3d 94 ac ab bc
       0.08699843 0.058985982 0.085731074 -0.020956315
0000d0 cf d7 60 3e 9d 41 67 3d 9f 5e 1d 3e c1 2a 06 3e
       0.21957324 0.056459058 0.15368126 0.13102247
0000e0 61 7f 11 3e 07 af 6f 3d 26 48 bd bb b2 44 3c 3e
       0.14208747 0.05851653 -0.005776423 0.1838558
0000f0 bf 50 87 bc 36 fa 92 3d 9e 88 c9 3d b4 7a 54 3e
       -0.016517995 0.0717663 0.09840511 0.20749933
000100 52 e0 ac 3b 10 8d b9 3d 80 e9 03 3e e8 11 67 3e
       0.0052757645 0.09060109 0.12882042 0.22565424
000110 e6 2d 67 3e e4 3a 14 be a5 1c 02 be 70 b8 bc bc
       0.22576103 -0.1447559 -0.1270624 -0.023037165
000120 09 6f d8 bd 8d 75 da 3d 8f ee 32 bd 23 4d d4 3d
       -0.10568053 0.10666952 -0.04368454 0.10366275
000130 2c d2 5a 3e 1f c5 2b 3b 08 c0 20 3e 5e bd 84 3d
       0.21369237 0.0026210023 0.15698254 0.064814314
000140 b0 c5 96 3e 22 c3 e4 3d 76 32 a4 3d be 9d 41 3e
       0.294477 0.11170031 0.08017437 0.1890783
000150 55 71 94 3d f1 25 1d 3e d0 a6 92 3e 84 e9 a9 3d
       0.07248179 0.15346505 0.28642893 0.08296493
000160 63 7c f7 3d 44 bb f5 3d df 85 82 3e 24 11 3c 3d
       0.12084272 0.11998609 0.2549276 0.045914784
000170 80 cf 3b 3e 30 9c 40 be 54 85 47 be 2b a6 b7 bd
       0.18340874 -0.18809581 -0.19484454 -0.08967241
000180 d2 3a 97 be 32 a0 b7 bd 17 2d 8f be 8c 31 84 be
       -0.29537064 -0.08966102 -0.27964088 -0.2581905
000190 96 5d 36 be 4f 97 42 be 22 07 81 3c d5 af 60 3d
       -0.17809138 -0.19003032 0.015750472 0.054855186
0001a0 47 71 80 be 2d 4a 61 bd 59 ea 44 be 29 ef 20 bd
       -0.25086424 -0.05500238 -0.19230022 -0.03929058
0001b0 af 82 4f be d5 07 68 be 70 16 ec bc e1 af 49 bd
       -0.20264696 -0.22659238 -0.028819293 -0.049239997
0001c0 c1 d1 d4 bd c1 01 1c be 0e 01 7f 3c 83 1a 54 be
       -0.1039157 -0.15235044 0.015564216 -0.20713238
0001d0 de f8 15 be 94 c2 bd 3c 7a cf 6b 3e 75 2d c0 bc
       -0.14645717 0.023164071 0.23028365 -0.023459176
0001e0 4d dc 47 3e 3a 34 4a bd 90 2b 8c 3d e2 3e 58 3e
       0.19517632 -0.049366213 0.068442464 0.21117738
0001f0 dd 7a 98 3e ec 91 80 3d a7 85 0e 3e 25 e3 8b 3e
       0.29781237 0.062778324 0.13918172 0.27321735
000200 01 d7 15 3e 38 cc 84 3e 93 17 7b 3e 54 39 8d 3e
       0.14632799 0.25937057 0.24520712 0.275828
000210 c3 2b 10 bb b8 aa 5b bd 3c f2 61 3e 18 7d 0f 3e
       -0.002199874 -0.053629607 0.22065061 0.14012563
000220 19 c5 94 3d 6a 49 58 bd 70 89 57 3e e2 c5 80 3e
       0.07264156 -0.052804388 0.21048522 0.25150973
000230 8b ca 09 3e 7f d4 3b be 73 60 5f be 64 2f 8c be
       0.1345617 -0.1834278 -0.21814136 -0.27379906
000240 04 25 7e 3e 3a 21 5b 3e 2d 6b df 3d 30 4c e1 3d
       0.24818808 0.21399394 0.10909114 0.1100086
000250 b5 4c fc 3b 7c 48 81 3d c2 3c 24 3e ea 0b 34 3e
       0.007699574 0.063126534 0.16038802 0.1758267
000260 82 52 82 3e ea 14 e6 bc 36 84 aa 3d 7f 74 ab 3e
       0.25453573 -0.028086144 0.083259985 0.33487317
000270 ef e5 f1 3d 34 72 e5 3d 61 63 87 3d a8 75 19 3e
       0.118114345 0.11203423 0.06610752 0.14986289
000280 c5 9d 50 3e 56 db 4f b9 58 f9 5e 3d c4 1c b4 bd
       0.20372684 -0.00019822767 0.05443701 -0.08794549
000290 f8 2c b8 3c 4c 33 75 be 51 98 cc 3b f5 9f 22 be
       0.02248238 -0.2394535 0.0062437435 -0.15881331
0002a0 db 7e 19 3e 0c 5e 49 bd 90 ee 6a 3e 65 49 37 bd
       0.14989798 -0.049161956 0.22942567 -0.04474773
0002b0 05 1f f3 bd 50 fe a2 3d e2 73 61 3e 40 b9 b0 3d
       -0.11871151 0.079586625 0.22016862 0.08629084
0002c0 71 4c 56 3e c1 bb a0 3e d4 6c 34 3e 5f 41 1a 3c
       0.20927598 0.31393245 0.1761964 0.009415
0002d0 3a bf 23 3d 1a 8b ea 3c 86 5b 1f 3e 92 00 ef 3d
       0.03997729 0.028630782 0.15562257 0.11670031
0002e0 39 56 ce bd b3 70 e5 3d 2a 3f 7f 3e bd 27 0e 3d
       -0.100750394 0.11203136 0.24926439 0.034705866
0002f0 98 41 ba 3c 12 92 bc bd 43 31 6a be 62 2c a5 be
       0.022736356 -0.09207548 -0.22870354 -0.32260424

foundation_model.down_path.1.block.2.bias f4 [8]
000000 15 76 97 3d fe d9 c1 bd 2e d4 0d 3d bb c7 e1 3d
       0.07395569 -0.09465407 0.03462618 0.11024424
000010 b1 60 d3 3d fd 95 88 3d 8e 1e 1d bd 4c 4f a0 3d
       0.10321177 0.06669233 -0.038359217 0.07827625

foundation_model.down_path.2.block.0.weight f4 [16, 8, 3]
000000 71 51 1e 3e 98 45 04 3d 1a 7f 32 3e 0b 63 d6 bd
       0.15460755 0.032292932 0.17431298 -0.1046811
000010 c8 77 e0 bc 9b 8e 75 be 4f 69 47 be 30 48 b6 bd
       -0.027400866 -0.23980181 -0.19473766 -0.089004874
000020 bf 0c 88 bd f9 f3 92 be 34 ba 9d 3d b3 16 ca 3c
       -0.06643056 -0.2870176 0.07701531 0.024669027
000030 4c 78 de 3d d9 71 0d 3e 83 f5 44 3e d7 e2 9d bc
       0.108627886 0.1381296 0.1923428 -0.019273205
000040 25 6c 56 be cc f8 72 be 2f 24 a6 3d fc d7 12 be
       -0.20939691 -0.23727721 0.0811237 -0.14340204
000050 84 55 41 be 61 9b 0e be ac 97 a7 bd 56 55 12 bd
       -0.18880278 -0.1392646 -0.08183226 -0.035725914
000060 3b 8c 18 3d 89 2f c0 3d 0c 98 56 bc bb 38 42 3e
       0.03724311 0.093840666 -0.013097774 0.18966953
000070 b4 1a 4d 3d 5b 47 80 3e 76 1d 62 3d c8 bc 81 3e
       0.050074294 0.2505444 0.055203877 0.2533934
000080 db 7a d3 3c 9b 35 80 3e 6a b2 68 3d 79 29 66 3d
       0.025815418 0.25040898 0.056810774 0.056191895
000090 e4 ff d2 bd a1 46 e3 3c 32 2c 16 be 68 ad 8b 3c
       -0.103027135 0.02774364 -0.14665297 0.01705046
0000a0 2d 56 05 3d cd 28 98 3e 52 d1 71 3e 8f d2 be 3c
       0.032552887 0.2971863 0.23615006 0.023293762
0000b0 08 8a ad 3b 97 ff 00 3e 24 2c d1 3a 2d 97 5c 3e
       0.0052959956 0.125975 0.001595859 0.21542044
0000c0 89 f5 56 3e 2a f0 19 3e 45 1e a5 3e 58 4a 2f be
       0.20992102 0.15033022 0.32249656 -0.17118204
0000d0 b9 4f d5 be d3 b1 2b be 44 40 9c be 9f 5a 6f be
       -0.41662386 -0.16767053 -0.3051778 -0.23374413
0000e0 f8 4a b9 bd 2e 91 47 bd 8b 33 c2 be 0d 55 bc be
       -0.09047502 -0.04872244 -0.3792995 -0.3678364
0000f0 1b 80 64 3e 43 cb b0 3e 44 8f 80 3d 74 94 41 be
       0.22314493 0.34530076 0.06277326 -0.18904287
000100 b2 6b 3a be 24 76 cc be 4e 45 ee be 04 e1 d6 be
       -0.18205145 -0.39933884 -0.4653725 -0.41968548
000110 6f 58 a1 bd 15 96 7a be b3 ce bb be 20 44 55 be
       -0.078781955 -0.24471314 -0.36681136 -0.20826769
000120 7d 90 e3 3e 16 fc c5 3e c7 ec 8e 3e de 5d ae be
       0.44446173 0.3866889 0.27915022 -0.3405599
000130 a7 35 a1 be fd 5e c0 be 7a db aa be 53 97 94 be
       -0.31486246 -0.3757247 -0.33370572 -0.290217
000140 37 ac 06 be d7 58 c0 be fb 5a 10 be 56 04 8c be
       -0.13151632 -0.3756778 -0.14097206 -0.27347058
000150 dc 94 ba 3e 72 15 3a 3d b1 31 90 3e 5a c1 18 be
       0.36441696 0.045430608 0.28162912 -0.14917508
000160 90 d9 4d be 67 ef 3f be 09 10 b0 be ab ab a4 be
       -0.20102525 -0.18743668 -0.34387234 -0.32162222
000170 0f ad 15 be 3d d8 b0 be 45 78 19 be e4 ac b0 be
       -0.14616798 -0.34539977 -0.14987285 -0.34506905
000180 91 18 b8 3e b7 80 bc 3e fb 6d 48 3e a6 76 93 bd
       0.35956243 0.36816952 0.19573204 -0.07200365
000190 f7 fd c8 be 2c 9a 23 be ba aa b6 be 22 90 00 be
       -0.3925626 -0.1597678 -0.3567713 -0.12554982
0001a0 81 e6 d6 be 07 1b 3f be 72 09 b8 bc 37 6d ed 3c
       -0.41972736 -0.18662654 -0.022465441 0.028982742
0001b0 a7 e2 19 3e 23 01 95 3e 9b f6 ad 3e a6 a0 ac be
       0.15027867 0.2910243 0.33977208 -0.33716315
0001c0 87 72 89 be 79 32 f4 bd c5 dd 91 bd a1 55 8e bd
       -0.2684519 -0.119236894 -0.07122377 -0.06949926
0001d0 e6 aa 16 bd 32 1d 43 be 28 ed a2 be 3e 4d a2 be
       -0.036784075 -0.19054106 -0.3182156 -0.31699556
0001e0 c0 82 b2 3e 84 b5 86 3e e9 47 30 3e 8e 0a d9 be
       0.3486538 0.2631036 0.17214932 -0.42390865
0001f0 11 a0 e2 be 25 51 86 be c0 e8 c0 be 55 ea bd be
       -0.44262746 -0.26233783 -0.37677574 -0.37092844
000200 85 7d 21 be 6d 84 b2 be aa 62 37 be ae f5 05 be
       -0.15770538 -0.34866658 -0.17908731 -0.13082
000210 96 8b 01 3e 93 dd 69 3e cd 40 56 3e a5 12 b1 be
       0.12650904 0.2283843 0.20923157 -0.34584537
000220 36 c1 2a be 6f c8 c6 be d4 7c 20 be c9 de c2 be
       -0.16675267 -0.38824794 -0.15672618 -0.38060597
000230 50 7d 9e be 1b b6 c0 be 2f 52 69 be b7 07 c0 be
       -0.3095498 -0.37638935 -0.22785257 -0.37505886
000240 7d a8 90 3e fb 17 9d 3e 42 2d 86 3e 13 b7 e1 be
       0.28253546 0.30682358 0.26206404 -0.44084987
000250 7a 25 ca be d9 5e f0 be e5 48 21 be 99 1c da be
       -0.39481717 -0.46947363 -0.15750463 -0.42599943
000260 09 09 aa bd 4f 12 cd bc 86 d9 84 be f1 0e b9 be
       -0.083025046 -0.025033144 -0.25947207 -0.36144212
000270 f0 52 34 3e 82 e2 38 3e 43 bb 9d 3d e2 c4 27 be
       0.17609763 0.18055156 0.07701733 -0.16383699
000280 2b c9 e3 be e7 5b b9 bd 02 6d 94 bd da da 72 be
       -0.44489416 -0.09050732 -0.07247354 -0.23716298
000290 e3 d7 d8 bd a2 25 0c be 90 4f a7 bd d2 9a e5 bd
       -0.10588052 -0.13686231 -0.08169472 -0.1121117
0002a0 9f 4d e1 3d 58 df 92 be 34 91 74 be 7f 81 60 bd
       0.11001133 -0.28686023 -0.23883516 -0.054810997
0002b0 d9 d8 c5 ba 40 38 01 bd 0f 70 7e 3e 5e c5 f4 bd
       -0.0015094533 -0.031547785 0.24847434 -0.11951707
0002c0 5c b1 44 3d 97 29 4c 3e 57 0e f5 3d ac 11 a9 3d
       0.048020706 0.1993774 0.11965626 0.08255324
0002d0 93 4f 24 be 06 94 d9 3d be 7c 2c bd 85 27 43 3e
       -0.1604598 0.10623936 -0.04211115 0.19058044
0002e0 5a e3 ae bd da 30 83 3e 79 37 dd bd 17 b3 24 3d
       -0.085394576 0.25623208 -0.10801596 0.040209856
0002f0 28 5a 88 3e 7c 99 f3 3d de 75 7c 3e cd 59 31 3e
       0.26631284 0.11894509 0.24654338 0.17319413
000300 05 2a 93 bc db 29 8c be 3c a2 9c 3c ec b9 85 3e
       -0.017964372 -0.27375683 0.019120328 0.2611841
000310 30 7e 87 3e c4 1a a7 bb 64 bc 0f 3e 46 90 87 3e
       0.2646346 -0.0050996263 0.14036709 0.2647726
000320 50 57 21 3e 48 4e 2d 3e 94 f0 0b be 89 d8 7a 3e
       0.15755963 0.16924393 -0.13665992 0.24496664
000330 f9 e2 26 3d 29 04 65 be ef 8e 3b be 55 50 73 bd
       0.0407438 -0.22364868 -0.18316244 -0.059402782
000340 34 27 2e 3e 63 18 1f 3e bc 39 85 bc f4 2e d1 3d
       0.17007142 0.15536647 -0.016262881 0.10214034
000350 ce fb 60 3e 59 ec 5b 3e 21 5d 3a 3e 4a c9 a7 3d
       0.21971056 0.21476878 0.18199588 0.0819269
000360 0c 20 5a bd 84 e7 95 3d 9a da 7b be ab e2 b6 bc
       -0.05325322 0.07319549 -0.24595109 -0.02232488
000370 a7 02 7b 3e 73 79 cc bc 9d 18 3c 3e 3a ab 63 bc
       0.2451273 -0.024960255 0.18368764 -0.013895804
000380 d1 d9 42 3e 6c 31 60 3d 2c 52 2f 3e bc 3e 6c 3e
       0.19028403 0.054734632 0.1712119 0.23070806
000390 65 0d fd bd f7 46 7d 3d 31 81 e7 bd 2a 11 60 3d
       -0.123560704 0.061835255 -0.11303938 0.05470387
0003a0 b3 db d8 3d 9b 06 65 3e 5f c4 02 3e 5f 54 15 3d
       0.10588779 0.22365801 0.12770222 0.036457416
0003b0 90 59 f7 3d fb 08 5b bc 5d 9e d6 3d b2 c7 3b 3d
       0.120776296 -0.01336884 0.10479424 0.04584474
0003c0 2d cf 07 3e 96 76 ba 3d 55 17 1c 3e 6f c3 f4 bd
       0.13262625 0.0910465 0.15243275 -0.119513385
0003d0 e3 cf fe be 12 df f2 be 38 6a d4 be f6 fd dd be
       -0.4976798 -0.47435814 -0.41487288 -0.4335782
0003e0 98 ec b0 be 84 57 d4 bd aa 3e af be e1 93 6c be
       -0.34555507 -0.10368255 -0.34227496 -0.23103286
0003f0 29 e8 bd 3d 11 05 27 3e 37 d5 c4 3e 28 01 43 be
       0.09272797 0.16310526 0.3844392 -0.1904341

foundation_model.down_path.2.block.0.bias f4 [16]
000000 3b 74 11 3e 98 e4 49 be 3a c2 16 3d 96 a1 ff 3d
       0.14204495 -0.19716108 0.036806323 0.12481992
000010 39 ae 80 3d 5d 38 2c 3d 3e 92 82 bb e7 5b 0b bd
       0.0628323 0.04204594 -0.0039847186 -0.03402319
000020 d2 f5 fc 3c b5 40 1d 3c b2 1b 3d 3d 7a c8 c6 bd
       0.030878935 0.009597947 0.04616899 -0.097062066
000030 b7 de 19 3d b5 af 19 be 41 0a 9c 3d f5 b2 1f 3e
       0.037565913 -0.15008433 0.07619143 0.1559561

foundation_model.down_path.2.block.2.weight f4 [16, 16, 3]
000000 41 90 b4 3d a8 d1 eb 3d 5c 6c da 3d cc 7f c2 bd
       0.08816577 0.11514598 0.10665199 -0.094970316
000010 ed af ed bd a8 65 37 be 3d 93 cb 3d a9 8d b9 3d
       -0.11605821 -0.17909873 0.09940193 0.09060223
000020 44 ba 8b 3e f8 f3 c9 3d 4f 6b 03 3e 0b 81 d0 3d
       0.27290547 0.098609865 0.12833904 0.10180863
000030 86 0a 77 3e 64 7e 85 3e 52 9a 91 3e 11 87 6a 3e
       0.24125108 0.2607299 0.2843805 0.22903086
000040 dc 62 de 3d be 55 80 3e 39 d2 7f 3e 1a 7e 64 3e
       0.108587 0.25065416 0.24982537 0.22313729
000050 c1 3b 8a 3e 1e f1 63 be f4 53 86 bd 32 b8 2a be
       0.26998714 -0.22259948 -0.065589815 -0.16671827
000060 8b 8a 91 bd 0b ff 4c bd ab 14 80 be 1a a9 3d be
       -0.07106503 -0.050047915 -0.25015768 -0.18521538
000070 cf 86 b8 bd ed 8f 8e be 66 52 f5 3d 1e 15 37 3e
       -0.09010088 -0.27844182 0.11978607 0.1787915
000080 bd 07 80 3e 17 02 79 3e 45 62 56 3e ce 98 51 3e
       0.25005904 0.24317203 0.20935924 0.20468447
000090 90 25 a2 bd 9d 62 0c be 19 66 7f be dd ec 46 be
       -0.07917321 -0.13709493 -0.24941291 -0.19426294
0000a0 05 05 0d be 1f 38 0b be 92 13 6b 3e 9c 94 7a 3e
       -0.13771446 -0.13595627 0.22956684 0.24470752
0000b0 01 1e ab 3d f8 ba d0 3d 6d 2f ec bc 55 70 47 3d
       0.08355332 0.101919115 -0.028831208 0.048691113
0000c0 6a 4f 25 3e b4 0c 6e 3d a6 60 21 bd de 94 3b 3c
       0.16143575 0.058117583 -0.03939881 0.011449067
0000d0 c3 42 03 be c5 4a 1e 3c 47 3e 80 3e 0b 0d 9d 3e
       -0.12818436 0.009661381 0.25047514 0.30674013
0000e0 15 f9 74 3e 57 2a e0 3d d8 01 91 3d 1c c4 bf 3b
       0.23923142 0.10945576 0.0708043 0.0058522355
0000f0 c3 c4 17 3d ec 5f 11 3e ce e6 95 3e ff 46 34 3e
       0.03705288 0.14196748 0.29277653 0.17605208
000100 41 a8 b0 3e 0a 20 23 3e 7f 5d d2 3d 64 25 5c 3e
       0.34503368 0.1593019 0.10271739 0.21498638
000110 6a a9 54 3e 9c 5d a7 bd bd 1a 7c be 56 e1 32 be
       0.20767751 -0.081721514 -0.24619575 -0.17468771
000120 72 fe b2 bd eb 18 53 be b7 45 7b be 0a 19 81 bd
       -0.08739938 -0.20614974 -0.24538313 -0.06303604
000130 55 60 5a be 91 45 7e be 1a ac 3e 3e b5 16 f2 3d
       -0.2132581 -0.24831225 0.18620339 0.11820737
000140 19 4b 86 3e 8a 8c 0a 3e 4c ad 92 3e 7a 3d 03 3e
       0.2622917 0.13530174 0.2864784 0.1281642
000150 ea ba ed bd f4 75 2e be 05 bb 7b be a9 60 07 be
       -0.11607917 -0.17037183 -0.24583061 -0.13220467
000160 61 fb 26 bc 93 cd 13 bd 00 e6 18 3d 7c 81 46 3e
       -0.010191769 -0.036084723 0.03732872 0.19385332
000170 25 34 f7 3d 22 1c 57 3e b6 f6 63 3e 9f 9a 49 3e
       0.12070493 0.21006826 0.22262082 0.1968789
000180 52 de 2c 3e 3f 15 1b bd fb 84 88 bd f7 e2 09 be
       0.16881683 -0.03786206 -0.06665989 -0.13465486
000190 3a 91 ad bd db c6 50 be 12 c3 52 3e 44 ab 18 3e
       -0.084749654 -0.20388357 0.20582226 0.14909083
0001a0 8a b9 9c 3e ca 19 66 3e b7 e9 74 3e ef 63 cd 3d
       0.30610305 0.22470775 0.2391728 0.100288264
0001b0 7e 23 82 3e 36 36 93 3d d7 da b8 3d f8 f9 62 3e
       0.25417703 0.07188074 0.090261154 0.22165668
0001c0 b8 a8 2a 3e d4 29 16 3e f2 92 31 3e 73 24 7a 3e
       0.16665924 0.14664394 0.17341211 0.24427967
0001d0 84 d6 17 3e 7e ab 3e be a6 76 18 bd 76 de fc bc
       0.14827925 -0.18620107 -0.037222527 -0.030867796
0001e0 4c 99 1e be 1f ef 24 be 5e ba 77 be 80 54 74 be
       -0.15488166 -0.16106842 -0.24192187 -0.23860359
0001f0 41 3e 54 be 6a b5 b6 bd c4 da 9a 3e bc a1 65 3e
       -0.20726873 -0.08921321 0.3024503 0.22424978
000200 25 63 94 3e ec 61 87 3e d4 44 02 3e dd 40 ef 3d
       0.2898189 0.26441896 0.12721568 0.116822936
000210 83 27 7e be 18 4d 3e be fb 4d 2e be 47 4d df bc
       -0.2481976 -0.18584096 -0.17021935 -0.027258528
000220 66 e5 a6 bc d2 d7 48 bc 5c 23 10 3e c9 bf d0 3d
       -0.020373058 -0.012258487 0.14075989 0.1019283
000230 96 a6 45 3e 54 6c 40 bb d4 02 4f 3e 9f 69 cd 3d
       0.19301829 -0.0029361444 0.20215923 0.10029911
000240 44 48 82 bd 72 b0 c8 3d b8 51 de bd a0 e5 be bb
       -0.0636144 0.09799279 -0.1085543 -0.0058257133
000250 50 17 b3 bd f9 81 91 bd a8 57 30 be 39 44 8d bd
       -0.08744681 -0.071048684 -0.17220938 -0.06897778
000260 7d 20 8c ba 27 d8 d3 bc 83 aa 6c be bd 2c e5 bb
       -0.0010690835 -0.025859905 -0.2311192 -0.0069938586
000270 dd 5b e2 bd 8c 10 af bc b8 32 ef bd ba 27 b2 bd
       -0.11052678 -0.021370195 -0.11679596 -0.086989835
000280 29 0f 91 be 51 93 5f be 98 3e 52 be e6 21 6e be
       -0.2833188 -0.2183354 -0.2053169 -0.23255119
000290 5d c1 a3 3c ea 02 9c 3b 9f 4b 14 3d 91 8b 17 ba
       0.019989664 0.0047610896 0.03620493 -0.000578099
0002a0 88 a8 5e 3d 4b f8 53 3d a9 84 54 3d e7 97 14 bd
       0.054359943 0.051750463 0.051884327 -0.036277678
0002b0 e6 d8 d5 3d 52 31 e9 3d 43 dc a2 bd b3 43 fd bc
       0.10441761 0.1138636 -0.07952168 -0.03091607
0002c0 07 c0 66 be f9 83 14 be ae 6b 88 be 0e df e4 bc
       -0.2253419 -0.14503469 -0.26644653 -0.027938392
0002d0 1e cf 1a 3e 7c 3d 58 bd c2 5f 48 3d 90 14 d1 bc
       0.15118071 -0.05279301 0.048919447 -0.0255225
0002e0 b9 79 04 3e a9 d1 0f 3e a1 9f 6c be 69 45 38 be
       0.12937059 0.14044823 -0.23107769 -0.17995228
0002f0 56 f1 5a 3d 60 41 a1 3d 2e d2 1e be 28 2a a3 3d
       0.053452812 0.078737974 -0.15509865 0.07967025
000300 48 ff 09 bd ca e1 03 3e cb 5b d0 bd 3e a6 1b be
       -0.03369072 0.128791 -0.10173758 -0.15200135
000310 8f 95 fd bd f9 6e 06 be 9b b8 40 be 33 c0 df bd
       -0.12382042 -0.1312827 -0.18820421 -0.10925331
000320 55 b6 41 be 00 a2 25 be 45 ae 8e 3d 20 18 30 be
       -0.1891721 -0.1617508 0.06966833 -0.17196703
000330 35 c8 09 bd f5 2f 5f bd 93 10 45 bd a3 62 0d be
       -0.033638198 -0.054489095 -0.04811151 -0.13807158
000340 36 2a d7 bd 74 ea 2a be 54 ef 26 be 58 d3 1d be
       -0.10506098 -0.16691 -0.16302234 -0.15412652
000350 2e 8f dc bd c5 dc 5d bd 15 e6 41 bd 5f 39 58 bd
       -0.10769497 -0.05416562 -0.047338564 -0.05278909
000360 c0 f5 0f be 14 45 24 3d c0 cb 21 3d 6a b7 02 be
       -0.1405859 0.04010494 0.03950095 -0.1276528
000370 36 ae 84 3d 54 25 8e 3c 9a 67 91 bd 58 8e 33 be
       0.064785406 0.017351784 -0.070998386 -0.17534769
000380 8f e0 0a 3c 03 32 ed bd f9 bc 15 be c8 74 03 3c
       0.0084763905 -0.115818046 -0.14622869 0.008023448
000390 33 34 03 3e f6 c5 f0 bd 23 d4 88 3c 97 f5 35 39
       0.12812881 -0.11756508 0.016702717 0.00017352994
0003a0 33 6b 4f 3b 82 11 18 be 56 3e 9e bc 8e a2 10 be
       0.003164959 -0.14850429 -0.019316833 -0.1412451
0003b0 39 09 00 3d 7f 77 c0 bb c1 82 07 be fa 2c 17 3d
       0.031258795 -0.00587362 -0.13233472 0.036908127
0003c0 cd fc b6 bc 9c 22 51 bc 1a 4a 7d bd fd 80 c2 3d
       -0.022337342 -0.012764599 -0.061838247 0.09497259
0003d0 bf 54 19 3e ec 9d 36 bd 9f e4 47 3d 0a 99 a9 bd
       0.14973734 -0.0445842 0.048802014 -0.08281143
0003e0 e0 5b 8d 3d 36 88 1a bd dc b0 86 bc 0a 9d 4a bd
       0.069022894 -0.037727557 -0.016441755 -0.04946617
0003f0 a3 c6 c5 bd 3e 9e 03 be 32 5a 39 3c b3 43 6b be
       -0.096570276 -0.12853333 0.011313008 -0.22975044

foundation_model.down_path.2.block.2.bias f4 [16]
000000 6a 23 e8 3d e8 10 88 3d 23 01 63 3d 01 fa ff 3c
       0.1133488 0.066438496 0.055421006 0.03124714
000010 e5 41 7f 3e b1 5d 97 bd 1e 1c 98 bc ff 27 41 3a
       0.2492748 -0.07390917 -0.018568095 0.00073683256
000020 46 cc e0 3d 1c 71 e1 3d 62 4e 43 be e7 ad 02 3e
       0.10976462 0.11007902 -0.1907287 0.12761651
000030 c2 1f 77 3d 20 b9 a0 bc 6a cc 3e 3d 8d 6a a2 3d
       0.06033302 -0.019619524 0.046581663 0.07930479

foundation_model.up_path.0.up.weight f4 [16, 8, 2]
000000 00 df 5a 3e 44 8f 8f 3d 08 2c 46 bd f2 60 3d 3e
       0.2137413 0.070097476 -0.048381835 0.18494013
000010 e0 6d 89 bc a8 f3 e8 3d da 7a 4b be 52 aa 03 3e
       -0.016776025 0.11374599 -0.19871083 0.12857941
000020 18 64 43 3d 80 c8 eb bb a8 d3 a5 3d 30 b7 1e be
       0.04770288 -0.0071955323 0.08097011 -0.15499568
000030 ec 11 38 be cc e9 3a be d8 c3 3e be 70 9b 11 3e
       -0.17975587 -0.18253249 -0.18629396 0.14219451
000040 f8 49 01 be d0 32 2e 3d 98 ed 7a be 40 e1 5c 3e
       -0.12625873 0.042528927 -0.24504697 0.21570301
000050 a0 43 34 3c 90 a1 16 3d 82 bb 78 be e0 e7 1b 3d
       0.011002451 0.03677517 -0.24290279 0.03806293
000060 f8 72 ce bd 2c 3c 7c 3e ba 6a 21 be f0 63 62 bd
       -0.10080522 0.24632329 -0.15763369 -0.05527109
000070 a8 eb 02 bd 20 ee 1d be 6c 7d 6a 3e 8a 2b 6b 3e
       -0.03196302 -0.15422869 0.22899407 0.22965828
000080 0c a3 25 3e f0 37 64 bd 40 64 92 3d 7c 9a 00 be
       0.16175479 -0.05571741 0.071480274 -0.12558931
000090 96 ee 02 be 70 da 2a bd 4c c2 c6 3d 30 be ab bd
       -0.12786326 -0.041712224 0.09705028 -0.08385885
0000a0 b0 a3 5f 3d 34 74 98 3d 08 4c 52 3e d0 39 57 3e
       0.054599464 0.07444039 0.20536816 0.21018147
0000b0 d0 e5 24 bd a8 56 7b be 88 07 5a 3d cc 4a 45 3e
       -0.04025823 -0.24544775 0.05322984 0.19266814
0000c0 58 c4 60 be b2 6b 06 be 6a b9 59 3e ec 3e 06 3e
       -0.21949899 -0.1312702 0.21262136 0.1310994
0000d0 00 d0 3b 39 34 3b 5c 3e 08 4b d4 bd b0 d7 27 3e
       0.00017911196 0.21506959 -0.103658736 0.16390872
0000e0 d8 71 d0 3d 90 49 84 bc d0 dc c9 bd bc c3 58 3e
       0.10177964 -0.016148359 -0.0985657 0.21168417
0000f0 86 17 57 3e ba bd 6e 3e 6c 3d 5b 3e e6 50 51 be
       0.21005067 0.23314562 0.2141015 -0.20441017
000100 7a ab 46 be 92 96 0d 3e b0 d7 3e bd 94 27 1e 3e
       -0.1940135 0.1382697 -0.046592414 0.15444785
000110 96 88 21 3e c2 81 3a 3e 40 fd 70 be d0 e0 9d bd
       0.1577476 0.18213561 -0.23534107 -0.07708895
000120 62 2d 5c 3e ec bf 68 3e 80 53 4a 3c 00 af 60 3b
       0.21501687 0.22729462 0.0123490095 0.0034283996
000130 02 ac 4e be 26 3c 4f 3e 30 62 89 3d ee 38 4b be
       -0.20182803 0.20237789 0.06708181 -0.19845936
000140 b0 80 57 3e 94 6a 5f be e4 38 b0 3d 8a 41 7a be
       0.21045184 -0.21818 0.08604601 -0.24439064
000150 d4 33 00 3e a8 55 c2 3d d6 1f 5d 3e 72 27 1e be
       0.12519771 0.09488994 0.21594176 -0.15444735
000160 ee 0f 10 3e 3a ae 5c be a8 f9 65 bd 7e 86 64 3e
       0.14068577 -0.21550837 -0.056146294 0.2231693
000170 50 9f 61 3d 18 8f 15 be 70 2c eb bd f0 8c 78 3e
       0.055083573 -0.14605367 -0.11483085 0.24272513
000180 f2 62 79 be 26 72 5a be 38 62 18 3d 30 58 ed bc
       -0.24354151 -0.21332607 0.037203044 -0.028972715
000190 bc 21 f7 3d 40 06 56 bd 0a e5 36 be 0c 2d d0 3d
       0.12066981 -0.052252054 -0.17860809 0.10164842
0001a0 38 8e 00 3e 20 06 97 3c 24 9a 0c be ac c1 3f be
       0.12554252 0.018435538 -0.13730675 -0.18726224
0001b0 90 c5 0d be e0 a2 e2 3c 90 60 c1 bc 18 a1 2f be
       -0.13844895 0.027665555 -0.023605615 -0.17151296
0001c0 30 6f 39 bd 10 7b cb bd 20 a4 0c bd 74 81 c3 3d
       -0.045272052 -0.09935582 -0.03433621 0.095461756
0001d0 c0 6d dc 3c 9c 2f 74 3e ec 57 7d 3e e8 81 14 be
       0.026907802 0.23846287 0.24740571 -0.1450268
0001e0 8c 7c a2 bd a0 b4 f1 3d 20 d9 cd bd 1e 43 74 be
       -0.07933912 0.118020296 -0.10051179 -0.23853728
0001f0 20 a8 08 3c 3a 2a 66 3e 58 31 29 3d 38 04 52 3e
       0.008340865 0.22477046 0.041306823 0.20509422
000200 a0 52 68 3e b8 cf 61 be d8 f6 88 3d 62 1b 18 3e
       0.22687769 -0.22051895 0.06687707 0.14854196
000210 f2 e8 27 3e 70 4e 0c 3d 30 b8 e6 3c d2 15 3c 3e
       0.16397455 0.03425449 0.028164 0.18367699
000220 14 e8 22 3e a6 01 2c 3e 70 bc 34 bd b8 6e 0e 3d
       0.15908843 0.16797504 -0.04412502 0.03477356
000230 80 d7 83 3d 70 b7 43 be 6a ee 61 3e 6a a6 29 be
       0.06437588 -0.19112945 0.22063604 -0.16567388
000240 e8 7d 96 bd f0 1a 92 3d d0 95 a9 bd 60 70 d5 bd
       -0.073482335 0.07134044 -0.082805276 -0.104218245
000250 98 55 42 3e 88 71 01 3d b8 4a 63 3d 78 d5 97 bd
       0.18977964 0.031602412 0.05549118 -0.07413763
000260 f8 74 68 3e 16 e3 43 3e 66 84 4c be b0 84 69 be
       0.2270087 0.19129595 -0.19972381 -0.22804523
000270 26 3c 5b be 0e 4a 4e 3e 82 51 21 3e 44 d9 0f 3e
       -0.21409664 0.20145437 0.15753749 0.14047724
000280 90 d7 2a be 08 b3 8d 3d 18 4c 56 3e 82 8e 51 3e
       -0.16683793 0.06918913 0.20927465 0.20464519
000290 64 91 6e 3e 68 1c d9 3d 68 ed 3d 3d fe b4 58 be
       0.2329765 0.10601121 0.046368986 -0.21162793
0002a0 04 6f d5 3d 30 0d 0f 3e 5e c6 22 3e 30 f0 4d bd
       0.10421565 0.13969874 0.15895984 -0.05027789
0002b0 f6 5c 42 be a0 d4 49 bd 80 e5 6d bc f0 ac 43 3d
       -0.18980774 -0.04927504 -0.014520049 0.047772348
0002c0 40 f2 35 be 90 31 b1 3c 08 36 71 be 88 cd 2c be
       -0.17768192 0.021630079 -0.23555768 -0.16875279
0002d0 e0 0d 51 bd 2e e8 00 be aa 22 5c be 14 03 c5 bd
       -0.051038623 -0.1258857 -0.21497598 -0.09619728
0002e0 68 e8 84 3d 88 dc b6 3d 80 6e 5a 3b 90 b6 93 3c
       0.064896405 0.08928782 0.0033330023 0.018031389
0002f0 04 41 67 be f0 b5 85 bc a0 f8 9e bc 2a 32 67 3e
       -0.22583395 -0.016322106 -0.019405663 0.2257773
000300 48 0f 27 bd 20 a0 d5 bd e4 44 94 3d e0 1d 60 bc
       -0.040786058 -0.10430932 0.07239702 -0.013678998
000310 9a a4 19 3e e8 ff 6c 3e 5e 0c 05 3e ac f9 16 be
       0.15004197 0.23144495 0.12992999 -0.1474368
000320 d8 d9 b7 bd 66 e1 01 3e f8 7a 2b bd 84 e4 c3 bd
       -0.08977097 0.12683639 -0.04186532 -0.0956507
000330 ae 94 27 3e ec ef 66 be 88 63 7a be 78 58 c4 3d
       0.1636531 -0.2255246 -0.2445203 0.095871866
000340 94 ad 71 3e e0 bf 31 3d 04 dd 2c be f8 a6 38 be
       0.23601371 0.043395877 -0.16881186 -0.18032444
000350 00 e2 07 bb e2 fe 22 3e f2 ec 2f 3e 0c ae ca bd
       -0.0020734072 0.15917543 0.17180231 -0.09896478
000360 d8 4d aa bd 50 64 ed 3d b4 5d 75 3e 00 60 d8 3d
       -0.08315629 0.11591399 0.23961526 0.105651855
000370 b0 75 1f be 40 cf b0 3c 40 fc 9f bc c0 43 48 3c
       -0.15572238 0.0215832 -0.019529462 0.012223184
000380 90 b2 47 3d 70 56 5f 3e ee 26 3d 3e e4 21 5f be
       0.048754275 0.21810317 0.18471882 -0.21790272
000390 de c4 61 3e 70 68 b0 3d 7a d2 7d be b0 2d 63 3e
       0.22047755 0.0861367 -0.24787322 0.22185397
0003a0 18 cf d4 3d 48 a8 6e be 54 3f c3 bd dc 09 d7 3d
       0.103910625 -0.23306382 -0.09533563 0.104999274
0003b0 1c 15 fa 3d 96 63 59 be d0 a0 e5 bd 64 99 90 3d
       0.122110575 -0.21229395 -0.11212313 0.07060507
0003c0 d4 d1 0c 3e fc c7 77 be 0a b2 5c 3e d0 1e b2 bc
       0.13751918 -0.24197382 0.21552292 -0.021743208
0003d0 70 28 a3 bc 00 d9 e7 3d 80 5f 45 3e 6e 21 56 3e
       -0.019916743 0.11320686 0.19274712 0.2091119
0003e0 aa a2 03 3e 26 66 62 be 90 36 b4 bc 88 4c c8 bd
       0.1285502 -0.22109279 -0.021998674 -0.09780222
0003f0 20 9f 3b 3e 54 3d 7e 3e d4 b7 1d be e0 73 7a 3c
       0.1832242 0.24828082 -0.15402156 0.015286416

foundation_model.up_path.0.up.bias f4 [8]
000000 f4 c9 ac bd 18 0f 19 be 10 40 e7 3d f8 27 5d bd
       -0.08436957 -0.14947164 0.11291516 -0.053993195
000010 b2 c7 6a 3e 5e 82 50 be 00 bf a6 3d 82 8f 12 3e
       0.2292774 -0.20362231 0.08141899 0.14312556

foundation_model.up_path.0.conv_block.block.0.weight f4 [8, 16, 3]
000000 e8 a4 8b 3d 04 41 00 3e 8e fb da 3b 82 c5 7b bc
       0.06818563 0.12524801 0.0066828197 -0.015366914
000010 1e 6a a9 3c 0c a8 90 3d ec 27 77 3d 6a 52 c6 bc
       0.020680483 0.070633024 0.060340807 -0.02420922
000020 a9 12 20 3d 8d f4 3d bc 5c ce a5 3d b5 57 9b 3c
       0.039080296 -0.01159395 0.080960006 0.01896272
000030 52 54 e5 bd 45 43 ef 3c 45 16 c6 bd 35 25 6c bd
       -0.111977234 0.029206881 -0.09672216 -0.05765267
000040 62 b1 bf 3d 69 6d d9 3d 4f ef 07 3e bc d5 d1 bd
       0.09360005 0.106165715 0.13274883 -0.10245845
000050 2c bc 08 be 7e d6 a2 bc bf fd fe 3c b8 82 8e 3d
       -0.13353032 -0.019877668 0.031126855 0.069585264
000060 7d 0d a5 bc 3e 69 e5 3d 17 61 dd 3d e2 3c 99 3d
       -0.020148033 0.11201714 0.10809534 0.074823156
000070 63 a4 13 be 0d 54 fe bd a5 37 50 bd 92 c4 b3 bd
       -0.14418177 -0.12418375 -0.050834317 -0.08777727
000080 bd 6b af 3d 6c d9 2c 3d 57 e4 ae bd 46 67 06 3e
       0.08565471 0.042199537 -0.08539646 0.13125333
000090 bd b8 13 3e bd 57 12 be 31 4c e4 3c 6f a9 49 3d
       0.14425941 -0.14291282 0.027868362 0.04923385
0000a0 a0 5d e8 3d 8e 99 13 be 6e c5 74 3d 6a 11 ea bc
       0.113459826 -0.14414045 0.059758596 -0.028572757
0000b0 12 9e 7f 3d fe 1f 1d 3a da a2 f3 bd bd 00 60 3d
       0.062406607 0.0005993842 -0.11896296 0.054688204
0000c0 1f b5 f7 bb f5 ac dd bd 9b 3c 01 3d 8d f3 cb bc
       -0.007559433 -0.108240046 0.03155194 -0.024896407
0000d0 0e af a6 bc 88 c9 bf 3d 16 d6 7a bd 30 26 26 3c
       -0.020347144 0.09364611 -0.061239325 0.010140941
0000e0 d6 90 f4 bc 94 6d d3 3b 19 0d 65 3d 72 86 10 3d
       -0.02985422 0.0064522717 0.055920694 0.035284467
0000f0 ac a9 01 bc fd 36 5b 3d 09 7f cc bd 39 c6 40 3d
       -0.007913988 0.053519238 -0.099851675 0.04706404
000100 54 89 59 3c f0 ef 90 bd a3 5f 8f 3c be cd 9f bd
       0.0132773705 -0.070770144 0.017501658 -0.07802914
000110 42 5b c0 bd f4 5d 97 bd ea a4 8a 3d 31 35 d0 3d
       -0.09392406 -0.07390967 0.06769736 0.101663955
000120 73 6b 0a bb d0 35 28 bd ad 10 ed 3c 3a e4 0b be
       -0.0021121174 -0.041066945 0.028938616 -0.1366128
000130 90 c2 44 bc f1 d9 c0 bb 8c 05 71 bd 54 da fe bd
       -0.012009278 -0.0058853556 -0.05884318 -0.124439865
000140 a7 88 13 3e ad e8 f5 bd 8a e6 94 3b e5 af a8 3d
       0.14407597 -0.1200727 0.004544084 0.08236674
000150 40 43 ef bd d6 f7 ae 3d 82 12 d1 bd d2 8a d1 bd
       -0.11682749 0.08543365 -0.10208608 -0.10231556
000160 b5 c5 a4 3d cc 2a e4 bd ee 79 bc bd f3 e3 e7 bd
       0.08045522 -0.11140975 -0.09202944 -0.11322775
000170 8f 06 ff 3d 8f 0b 9c 3d 7d 94 63 3c 2c 87 65 bc
       0.12452423 0.07619392 0.013890383 -0.014009278
000180 17 cf da 3d aa 93 c9 3d f7 20 4e 3d ee 51 b1 bd
       0.106840305 0.09842618 0.050324406 -0.08658205
000190 43 fe 90 3d e1 a6 b0 bd c4 e9 a7 bd 8d 16 ad bd
       0.070797466 -0.086255796 -0.08198884 -0.08451567
0001a0 8d 46 ee bd d4 02 ea 3d c6 61 66 bb fe 4e 9a 3d
       -0.1163455 0.11426321 -0.0035153492 0.07534598
0001b0 b1 47 ef bd 6e 5a 7e bc 18 d7 04 3e e8 d7 77 bb
       -0.11683596 -0.01552449 0.12972677 -0.00378179
0001c0 4a 69 76 ba a2 ce 79 bc 4c 1f c0 bd 0b f6 8e 3d
       -0.00093998446 -0.015247019 -0.093809694 0.06980523
0001d0 9c 31 cd bd d0 7b 6e 3d 2a 9f 11 bd c8 c4 10 3e
       -0.10019228 0.058223546 -0.03555218 0.14137566
0001e0 31 d0 db 3d 27 b2 f7 bd 1e 62 83 ba 0c ba 0a 3e
       0.10733069 -0.12094527 -0.0010023748 0.13547534
0001f0 de ac 68 3c fc 9c a2 3d 32 ae 97 3d c2 8b e7 bd
       0.014201371 0.07940099 0.07406272 -0.113059536
000200 de 7f 02 bd cc 6d 12 3e 55 4e a7 bc 0c ee f9 3d
       -0.031860225 0.14299697 -0.020423094 0.12203607
000210 4d 2d 2f 3d 35 34 99 bd 47 a4 b3 3d 8e 70 8b bb
       0.04276781 -0.07480661 0.08771568 -0.004255361
000220 9f 44 bc 3b d1 80 83 bd 95 52 dc 3d 1a 4d 70 3d
       0.005745485 -0.06421054 0.10757939 0.05866728
000230 7f 14 81 bd b8 a6 cc bd 03 66 65 3d 11 d1 40 bc
       -0.063027374 -0.099927366 0.05600549 -0.011768595
000240 48 ac 9d bd 00 e8 f4 bd 64 27 a0 3d be aa a2 3d
       -0.07698876 -0.11958313 0.07820013 0.07942723
000250 5a 70 b4 3c 34 a7 95 3d 7f 7b f9 3c 19 f0 fd bd
       0.02202623 0.07307282 0.030454395 -0.123993106
000260 ec 63 f4 3d 18 74 a5 3d 75 0f c4 bd a3 89 07 3e
       0.11933121 0.08078784 -0.09573261 0.13236098
000270 e5 fe 2b 3d 8f 27 fd 3d 6e 26 18 3d fb 1f 58 3c
       0.041991133 0.12361061 0.037146024 0.0131912185
000280 e4 16 b5 3d 00 c6 6b bd f7 a9 a4 bc c7 31 bd bd
       0.08842257 -0.057561874 -0.020100577 -0.0923801
000290 55 00 3c 3d 75 23 9c bd c5 7d 95 3d 3e 84 75 bd
       0.045898754 -0.076239504 0.07299379 -0.05994057
0002a0 a1 91 0f 3d d6 52 0b be 67 49 3d 3d 4c 10 f5 bd
       0.035050992 -0.13605818 0.04621258 -0.11965999
0002b0 d6 61 5c 3d a1 16 d2 bd c3 70 b1 bb e5 fa d5 bd
       0.05380424 -0.10258222 -0.0054150536 -0.10448245
0002c0 a6 51 d3 3d 9b 3e 60 3d 71 04 7f 3d cd 95 06 be
       0.103183076 0.054747205 0.062260095 -0.13143082
0002d0 ab b0 05 3e 43 89 2b 3c 81 da 5e bc b5 fc b0 3d
       0.13055675 0.010469737 -0.0136019 0.0864195
0002e0 b9 27 5a 3d 94 60 13 be ec a9 9b bd 0b 50 a0 bd
       0.05326054 -0.1439231 -0.076007694 -0.07827767
0002f0 56 f6 bc 3c 66 72 f2 bd 46 73 b2 bd 5e 10 84 3d
       0.02306668 -0.11838226 -0.08713393 0.06448434
000300 42 74 b7 3d 85 0d ba bd 92 b5 f3 3d 54 f1 c3 3d
       0.08957721 -0.0908461 0.11899866 0.09567514
000310 b8 72 88 3d 33 fb eb bd a9 fa 01 3d 83 74 2b 3d
       0.06662506 -0.11522522 0.03173319 0.04185916
000320 a4 75 04 3d ae ed 97 3d 50 c6 12 3e 92 16 0d be
       0.032338753 0.07418381 0.14333463 -0.13778141
000330 e7 fc 92 3d 64 4b a4 ba eb 7c 80 3d 4f 34 91 3d
       0.071771435 -0.0012534675 0.06273826 0.07090055
000340 7b 6b 69 bd 2d 91 70 3d 46 7d ee 3c 47 35 7d 3d
       -0.056987267 0.0587322 0.02911247 0.061818387
000350 81 af ed bd 75 17 4e 3d 8b bf a4 3c 11 9e b2 3c
       -0.1160574 0.05031534 0.020110866 0.021803888
000360 71 0c 73 3d 1a 2c 6f 3d 89 72 36 bd cc 15 fd bd
       0.059338037 0.058391668 -0.044542823 -0.12357673
000370 4f d0 dc bd cc f9 91 3d 0c 83 55 bd c9 e5 4c bc
       -0.10781919 0.07127723 -0.05212693 -0.012505957
000380 6a 24 a1 bd 47 cf bb bc 0f fd d7 3d fd 52 c0 3b
       -0.078682736 -0.022925986 0.10546314 0.005869268
000390 62 a6 d5 3d 58 d2 6f 3c 86 e4 f3 3d 64 16 fc 3d
       0.10432126 0.014637552 0.11908822 0.12308958
0003a0 0f c2 f7 3d 0c d2 8c 3d e9 c4 fa bc 1c bd ca bd
       0.120975606 0.06876001 -0.030611472 -0.09899351
0003b0 77 ce 0a bc 89 85 9d 3d 6e ae 47 bd 9c 12 01 be
       -0.008472077 0.076914854 -0.048750333 -0.12604755
0003c0 2f 69 2c 3d ec 23 fe 3d 78 1a b4 3b d2 d8 07 bd
       0.0420925 0.12409195 0.0054963194 -0.03316576
0003d0 bf f3 ec 3d 4f 94 10 3e c1 b0 11 bd 42 12 ba 3d
       0.115699284 0.14119075 -0.035568956 0.09085514
0003e0 10 34 0d bd f9 8f aa bd a1 e2 4a 3d 90 48 b8 bd
       -0.03447348 -0.08328242 0.049532536 -0.08998215
0003f0 9b 55 2a 3d 1d b1 a6 3a 31 b2 56 3d 45 2b 20 3c
       0.041585546 0.0012717579 0.05241603 0.009775941

foundation_model.up_path.0.conv_block.block.0.bias f4 [8]
000000 2f 97 bf bd 60 46 5b 3d ef 29 c2 3d 5f cc fd 3d
       -0.09355008 0.05353391 0.094806544 0.12392496
000010 5b d8 27 bc d0 e7 bb 3d fb 0a d7 3d b0 65 a6 bd
       -0.010244454 0.09175074 0.10500141 -0.08124864

foundation_model.up_path.0.conv_block.block.2.weight f4 [8, 8, 3]
000000 2f 5d 08 3e 2a d6 14 be 44 5a f0 3d 1c 01 24 3e
       0.13316797 -0.14534822 0.11735967 0.16016048
000010 81 21 d1 bd 6f 75 0e be 21 47 9a 3d cb d9 19 3e
       -0.102114685 -0.13911985 0.07533098 0.15024488
000020 94 ec 80 bd ea 8a 21 bd 26 13 17 3d 53 26 24 3e
       -0.06295124 -0.03943912 0.036883496 0.16030245
000030 c7 7f 38 3c ed aa 0f be fd 18 21 be eb b0 14 be
       0.011260933 -0.14030047 -0.15732189 -0.14520614
000040 94 68 4f be 24 df 11 3e ef 83 b0 bd 58 03 0a be
       -0.20254737 0.14245278 -0.08618914 -0.13477838
000050 e0 76 ce bd 81 44 cf 3d 6d 3a b8 bd 73 d7 cf 3d
       -0.10081267 0.10120488 -0.08995519 0.101485156
000060 4f 17 32 3e 57 aa 07 3e ba 6e 3d 3e 69 2d 87 3d
       0.17391704 0.13248573 0.1849927 0.06600458
000070 0f 74 ba bd f5 84 81 3c 54 c0 4c 3e 8b c2 04 3d
       -0.09104168 0.01581047 0.19995242 0.032412093
000080 7b 6a 22 3e b4 5b 37 3d 9e b6 1a 3e 13 cb e6 3c
       0.15860932 0.04476519 0.15108725 0.028173005
000090 59 ab 4e bc 39 fe 14 3e 5f f2 e9 3d e5 b9 01 be
       -0.012614095 0.14550103 0.11423182 -0.1266857
0000a0 7a 9d 41 3e 5c 13 3d 3e 72 d8 a0 3d 6a d3 e2 3d
       0.18907729 0.18464416 0.07853784 0.1107548
0000b0 a4 60 4d be 6b d2 7a bd d3 3a 25 3e a5 8f 3e be
       -0.20056397 -0.061235826 0.16135721 -0.18609484
0000c0 69 2f c8 bd 4c fe a1 3d fb 6f 3d 3e da 48 f4 3c
       -0.09774668 0.079098314 0.18499748 0.029819895
0000d0 3d 23 ba 3d e0 c1 11 be 8c 84 5d bb b1 64 62 bd
       0.090887524 -0.14234114 -0.0033800928 -0.055271808
0000e0 57 05 22 3e 72 cf 99 3c a4 7e bd bd 84 25 48 3e
       0.1582235 0.018775675 -0.092526704 0.19545561
0000f0 dc 95 22 bd ef c2 02 3e 58 c0 02 be 10 47 a3 3d
       -0.0396937 0.12769674 -0.12768686 0.079725385
000100 5d 19 5a 3c 37 ec 47 3e 1d 6e 2d 3e 44 32 19 be
       0.013311711 0.19523703 0.16936536 -0.14960581
000110 99 c4 3d be 4e b1 85 3d d7 ae 41 be b6 6e 49 3d
       -0.18532027 0.06527959 -0.18914352 0.049177848
000120 fd 50 8c 3d 0d 2d 9e bd 6d 70 d0 bd 4b 4c 08 3e
       0.06851385 -0.077234365 -0.101776935 0.13310353
000130 34 12 10 be 5c 4f 22 bd 23 ee 37 3d 41 38 1e 3e
       -0.14069444 -0.039626464 0.04490484 0.15451147
000140 a9 83 3f be 60 da 44 3d 99 3d 07 3d 37 38 23 bd
       -0.18702568 0.04805982 0.03301773 -0.039848533
000150 25 f3 99 bd 2b fd ac bd 98 93 35 be 7c 2f 04 be
       -0.07517079 -0.084467255 -0.17732084 -0.12908739
000160 3b 3e 4e be 2a 2e d9 3d 11 55 8e 3d 68 fa 2c be
       -0.20140927 0.10604508 0.06949819 -0.16892397
000170 a4 18 45 3e 68 88 0b be 1d 35 b5 3d 16 06 a0 bb
       0.19247681 -0.13626254 0.08848021 -0.004883538
000180 52 b3 0e be a3 26 3e 3e 99 b3 b4 3d 18 27 75 bc
       -0.13935593 0.18569426 0.08823318 -0.014962934
000190 f8 4a c7 bd a7 60 9b 3d 10 b8 d9 bd 60 3b d1 bd
       -0.09731096 0.07586794 -0.1063081 -0.10216403
0001a0 1f 67 69 3d b8 dd 48 be 9e c2 21 3d 2e 46 9b bd
       0.05698311 -0.19615829 0.039492242 -0.07581745
0001b0 c8 37 19 bd 74 0c c8 3d 13 64 4f 3e 3a 2b 3a be
       -0.037406713 0.09768 0.20253019 -0.18180552
0001c0 70 3a 2b bb 88 aa 05 bd 76 e9 39 bd d6 a2 a6 bc
       -0.002612736 -0.032633334 -0.04538866 -0.020341318
0001d0 a0 ba e3 bc 61 77 ac 3d ec d2 8e bb e2 f1 18 be
       -0.02779895 0.08421207 -0.00435864 -0.14936021
0001e0 0a 36 ae 3d 22 d8 91 bd 79 10 21 be a7 fa c0 bd
       0.08506401 -0.07121302 -0.1572894 -0.09422808
0001f0 6c 1d 9a 3d 0e 22 4e 3e b8 99 02 be 26 a2 80 3d
       0.07525143 0.20130178 -0.12753952 0.06280927
000200 36 39 0b be f5 5f 95 3c 2b b9 24 3d 1d 15 29 3e
       -0.13596043 0.018234232 0.040215652 0.1651196
000210 77 a0 d3 3d 73 be f6 bd 3a e6 b7 bd ab 16 dc 3d
       0.103333406 -0.12048044 -0.08979459 0.10746511
000220 29 3f 0c be 06 f3 4d 3e 76 c3 17 bc a0 7f 85 bd
       -0.13695969 0.20112237 -0.00926291 -0.06518483
000230 1b 8a 83 3d 2f 58 da 3c 79 d2 2f be 5c 7a 3d 3e
       0.06422826 0.026653377 -0.17170133 0.18503708
000240 05 d7 e4 bd 1c 1d ea bd 92 8e d5 3d e4 63 98 3d
       -0.11173824 -0.114313334 0.10427584 0.074409276
000250 76 01 22 be d8 d0 ed bb 6b 6b 80 bd a8 3e 41 be
       -0.1582087 -0.007257562 -0.06270488 -0.18871558
000260 cb 7a ad bd 4d 9c 8c 3d 76 74 6a 3c e6 5e 74 3d
       -0.084706865 0.068657495 0.014309993 0.059660815
000270 61 2a 31 be f7 6d 27 be 30 e4 c8 3d 4e 67 1e bc
       -0.17301323 -0.16350542 0.09809148 -0.009668184
000280 c7 ab 6b bd 13 a3 82 bd 2d d4 1b 3e 09 4c 6d bd
       -0.057536867 -0.0637876 0.15217657 -0.05793384
000290 62 37 d6 3c ec d2 13 be c4 c9 df 3d 49 10 af bd
       0.026149455 -0.14435929 0.109271556 -0.08548028
0002a0 48 56 e0 bc a7 34 84 bd ce 59 0d 3d 35 88 99 3d
       -0.027384892 -0.06455355 0.034509473 0.074966826
0002b0 e1 cb 85 bc ed ac 32 be e4 11 3a be 2a 97 60 3d
       -0.016332569 -0.17448778 -0.18170887 0.05483166
0002c0 46 40 ff 3d 4d 2c 15 3e 5a 11 9b 3d 82 cf a3 bd
       0.12463431 0.1456768 0.07571669 -0.07998563
0002d0 13 61 09 3e 41 4d 0c 3d 1a 17 97 3d b1 ca dc bd
       0.13415937 0.034253363 0.07377453 -0.10780848
0002e0 88 58 4c bd b7 3e 40 be da ae 14 3d f3 ed 8c bd
       -0.049889117 -0.18773924 0.036299564 -0.06881323
0002f0 6d dd b6 bb 91 4c 4b be e6 4d a5 3d cc f3 53 3d
       -0.005580595 -0.19853427 0.080714986 0.051746175

foundation_model.up_path.0.conv_block.block.2.bias f4 [8]
000000 37 76 b6 3d f4 c6 18 bd 06 95 16 bd 72 23 31 3e
       0.089092664 -0.03729911 -0.036763214 0.17298678
000010 45 18 1a be 12 65 ac 3c d0 3e f0 3c 56 ed 88 3d
       -0.1504832 0.021044288 0.029326826 0.06685893

foundation_model.up_path.1.up.weight f4 [8, 4, 2]
000000 5d c4 98 be 37 7f 65 3e 6d 09 56 be c7 10 0a bd
       -0.29837313 0.2241181 -0.20902033 -0.033707406
000010 16 df f1 bd bd 14 b1 3e 4e 9e 4a 3d 30 ee b4 bd
       -0.118101284 0.34586135 0.049467377 -0.08834493
000020 df f6 93 3d 5d 19 94 bd c5 47 16 3e 43 a9 e8 bd
       0.07224821 -0.072314 0.14675815 -0.11360409
000030 14 a9 2c 3e 93 b7 67 3e d8 1e 05 be 4d 7f 07 3e
       0.16861373 0.22628622 -0.13000047 0.13232155
000040 b5 1f 9c be df 96 2a bd 62 71 26 3e 04 74 9d be
       -0.3049294 -0.041647788 0.1625419 -0.30752575
000050 a2 91 63 3e 57 c8 a8 be 63 da fc bd d4 07 c9 3d
       0.22223523 -0.32965347 -0.123463415 0.09815946
000060 fe 8f ae 3e 37 a7 73 3e 3f 67 1e 3d 15 ce 06 3e
       0.34094232 0.23794256 0.038672682 0.13164552
000070 87 1a 93 be d0 2f 94 3e 8a db 58 3e 72 68 47 3e
       -0.28731176 0.28942728 0.21177498 0.19473436
000080 8a cc 93 3e 99 81 01 be fa a4 5f 3d 50 d3 c2 3d
       0.28866988 -0.12647094 0.054600693 0.09512961
000090 14 ba ad 3e 2d 9f a1 be e4 a4 13 3e 1d 2c 10 be
       0.3393103 -0.31566754 0.1441837 -0.14079328
0000a0 f4 58 22 be 85 ad 58 bd c7 85 a4 be bb 00 83 3e
       -0.15854245 -0.052899856 -0.32133314 0.25586495
0000b0 98 ee 78 3e 83 80 93 3e 8e fc 2f 3e 5f 1b a2 3e
       0.24309766 0.28808984 0.17186186 0.31661507
0000c0 22 dd 3e be 98 e9 25 be 3f 77 26 be e6 66 58 bd
       -0.18639043 -0.1620239 -0.16256426 -0.052832507
0000d0 1a 96 ad bd a8 7c 92 3d 3a 3a 94 3e 1c 03 90 3d
       -0.08475895 0.071526825 0.28950673 0.07031843
0000e0 08 9f b2 be bd 63 d4 3d 70 cf 76 be df 27 ab 3b
       -0.34886956 0.10370586 -0.24102569 0.005223259
0000f0 4d 67 79 3e d2 2c 82 3e 71 df 90 3e 7f 49 ab be
       0.24355812 0.2542482 0.28295472 -0.3345451

foundation_model.up_path.1.up.bias f4 [4]
000000 4b 6d 81 be fa 7d ce 3d 76 e9 c9 3d b0 8f 7a 3d
       -0.25278696 0.10082622 0.09858982 0.061172187
