wandb/run-20230701_193711-5umiivwd/files/checkpoints/best.pt (torch, 119813 bytes, 66 tensors)

foundation_model.down_path.0.block.0.weight f4 [4, 8, 3]
0.05566705 -0.23707202 -0.00348215 0.102468446 -0.031727087 0.037030738 0.10512925 -0.112926066
-0.17029795 -0.002159978 0.1454081 -0.1425881 -0.014156985 0.06250112 -0.041838203 0.16419235
0.2759446 0.12732862 -0.033936992 0.23106882 -0.011943476 0.10311907 0.023599599 -0.12469833
0.051687863 -0.16386352 -0.08885962 0.05872699 0.2062446 0.27918544 -0.06075906 0.17374443
0.28537259 -0.09110276 0.17492212 -0.10064577 -0.038228143 -0.014677515 -0.013066365 -0.07916912
0.020927727 -0.10619127 0.11257749 0.19172843 0.17365502 0.0026378278 0.13788825 -0.1484255
-0.09677521 -0.08323345 -0.28075337 -0.14594802 0.11374563 -0.19477437 -0.33618057 -0.32915926
-0.23203738 -0.009512206 0.033272557 -0.0755564 -0.072689235 0.097393684 0.07273408 0.2529636
0.06560213 0.049425635 -0.05031982 0.06317942 0.0006288775 0.120600455 -0.07820268 -0.042208467
-0.3306923 -0.37099132 -0.02961087 -0.031560246 -0.26992616 0.09567046 -0.28496704 -0.19531758
-0.21324654 -0.060409106 0.13145763 0.059733476 -0.032796845 -0.13181375 -0.22972381 0.1781008
0.05967718 6.484247e-05 0.026612196 -0.15361162 0.08609829 -0.053979833 0.081932895 -0.025833786
00000000: 2203 643d 02c3 72be c834 64bb fada d13d
00000010: 43f4 01bd 8bad 173d 014e d73d c845 e7bd
00000020: 9662 2ebe 6b8e 0dbb dce5 143e 9d02 12be
00000030: b3f2 67bc 9600 803d 895e 2bbd 0a22 283e
00000040: 9c48 8d3e 6f62 023e 8401 0bbd 4e9d 6c3e
00000050: 92ae 43bc 1730 d33d f253 c13c d761 ffbd
00000060: a7b6 533d d7cb 27be 08fc b5bd b68b 703d
00000070: c931 533e 65f1 8e3e 7ede 78bd 0fea 313e
00000080: 5b1c 923e 1594 babd c91e 333e 5f1f cebd
00000090: 1d95 1cbd f679 70bc 4f14 56bc 6b23 a2bd
000000a0: a070 ab3c cf7a d9bd 078f e63d 7554 443e
000000b0: 9fd2 313e 68df 2c3b 9432 0d3e dbfc 17be
000000c0: 1532 c6bd 4d76 aabd e8be 8fbe 6673 15be
000000d0: 78f3 e83d ef72 47be dc1f acbe 9087 a8be
000000e0: 359b 6dbe 15d9 1bbc ce48 083d 50bd 9abd
000000f0: 18de 94bd 5776 c73d 9bf5 943d 7284 813e
00000100: 695a 863d 8972 4a3d 281c 4ebd 3664 813d
00000110: 41db 243a 5ffd f63d ba28 a0bd c9e2 2cbd
00000120: 8050 a9be 93f2 bdbe 7f92 f2bc 5145 01bd
00000130: c333 8abe e0ee c33d 33e7 91be 5501 48be
00000140: 4d5d 5abe 8a6f 77bd d49c 063e 17ab 743d
00000150: fc55 06bd 2ffa 06be b83c 6bbe 0e60 363e
00000160: 0f70 743d 09fc 8738 d201 da3c 5d4c 1dbe
00000170: 4d54 b03d f519 5dbd 6fcc a73d 60a1 d3bc

foundation_model.down_path.0.block.0.bias f4 [4]
-0.14643061 -0.17703055 0.110317096 -0.0248591
00000000: e8f1 15be 7f47 35be eeed e13d 50a5 cbbc

foundation_model.down_path.0.block.2.weight f4 [4, 4, 3]
0.29928964 0.122987755 0.16333495 -0.17765093 -0.088297606 0.18806061 -0.11690187 -0.21009856
-0.19154352 0.028204227 -0.22940888 -0.3093934 0.349208 0.03060102 0.23066117 -0.04587121
-0.051654756 -0.00988667 -0.47514233 -0.021081775 -0.3182778 -0.03003375 -0.019615917 -0.023543501
-0.39401203 -0.2079008 -0.4780044 -0.11224502 -0.41875094 -0.6103126 -0.0006581265 -0.072408244
-0.046439208 -0.06295487 0.17008035 -0.35062614 0.31234595 0.06817429 0.03658291 -0.071342856
0.1640227 -0.2221221 -0.3004897 -0.07377657 -0.1117953 0.031152565 -0.3013252 0.044227727
00000000: 7e3c 993e 01e1 fb3d 4741 273e 20ea 35be
00000010: 60d5 b4bd f692 403e 3f6a efbd 1424 57be
00000020: fc23 44be 8d0c e73c 29ea 6abe d068 9ebe
00000030: 64cb b23e feae fa3c 7132 6c3e 73e3 3bbd
00000040: f093 53bd b3fb 21bc db45 f3be b0b3 acbc
00000050: 4ff5 a2be 5709 f6bc 8fb1 a0bc 4dde c0bc
00000060: f2bb c9be f3e3 54be febc f4be b8e0 e5bd
00000070: 8666 d6be 723d 1cbf 1f86 2cba c64a 94bd
00000080: 0a37 3ebd 7cee 80bd 8b29 2e3e 4585 b3be
00000090: cfeb 9f3e f69e 8b3d f6d7 153d 341c 92bd
000000a0: 91f5 273e fa73 63be c9d9 99be 2c18 97bd
000000b0: eff4 e4bd aa33 ff3c 4c47 9abe 2228 353d

foundation_model.down_path.0.block.2.bias f4 [4]
-0.25358927 -0.16607937 0.0119631 0.06808981
00000000: 74d6 81be b610 2abe e100 443c ac72 8b3d

foundation_model.down_path.1.block.0.weight f4 [8, 4, 3]
-0.13869968 -0.15795211 -0.20994753 -0.33529386 -0.07962685 -0.0011989122 0.117489964 -0.15176827
0.1765697 -0.11052189 -0.065614074 0.12755525 0.09030905 0.10811584 -0.0869943 0.060840186
0.34809962 -0.02145004 0.20281288 -0.15423769 0.18156143 0.2650014 0.31751508 0.2807725
0.27953583 0.21288863 0.22580671 0.14113116 0.019593578 0.28755027 0.23416549 0.28111088
-0.056872535 -0.101341054 0.22722766 0.2274517 -0.18075754 0.25539255 0.24652316 0.41738322
-0.11023482 0.24071117 -0.029178582 0.26594892 0.26153082 0.054694906 0.25397143 0.2937554
-0.22476834 0.14770716 0.24978623 0.19517931 0.022843102 0.21494806 0.29349774 0.013268645
0.34342253 0.3147948 0.28608 0.16965002 0.36148098 0.23641849 0.39786795 -0.048462365
-0.07116726 0.23921439 0.049381502 0.3315343 -0.083228715 0.05365453 0.27823982 -0.17005712
0.2392898 0.057190925 0.18929434 0.32003307 0.17784466 -0.07911716 0.13661256 -0.14266393
0.10516577 -0.09632585 -0.0059743132 0.27734697 -0.34746766 0.012818847 -0.22606924 -0.41232908
-0.12625737 -0.37799844 -0.030592546 -0.4030337 -0.35244745 -0.27192292 -0.045227967 -0.05697212
00000000: 4a07 0ebe 33be 21be 7cfc 56be a3ab abbe
00000010: 6713 a3bd d124 9dba 949e f03d 2469 1bbe
00000020: b0ce 343e 4d59 e2bd ac60 86bd d89d 023e
00000030: f4f3 b83d d66b dd3d 112a b2bd 8f33 793d
00000040: 1d3a b23e ffb7 afbc 2eae 4f3e 7cf0 1dbe
00000050: 3deb 393e 43ae 873e 5691 a23e 6ac1 8f3e
00000060: 521f 8f3e 7aff 593e e039 673e b084 103e
00000070: b682 a03c ca39 933e 14c9 6f3e c4ed 8f3e
00000080: 2df3 68bd e68b cfbd 5eae 683e 19e9 683e
00000090: 8118 39be d0c2 823e 9170 7c3e 41b3 d53e
000000a0: cbc2 e1bd fd7c 763e ec07 efbc 752a 883e
000000b0: 5ee7 853e c407 603d 8b08 823e 1c67 963e
000000c0: ac29 66be 8c40 173e f6c7 7f3e 16dd 473e
000000d0: 7521 bb3c 581b 5c3e 5645 963e bb64 593c
000000e0: 14d5 af3e c92c a13e 1479 923e bcb8 2d3e
000000f0: 0914 b93e b017 723e 59b5 cb3e 7980 46bd
00000100: 24c0 91bd 9ef4 743e 4244 4a3d ddbe a93e
00000110: d173 aabd dac4 5b3d 7375 8e3e 7423 2ebe
00000120: 6308 753e 0841 6a3d 60d6 413e 60db a33e
00000130: e91c 363e 2d08 a2bd 2ae4 0b3e 7e16 12be
00000140: 2761 d73d 7d46 c5bd 2cc4 c3bb 6c00 8e3e
00000150: 48e7 b1be 2406 523c b27e 67be cc1c d3be
00000160: 9d49 01be 0389 c1be 389d fabc 6f5a cebe
00000170: fe73 b4be 7b39 8bbe f640 39bd 995b 69bd

foundation_model.down_path.1.block.0.bias f4 [8]
0.074207135 0.104431696 -0.1803963 0.05837503 -0.03396963 0.1780821 -0.23419046 0.10948917
00000000: e9f9 973d 49e0 d53d cfb9 38be a81a 6f3d
00000010: bd23 0bbd 275b 363e a0cf 6fbe dc3b e03d

foundation_model.down_path.1.block.2.weight f4 [8, 8, 3]
0.100597255 -0.17430444 -0.16096783 -0.16427225 0.01948309 -0.30046678 -0.12049717 -0.119054325
-0.27012247 -0.34431747 -0.038455606 -0.27692407 -0.2723513 0.040377863 -0.18823959 -0.11931057
-0.28264466 -0.118932866 -0.05391625 0.16888972 -0.22049727 0.22794133 0.30506477 0.058324836
-0.05561575 -0.02724885 0.076187454 0.17125998 0.28325787 0.30179352 0.24107726 -0.052945673
-0.091191605 0.34712535 0.10236728 0.119253695 0.15311107 0.16768806 -0.03513454 0.08975019
0.32376266 0.08572954 0.102985844 -0.089880355 0.10413633 -0.15405412 -0.31344688 -0.27109322
-0.058213886 -0.081980586 -0.055951614 -0.023569949 0.21757624 0.06009518 0.11832264 0.097397715
0.11130145 0.08545369 0.020391285 0.21624559 -0.01140346 0.07690297 0.11143836 0.20182881
0.00215083 0.088231914 0.08767369 0.18326902 0.18694007 -0.15791065 -0.14118044 -0.033299815
-0.18010908 0.042818442 -0.11157212 0.091731936 0.20795794 -0.0018554917 0.12754472 0.033988394
0.2731947 0.13916557 0.10823261 0.22698511 0.08424413 0.16602452 0.3113162 0.09284501
0.13303196 0.13329633 0.21892035 0.007238223 0.15008259 -0.20821138 -0.21785457 -0.11115439
-0.15802315 0.0591523 -0.14005522 -0.25254202 -0.16224313 -0.18247709 0.009565484 0.043814432
-0.26982194 -0.06755157 -0.21788472 -0.06248039 -0.20990624 -0.24383089 -0.0355624 -0.020591622
-0.08358431 -0.13325584 0.008334356 -0.22212629 -0.15813944 0.034935124 0.2516428 -0.012090079
0.054089997 -0.18620358 -0.07132907 0.1746844 0.2742787 0.034292422 0.07154681 0.20747161
0.08045488 0.27084807 0.25751132 0.3025821 -0.03359739 -0.08554111 0.20289575 0.13304001
0.06199432 -0.0635987 0.15201569 0.18814543 0.07441518 -0.1797899 -0.2087478 -0.27334026
0.04752076 0.014766859 -0.09292805 0.099764526 -0.0042663887 0.05419231 0.14947455 0.16585411
0.24881802 0.0025471435 0.112951815 0.37337396 0.12540394 0.119317815 0.0776631 0.15169495
0.20797221 0.00033703967 0.04182392 -0.10939554 0.0066910307 -0.24974725 -0.0012737283 -0.16896467
0.06038618 -0.14012034 0.14187115 -0.02207948 -0.09721592 0.10764251 0.18087742 0.041729324
0.1704997 0.36506456 0.22462259 0.070806056 0.06027798 0.04683506 0.18800367 0.14343701
-0.0818812 0.13463159 0.19204128 -0.026704034 -0.03549947 -0.11412418 -0.25294998 -0.34792712
00000000: ef05 ce3d dd7c 32be c0d4 24be fc36 28be
00000010: 009b 9f3c c8d6 99be 38c7 f6bd c1d2 f3bd
00000020: 7e4d 8abe 614a b0be a083 1dbd fec8 8dbe
00000030: a171 8bbe 4263 253d e1c1 40be 1a59 f4bd
00000040: cdb6 90be 1393 f3bd 49d7 5cbd 6df1 2c3e
00000050: 09ca 61be 7469 693e 7331 9c3e 06e6 6e3d
00000060: 57cd 63bd fb38 dfbc 2b08 9c3d c75e 2f3e
00000070: 2d07 913e ae84 9a3e f5dc 763e 90dd 58bd
00000080: aac2 babd 6aba b13e f0a5 d13d 483b f43d
00000090: 26c9 1c3e 6bb6 2b3e 3ce9 0fbd f3ce b73d
000000a0: 38c4 a53e f892 af3d 3eea d23d 3113 b8bd
000000b0: 6e45 d53d 5dc0 1dbe 1c7c a0be bbcc 8abe
000000c0: af71 6ebd 70e5 a7bd 852d 65bd c415 c1bc
000000d0: 4ecc 5e3e 5d26 763d 2453 f23d 7478 c73d
000000e0: 04f2 e33d 5802 af3d a00b a73c 7c6f 5d3e
000000f0: 94d5 3abc 4e7f 9d3d cb39 e43d 36ac 4e3e
00000100: f1f4 0c3b efb2 b43d 438e b33d e0aa 3b3e
00000110: 386d 3f3e 54b3 21be 9b91 10be 6365 08bd
00000120: 846e 38be 6462 2f3d ec7f e4bd f4dd bb3d
00000130: edf2 543e f833 f3ba 159b 023e 6a37 0b3d
00000140: 2de0 8b3e 6b81 0e3e 0fa9 dd3d c96e 683e
00000150: 3088 ac3d 5502 2a3e d664 9f3e 8625 be3d
00000160: 8839 083e d57e 083e a82c 603e 9e2e ed3b
00000170: 40af 193e 5d35 55be 4515 5fbe eaa4 e3bd
00000180: d2d0 21be af49 723d a36a 0fbe 304d 81be
00000190: 1023 26be 46db 3abe 8cb8 1c3c c376 333d
000001a0: 1a26 8abe 7a58 8abd 2c1d 5fbe 70eb 7fbd
000001b0: a9f1 56be ceae 79be e1a9 11bd c3af a8bc
000001c0: 402e abbd 3874 08be d38c 083c 1375 63be
000001d0: 4eef 21be 2218 0f3d 53d7 803e 7715 46bc
000001e0: 798d 5d3d 27ac 3ebe fa14 92bd 78e0 323e
000001f0: 426e 8c3e 3676 0c3d 2287 923d 7073 543e
00000200: 87c5 a43d 99ac 8a3e 86d8 833e 0aec 9a3e
00000210: 6b9d 09bd 2d30 afbd e7c3 4f3e a43b 083e
00000220: c2ed 7d3d 0940 82bd 00aa 1b3e 32a9 403e
00000230: fc66 983d d81a 38be fcc1 55be 41f3 8bbe
00000240: 21a5 423d b2f0 713c 1051 bebd 5851 cc3d
00000250: 10cd 8bbb c1f8 5d3d db0f 193e a9d5 293e
00000260: 27ca 7e3e faed 263b 4853 e73d df2a bf3e
00000270: e469 003e e65c f43d d50d 9f3d ec55 1b3e
00000280: abf6 543e b3b4 b039 8f4f 2b3d c50a e0bd
00000290: 6f40 db3b bebd 7fbe 3bf3 a6ba 1305 2dbe
000002a0: 8057 773d b57b 0fbe ac46 113e 07e0 b4bc
000002b0: 2419 c7bd ad73 dc3d ee37 393e 5eec 2a3d
000002c0: 7997 2e3e bee9 ba3e 7703 663e c402 913d
000002d0: 0be6 763d 1fd6 3f3d 0984 403e 27e1 123e
000002e0: 55b1 a7bd dddc 093e 78a6 443e 6bc2 dabc
000002f0: e467 11bd f0b9 e9bd a982 81be 8123 b2be

foundation_model.down_path.1.block.2.bias f4 [8]
0.06398078 -0.097286336 0.012587128 0.10121734 0.13410152 0.06137565 -0.071807586 0.08392193
00000000: 5b08 833d 0f3e c7bd 3e3a 4e3c 094b cf3d
00000010: e951 093e 0965 7b3d db0f 93bd 43df ab3d

foundation_model.down_path.2.block.0.weight f4 [16, 8, 3]
0.027370974 -0.09782112 0.045658402 -0.06426872 0.009235177 -0.18817408 -0.14058419 -0.032254405
0.010972285 -0.23115541 0.14564593 0.10510173 0.026954086 0.052637972 0.10177686 0.031654112
-0.16901356 -0.18072338 0.10500976 -0.13243364 -0.1720578 -0.07380068 -0.01581791 0.04472666
0.0040158946 0.06817977 -0.03828474 0.17341277 0.023311872 0.22662756 0.03247995 0.22730815
-0.006313211 0.23296934 0.028496101 0.028046962 -0.15724921 -0.017307397 -0.19243726 -0.007987819
-0.0003993229 0.2713302 0.21506543 -0.007594292 -0.02791445 0.0930698 -0.04318491 0.17332986
0.0597665 0.007023374 0.18378511 0.031088091 -0.20160551 0.037152458 -0.140537 -0.059447594
0.063659355 -0.024638906 -0.3524943 -0.35615414 0.065964855 0.19383615 -0.099293 -0.09535245
-0.07352281 -0.31782338 -0.2726623 -0.22174887 0.098652415 -0.19970551 -0.3140605 -0.16729023
0.30004475 0.25204077 0.14224471 -0.12253134 -0.09836465 -0.1713371 -0.14383566 -0.10059166
0.044673484 -0.33065847 -0.08549552 -0.235563 0.21673983 -0.10582616 0.13192812 -0.019042902
-0.06658822 -0.071707256 -0.13822508 -0.12036387 0.039450355 -0.27738845 -0.06979707 -0.28168932
0.20871437 0.22704123 0.049339518 0.102003455 -0.22476499 0.00045891362 -0.19509481 0.039259855
-0.27648446 -0.10380996 0.0705412 0.11389912 0.010627707 0.1587541 0.2062579 -0.21739665
-0.14345239 -0.008074691 0.013922956 0.012041441 0.03584891 -0.10123707 -0.22857524 -0.2390786
0.22345467 0.14290863 0.047883466 -0.26190552 -0.28439492 -0.107495874 -0.24381672 -0.24192746
-0.03646348 -0.34537593 -0.16790791 -0.13211703 -0.01346098 0.091947734 0.06925988 -0.2736227
-0.08724021 -0.33162895 0.017343592 -0.21375671 -0.15990983 -0.3467294 -0.18997246 -0.35409448
0.13430728 0.16685152 0.12084382 -0.24543299 -0.18033348 -0.26656935 -0.0058898367 -0.26419508
0.0659374 0.010049168 -0.22141288 -0.33754417 0.013061733 0.018087737 -0.091230296 -0.079072565
-0.3485556 -0.010105772 0.059698954 -0.099245906 0.018045926 -0.09505498 -0.027535014 -0.07143264
0.1207228 -0.28295082 -0.23068945 -0.057933424 -0.0075291656 -0.038594533 0.2596851 -0.117590904
0.055146635 0.17562301 0.09099773 0.056406204 -0.14683719 0.12680808 -0.021223646 0.15627027
-0.12895562 0.2220506 -0.102606446 0.047526516 0.27942786 0.11240735 0.23637861 0.16494985
-0.028434925 -0.29042748 0.009989637 0.23299599 0.23774582 -0.03433465 0.13233468 0.265069
0.15970361 0.16293378 -0.14632076 0.24849787 0.07885249 -0.18987162 -0.15083054 -0.09821136
0.13831301 0.12768249 -0.041603997 0.08392586 0.20895675 0.21397711 0.17678973 0.08335845
-0.021653805 0.1035664 -0.23313908 -0.045516632 0.22685122 -0.04206505 0.20028374 0.0010465115
0.21690087 0.05791506 0.17841181 0.24692455 -0.030643199 0.15573126 -0.03067224 0.024069266
0.07737696 0.20356311 0.10639885 0.016078163 0.10867981 0.025276044 0.14486678 0.09041772
-0.0197145 -0.056393437 0.0031652108 0.09702709 -0.28228068 -0.26129416 -0.23170665 -0.250805
-0.17812623 -0.044565238 -0.28288683 -0.18012065 -0.046233617 0.025707772 0.2476848 -0.06626008
00000000: 1839 e03c 7056 c8bd 4e04 3b3d 529f 83bd
00000010: 244f 173c b5b0 40be 4df5 0fbe 321d 04bd
00000020: 19c5 333c 01b4 6cbe 3524 153e 933f d73d
00000030: d1ce dc3c ea9a 573d 6370 d03d bea7 013d
00000040: e411 2dbe 8d0f 39be 5b0f d73d af9c 07be
00000050: ec2f 30be d024 97bd 9094 81bc 4d33 373d
00000060: c497 833b d6a1 8b3d 76d0 1cbd 1e93 313e
00000070: 8af8 be3c 0e11 683e b209 053d 78c3 683e
00000080: 0ddf cebb 848f 6e3e a870 e93c bec2 e53c
00000090: f005 21be 3ec8 8dbc 460e 45be 57df 02bc
000000a0: 365c d1b9 cbeb 8a3e 1d3a 5c3e 8ad9 f8bb
000000b0: d8ac e4bc 619b be3d a9e2 30bd 627d 313e
000000c0: b8cd 743d 5524 e63b 2a32 3c3e 74ac fe3c
000000d0: ad71 4ebe 2d2d 183d eee8 0fbe 527f 73bd
000000e0: d65f 823d 88d7 c9bc 227a b4be d659 b6be
000000f0: 9518 873d fc7c 463e 215a cbbd 2548 c3bd
00000100: 2193 96bd bfb9 a2be 659a 8bbe 2312 63be
00000110: 470a ca3d 9a7f 4cbe 8acc a0be 214e 2bbe
00000120: 779f 993e 7d0b 813e 99a8 113e b6f1 fabd
00000130: 6873 c9bd fe72 2fbe a849 13be 0003 cebd
00000140: 8bfb 363d 114c a9be 4618 afbd 6d37 71be
00000150: 0cf1 5d3e 63bb d8bd 2a18 073e dcff 9bbc
00000160: 685f 88bd 41db 92bd e08a 0dbe 5581 f6bd
00000170: b296 213d dc05 8ebe c4f1 8ebd 9539 90be
00000180: 38b9 553e 7f7d 683e 3c18 4a3d 30e7 d03d
00000190: cb28 66be 589a f039 efc6 47be f1ce 203d
000001a0: 5f8f 8dbe 519a d4bd e877 903d f143 e93d
000001b0: d51f 2e3c 6f90 223e 4535 533e 3a9d 5ebe
000001c0: 2fe5 12be b54b 04bc 1c1d 643c 7749 453c
000001d0: 4fd6 123d 6255 cfbd a10f 6abe 05d1 74be
000001e0: 4dd1 643e a456 123e 7421 443d 7b18 86be
000001f0: 369c 91be cc26 dcbd 17ab 79be d5bb 77be
00000200: bb5a 15bd 1dd5 b0be 0df0 2bbe b049 07be
00000210: 718b 5cbc 184f bc3d 20d8 8d3d 4618 8cbe
00000220: ffaa b2bd 45cb a9be 2614 8e3c 0ae3 5abe
00000230: 67bf 23be 8486 b1be 2488 42be df4b b5be
00000240: d987 093e 20db 2a3e f77c f73d c952 7bbe
00000250: 57a9 38be c77b 88be 88ff c0bb 9444 87be
00000260: 300a 873d 44a5 243c 0fba 62be 97d2 acbe
00000270: e100 563c bc2c 943c f3d6 babd ccf0 a1bd
00000280: e175 b2be ae92 25bc e486 743d 7041 cbbd
00000290: 0dd5 933c 2fac c2bd 1c91 e1bc 474b 92bd
000002a0: 843d f73d eede 90be db39 6cbe 994b 6dbd
000002b0: 38b7 f6bb 4d15 1ebd 72f5 843e 80d3 f0bd
000002c0: 70e1 613d 85d6 333e 055d ba3d 310a 673d
000002d0: 7d5c 16be fad9 013e 36dd adbc 5005 203e
000002e0: f10c 04be 3c61 633e 5423 d2bd 2aab 423d
000002f0: 2b11 8f3e d335 e63d 3c0d 723e 9de8 283e
00000300: 5cf0 e8bc e9b2 94be 93ab 233c 8096 6e3e
00000310: a473 733e 7da2 0cbd be82 073e 20b7 873e
00000320: 5889 233e 1dd8 263e 1cd5 15be 3a76 7e3e
00000330: 6a7d a13d b56d 42be 5273 1abe 0a23 c9bd
00000340: eda1 0d3e 33bf 023e f468 2abd 52e1 ab3d
00000350: c2f8 553e d11c 5b3e 5e08 353e d6b7 aa3d
00000360: 5263 b1bc 9f1a d43d 03bc 6ebe a66f 3abd
00000370: b04b 683e 674c 2cbd 2e17 4d3e 192b 893a
00000380: 431b 5e3e 5838 6d3d 96b1 363e cad9 7c3e
00000390: 7207 fbbc 0478 1f3e 5944 fbbc e92c c53c
000003a0: d077 9e3d d972 503e a4e7 d93d 5ab6 833c
000003b0: 8593 de3d b50f cf3c f557 143e ed2c b93d
000003c0: 4e80 a1bc cefc 66bd 6d6f 4f3b 24b6 c63d
000003d0: 1887 90be 59c8 85be 8244 6dbe 8369 80be
000003e0: b966 36be 0a8a 36bd 8bd6 90be 8c71 38be
000003f0: 765f 3dbd 1b99 d23c 16a1 7d3e 5db3 87bd

foundation_model.down_path.2.block.0.bias f4 [16]
0.22232923 -0.23643465 0.0886049 0.17042533 0.11933394 0.07952175 0.049445737 -0.10067782
-0.012899984 -0.030791761 0.08994934 -0.08024906 -0.04545813 -0.25365207 0.12772432 0.21274084
00000000: 46aa 633e ed1b 72be 7c76 b53d fa83 2e3e
00000010: 5a65 f43d 4ddc a23d 9d87 4a3d 2c30 cebd
00000020: 745a 53bc 013f fcbc 5c37 b83d 9f59 a4bd
00000030: 4e32 3abd afde 81be 2aca 023e bcd8 593e

foundation_model.down_path.2.block.2.weight f4 [16, 16, 3]
0.068199426 0.08866689 0.080425024 -0.052408233 -0.0688993 -0.13480844 -0.008616879 -0.034099348
0.14991373 0.034640428 0.053054646 0.021998424 0.16611467 0.17391962 0.19360979 0.10536483
-0.033844385 0.10370007 0.1350252 0.09185979 0.13839339 -0.14026575 0.029737025 -0.070103556
0.0349115 0.06813234 -0.13965563 -0.078758486 0.027313344 -0.16876763 -0.0024292753 0.04418107
0.11377211 0.13706195 0.08767108 0.07976914 0.029450122 -0.019206604 -0.13276085 -0.18165714
-0.12636949 -0.12809247 0.15344156 0.1536581 -0.015256078 0.06713361 -0.07468216 0.0068848613
0.13449365 0.020872064 -0.078870445 0.07439888 -0.06326386 0.07967882 0.17020498 0.21536711
0.14552757 0.05113693 0.002235815 -0.064458534 -0.03668823 0.057296164 0.21132138 0.07256273
0.23041466 0.04199799 0.014129659 0.113015346 0.10973708 0.007868653 -0.15311979 -0.08021986
0.021081185 -0.091582045 -0.13240534 0.038757235 -0.10551053 -0.14594463 0.08873578 0.005355718
0.15765977 0.0630099 0.21195416 0.05979137 -0.0041764425 -0.0492656 -0.12575735 -0.085466675
0.042197566 0.015258824 -0.030694086 0.11573401 0.040045645 0.18087031 0.18647052 0.16313946
0.1340788 -0.07887363 -0.10455228 -0.07938478 -0.031201279 -0.15579443 0.13407996 0.06506377
0.23611854 0.170982 0.17906697 0.042544365 0.18520331 -0.009465961 0.014799007 0.1281671
0.061974574 0.04843943 0.09582806 0.15563288 0.07080238 -0.10941551 0.039403714 0.035452932
-0.07271925 -0.08039877 -0.17100747 -0.17355023 -0.14286605 -0.034645792 0.21837266 0.12673928
0.20794336 0.2249072 0.07178699 0.07237127 -0.14947602 -0.08629523 -0.07994886 0.032573268
0.036282692 0.043924317 0.07938316 0.030024173 0.12863542 -0.037230078 0.16874248 0.07025862
-0.043955974 0.09560858 -0.11193598 -0.06344643 -0.15142778 -0.13876113 -0.121046335 -0.06622355
0.015294151 0.040990688 -0.21389301 0.01432289 -0.062365897 -0.015857778 -0.11248195 -0.027395695
-0.280804 -0.20814782 -0.16382547 -0.2390082 0.030535841 -0.025570948 0.0024582203 -0.037569955
0.0028512566 -0.0003928213 -0.0031096356 -0.093461655 0.044284347 0.053101066 -0.0039286586 -0.005823265
-0.19159313 -0.14863916 -0.30345455 -0.052860383 0.12844063 -0.08469775 0.014184369 -0.06183994
0.089875266 0.0960222 -0.17898579 -0.17502065 0.06725677 0.105896704 -0.16680029 0.08125828
0.06590263 0.2290744 -0.006518413 -0.23155592 -0.18640892 -0.18052 -0.16756105 -0.08554951
-0.16692783 -0.1297565 0.10544295 -0.14187393 0.029059565 0.005700107 0.010735034 -0.1397407
-0.107086964 -0.1716842 -0.13649762 -0.12802899 -0.079942994 -0.09097836 -0.0742954 -0.06705232
-0.17543717 0.021398416 0.03648528 -0.13998689 0.07055857 0.035564143 -0.042385224 -0.14831232
0.040844228 -0.18333767 -0.22085494 -0.062745854 0.08786802 -0.15685333 -0.007125176 -0.082829766
-0.067580216 -0.2175139 0.0123721985 -0.11565595 0.060984254 0.030312398 -0.10128969 0.07346651
-0.09455217 -0.087920055 -0.13701224 0.078407586 0.11431738 -0.09947925 0.1456551 -0.047274604
0.08436498 0.022424765 -0.0025930637 -0.07251788 -0.09373593 -0.15294017 -0.029234514 -0.08993305
00000000: 24ac 8b3d fd96 b53d e0b5 a43d 04aa 56bd
00000010: 141b 8dbd 390b 0abe cf2d 0dbc c2ab 0bbd
00000020: fc82 193e 1fe3 0d3d d44f 593d 0a36 b43c
00000030: f719 2a3e fc17 323e a541 463e 84c9 d73d
00000040: 69a0 0abd b460 d43d 0c44 0a3e fc20 bc3d
00000050: ffb6 0d3e d3a1 0fbe 109b f33c 7492 8fbd
00000060: 5cff 0e3d f888 8b3d e301 0fbe 214c a1bd
00000070: 3cc0 df3c 6cd1 2cbe 7a34 1fbb 36f7 343d
00000080: 5a01 e93d f859 0c3e e58c b33d 015e a33d
00000090: 6241 f13c 2b57 9dbc 76f2 07be 5404 3abe
000000a0: 0167 01be ac2a 03be c91f 1d3e 8d58 1d3e
000000b0: a1f4 79bc 597d 893d f6f2 98bd 679a e13b
000000c0: b4b8 093e e4fb aa3c d486 a1bd 715e 983d
000000d0: 7c90 81bd a62e a33d 374a 2e3e 3289 5c3e
000000e0: 2e05 153e f574 513d c086 123b d602 84bd
000000f0: 6646 16bd 62af 6a3d a264 583e c59b 943d
00000100: d2f1 6b3e 1606 2c3d 1680 673c 9774 e73d
00000110: d6bd e03d 86eb 003c 6fcb 1cbe 4f4a a4bd
00000120: 73b2 ac3c 5e8f bbbd 4495 07be e8bf 1e3d
00000130: e815 d8bd 8272 15be 1bbb b53d 057f af3b
00000140: 9071 213e 560b 813d 830a 593e cce7 743d
00000150: 8ada 88bb baca 49bd 89c6 00be 2709 afbd
00000160: 5bd7 2c3d 2600 7a3c 2a72 fbbc f405 ed3d
00000170: e706 243d 1136 393e 21f2 3e3e 080e 273e
00000180: f44b 093e 7f88 a1bd 811f d6bd 7d94 a2bd
00000190: d399 ffbc 9388 1fbe 424c 093e 2740 853d
000001a0: 0fc9 713e e815 2f3e 555d 373e 0043 2e3d
000001b0: f0a5 3d3e 1e17 1bbc 8977 723c 3c3e 033e
000001c0: 0dd9 7d3d 6c68 463d 8041 c43d 3a5e 1f3e
000001d0: d700 913d 3d15 e0bd ca65 213d 1837 113d
000001e0: d5ed 94bd 1ca8 a4bd 951c 2fbe 27b7 31be
000001f0: 7a4b 12be bfe8 0dbd 159d 5f3e f1c7 013e
00000200: 1bef 543e 134e 663e 0f05 933d 6337 943d
00000210: 3e10 19be 8ebb b0bd 3abc a3bd 8c6b 053d
00000220: 299d 143d fce9 333d a393 a23d 41f5 f53c
00000230: 01b9 033e 917e 18bd d4ca 2c3e c0e3 8f3d
00000240: 2e0b 34bd 6ece c33d b13e e5bd 34f0 81bd
00000250: e20f 1bbe 6617 0ebe 24e7 f7bd 36a0 87bd
00000260: 5294 7a3c dae5 273d c506 5bbe 8eaa 6a3c
00000270: 6273 7fbd 2ce8 81bc f05c e6bd f06c e0bc
00000280: 8bc5 8fbe b424 55be ddc1 27be 91be 74be
00000290: 4d26 fa3c 2a7a d1bc 181a 213b f4e2 19bd
000002a0: 26dc 3a3b 95f3 cdb9 07cb 4bbb d368 bfbd
000002b0: 8163 353d 8180 593d fabb 80bb 16d1 bebb
000002c0: fd30 44be dd34 18be 655e 9bbe 2184 58bd
000002d0: f185 033e 0476 adbd 8e65 683c e04b 7dbd
000002e0: 8610 b83d 4aa7 c43d 0d48 37be 9d38 33be
000002f0: ebbd 893d 5fe0 d83d b2cd 2abe be6a a63d
00000300: f5f7 863d 7b92 6a3e 6998 d5bb ff1c 6dbe
00000310: fbe1 3ebe 3cda 38be 2095 2bbe 9534 afbd
00000320: 21ef 2abe e3de 04be 79f2 d73d 6647 11be
00000330: 530e ee3c f7c7 ba3b ffe1 2f3c 3018 0fbe
00000340: 6950 dbbd fccd 2fbe 08c6 0bbe 081a 03be
00000350: 27b9 a3bd dd52 babd 3028 98bd ba52 89bd
00000360: cda5 33be bb4b af3c 9771 153d b958 0fbe
00000370: 0381 903d b5ab 113d 219c 2dbd 2fdf 17be
00000380: 474c 273d dfbc 3bbe cc27 62be e680 80bd
00000390: 26f4 b33d 299e 20be 4f7a e9bb a7a2 a9bd
000003a0: 7f67 8abd f7bb 5ebe c3b4 4a3c 07dd ecbd
000003b0: a0ca 793d b551 f83c f870 cfbd 9c75 963d
000003c0: 91a4 c1bd 6e0f b4bd f04c 0cbe 2894 a03d
000003d0: 3b1f ea3d c7bb cbbd 9c26 153e 04a3 41bd
000003e0: 8cc7 ac3d 24b4 b73c 64f0 29bb 4184 94bd
000003f0: a0f8 bfbd 599c 1cbe 387d efbc d22e b8bd

foundation_model.down_path.2.block.2.bias f4 [16]
0.1709154 0.10580014 0.078000195 0.028029077 0.22953026 -0.20077854 -0.096043795 0.031940427
0.14288886 0.13765688 -0.1934344 0.20503712 -0.0020567626 -0.01278039 0.02454964 0.14339764
00000000: 7204 2f3e bead d83d 91be 9f3d 3c9d e53c
00000010: fb09 6b3e e498 4dbe 9cb2 c4bd f7d3 023d
00000020: 7551 123e edf5 0c3e ab13 46be 40f5 513e
00000030: c0ca 06bb d764 51bc 541c c93c d5d6 123e

foundation_model.up_path.0.up.weight f4 [16, 8, 2]
0.2137413 0.070097476 -0.048381835 0.18494013 -0.016776025 0.11374599 -0.19871083 0.12857941
0.04770288 -0.0071955323 0.08097011 -0.15499568 -0.17975587 -0.18253249 -0.18629396 0.14219451
-0.12625873 0.042528927 -0.24504697 0.21570301 0.011002451 0.03677517 -0.24290279 0.03806293
-0.10080522 0.24632329 -0.15763369 -0.05527109 -0.03196302 -0.15422869 0.22899407 0.22965828
0.16175479 -0.05571741 0.071480274 -0.12558931 -0.12786326 -0.041712224 0.09705028 -0.08385885
0.054599464 0.07444039 0.20536816 0.21018147 -0.04025823 -0.24544775 0.05322984 0.19266814
-0.21949899 -0.1312702 0.21262136 0.1310994 0.00017911196 0.21506959 -0.103658736 0.16390872
0.10177964 -0.016148359 -0.0985657 0.21168417 0.21005067 0.23314562 0.2141015 -0.20441017
-0.1940135 0.1382697 -0.046592414 0.15444785 0.1577476 0.18213561 -0.23534107 -0.07708895
0.21501687 0.22729462 0.0123490095 0.0034283996 -0.20182803 0.20237789 0.06708181 -0.19845936
0.21045184 -0.21818 0.08604601 -0.24439064 0.12519771 0.09488994 0.21594176 -0.15444735
0.14068577 -0.21550837 -0.056146294 0.2231693 0.055083573 -0.14605367 -0.11483085 0.24272513
-0.24354151 -0.21332607 0.037203044 -0.028972715 0.12066981 -0.052252054 -0.17860809 0.10164842
0.12554252 0.018435538 -0.13730675 -0.18726224 -0.13844895 0.027665555 -0.023605615 -0.17151296
-0.045272052 -0.09935582 -0.03433621 0.095461756 0.026907802 0.23846287 0.24740571 -0.1450268
-0.07933912 0.118020296 -0.10051179 -0.23853728 0.008340865 0.22477046 0.041306823 0.20509422
0.22687769 -0.22051895 0.06687707 0.14854196 0.16397455 0.03425449 0.028164 0.18367699
0.15908843 0.16797504 -0.04412502 0.03477356 0.06437588 -0.19112945 0.22063604 -0.16567388
-0.073482335 0.07134044 -0.082805276 -0.104218245 0.18977964 0.031602412 0.05549118 -0.07413763
0.2270087 0.19129595 -0.19972381 -0.22804523 -0.21409664 0.20145437 0.15753749 0.14047724
-0.16683793 0.06918913 0.20927465 0.20464519 0.2329765 0.10601121 0.046368986 -0.21162793
0.10421565 0.13969874 0.15895984 -0.05027789 -0.18980774 -0.04927504 -0.014520049 0.047772348
-0.17768192 0.021630079 -0.23555768 -0.16875279 -0.051038623 -0.1258857 -0.21497598 -0.09619728
0.064896405 0.08928782 0.0033330023 0.018031389 -0.22583395 -0.016322106 -0.019405663 0.2257773
-0.040786058 -0.10430932 0.07239702 -0.013678998 0.15004197 0.23144495 0.12992999 -0.1474368
-0.08977097 0.12683639 -0.04186532 -0.0956507 0.1636531 -0.2255246 -0.2445203 0.095871866
0.23601371 0.043395877 -0.16881186 -0.18032444 -0.0020734072 0.15917543 0.17180231 -0.09896478
-0.08315629 0.11591399 0.23961526 0.105651855 -0.15572238 0.0215832 -0.019529462 0.012223184
0.048754275 0.21810317 0.18471882 -0.21790272 0.22047755 0.0861367 -0.24787322 0.22185397
0.103910625 -0.23306382 -0.09533563 0.104999274 0.122110575 -0.21229395 -0.11212313 0.07060507
0.13751918 -0.24197382 0.21552292 -0.021743208 -0.019916743 0.11320686 0.19274712 0.2091119
0.1285502 -0.22109279 -0.021998674 -0.09780222 0.1832242 0.24828082 -0.15402156 0.015286416
00000000: 00df 5a3e 448f 8f3d 082c 46bd f260 3d3e
00000010: e06d 89bc a8f3 e83d da7a 4bbe 52aa 033e
00000020: 1864 433d 80c8 ebbb a8d3 a53d 30b7 1ebe
00000030: ec11 38be cce9 3abe d8c3 3ebe 709b 113e
00000040: f849 01be d032 2e3d 98ed 7abe 40e1 5c3e
00000050: a043 343c 90a1 163d 82bb 78be e0e7 1b3d
00000060: f872 cebd 2c3c 7c3e ba6a 21be f063 62bd
00000070: a8eb 02bd 20ee 1dbe 6c7d 6a3e 8a2b 6b3e
00000080: 0ca3 253e f037 64bd 4064 923d 7c9a 00be
00000090: 96ee 02be 70da 2abd 4cc2 c63d 30be abbd
000000a0: b0a3 5f3d 3474 983d 084c 523e d039 573e
000000b0: d0e5 24bd a856 7bbe 8807 5a3d cc4a 453e
000000c0: 58c4 60be b26b 06be 6ab9 593e ec3e 063e
000000d0: 00d0 3b39 343b 5c3e 084b d4bd b0d7 273e
000000e0: d871 d03d 9049 84bc d0dc c9bd bcc3 583e
000000f0: 8617 573e babd 6e3e 6c3d 5b3e e650 51be
00000100: 7aab 46be 9296 0d3e b0d7 3ebd 9427 1e3e
00000110: 9688 213e c281 3a3e 40fd 70be d0e0 9dbd
00000120: 622d 5c3e ecbf 683e 8053 4a3c 00af 603b
00000130: 02ac 4ebe 263c 4f3e 3062 893d ee38 4bbe
00000140: b080 573e 946a 5fbe e438 b03d 8a41 7abe
00000150: d433 003e a855 c23d d61f 5d3e 7227 1ebe
00000160: ee0f 103e 3aae 5cbe a8f9 65bd 7e86 643e
00000170: 509f 613d 188f 15be 702c ebbd f08c 783e
00000180: f262 79be 2672 5abe 3862 183d 3058 edbc
00000190: bc21 f73d 4006 56bd 0ae5 36be 0c2d d03d
000001a0: 388e 003e 2006 973c 249a 0cbe acc1 3fbe
000001b0: 90c5 0dbe e0a2 e23c 9060 c1bc 18a1 2fbe
000001c0: 306f 39bd 107b cbbd 20a4 0cbd 7481 c33d
000001d0: c06d dc3c 9c2f 743e ec57 7d3e e881 14be
000001e0: 8c7c a2bd a0b4 f13d 20d9 cdbd 1e43 74be
000001f0: 20a8 083c 3a2a 663e 5831 293d 3804 523e
00000200: a052 683e b8cf 61be d8f6 883d 621b 183e
00000210: f2e8 273e 704e 0c3d 30b8 e63c d215 3c3e
00000220: 14e8 223e a601 2c3e 70bc 34bd b86e 0e3d
00000230: 80d7 833d 70b7 43be 6aee 613e 6aa6 29be
00000240: e87d 96bd f01a 923d d095 a9bd 6070 d5bd
00000250: 9855 423e 8871 013d b84a 633d 78d5 97bd
00000260: f874 683e 16e3 433e 6684 4cbe b084 69be
00000270: 263c 5bbe 0e4a 4e3e 8251 213e 44d9 0f3e
00000280: 90d7 2abe 08b3 8d3d 184c 563e 828e 513e
00000290: 6491 6e3e 681c d93d 68ed 3d3d feb4 58be
000002a0: 046f d53d 300d 0f3e 5ec6 223e 30f0 4dbd
000002b0: f65c 42be a0d4 49bd 80e5 6dbc f0ac 433d
000002c0: 40f2 35be 9031 b13c 0836 71be 88cd 2cbe
000002d0: e00d 51bd 2ee8 00be aa22 5cbe 1403 c5bd
000002e0: 68e8 843d 88dc b63d 806e 5a3b 90b6 933c
000002f0: 0441 67be f0b5 85bc a0f8 9ebc 2a32 673e
00000300: 480f 27bd 20a0 d5bd e444 943d e01d 60bc
00000310: 9aa4 193e e8ff 6c3e 5e0c 053e acf9 16be
00000320: d8d9 b7bd 66e1 013e f87a 2bbd 84e4 c3bd
00000330: ae94 273e ecef 66be 8863 7abe 7858 c43d
00000340: 94ad 713e e0bf 313d 04dd 2cbe f8a6 38be
00000350: 00e2 07bb e2fe 223e f2ec 2f3e 0cae cabd
00000360: d84d aabd 5064 ed3d b45d 753e 0060 d83d
00000370: b075 1fbe 40cf b03c 40fc 9fbc c043 483c
00000380: 90b2 473d 7056 5f3e ee26 3d3e e421 5fbe
00000390: dec4 613e 7068 b03d 7ad2 7dbe b02d 633e
000003a0: 18cf d43d 48a8 6ebe 543f c3bd dc09 d73d
000003b0: 1c15 fa3d 9663 59be d0a0 e5bd 6499 903d
000003c0: d4d1 0c3e fcc7 77be 0ab2 5c3e d01e b2bc
000003d0: 7028 a3bc 00d9 e73d 805f 453e 6e21 563e
000003e0: aaa2 033e 2666 62be 9036 b4bc 884c c8bd
000003f0: 209f 3b3e 543d 7e3e d4b7 1dbe e073 7a3c

foundation_model.up_path.0.up.bias f4 [8]
-0.08436957 -0.14947164 0.11291516 -0.053993195 0.2292774 -0.20362231 0.08141899 0.14312556
00000000: f4c9 acbd 180f 19be 1040 e73d f827 5dbd
00000010: b2c7 6a3e 5e82 50be 00bf a63d 828f 123e

foundation_model.up_path.0.conv_block.block.0.weight f4 [8, 16, 3]
0.06818563 0.12524801 0.0066828197 -0.015366914 0.020680483 0.070633024 0.060340807 -0.02420922
0.039080296 -0.01159395 0.080960006 0.01896272 -0.111977234 0.029206881 -0.09672216 -0.05765267
0.09360005 0.106165715 0.13274883 -0.10245845 -0.13353032 -0.019877668 0.031126855 0.069585264
-0.020148033 0.11201714 0.10809534 0.074823156 -0.14418177 -0.12418375 -0.050834317 -0.08777727
0.08565471 0.042199537 -0.08539646 0.13125333 0.14425941 -0.14291282 0.027868362 0.04923385
0.113459826 -0.14414045 0.059758596 -0.028572757 0.062406607 0.0005993842 -0.11896296 0.054688204
-0.007559433 -0.108240046 0.03155194 -0.024896407 -0.020347144 0.09364611 -0.061239325 0.010140941
-0.02985422 0.0064522717 0.055920694 0.035284467 -0.007913988 0.053519238 -0.099851675 0.04706404
0.0132773705 -0.070770144 0.017501658 -0.07802914 -0.09392406 -0.07390967 0.06769736 0.101663955
-0.0021121174 -0.041066945 0.028938616 -0.1366128 -0.012009278 -0.0058853556 -0.05884318 -0.124439865
0.14407597 -0.1200727 0.004544084 0.08236674 -0.11682749 0.08543365 -0.10208608 -0.10231556
0.08045522 -0.11140975 -0.09202944 -0.11322775 0.12452423 0.07619392 0.013890383 -0.014009278
0.106840305 0.09842618 0.050324406 -0.08658205 0.070797466 -0.086255796 -0.08198884 -0.08451567
-0.1163455 0.11426321 -0.0035153492 0.07534598 -0.11683596 -0.01552449 0.12972677 -0.00378179
-0.00093998446 -0.015247019 -0.093809694 0.06980523 -0.10019228 0.058223546 -0.03555218 0.14137566
0.10733069 -0.12094527 -0.0010023748 0.13547534 0.014201371 0.07940099 0.07406272 -0.113059536
-0.031860225 0.14299697 -0.020423094 0.12203607 0.04276781 -0.07480661 0.08771568 -0.004255361
0.005745485 -0.06421054 0.10757939 0.05866728 -0.063027374 -0.099927366 0.05600549 -0.011768595
-0.07698876 -0.11958313 0.07820013 0.07942723 0.02202623 0.07307282 0.030454395 -0.123993106
0.11933121 0.08078784 -0.09573261 0.13236098 0.041991133 0.12361061 0.037146024 0.0131912185
0.08842257 -0.057561874 -0.020100577 -0.0923801 0.045898754 -0.076239504 0.07299379 -0.05994057
0.035050992 -0.13605818 0.04621258 -0.11965999 0.05380424 -0.10258222 -0.0054150536 -0.10448245
0.103183076 0.054747205 0.062260095 -0.13143082 0.13055675 0.010469737 -0.0136019 0.0864195
0.05326054 -0.1439231 -0.076007694 -0.07827767 0.02306668 -0.11838226 -0.08713393 0.06448434
0.08957721 -0.0908461 0.11899866 0.09567514 0.06662506 -0.11522522 0.03173319 0.04185916
0.032338753 0.07418381 0.14333463 -0.13778141 0.071771435 -0.0012534675 0.06273826 0.07090055
-0.056987267 0.0587322 0.02911247 0.061818387 -0.1160574 0.05031534 0.020110866 0.021803888
0.059338037 0.058391668 -0.044542823 -0.12357673 -0.10781919 0.07127723 -0.05212693 -0.012505957
-0.078682736 -0.022925986 0.10546314 0.005869268 0.10432126 0.014637552 0.11908822 0.12308958
0.120975606 0.06876001 -0.030611472 -0.09899351 -0.008472077 0.076914854 -0.048750333 -0.12604755
0.0420925 0.12409195 0.0054963194 -0.03316576 0.115699284 0.14119075 -0.035568956 0.09085514
-0.03447348 -0.08328242 0.049532536 -0.08998215 0.041585546 0.0012717579 0.05241603 0.009775941
00000000: e8a4 8b3d 0441 003e 8efb da3b 82c5 7bbc
00000010: 1e6a a93c 0ca8 903d ec27 773d 6a52 c6bc
00000020: a912 203d 8df4 3dbc 5cce a53d b557 9b3c
00000030: 5254 e5bd 4543 ef3c 4516 c6bd 3525 6cbd
00000040: 62b1 bf3d 696d d93d 4fef 073e bcd5 d1bd
00000050: 2cbc 08be 7ed6 a2bc bffd fe3c b882 8e3d
00000060: 7d0d a5bc 3e69 e53d 1761 dd3d e23c 993d
00000070: 63a4 13be 0d54 febd a537 50bd 92c4 b3bd
00000080: bd6b af3d 6cd9 2c3d 57e4 aebd 4667 063e
00000090: bdb8 133e bd57 12be 314c e43c 6fa9 493d
000000a0: a05d e83d 8e99 13be 6ec5 743d 6a11 eabc
000000b0: 129e 7f3d fe1f 1d3a daa2 f3bd bd00 603d
000000c0: 1fb5 f7bb f5ac ddbd 9b3c 013d 8df3 cbbc
000000d0: 0eaf a6bc 88c9 bf3d 16d6 7abd 3026 263c
000000e0: d690 f4bc 946d d33b 190d 653d 7286 103d
000000f0: aca9 01bc fd36 5b3d 097f ccbd 39c6 403d
00000100: 5489 593c f0ef 90bd a35f 8f3c becd 9fbd
00000110: 425b c0bd f45d 97bd eaa4 8a3d 3135 d03d
00000120: 736b 0abb d035 28bd ad10 ed3c 3ae4 0bbe
00000130: 90c2 44bc f1d9 c0bb 8c05 71bd 54da febd
00000140: a788 133e ade8 f5bd 8ae6 943b e5af a83d
00000150: 4043 efbd d6f7 ae3d 8212 d1bd d28a d1bd
00000160: b5c5 a43d cc2a e4bd ee79 bcbd f3e3 e7bd
00000170: 8f06 ff3d 8f0b 9c3d 7d94 633c 2c87 65bc
00000180: 17cf da3d aa93 c93d f720 4e3d ee51 b1bd
00000190: 43fe 903d e1a6 b0bd c4e9 a7bd 8d16 adbd
000001a0: 8d46 eebd d402 ea3d c661 66bb fe4e 9a3d
000001b0: b147 efbd 6e5a 7ebc 18d7 043e e8d7 77bb
000001c0: 4a69 76ba a2ce 79bc 4c1f c0bd 0bf6 8e3d
000001d0: 9c31 cdbd d07b 6e3d 2a9f 11bd c8c4 103e
000001e0: 31d0 db3d 27b2 f7bd 1e62 83ba 0cba 0a3e
000001f0: deac 683c fc9c a23d 32ae 973d c28b e7bd
00000200: de7f 02bd cc6d 123e 554e a7bc 0cee f93d
00000210: 4d2d 2f3d 3534 99bd 47a4 b33d 8e70 8bbb
00000220: 9f44 bc3b d180 83bd 9552 dc3d 1a4d 703d
00000230: 7f14 81bd b8a6 ccbd 0366 653d 11d1 40bc
00000240: 48ac 9dbd 00e8 f4bd 6427 a03d beaa a23d
00000250: 5a70 b43c 34a7 953d 7f7b f93c 19f0 fdbd
00000260: ec63 f43d 1874 a53d 750f c4bd a389 073e
00000270: e5fe 2b3d 8f27 fd3d 6e26 183d fb1f 583c
00000280: e416 b53d 00c6 6bbd f7a9 a4bc c731 bdbd
00000290: 5500 3c3d 7523 9cbd c57d 953d 3e84 75bd
000002a0: a191 0f3d d652 0bbe 6749 3d3d 4c10 f5bd
000002b0: d661 5c3d a116 d2bd c370 b1bb e5fa d5bd
000002c0: a651 d33d 9b3e 603d 7104 7f3d cd95 06be
000002d0: abb0 053e 4389 2b3c 81da 5ebc b5fc b03d
000002e0: b927 5a3d 9460 13be eca9 9bbd 0b50 a0bd
000002f0: 56f6 bc3c 6672 f2bd 4673 b2bd 5e10 843d
00000300: 4274 b73d 850d babd 92b5 f33d 54f1 c33d
00000310: b872 883d 33fb ebbd a9fa 013d 8374 2b3d
00000320: a475 043d aeed 973d 50c6 123e 9216 0dbe
00000330: e7fc 923d 644b a4ba eb7c 803d 4f34 913d
00000340: 7b6b 69bd 2d91 703d 467d ee3c 4735 7d3d
00000350: 81af edbd 7517 4e3d 8bbf a43c 119e b23c
00000360: 710c 733d 1a2c 6f3d 8972 36bd cc15 fdbd
00000370: 4fd0 dcbd ccf9 913d 0c83 55bd c9e5 4cbc
00000380: 6a24 a1bd 47cf bbbc 0ffd d73d fd52 c03b
00000390: 62a6 d53d 58d2 6f3c 86e4 f33d 6416 fc3d
000003a0: 0fc2 f73d 0cd2 8c3d e9c4 fabc 1cbd cabd
000003b0: 77ce 0abc 8985 9d3d 6eae 47bd 9c12 01be
000003c0: 2f69 2c3d ec23 fe3d 781a b43b d2d8 07bd
000003d0: bff3 ec3d 4f94 103e c1b0 11bd 4212 ba3d
000003e0: 1034 0dbd f98f aabd a1e2 4a3d 9048 b8bd
000003f0: 9b55 2a3d 1db1 a63a 31b2 563d 452b 203c

foundation_model.up_path.0.conv_block.block.0.bias f4 [8]
-0.09355008 0.05353391 0.094806544 0.12392496 -0.010244454 0.09175074 0.10500141 -0.08124864
00000000: 2f97 bfbd 6046 5b3d ef29 c23d 5fcc fd3d
00000010: 5bd8 27bc d0e7 bb3d fb0a d73d b065 a6bd

foundation_model.up_path.0.conv_block.block.2.weight f4 [8, 8, 3]
0.13316797 -0.14534822 0.11735967 0.16016048 -0.102114685 -0.13911985 0.07533098 0.15024488
-0.06295124 -0.03943912 0.036883496 0.16030245 0.011260933 -0.14030047 -0.15732189 -0.14520614
-0.20254737 0.14245278 -0.08618914 -0.13477838 -0.10081267 0.10120488 -0.08995519 0.101485156
0.17391704 0.13248573 0.1849927 0.06600458 -0.09104168 0.01581047 0.19995242 0.032412093
0.15860932 0.04476519 0.15108725 0.028173005 -0.012614095 0.14550103 0.11423182 -0.1266857
0.18907729 0.18464416 0.07853784 0.1107548 -0.20056397 -0.061235826 0.16135721 -0.18609484
-0.09774668 0.079098314 0.18499748 0.029819895 0.090887524 -0.14234114 -0.0033800928 -0.055271808
0.1582235 0.018775675 -0.092526704 0.19545561 -0.0396937 0.12769674 -0.12768686 0.079725385
0.013311711 0.19523703 0.16936536 -0.14960581 -0.18532027 0.06527959 -0.18914352 0.049177848
0.06851385 -0.077234365 -0.101776935 0.13310353 -0.14069444 -0.039626464 0.04490484 0.15451147
-0.18702568 0.04805982 0.03301773 -0.039848533 -0.07517079 -0.084467255 -0.17732084 -0.12908739
-0.20140927 0.10604508 0.06949819 -0.16892397 0.19247681 -0.13626254 0.08848021 -0.004883538
-0.13935593 0.18569426 0.08823318 -0.014962934 -0.09731096 0.07586794 -0.1063081 -0.10216403
0.05698311 -0.19615829 0.039492242 -0.07581745 -0.037406713 0.09768 0.20253019 -0.18180552
-0.002612736 -0.032633334 -0.04538866 -0.020341318 -0.02779895 0.08421207 -0.00435864 -0.14936021
0.08506401 -0.07121302 -0.1572894 -0.09422808 0.07525143 0.20130178 -0.12753952 0.06280927
-0.13596043 0.018234232 0.040215652 0.1651196 0.103333406 -0.12048044 -0.08979459 0.10746511
-0.13695969 0.20112237 -0.00926291 -0.06518483 0.06422826 0.026653377 -0.17170133 0.18503708
-0.11173824 -0.114313334 0.10427584 0.074409276 -0.1582087 -0.007257562 -0.06270488 -0.18871558
-0.084706865 0.068657495 0.014309993 0.059660815 -0.17301323 -0.16350542 0.09809148 -0.009668184
-0.057536867 -0.0637876 0.15217657 -0.05793384 0.026149455 -0.14435929 0.109271556 -0.08548028
-0.027384892 -0.06455355 0.034509473 0.074966826 -0.016332569 -0.17448778 -0.18170887 0.05483166
0.12463431 0.1456768 0.07571669 -0.07998563 0.13415937 0.034253363 0.07377453 -0.10780848
-0.049889117 -0.18773924 0.036299564 -0.06881323 -0.005580595 -0.19853427 0.080714986 0.051746175
00000000: 2f5d 083e 2ad6 14be 445a f03d 1c01 243e
00000010: 8121 d1bd 6f75 0ebe 2147 9a3d cbd9 193e
00000020: 94ec 80bd ea8a 21bd 2613 173d 5326 243e
00000030: c77f 383c edaa 0fbe fd18 21be ebb0 14be
00000040: 9468 4fbe 24df 113e ef83 b0bd 5803 0abe
00000050: e076 cebd 8144 cf3d 6d3a b8bd 73d7 cf3d
00000060: 4f17 323e 57aa 073e ba6e 3d3e 692d 873d
00000070: 0f74 babd f584 813c 54c0 4c3e 8bc2 043d
00000080: 7b6a 223e b45b 373d 9eb6 1a3e 13cb e63c
00000090: 59ab 4ebc 39fe 143e 5ff2 e93d e5b9 01be
000000a0: 7a9d 413e 5c13 3d3e 72d8 a03d 6ad3 e23d
000000b0: a460 4dbe 6bd2 7abd d33a 253e a58f 3ebe
000000c0: 692f c8bd 4cfe a13d fb6f 3d3e da48 f43c
000000d0: 3d23 ba3d e0c1 11be 8c84 5dbb b164 62bd
000000e0: 5705 223e 72cf 993c a47e bdbd 8425 483e
000000f0: dc95 22bd efc2 023e 58c0 02be 1047 a33d
00000100: 5d19 5a3c 37ec 473e 1d6e 2d3e 4432 19be
00000110: 99c4 3dbe 4eb1 853d d7ae 41be b66e 493d
00000120: fd50 8c3d 0d2d 9ebd 6d70 d0bd 4b4c 083e
00000130: 3412 10be 5c4f 22bd 23ee 373d 4138 1e3e
00000140: a983 3fbe 60da 443d 993d 073d 3738 23bd
00000150: 25f3 99bd 2bfd acbd 9893 35be 7c2f 04be
00000160: 3b3e 4ebe 2a2e d93d 1155 8e3d 68fa 2cbe
00000170: a418 453e 6888 0bbe 1d35 b53d 1606 a0bb
00000180: 52b3 0ebe a326 3e3e 99b3 b43d 1827 75bc
00000190: f84a c7bd a760 9b3d 10b8 d9bd 603b d1bd
000001a0: 1f67 693d b8dd 48be 9ec2 213d 2e46 9bbd
000001b0: c837 19bd 740c c83d 1364 4f3e 3a2b 3abe
000001c0: 703a 2bbb 88aa 05bd 76e9 39bd d6a2 a6bc
000001d0: a0ba e3bc 6177 ac3d ecd2 8ebb e2f1 18be
000001e0: 0a36 ae3d 22d8 91bd 7910 21be a7fa c0bd
000001f0: 6c1d 9a3d 0e22 4e3e b899 02be 26a2 803d
00000200: 3639 0bbe f55f 953c 2bb9 243d 1d15 293e
00000210: 77a0 d33d 73be f6bd 3ae6 b7bd ab16 dc3d
00000220: 293f 0cbe 06f3 4d3e 76c3 17bc a07f 85bd
00000230: 1b8a 833d 2f58 da3c 79d2 2fbe 5c7a 3d3e
00000240: 05d7 e4bd 1c1d eabd 928e d53d e463 983d
00000250: 7601 22be d8d0 edbb 6b6b 80bd a83e 41be
00000260: cb7a adbd 4d9c 8c3d 7674 6a3c e65e 743d
00000270: 612a 31be f76d 27be 30e4 c83d 4e67 1ebc
00000280: c7ab 6bbd 13a3 82bd 2dd4 1b3e 094c 6dbd
00000290: 6237 d63c ecd2 13be c4c9 df3d 4910 afbd
000002a0: 4856 e0bc a734 84bd ce59 0d3d 3588 993d
000002b0: e1cb 85bc edac 32be e411 3abe 2a97 603d
000002c0: 4640 ff3d 4d2c 153e 5a11 9b3d 82cf a3bd
000002d0: 1361 093e 414d 0c3d 1a17 973d b1ca dcbd
000002e0: 8858 4cbd b73e 40be daae 143d f3ed 8cbd
000002f0: 6ddd b6bb 914c 4bbe e64d a53d ccf3 533d

foundation_model.up_path.0.conv_block.block.2.bias f4 [8]
0.089092664 -0.03729911 -0.036763214 0.17298678 -0.1504832 0.021044288 0.029326826 0.06685893
00000000: 3776 b63d f4c6 18bd 0695 16bd 7223 313e
00000010: 4518 1abe 1265 ac3c d03e f03c 56ed 883d

foundation_model.up_path.1.up.weight f4 [8, 4, 2]
-0.29837313 0.2241181 -0.20902033 -0.033707406 -0.118101284 0.34586135 0.049467377 -0.08834493
0.07224821 -0.072314 0.14675815 -0.11360409 0.16861373 0.22628622 -0.13000047 0.13232155
-0.3049294 -0.041647788 0.1625419 -0.30752575 0.22223523 -0.32965347 -0.123463415 0.09815946
0.34094232 0.23794256 0.038672682 0.13164552 -0.28731176 0.28942728 0.21177498 0.19473436
0.28866988 -0.12647094 0.054600693 0.09512961 0.3393103 -0.31566754 0.1441837 -0.14079328
-0.15854245 -0.052899856 -0.32133314 0.25586495 0.24309766 0.28808984 0.17186186 0.31661507
-0.18639043 -0.1620239 -0.16256426 -0.052832507 -0.08475895 0.071526825 0.28950673 0.07031843
-0.34886956 0.10370586 -0.24102569 0.005223259 0.24355812 0.2542482 0.28295472 -0.3345451
00000000: 5dc4 98be 377f 653e 6d09 56be c710 0abd
00000010: 16df f1bd bd14 b13e 4e9e 4a3d 30ee b4bd
00000020: dff6 933d 5d19 94bd c547 163e 43a9 e8bd
00000030: 14a9 2c3e 93b7 673e d81e 05be 4d7f 073e
00000040: b51f 9cbe df96 2abd 6271 263e 0474 9dbe
00000050: a291 633e 57c8 a8be 63da fcbd d407 c93d
00000060: fe8f ae3e 37a7 733e 3f67 1e3d 15ce 063e
00000070: 871a 93be d02f 943e 8adb 583e 7268 473e
00000080: 8acc 933e 9981 01be faa4 5f3d 50d3 c23d
00000090: 14ba ad3e 2d9f a1be e4a4 133e 1d2c 10be
000000a0: f458 22be 85ad 58bd c785 a4be bb00 833e
000000b0: 98ee 783e 8380 933e 8efc 2f3e 5f1b a23e
000000c0: 22dd 3ebe 98e9 25be 3f77 26be e666 58bd
000000d0: 1a96 adbd a87c 923d 3a3a 943e 1c03 903d
000000e0: 089f b2be bd63 d43d 70cf 76be df27 ab3b
000000f0: 4d67 793e d22c 823e 71df 903e 7f49 abbe

foundation_model.up_path.1.up.bias f4 [4]
-0.25278696 0.10082622 0.09858982 0.061172187
00000000: 4b6d 81be fa7d ce3d 76e9 c93d b08f 7a3d

foundation_model.up_path.1.conv_block.block.0.weight f4 [4, 8, 3]
-0.17966753 0.09759627 -0.077318415 -0.07357434 -0.061012346 0.01625329 0.08572934 0.13133748
-0.11837384 -0.05356245 0.112401694 -0.082711324 0.14444764 -0.105468474 -0.09445584 0.03445837
-0.20242287 0.1399806 0.06778127 0.14839232 -0.14794655 -0.18709987 0.16846845 -0.14341262
-0.116367206 -0.19679232 0.18951628 0.14180222 0.19988231 -0.17082804 -0.07461333 0.061652124
-0.06804353 -0.17740877 0.18682931 0.20337746 -0.12107578 -0.09145477 -0.03317529 0.021534754
0.066945195 -0.0020209942 -0.1464089 0.11629006 0.10721725 0.15270665 0.091174714 0.013402816
0.037281785 0.13938121 0.13944565 -0.06714176 0.10064937 -0.11437896 0.067314185 0.08250002
-0.13908176 -0.18661645 0.10853856 -0.15285546 -0.17367263 -0.16115242 -0.0818533 -0.09726592
-0.0863521 0.14131488 -0.08926621 -0.01586398 -0.17619051 -0.080762796 0.1338741 -0.03282367
-0.09342721 0.14880392 0.15584198 0.14985515 -0.053058945 -0.100129314 -0.047603983 -0.0689486
-0.0031925302 0.10614709 0.11528551 -0.053853747 -0.015057761 0.19351983 -0.14357316 0.15857266
-0.03255252 0.15555345 -0.15166087 -0.016237644 0.1445468 0.107409924 -0.10746005 0.034035407
00000000: c4fa 37be 8ee0 c73d 1e59 9ebd 25ae 96bd
00000010: 15e8 79bd 9f25 853c dd92 af3d 557d 063e
00000020: fc6d f2bd 4d64 5bbd dc32 e63d 8e64 a9bd
00000030: 15ea 133e dbff d7bd 1072 c1bd 3824 0d3d
00000040: f147 4fbe 1357 0f3e e8d0 8a3d 28f4 173e
00000050: 4d7f 17be 1c97 3fbe fe82 2c3e c2da 12be
00000060: ee51 eebd ed83 49be 8e10 423e 9a34 113e
00000070: f3ad 4c3e 8ced 2ebe e0ce 98bd f086 7c3d
00000080: 685a 8bbd a5aa 35be 2f50 3f3e 2e42 503e
00000090: 94f6 f7bd a34c bbbd d0e2 07bd a769 b03c
000000a0: 901a 893d a872 04bb 37ec 15be 7c29 ee3d
000000b0: b894 db3d 225f 1c3e cfb9 ba3d 7c97 5b3c
000000c0: c9b4 183d f3b9 0e3e d7ca 0e3e 9e81 89bd
000000d0: 4221 ce3d 843f eabd 05dc 893d c5f5 a83d
000000e0: 736b 0ebe 6218 3fbe 7749 de3d 2486 1cbe
000000f0: 3dd7 31be 2405 25be b4a2 a7bd 5b33 c7bd
00000100: 5fd9 b0bd d9b4 103e 34d1 b6bd 2df5 81bc
00000110: 496b 34be f766 a5bd 4b16 093e 1d72 06bd
00000120: c456 bfbd 0e60 183e 0a95 1f3e a173 193e
00000130: 5654 59bd 9910 cdbd 65fc 42bd ec34 8dbd
00000140: c539 51bb a563 d93d cf1a ec3d bf95 5cbd
00000150: d4b4 76bc 102a 463e d804 13be df60 223e
00000160: cb55 05bd 6749 1f3e fd4c 1bbe cf04 85bc
00000170: 1404 143e bcf9 db3d 0414 dcbd b668 0b3d

foundation_model.up_path.1.conv_block.block.0.bias f4 [4]
-0.021242388 0.05920945 0.16452755 0.18781032
00000000: 8404 aebc 9c85 723d e979 283e 5951 403e

foundation_model.up_path.1.conv_block.block.2.weight f4 [4, 4, 3]
-0.18549642 -0.17722367 -0.21900623 0.1497502 0.2505184 0.24431472 -0.2855278 0.19375704
0.0046155765 0.20209208 0.057677913 0.04515057 -0.018375518 -0.22348695 -0.04837515 -0.2719489
0.10221652 -0.21828549 0.04569109 -0.26414427 0.1262626 -0.20825836 -0.21383643 -0.15842532
-0.0004585844 0.17099676 0.2789677 0.09552593 0.263377 0.20437437 -0.16542663 -0.03078197
-0.18998003 0.25837958 0.17195463 0.11300977 0.24753864 -0.077794336 -0.17597549 0.18659602
-0.08808836 -0.20638074 -0.15300569 0.16103463 0.025063911 0.101215556 -0.27862257 0.011019412
00000000: c6f2 3dbe 1f7a 35be 2b43 60be 1e58 193e
00000010: f343 803e a32d 7a3e b330 92be 3f68 463e
00000020: 433e 973b 3af1 4e3e ad3f 6c3d ceef 383d
00000030: 4188 96bc c3d9 64be 0525 46bd e33c 8bbe
00000040: e556 d13d 3b86 5fbe 9526 3b3d eb3d 87be
00000050: fc4a 013e ae41 55be f0f7 5abe 3f3a 22be
00000060: 286e f0b9 c619 2f3e dbd4 8e3e 19a3 c33d
00000070: 5ad9 863e 8447 513e 9965 29be 782a fcbc
00000080: 208a 42be 544a 843e e014 303e ab71 e73d
00000090: c57a 7d3e a352 9fbd eb32 34be 0713 3f3e
000000a0: ac67 b4bd 7955 53be 86ad 1cbe 43e6 243e
000000b0: d552 cd3c 1a4a cf3d 9ea7 8ebe c48a 343c

foundation_model.up_path.1.conv_block.block.2.bias f4 [4]
0.085069336 0.06300095 -0.096032895 0.27087492
00000000: d538 ae3d a406 813d e5ac c4bd 1eb0 8a3e

foundation_model.last.weight f4 [8, 4, 1]
-0.4408282 -0.21309054 -0.04415244 -0.020295084 0.4003932 -0.18170089 0.13981235 0.36982358
0.38458633 -0.27279478 0.48129988 -0.4629373 0.10565972 -0.14682859 0.18014616 -0.20595616
0.3943761 -0.08927363 -0.092324376 0.050521076 0.102298975 -0.2583472 0.4537776 -0.31885546
-0.38765824 -0.28523874 -0.44847274 -0.100708306 -0.44200647 -0.4352035 -0.03149861 0.19642985
00000000: 3cb4 e1be 6834 5abe 30d9 34bd e041 a6bc
00000010: 5600 cd3e cc0f 3abe f82a 0f3e 8459 bd3e
00000020: 80e8 c43e c2ab 8bbe f06c f63e 1e06 edbe
00000030: 2064 d83d 3c5a 16be 3c78 383e 2ce6 52be
00000040: aaeb c93e 18d5 b6bd 9014 bdbd 30ef 4e3d
00000050: 2082 d13d 1646 84be 8a55 e83e 0641 a3be
00000060: 247b c6be d00a 92be 389e e5be 2840 cebd
00000070: ac4e e2be fed2 debe b004 01bd e824 493e

foundation_model.last.bias f4 [8]
0.38838428 -0.31250787 -0.21455795 0.089912355 -0.38351685 -0.13762575 0.37931013 -0.056905568
00000000: 4eda c63e 0801 a0be 14b5 5bbe f823 b83d
00000010: 525c c4be c4ed 0cbe f034 c23e d015 69bd
