wandb/run-20230704_033117-faxuwok6/files/checkpoints/best.pt (torch, 119813 bytes, 66 tensors)

foundation_model.down_path.0.block.0.weight f4 [4, 8, 3]
0	0x3e2b1764	0.16708142
1	0xbdfcecc6	-0.123498484
2	0x3dda30ee	0.10653864
3	0xbe807766	-0.25091094
4	0xbec56322	-0.38552195
5	0xbea1d0d8	-0.31604648
6	0xbddc02bc	-0.10742709
7	0xbea5264d	-0.32255784
8	0xbec2aaf0	-0.3802104
9	0xbb284929	-0.0025678372
10	0x3e0f0f57	0.13970695
11	0xbe14e700	-0.14541245
12	0x3d8f638e	0.070014104
13	0x3b8dfe4e	0.004333294
14	0xbe3effeb	-0.18652312
15	0xbc63b229	-0.013897457
16	0x3dc62dcf	0.09676706
17	0xbd4c075a	-0.0498117
18	0xbe703926	-0.234593
19	0x3cd90b6b	0.026494702
20	0xbe59e65d	-0.21279283
21	0x3decbfe9	0.115600415
22	0x3d17df36	0.037078105
23	0xbddfea41	-0.10933352
24	0xbdc2b697	-0.095074825
25	0xbe9c9999	-0.30585936
26	0xbe6d1b50	-0.2315495
27	0x3d689ca5	0.056790013
28	0x3e4f3eaf	0.20238756
29	0x3e8d6f5b	0.2762402
30	0xbe2a460e	-0.16628286
31	0x3d8b6877	0.068070345
32	0x3e36f5a7	0.17867146
33	0xbdc31081	-0.09524632
34	0x3e2c3c9b	0.16819994
35	0xbdd9ef6c	-0.10641369
36	0x3d63f466	0.055653
37	0xbd3e20ad	-0.04641788
38	0x3c5f43ca	0.013627002
39	0xbda546be	-0.080701336
40	0x3c955db0	0.01823315
41	0xbde2548c	-0.11051282
42	0x3d0d0763	0.034430873
43	0x3de067f3	0.10957327
44	0x3dc43e95	0.09582249
45	0x3d9838ea	0.074327305
46	0x3e554cf2	0.20830134
47	0xbd917cdb	-0.071038924
48	0x3e8398f6	0.25702637
49	0x3e8aaaa0	0.27083302
50	0x3d9ea34b	0.077459894
51	0xbe0ebc95	-0.13939126
52	0x3df63271	0.1202134
53	0xbe3e5676	-0.1858767
54	0x3e73d804	0.23812872
55	0x3e7aac40	0.2447977
56	0x3eae4365	0.34035793
57	0xbcf722ed	-0.030168021
58	0x3c8d78e3	0.017269557
59	0xbdacdd3e	-0.08440636
60	0xbe19fd54	-0.15038043
61	0x3e3b9d92	0.18321827
62	0xbddebdbc	-0.10876033
63	0x3e2cc326	0.16871318
64	0xbc828b71	-0.015935631
65	0xbd03a976	-0.032144032
66	0xbc1cd1c3	-0.0095714955
67	0x3dd5ed83	0.104456924
68	0x3d282a4c	0.041055962
69	0x3e0613d8	0.13093507
70	0xbd87a2fa	-0.06622882
71	0xbcfa2696	-0.030535977
72	0x3cfc14b4	0.03077159
73	0xbc12b4c7	-0.0089542335
74	0x3ea8e880	0.32989883
75	0x3c9e5f61	0.01933259
76	0xbe5cc675	-0.2156008
77	0x3e189143	0.14899163
78	0x3e80338c	0.25039327
79	0x3eac82e0	0.336936
80	0x3ea3c4f3	0.31986198
81	0xbdd232e0	-0.1026361
82	0x3dbb4bbc	0.091453046
83	0x3ce0101b	0.02735143
84	0x3e27515b	0.16339628
85	0xbd84b6b1	-0.06480158
86	0xbdb9c02f	-0.09069859
87	0x3db274f2	0.08713712
88	0xbcff4340	-0.031159997
89	0xbdb9d489	-0.09073741
90	0x3e038cf8	0.12846744
91	0xbd44e598	-0.04807052
92	0x3e427d27	0.18993054
93	0xbd9b2462	-0.07575299
94	0x3d740968	0.059579283
95	0xbd416db5	-0.047223765

foundation_model.down_path.0.block.0.bias f4 [4]
0	0x3e0c22fb	0.13685219
1	0xbdc801c0	-0.09765959
2	0x3d943688	0.072369635
3	0x3d9c73b9	0.0763926

foundation_model.down_path.0.block.2.weight f4 [4, 4, 3]
0	0x3ecb1edb	0.39671978
1	0x3e4f0c6e	0.20219585
2	0x3e77baa5	0.24192293
3	0xbdd5d91e	-0.104418024
4	0xbc36cde1	-0.011157484
5	0x3e812bf9	0.2522886
6	0x3dc2713b	0.09494253
7	0xbb268474	-0.0025408538
8	0x3d104823	0.035225045
9	0x3e794f2d	0.2434661
10	0xbceb51cf	-0.028725533
11	0xbdf6b10f	-0.1204549
12	0xbe0463e0	-0.12928724
13	0xbeec1068	-0.46106267
14	0xbe861f9f	-0.26196
15	0x3d8d7ff0	0.06909168
16	0x3d8d9b72	0.069144145
17	0x3dec392e	0.11534344
18	0xbdb7d0aa	-0.089753464
19	0x3eb062a8	0.3445027
20	0x3d3d7803	0.04625703
21	0x3ea2d11b	0.3180016
22	0x3eaf472c	0.34233987
23	0x3eab647f	0.3347511
24	0xbed2f083	-0.4119912
25	0xbe8264b0	-0.25467443
26	0xbef85950	-0.4850564
27	0x3e9a3b4b	0.30123362
28	0x3afcf93e	0.0019300354
29	0xbe484002	-0.19555667
30	0x3e9025a4	0.28153718
31	0x3e63a2d0	0.22230077
32	0x3e7f8877	0.24954401
33	0x3e100052	0.14062622
34	0x3eb5537f	0.35415265
35	0xbe0dc6a6	-0.1384531
36	0x3eed7a6d	0.46382466
37	0x3e52f0e9	0.20599712
38	0x3e3d3f56	0.18481192
39	0xbe609c6e	-0.21934673
40	0x3bfca53b	0.0077101267
41	0xbebed875	-0.3727452
42	0xbe1338a6	-0.14377078
43	0x3db01d25	0.08599309
44	0x3d5db11c	0.054123983
45	0x3dfcdbff	0.123466484
46	0xbe630c68	-0.22172701
47	0x3e0693dc	0.13142341

foundation_model.down_path.0.block.2.bias f4 [4]
0	0xbe0ab26f	-0.1354463
1	0xbe11e7fd	-0.14248653
2	0xbda6c618	-0.08143252
3	0x3e4188b1	0.188998

foundation_model.down_path.1.block.0.weight f4 [8, 4, 3]
0	0xbe6e796c	-0.23288506
1	0xbe839673	-0.2570072
2	0xbe9a35d8	-0.30119205
3	0xbcbde614	-0.023180999
4	0x3e726f80	0.23675346
5	0x3e9faa5b	0.31184658
6	0x3ea4cc46	0.32187098
7	0x3d53c983	0.05170585
8	0x3ec14702	0.37749487
9	0xbe195d0b	-0.149769
10	0xbde4c727	-0.11170798
11	0x3dc27f5c	0.09496948
12	0x3dd4b21d	0.10385535
13	0x3e0523d7	0.13001953
14	0xbd86f534	-0.065897375
15	0xbe3c0e1b	-0.18364756
16	0x3ddaf3d4	0.10691038
17	0xbe849adf	-0.25899407
18	0x3c2ad4ed	0.010426742
19	0xbeafb2d7	-0.3431613
20	0xbc15ac9b	-0.009135391
21	0x3e825c2f	0.25460956
22	0x3e98fdaf	0.29881045
23	0x3e8a483c	0.27008235
24	0x3da96e2b	0.08272966
25	0x3c3ac4a6	0.011399424
26	0x3ca11d64	0.019667335
27	0x3e49c275	0.19703086
28	0x3d8d11c3	0.068881534
29	0x3eac74ae	0.3368277
30	0x3eae50e8	0.34046102
31	0x3ec7178e	0.38885158
32	0x3d4bcc69	0.049755488
33	0xbe7b45f7	-0.24538408
34	0x3da9460f	0.08265316
35	0x3d962a83	0.07332327
36	0xbeb6f078	-0.35730338
37	0x3d9148d6	0.070939705
38	0x3d586d3a	0.05283854
39	0x3ee5ea4e	0.44905323
40	0xbdd28822	-0.102798715
41	0x3e7cec41	0.24699499
42	0x3d4c8dd6	0.049939953
43	0x3eb3ad90	0.35093355
44	0x3eb0f5f8	0.3456266
45	0xbda72efa	-0.08163257
46	0x3dfca429	0.123359986
47	0x3e217e3c	0.15770811
48	0xbe9a899d	-0.30183116
49	0x3d65646e	0.05600398
50	0x3e0b047f	0.13575934
51	0x3e122d06	0.14274988
52	0xbd280965	-0.041024584
53	0x3e3c2483	0.18373303
54	0x3ea715d7	0.3263385
55	0x3d59b1fb	0.05314825
56	0x3ebd26df	0.3694372
57	0x3e7406dc	0.23830742
58	0x3e4f0532	0.20216826
59	0x3d9b3d3a	0.075800374
60	0x3ea8e6b8	0.32988524
61	0x3e4f5806	0.20248422
62	0x3ebbe9e5	0.36701885
63	0xbe54dc6e	-0.20787212
64	0xbe6a60f1	-0.22888543
65	0x3da6e384	0.08148864
66	0xbe1dccd7	-0.15410171
67	0x3dfddbf7	0.123954706
68	0xbe935cce	-0.28781742
69	0x3d05ab3e	0.032634012
70	0x3e80cede	0.25157827
71	0xbe40c84a	-0.18826404
72	0x3d015f9c	0.03158532
73	0xbe1a04d0	-0.15040898
74	0xbcc5055b	-0.024050405
75	0x3ec5d063	0.3863555
76	0x3e78d634	0.24300462
77	0xbc564585	-0.013078098
78	0x3e53cc5a	0.20683423
79	0xbd8bbf7b	-0.068236314
80	0x3e37f1a6	0.17963275
81	0xbe7e4482	-0.24830821
82	0xbe1f475b	-0.15554564
83	0x3df997b2	0.12187137
84	0xbe1d11e9	-0.15338863
85	0x3e5401c9	0.20703806
86	0xbcb13945	-0.021633754
87	0xbe8d6362	-0.27614886
88	0xbb3cd1d7	-0.0028811598
89	0xbe7f463c	-0.24929136
90	0xbc276dad	-0.01021902
91	0xbec147c0	-0.37750053
92	0xbea97ce4	-0.33103096
93	0x3b6cb688	0.003611954
94	0x3e6ea129	0.23303665
95	0x3e61348d	0.21992703

foundation_model.down_path.1.block.0.bias f4 [8]
0	0x3e65e31f	0.22449921
1	0xbc59cbfa	-0.013293261
2	0xbe2e9e24	-0.17052513
3	0x3d60ff7a	0.05493114
4	0xbd88df48	-0.066832125
5	0x3d2c0b4f	0.042002972
6	0xbe4f953d	-0.20271774
7	0x3dcee4cd	0.10102234

foundation_model.down_path.1.block.2.weight f4 [8, 8, 3]
0	0xbcf8ad72	-0.030356143
1	0xbe9cf8d1	-0.30658582
2	0xbe95a905	-0.29230514
3	0x3e197f90	0.14990067
4	0x3ea91a82	0.33028036
5	0x3c900418	0.017580077
6	0xbd9254ec	-0.07145104
7	0xbd8df995	-0.069323696
8	0xbe60b0fb	-0.21942513
9	0xbe83a932	-0.25715023
10	0x3d33f30c	0.04393296
11	0xbe416551	-0.18886305
12	0xbdf79413	-0.1208879
13	0x3e42dc73	0.19029407
14	0xbd0fdbcf	-0.035121735
15	0x3e016ecb	0.1263992
16	0xbd0990cb	-0.03358535
17	0x3df9ccaa	0.1219724
18	0xbd62844e	-0.055301957
19	0x3e27eef4	0.16399747
20	0xbe60e7f3	-0.21963482
21	0x3e48bde1	0.19603683
22	0x3e883506	0.26602954
23	0x3c952d29	0.01821001
24	0x3e43dc1e	0.19126937
25	0x3e5d1aab	0.21592204
26	0x3ea52a4b	0.3225883
27	0xbe188a7a	-0.14896575
28	0xbd1f9306	-0.03895857
29	0xbc901784	-0.017589338
30	0x3e9d465e	0.30717748
31	0x3ca20ab6	0.019780498
32	0xbcbd1f64	-0.023086257
33	0x3ea975ff	0.33097836
34	0x3dae68cd	0.08516083
35	0x3dbc85dd	0.0920522
36	0x3df8d89b	0.12150689
37	0x3e07e80c	0.13272113
38	0xbd8b6224	-0.06805828
39	0xbe68823d	-0.22705932
40	0x3c0f8276	0.008759132
41	0xbe6d10aa	-0.23150888
42	0x3e487095	0.19574197
43	0x3a3c80ec	0.0007190842
44	0x3e4ae920	0.19815493
45	0xbde61899	-0.112351604
46	0xbe89358a	-0.2679866
47	0xbe69a72e	-0.2281768
48	0x3e0462d7	0.1292833
49	0x3dcc5aba	0.09978242
50	0x3e061cc8	0.13096917
51	0xbe80ec4f	-0.2518029
52	0xbb83ab5f	-0.0040182318
53	0xbe2e3d98	-0.17015684
54	0x3e324fc4	0.1741324
55	0x3e19b858	0.15011728
56	0x3e24e697	0.16103588
57	0x3dc313fe	0.095252976
58	0x3d037505	0.03209402
59	0x3e66d893	0.22543554
60	0xbc3c8de8	-0.011508442
61	0x3dae87ac	0.08521971
62	0x3ddf6449	0.109078
63	0xbca5a9dc	-0.020222597
64	0xbe645403	-0.22297673
65	0xbe04bf52	-0.12963608
66	0x3e094bfa	0.13407889
67	0x3e769c4f	0.24083064
68	0x3e728379	0.23682965
69	0xbd628e81	-0.055311684
70	0xbd1ec630	-0.038763225
71	0x3d840b8c	0.06447515
72	0xbd5a2e7b	-0.053266983
73	0x3e237e34	0.15966111
74	0x3c40efb3	0.011775899
75	0xbd63e900	-0.055642128
76	0x3d6d85de	0.057988994
77	0xbe1a1dba	-0.15050402
78	0x3e3bc62a	0.18337312
79	0x3db7ddec	0.08977875
80	0x3ea6d1df	0.32581994
81	0x3e167c61	0.14695884
82	0x3df151c1	0.117831714
83	0x3e67d553	0.2263997
84	0x3dbfc7ac	0.09364256
85	0x3e359f81	0.17736627
86	0x3ea023c7	0.31277296
87	0xbd9524ce	-0.072824106
88	0xbcbf47e6	-0.023349714
89	0xbcbbb02f	-0.02291116
90	0x3e9272ec	0.28603303
91	0x3d95a8b7	0.073075704
92	0x3e5a3696	0.21309885
93	0xbddf563d	-0.109051205
94	0xbdefc6b1	-0.11707819
95	0xbc8f3b2e	-0.017484274
96	0xbe9eed33	-0.31040344
97	0xbdd3076b	-0.10304149
98	0xbe96caea	-0.29451686
99	0x3d3d6fe1	0.046249274
100	0x3e069a99	0.13144912
101	0x3deea8b8	0.11653274
102	0x3d709801	0.058738712
103	0x3dbfec2e	0.093712196
104	0xbe5e1ba0	-0.21690226
105	0xbc3abf06	-0.011398083
106	0xbe1d8388	-0.15382206
107	0x3b768680	0.003761679
108	0xbd6fbd38	-0.058530062
109	0xbdba0eed	-0.09084878
110	0x3df8a16b	0.12140163
111	0x3e42734c	0.18989295
112	0x3e06cf1c	0.13164943
113	0x3da874c0	0.08225393
114	0x3cee421e	0.029084262
115	0xbe49d7cb	-0.19711225
116	0xbe0fa132	-0.14026335
117	0xbd0f4c9a	-0.034985162
118	0x3e2ffa18	0.17185247
119	0xbdb240cc	-0.08703765
120	0x3e63d41d	0.22248884
121	0xbcda8c56	-0.026678246
122	0x3dc0ba89	0.09410579
123	0xbd1644d1	-0.036686722
124	0x3d5cbeb5	0.05389281
125	0xbe3c7e2b	-0.18407504
126	0x3e0b80d6	0.13623366
127	0x3e8bdebb	0.27318367
128	0x3e1623a0	0.14662027
129	0x3e8d088d	0.27545586
130	0x3e87a695	0.2649428
131	0x3e964627	0.29350397
132	0xbced75c8	-0.028986827
133	0xbda7d3ff	-0.08194732
134	0x3e4db940	0.20090199
135	0xbdc9dc1b	-0.09856435
136	0xbe2341ca	-0.15943065
137	0xbe91cfa3	-0.28478727
138	0x3e678d14	0.22612411
139	0x3e87e325	0.26540485
140	0x3e1b000d	0.15136738
141	0xbdb60ad8	-0.08888787
142	0xbdfc944d	-0.12332974
143	0xbe3f1619	-0.18660773
144	0x3e856138	0.26050735
145	0x3e653d6d	0.22386713
146	0x3df7d477	0.12101071
147	0xbe24b086	-0.16082963
148	0xbe8604ec	-0.2617563
149	0xbe54b448	-0.20771897
150	0x3e2cff15	0.16894181
151	0x3e3de66a	0.18544927
152	0x3e87ac5d	0.2649869
153	0xbc938404	-0.018007286
154	0x3dcf261a	0.10114689
155	0x3eb5e34c	0.35524976
156	0x3dc0afdc	0.094085425
157	0x3dbdba83	0.0926409
158	0x3d4233ff	0.04741287
159	0xbdda706c	-0.10665974
160	0xbd5aeef5	-0.053450543
161	0xbe8301b9	-0.25587252
162	0x3d883976	0.06651585
163	0xbd8f2b1b	-0.069906436
164	0x3d2d7a35	0.042352874
165	0xbe076b42	-0.1322451
166	0x3de7163e	0.11283539
167	0xbd707d3c	-0.058713183
168	0x3e2ea036	0.17053303
169	0xbcffebc1	-0.031240346
170	0x3e80e6a6	0.2517597
171	0xbe3fa3b1	-0.18714787
172	0xbe85dacb	-0.26143488
173	0xbd73d07f	-0.05952501
174	0x3e62f724	0.22164589
175	0x3db43617	0.08799379
176	0x3e5b4677	0.21413599
177	0x3ea8dcef	0.3298106
178	0x3e464734	0.193631
179	0x3cd16f3a	0.025565732
180	0x3d4c0740	0.0498116
181	0x3d0491cf	0.032365616
182	0x3e2d710a	0.16937652
183	0xbd25ef00	-0.04051113
184	0xbe812ff5	-0.252319
185	0xbd21ebb4	-0.039531425
186	0x3e7e5ca9	0.24840035
187	0x3ccd4a41	0.025059821
188	0x3c86d730	0.016460031
189	0x3c4cf630	0.012509868
190	0xbdfda7fe	-0.123855576
191	0xbe64b681	-0.22335245

foundation_model.down_path.1.block.2.bias f4 [8]
0	0x3d74f432	0.059803195
1	0xbd91ddbc	-0.071223706
2	0x3d268729	0.040656243
3	0x3dfbae72	0.12289132
4	0x3db6bbf4	0.08922568
5	0x3d963a1c	0.07335302
6	0xbd1b1919	-0.037865732
7	0x3d90c1b5	0.07068197

foundation_model.down_path.2.block.0.weight f4 [16, 8, 3]
0	0x3e4e826a	0.20166937
1	0x3d994cad	0.07485328
2	0x3e5b16d0	0.21395421
3	0xbe7e7d88	-0.24852574
4	0xbe36453a	-0.17799845
5	0xbebd6e7d	-0.36998358
6	0xbeafd095	-0.34338823
7	0xbe786f16	-0.24261126
8	0xbe45007c	-0.19238466
9	0xbeb3432c	-0.35012186
10	0x3c9f01a9	0.019409971
11	0xbc747752	-0.014921026
12	0x3e30173b	0.17196362
13	0x3e48fa88	0.1962682
14	0x3e7e21b0	0.24817538
15	0xbe2ae27b	-0.16687958
16	0xbebcae3e	-0.36851686
17	0xbebbe13e	-0.36695284
18	0xbdd6b241	-0.10483218
19	0xbeb07147	-0.34461424
20	0xbec14513	-0.37748012
21	0xbe1db8c4	-0.15402514
22	0xbdccc191	-0.09997857
23	0xbd05a3c7	-0.032626893
24	0xbcb0d24f	-0.021584658
25	0x3d26b76c	0.04070227
26	0xbd829e6d	-0.063778736
27	0x3e5c5075	0.21515067
28	0x3d94dcfd	0.07268713
29	0x3e8f0a00	0.27937317
30	0x3d88d4e5	0.066812314
31	0x3e8835c2	0.26603514
32	0x3d290bb5	0.04127093
33	0x3e701774	0.23446447
34	0x3d21d4ce	0.039509587
35	0x3d2486ff	0.040167805
36	0xbe272df5	-0.16326125
37	0xbcf1faf3	-0.029538607
38	0xbe536d17	-0.20647083
39	0x3afe452d	0.0019399278
40	0x3c9799c4	0.018505938
41	0x3e9400ef	0.28906962
42	0x3e828817	0.25494453
43	0x3d3395bd	0.043843973
44	0x3cf65380	0.030069113
45	0x3ddaaa7b	0.10677048
46	0xbc9d1494	-0.019174851
47	0x3e4a34ae	0.19746658
48	0x3df9fd14	0.12206474
49	0x3d87582e	0.06608616
50	0x3e71ebb1	0.23625065
51	0x3ab1d736	0.0013568166
52	0xbe67c3d6	-0.22633299
53	0x3c86f4ef	0.016474215
54	0xbe7e4759	-0.24831904
55	0xbe2b4e71	-0.16729142
56	0xbd13e7cf	-0.03610974
57	0xbdbb4e09	-0.091457434
58	0xbed2d37d	-0.41176978
59	0xbecb711f	-0.39734742
60	0x3e030b8b	0.12797372
61	0x3e81a31c	0.25319755
62	0xbd0d7e49	-0.034544263
63	0xbe1b02f1	-0.15137841
64	0xbe00c103	-0.12573628
65	0xbeb470ab	-0.3524221
66	0xbedc6308	-0.43044305
67	0xbec0ad31	-0.37632135
68	0xbd495f00	-0.049162865
69	0xbe53e8f1	-0.20694329
70	0xbea30a49	-0.31843784
71	0xbe27efa2	-0.16400006
72	0x3ec25c2b	0.37960944
73	0x3ea85629	0.32878235
74	0x3e605bc5	0.21910007
75	0xbe4d8027	-0.20068417
76	0xbe32ce40	-0.1746149
77	0xbe78e259	-0.24305095
78	0xbe8e1669	-0.27751473
79	0xbe7264d6	-0.23671278
80	0xbdb2f55f	-0.08738207
81	0xbeb881dc	-0.36036575
82	0xbdfb660e	-0.12275325
83	0xbe8768b5	-0.26447073
84	0x3e9a4079	0.30127314
85	0xbc985f9e	-0.018600281
86	0x3e61fb40	0.220685
87	0xbddbbeb8	-0.10729736
88	0xbe1e1869	-0.15438999
89	0xbe1be7bf	-0.15225123
90	0xbea2711f	-0.3172693
91	0xbe98650d	-0.29764596
92	0xbe0adb54	-0.1356023
93	0xbe873033	-0.2640396
94	0xbd8038e5	-0.06260852
95	0xbe88b9f8	-0.26704383
96	0x3e9d299d	0.3069581
97	0x3ea56234	0.32301486
98	0x3e140bd3	0.14457636
99	0x3c744e74	0.014911283
100	0xbe9b8a1d	-0.3037881
101	0xbd9d7f20	-0.07690263
102	0xbebbb608	-0.36662316
103	0xbe0767d0	-0.13223195
104	0xbedfb00b	-0.43688998
105	0xbe890a06	-0.2676546
106	0xbdca2be0	-0.0987165
107	0xbd43d28c	-0.047808215
108	0x3dbe6773	0.09297075
109	0x3e75af8b	0.23992746
110	0x3e931b6f	0.28731868
111	0xbebf59a6	-0.37373084
112	0xbe98e402	-0.29861456
113	0xbe1b45ff	-0.1516342
114	0xbe30a4ae	-0.1725032
115	0xbe3005da	-0.17189732
116	0xbe10c23d	-0.14136596
117	0xbe4329c9	-0.19058909
118	0xbea17e13	-0.315415
119	0xbea209b0	-0.31648016
120	0x3e91eede	0.28502554
121	0x3e506a43	0.20353036
122	0x3dd9220c	0.10602197
123	0xbe94b455	-0.29043832
124	0xbe9c9b3d	-0.30587187
125	0xbdfb69f1	-0.12276066
126	0xbeb54b87	-0.35409185
127	0xbeb1a4f2	-0.34696156
128	0xbe0b0f2f	-0.13580011
129	0xbed161a9	-0.4089482
130	0xbe694535	-0.22780307
131	0xbe3c2a10	-0.1837542
132	0x3d5e18d8	0.05422291
133	0x3e2237c6	0.15841588
134	0x3e0c2459	0.1368574
135	0xbea8c7f1	-0.32965043
136	0xbe0d8531	-0.1382034
137	0xbebc1d94	-0.36741316
138	0xbe1ad0f2	-0.15118769
139	0xbebe8341	-0.37209514
140	0xbe9f0b6e	-0.31063408
141	0xbeb35dba	-0.35032445
142	0xbe4465e6	-0.19179496
143	0xbeb149c8	-0.34626603
144	0x3e225a1f	0.15854691
145	0x3e3b47c3	0.18289094
146	0x3e0367cc	0.12832564
147	0xbe5110e3	-0.20416598
148	0xbe04c077	-0.12964045
149	0xbe539944	-0.20663935
150	0xbccfc6ae	-0.025363293
151	0xbe8c3f2b	-0.27391943
152	0x3d8446c7	0.06458812
153	0x3cd3926a	0.025826652
154	0xbe3c36bf	-0.18380259
155	0xbe8fb2b4	-0.28066027
156	0x3d47d11e	0.048783414
157	0x3d4d52bf	0.05012774
158	0xbd79649a	-0.060886957
159	0xbd6a9a14	-0.057275847
160	0xbe9ef6c5	-0.31047645
161	0x3d284d6e	0.041089468
162	0xbc903f46	-0.017608296
163	0xbe299715	-0.1656154
164	0xbd1e7063	-0.0386814
165	0xbd84c489	-0.064827986
166	0x3bf95389	0.007608835
167	0xbcbeebcb	-0.023305794
168	0x3dd1c749	0.10243089
169	0xbe966325	-0.29372516
170	0xbe783bb3	-0.24241523
171	0x3c125023	0.008930239
172	0x3d74d39a	0.05977211
173	0x3ce1c8e8	0.02756162
174	0x3e99bce3	0.30026922
175	0xbd922cdb	-0.07137462
176	0x3dc6a75e	0.096998915
177	0x3e77d116	0.24200854
178	0x3e1ff4c3	0.15620713
179	0x3df3eb27	0.11910086
180	0xbe3d82c7	-0.18506919
181	0x3db499a7	0.08818369
182	0xbd7c15bc	-0.061544165
183	0x3e5dc824	0.21658379
184	0xbd8586c4	-0.06519845
185	0x3e8dcde9	0.2769616
186	0xbd458095	-0.04821833
187	0x3dcd1c6e	0.10015188
188	0x3ea8197f	0.32831952
189	0x3e04beb9	0.1296338
190	0x3e8219dd	0.25410357
191	0x3e3b2388	0.18275273
192	0xbcdd00b5	-0.026977876
193	0xbe90cd61	-0.28281692
194	0x3c85efb0	0.016349643
195	0x3e963e89	0.29344586
196	0x3e98443f	0.29739568
197	0x3cd06dcb	0.025442978
198	0x3e30fcba	0.17283908
199	0x3e9aabb0	0.30209112
200	0x3e451524	0.19246346
201	0x3e4ab6e2	0.19796327
202	0xbde66d16	-0.11251275
203	0x3e8c4b7c	0.2740134
204	0x3cd8f292	0.026482854
205	0xbe74fd71	-0.23924805
206	0xbe4c0ee2	-0.19927552
207	0xbd5cc923	-0.053902756
208	0x3e375810	0.17904687
209	0x3e2919af	0.16513704
210	0x3c9161ab	0.017746767
211	0x3e0e93cc	0.13923568
212	0x3e83d9dd	0.25752154
213	0x3e56895d	0.20950837
214	0x3e31cc37	0.17363058
215	0x3d95ff64	0.073241025
216	0xbcf850f0	-0.030312032
217	0x3dcc28ed	0.099687435
218	0xbe6cf640	-0.23140812
219	0x3cd9f4da	0.026606012
220	0x3e96c949	0.29450443
221	0x3ce838ca	0.028347392
222	0x3e7b1a4f	0.24521755
223	0x3d399c28	0.045314938
224	0x3e8196f6	0.25310487
225	0x3dd33cdc	0.103143424
226	0x3e647786	0.2231122
227	0x3e91a512	0.2844625
228	0xbe043f7a	-0.1291484
229	0x3d6e7b09	0.058222804
230	0xbe02079e	-0.12698218
231	0x3d9dac92	0.07698931
232	0x3e038da2	0.12846997
233	0x3e80057e	0.2500419
234	0x3e398a77	0.18119226
235	0x3dbbe08b	0.091736875
236	0x3e384463	0.17994837
237	0x379d3a23	1.874293e-05
238	0x3df5451a	0.11976071
239	0x3d827905	0.06370739
240	0x3d9ebbf6	0.077506945
241	0x3d246deb	0.04014389
242	0x3dc6a16f	0.0969876
243	0x3c138431	0.009003685
244	0xbeb9cf19	-0.36290815
245	0xbead4e83	-0.33848962
246	0xbec9e50b	-0.39432558
247	0xbed41eeb	-0.4142984
248	0xbeabc7e5	-0.33550945
249	0xbe33a677	-0.1754397
250	0xbed3c766	-0.41363066
251	0xbe99ec55	-0.3006312
252	0x3d0d1df2	0.034452386
253	0x3ddae9b3	0.10689106
254	0x3ea803ec	0.32815492
255	0xbe48cf7f	-0.19610403

foundation_model.down_path.2.block.0.bias f4 [16]
0	0x3e4a8b9f	0.19779824
1	0xbe2d0ce3	-0.16899447
2	0x3c85b704	0.01632262
3	0x3e19e69d	0.15029378
4	0x3d394176	0.045228444
5	0x3cf3ad08	0.029745594
6	0xbd24dcea	-0.040249743
7	0x3c74f237	0.014950327
8	0x3da55fe8	0.08074933
9	0x3d21e450	0.039524376
10	0x3d0b560c	0.034017608
11	0xbe1d5e03	-0.15367894
12	0x3dc8a6a7	0.097974114
13	0xbd9c6d33	-0.076380156
14	0x3d740034	0.059570506
15	0x3e89344d	0.26797715

foundation_model.down_path.2.block.2.weight f4 [16, 16, 3]
0	0x3e16017b	0.14649002
1	0x3e2b27c1	0.16714384
2	0x3e21e92e	0.15811607
3	0xbddc6ad0	-0.1076256
4	0xbdf6e3bc	-0.12055156
5	0xbe4050a7	-0.18780766
6	0x3de6176d	0.11234937
7	0x3dbec889	0.09315593
8	0x3e8a8144	0.27051747
9	0x3dfcb395	0.1233894
10	0x3e14c385	0.1452771
11	0x3de4ae43	0.1116605
12	0x3e953b3c	0.29146755
13	0x3e9b88ae	0.30377716
14	0x3ea366d8	0.319144
15	0x3e816abe	0.2527675
16	0x3dfbeeb1	0.12301386
17	0x3e817138	0.25281692
18	0x3e42843c	0.18995756
19	0x3e1b4d91	0.15166308
20	0x3e47e770	0.1952188
21	0xbe629b9f	-0.22129677
22	0xbd562e78	-0.05229041
23	0xbe1adf6e	-0.15124294
24	0xbd90c020	-0.07067895
25	0xbd2183a2	-0.039432175
26	0xbe754ea0	-0.23955774
27	0xbe383a7d	-0.17991062
28	0xbda2eba3	-0.079551004
29	0xbe892ef0	-0.26793623
30	0x3e270269	0.16309513
31	0x3e5bd4d9	0.21467914
32	0x3e8e8796	0.2783782
33	0x3e5e28be	0.2169523
34	0x3e3512a0	0.17682886
35	0x3e2863d6	0.16444334
36	0xbd94a349	-0.07257707
37	0xbdff2d42	-0.12459804
38	0xbe6ded66	-0.23235092
39	0xbe696bdb	-0.2279505
40	0xbe28f5a7	-0.16499959
41	0xbe263298	-0.16230237
42	0x3e7031b4	0.2345646
43	0x3e74f15f	0.23920201
44	0x3d8beb6c	0.068320125
45	0x3e03a1ba	0.12854663
46	0xbc2e2f79	-0.010631436
47	0x3d8b0034	0.06787148
48	0x3e376a7b	0.17911713
49	0x3d85cf3b	0.06533667
50	0xbd106dd2	-0.035260983
51	0x3c44a6ef	0.012002691
52	0xbdf70223	-0.120609544
53	0x3c970bc3	0.018438226
54	0x3e7c3b51	0.24632002
55	0x3e9308bb	0.28717598
56	0x3e57bfb8	0.21069229
57	0x3dbcfd27	0.092279725
58	0x3d2552fc	0.040362343
59	0xbd02ff93	-0.031982016
60	0x3d43503c	0.04768394
61	0x3e0f7207	0.14008342
62	0x3e91b9d0	0.28462076
63	0x3e2a399f	0.16623543
64	0x3ea3f597	0.32023308
65	0x3df9b83a	0.121933416
66	0x3d427adc	0.04748045
67	0x3e110796	0.1416305
68	0x3e06b9f3	0.13156871
69	0xbd9edb9f	-0.07756733
70	0xbe6e7300	-0.23286057
71	0xbe20b7eb	-0.15695159
72	0xbdaa761b	-0.08323308
73	0xbe470ce9	-0.19438519
74	0xbe69c8bc	-0.2283048
75	0xbd62041a	-0.055179693
76	0xbe4ba802	-0.19888309
77	0xbe6fb1eb	-0.23407714
78	0x3e478ed2	0.19488075
79	0x3ddf67d3	0.10908475
80	0x3e8158b1	0.2526298
81	0x3e01d265	0.12677915
82	0x3e8b27dc	0.27178848
83	0x3dd9d0ef	0.10635554
84	0xbde66ca0	-0.11251187
85	0xbe228592	-0.15871266
86	0xbe6bd445	-0.23030193
87	0xbe247b4b	-0.16062658
88	0xbcf1670e	-0.029468086
89	0xbd57c03d	-0.052673567
90	0x3c5cf248	0.013485499
91	0x3e1eed21	0.15520145
92	0x3d941ab3	0.07231655
93	0x3e4b9f4f	0.1988499
94	0x3e4b9417	0.1988071
95	0x3e30e72c	0.17275685
96	0x3e3c6f86	0.18401918
97	0xbccbcdc4	-0.02487839
98	0xbd4ddf51	-0.0502618
99	0xbe0921df	-0.13391827
100	0xbda9764b	-0.08274516
101	0xbe559a6b	-0.20859687
102	0x3e4805db	0.19533484
103	0x3e0a30d9	0.13495196
104	0x3e99b39e	0.3001985
105	0x3e532392	0.20619038
106	0x3e5d5fa2	0.21618512
107	0x3da3af79	0.07992453
108	0x3e86e024	0.2634288
109	0x3d98abcc	0.07454643
110	0x3dc3e23a	0.09564634
111	0x3e537e7b	0.20653717
112	0x3e15cbea	0.14628568
113	0x3e02bc32	0.12767103
114	0x3dea6fe8	0.11447126
115	0x3e37171d	0.17879911
116	0x3db7b7c1	0.08970595
117	0xbe30cfc4	-0.17266756
118	0xbcd77f1e	-0.026305731
119	0xbce7757d	-0.028254265
120	0xbe11a7f2	-0.14224222
121	0xbe1c6bf1	-0.15275551
122	0xbe7451fc	-0.238594
123	0xbe647881	-0.22311594
124	0xbe4a1b64	-0.19737011
125	0xbdaf5051	-0.08560241
126	0x3e9e1623	0.30876264
127	0x3e67dffe	0.2264404
128	0x3e9a6b49	0.30159977
129	0x3e823c4f	0.25436637
130	0x3de3b4a4	0.11118439
131	0x3dd49e95	0.103818096
132	0xbe7009e1	-0.23441269
133	0xbe353222	-0.17694905
134	0xbe2bff51	-0.16796614
135	0xbd3b87f3	-0.04578395
136	0xbd2ac9ec	-0.041696474
137	0xbd14ad90	-0.036298335
138	0x3dea468d	0.11439238
139	0x3d8b6fbb	0.0680842
140	0x3e279070	0.16363692
141	0xbc7d7c56	-0.0154715385
142	0x3e40d403	0.18830876
143	0x3dbb6327	0.09149771
144	0x3baa2ce5	0.00519334
145	0x3e22652f	0.15858911
146	0xbd4d6495	-0.05014475
147	0x3c459746	0.012059992
148	0xbd8e79e9	-0.06956846
149	0xbd6af293	-0.057360243
150	0xbd76d581	-0.060262207
151	0x3c684bea	0.014178256
152	0x3da02fbf	0.07821607
153	0x3e0cfdf1	0.13768746
154	0xbdc3532b	-0.095373474
155	0x3dfbb0e9	0.12289602
156	0xbd06fad1	-0.03295404
157	0x3d117df8	0.035520524
158	0xbd86647b	-0.06562134
159	0x3d8c9681	0.06864644
160	0xbe22c1af	-0.15894197
161	0xbdc77942	-0.09739925
162	0xbdca655f	-0.09882616
163	0xbe1f2ed1	-0.15545203
164	0x3dc2f076	0.095185205
165	0x3d8ee076	0.06976406
166	0x3dc7ee17	0.09762209
167	0x3d5f3931	0.0544979
168	0x3e01ebef	0.12687658
169	0x3def1745	0.1167436
170	0x3de1dfc7	0.1102901
171	0x3d08877e	0.03333234
172	0x3e2cdd1f	0.16881226
173	0x3e30e57c	0.17275041
174	0x3d716521	0.058934335
175	0x3da1cab0	0.07899988
176	0xbdfc2d54	-0.12313333
177	0xbe152614	-0.14565307
178	0xbe8fe495	-0.28104082
179	0xbd333b6b	-0.043757837
180	0x3e77b412	0.24189785
181	0x3ce0f31b	0.027459672
182	0x3df8bb86	0.12145142
183	0x3c7dbbd1	0.015486673
184	0x3e30433c	0.17213148
185	0x3e388f0c	0.18023318
186	0xbddfe5e0	-0.10932517
187	0xbdba2376	-0.09088795
188	0x3e0da460	0.13832235
189	0x3e6e4240	0.2326746
190	0xbcbf5407	-0.023355497
191	0x3e5974ce	0.21235964
192	0x3e00b2f2	0.12568262
193	0x3e945c18	0.28976512
194	0x3d7a3890	0.0610891
195	0xbe6179f1	-0.22019173
196	0xbe353cd5	-0.17698987
197	0xbe392f32	-0.1808441
198	0x3d79fa98	0.06103
199	0x3e143c6a	0.14476171
200	0x3d82b669	0.06382448
201	0x3d81b4d6	0.0633332
202	0x3e97c919	0.29645613
203	0x3d6dc30e	0.058047347
204	0x3e55761f	0.20845841
205	0x3e41de8c	0.18932551
206	0x3e4974f7	0.19673525
207	0x3e275923	0.16342597
208	0x3e4cac85	0.19987686
209	0x3e0d075e	0.13772342
210	0x3c0e4954	0.008684475
211	0x3caee3e8	0.021348909
212	0x3d8ffa59	0.07030172
213	0xbe3c9dec	-0.18419617
214	0xbe30b0d1	-0.1725495
215	0xbe301593	-0.1719573
216	0xbe8ec11a	-0.278817
217	0xbdbb2d2e	-0.09139477
218	0xbda92b5f	-0.082602255
219	0xbe87101a	-0.26379472
220	0xbd7ef168	-0.06224194
221	0xbdce1391	-0.10062326
222	0x3e72e573	0.2372034
223	0x3e0a5488	0.13508809
224	0x3ea3ee0d	0.32017556
225	0x3dec2f07	0.11532407
226	0x3dac3838	0.084091604
227	0x3e78739f	0.24262856
228	0xbbd9ebaa	-0.006650408
229	0xbe820bc0	-0.2539959
230	0xbde01592	-0.10941614
231	0xbdd2d559	-0.10294599
232	0xbdbda873	-0.09260645
233	0xbe771d02	-0.2413216
234	0x3e436b0d	0.19083805
235	0x3d89758c	0.067118734
236	0x3e7b7f07	0.24560176
237	0x3e21337b	0.15742294
238	0x3cd6a6a0	0.0262025
239	0x3e4f28d3	0.20230417
240	0x3dbcd341	0.09219981
241	0x3df20d36	0.11818926
242	0x3d801112	0.06253256
243	0x3d4f34bd	0.050587405
244	0x3e0c9c03	0.13731389
245	0xbd4e94f6	-0.05043503
246	0x3d1369a3	0.035989415
247	0xbdcc490b	-0.09974869
248	0x3d13f986	0.036126636
249	0x3d59e265	0.053194422
250	0x3d76d12f	0.060258087
251	0xbb057864	-0.0020365948
252	0xbdc613ad	-0.096717216
253	0xbde898cc	-0.11357269
254	0x3c94d707	0.01816894
255	0xbe82e7bb	-0.2556742

foundation_model.down_path.2.block.2.bias f4 [16]
0	0x3e09685f	0.1341872
1	0x3d8ce992	0.068804875
2	0x3d716ac8	0.058939725
3	0x3e0e7b62	0.13914254
4	0x3e02494c	0.12723273
5	0x3e107ecf	0.14110874
6	0x3dc527b5	0.09626714
7	0xbbb5320f	-0.005529649
8	0x3def7be8	0.11693555
9	0x3dfce580	0.12348461
10	0xbc961cd8	-0.0183243
11	0x3df710de	0.12063764
12	0x3e826d40	0.25473976
13	0xbd70aad8	-0.05875668
14	0x3e2d50f0	0.16925406
15	0x3d9d875c	0.076918334

foundation_model.up_path.0.up.weight f4 [16, 8, 2]
0	0x3e5adf00	0.2137413
1	0x3d8f8f44	0.070097476
2	0xbd462c08	-0.048381835
3	0x3e3d60f2	0.18494013
4	0xbc896de0	-0.016776025
5	0x3de8f3a8	0.11374599
6	0xbe4b7ada	-0.19871083
7	0x3e03aa52	0.12857941
8	0x3d436418	0.04770288
9	0xbbebc880	-0.0071955323
10	0x3da5d3a8	0.08097011
11	0xbe1eb730	-0.15499568
12	0xbe3811ec	-0.17975587
13	0xbe3ae9cc	-0.18253249
14	0xbe3ec3d8	-0.18629396
15	0x3e119b70	0.14219451
16	0xbe0149f8	-0.12625873
17	0x3d2e32d0	0.042528927
18	0xbe7aed98	-0.24504697
19	0x3e5ce140	0.21570301
20	0x3c3443a0	0.011002451
21	0x3d16a190	0.03677517
22	0xbe78bb82	-0.24290279
23	0x3d1be7e0	0.03806293
24	0xbdce72f8	-0.10080522
25	0x3e7c3c2c	0.24632329
26	0xbe216aba	-0.15763369
27	0xbd6263f0	-0.05527109
28	0xbd02eba8	-0.03196302
29	0xbe1dee20	-0.15422869
30	0x3e6a7d6c	0.22899407
31	0x3e6b2b8a	0.22965828
32	0x3e25a30c	0.16175479
33	0xbd6437f0	-0.05571741
34	0x3d926440	0.071480274
35	0xbe009a7c	-0.12558931
36	0xbe02ee96	-0.12786326
37	0xbd2ada70	-0.041712224
38	0x3dc6c24c	0.09705028
39	0xbdabbe30	-0.08385885
40	0x3d5fa3b0	0.054599464
41	0x3d987434	0.07444039
42	0x3e524c08	0.20536816
43	0x3e5739d0	0.21018147
44	0xbd24e5d0	-0.04025823
45	0xbe7b56a8	-0.24544775
46	0x3d5a0788	0.05322984
47	0x3e454acc	0.19266814
48	0xbe60c458	-0.21949899
49	0xbe066bb2	-0.1312702
50	0x3e59b96a	0.21262136
51	0x3e063eec	0.1310994
52	0x393bd000	0.00017911196
53	0x3e5c3b34	0.21506959
54	0xbdd44b08	-0.103658736
55	0x3e27d7b0	0.16390872
56	0x3dd071d8	0.10177964
57	0xbc844990	-0.016148359
58	0xbdc9dcd0	-0.0985657
59	0x3e58c3bc	0.21168417
60	0x3e571786	0.21005067
61	0x3e6ebdba	0.23314562
62	0x3e5b3d6c	0.2141015
63	0xbe5150e6	-0.20441017
64	0xbe46ab7a	-0.1940135
65	0x3e0d9692	0.1382697
66	0xbd3ed7b0	-0.046592414
67	0x3e1e2794	0.15444785
68	0x3e218896	0.1577476
69	0x3e3a81c2	0.18213561
70	0xbe70fd40	-0.23534107
71	0xbd9de0d0	-0.07708895
72	0x3e5c2d62	0.21501687
73	0x3e68bfec	0.22729462
74	0x3c4a5380	0.0123490095
75	0x3b60af00	0.0034283996
76	0xbe4eac02	-0.20182803
77	0x3e4f3c26	0.20237789
78	0x3d896230	0.06708181
79	0xbe4b38ee	-0.19845936
80	0x3e5780b0	0.21045184
81	0xbe5f6a94	-0.21818
82	0x3db038e4	0.08604601
83	0xbe7a418a	-0.24439064
84	0x3e0033d4	0.12519771
85	0x3dc255a8	0.09488994
86	0x3e5d1fd6	0.21594176
87	0xbe1e2772	-0.15444735
88	0x3e100fee	0.14068577
89	0xbe5cae3a	-0.21550837
90	0xbd65f9a8	-0.056146294
91	0x3e64867e	0.2231693
92	0x3d619f50	0.055083573
93	0xbe158f18	-0.14605367
94	0xbdeb2c70	-0.11483085
95	0x3e788cf0	0.24272513
96	0xbe7962f2	-0.24354151
97	0xbe5a7226	-0.21332607
98	0x3d186238	0.037203044
99	0xbced5830	-0.028972715
100	0x3df721bc	0.12066981
101	0xbd560640	-0.052252054
102	0xbe36e50a	-0.17860809
103	0x3dd02d0c	0.10164842
104	0x3e008e38	0.12554252
105	0x3c970620	0.018435538
106	0xbe0c9a24	-0.13730675
107	0xbe3fc1ac	-0.18726224
108	0xbe0dc590	-0.13844895
109	0x3ce2a2e0	0.027665555
110	0xbcc16090	-0.023605615
111	0xbe2fa118	-0.17151296
112	0xbd396f30	-0.045272052
113	0xbdcb7b10	-0.09935582
114	0xbd0ca420	-0.03433621
115	0x3dc38174	0.095461756
116	0x3cdc6dc0	0.026907802
117	0x3e742f9c	0.23846287
118	0x3e7d57ec	0.24740571
119	0xbe1481e8	-0.1450268
120	0xbda27c8c	-0.07933912
121	0x3df1b4a0	0.118020296
122	0xbdcdd920	-0.10051179
123	0xbe74431e	-0.23853728
124	0x3c08a820	0.008340865
125	0x3e662a3a	0.22477046
126	0x3d293158	0.041306823
127	0x3e520438	0.20509422
128	0x3e6852a0	0.22687769
129	0xbe61cfb8	-0.22051895
130	0x3d88f6d8	0.06687707
131	0x3e181b62	0.14854196
132	0x3e27e8f2	0.16397455
133	0x3d0c4e70	0.03425449
134	0x3ce6b830	0.028164
135	0x3e3c15d2	0.18367699
136	0x3e22e814	0.15908843
137	0x3e2c01a6	0.16797504
138	0xbd34bc70	-0.04412502
139	0x3d0e6eb8	0.03477356
140	0x3d83d780	0.06437588
141	0xbe43b770	-0.19112945
142	0x3e61ee6a	0.22063604
143	0xbe29a66a	-0.16567388
144	0xbd967de8	-0.073482335
145	0x3d921af0	0.07134044
146	0xbda995d0	-0.082805276
147	0xbdd57060	-0.104218245
148	0x3e425598	0.18977964
149	0x3d017188	0.031602412
150	0x3d634ab8	0.05549118
151	0xbd97d578	-0.07413763
152	0x3e6874f8	0.2270087
153	0x3e43e316	0.19129595
154	0xbe4c8466	-0.19972381
155	0xbe6984b0	-0.22804523
156	0xbe5b3c26	-0.21409664
157	0x3e4e4a0e	0.20145437
158	0x3e215182	0.15753749
159	0x3e0fd944	0.14047724
160	0xbe2ad790	-0.16683793
161	0x3d8db308	0.06918913
162	0x3e564c18	0.20927465
163	0x3e518e82	0.20464519
164	0x3e6e9164	0.2329765
165	0x3dd91c68	0.10601121
166	0x3d3ded68	0.046368986
167	0xbe58b4fe	-0.21162793
168	0x3dd56f04	0.10421565
169	0x3e0f0d30	0.13969874
170	0x3e22c65e	0.15895984
171	0xbd4df030	-0.05027789
172	0xbe425cf6	-0.18980774
173	0xbd49d4a0	-0.04927504
174	0xbc6de580	-0.014520049
175	0x3d43acf0	0.047772348
176	0xbe35f240	-0.17768192
177	0x3cb13190	0.021630079
178	0xbe713608	-0.23555768
179	0xbe2ccd88	-0.16875279
180	0xbd510de0	-0.051038623
181	0xbe00e82e	-0.1258857
182	0xbe5c22aa	-0.21497598
183	0xbdc50314	-0.09619728
184	0x3d84e868	0.064896405
185	0x3db6dc88	0.08928782
186	0x3b5a6e80	0.0033330023
187	0x3c93b690	0.018031389
188	0xbe674104	-0.22583395
189	0xbc85b5f0	-0.016322106
190	0xbc9ef8a0	-0.019405663
191	0x3e67322a	0.2257773
192	0xbd270f48	-0.040786058
193	0xbdd5a020	-0.10430932
194	0x3d9444e4	0.07239702
195	0xbc601de0	-0.013678998
196	0x3e19a49a	0.15004197
197	0x3e6cffe8	0.23144495
198	0x3e050c5e	0.12992999
199	0xbe16f9ac	-0.1474368
200	0xbdb7d9d8	-0.08977097
201	0x3e01e166	0.12683639
202	0xbd2b7af8	-0.04186532
203	0xbdc3e484	-0.0956507
204	0x3e2794ae	0.1636531
205	0xbe66efec	-0.2255246
206	0xbe7a6388	-0.2445203
207	0x3dc45878	0.095871866
208	0x3e71ad94	0.23601371
209	0x3d31bfe0	0.043395877
210	0xbe2cdd04	-0.16881186
211	0xbe38a6f8	-0.18032444
212	0xbb07e200	-0.0020734072
213	0x3e22fee2	0.15917543
214	0x3e2fecf2	0.17180231
215	0xbdcaae0c	-0.09896478
216	0xbdaa4dd8	-0.08315629
217	0x3ded6450	0.11591399
218	0x3e755db4	0.23961526
219	0x3dd86000	0.105651855
220	0xbe1f75b0	-0.15572238
221	0x3cb0cf40	0.0215832
222	0xbc9ffc40	-0.019529462
223	0x3c4843c0	0.012223184
224	0x3d47b290	0.048754275
225	0x3e5f5670	0.21810317
226	0x3e3d26ee	0.18471882
227	0xbe5f21e4	-0.21790272
228	0x3e61c4de	0.22047755
229	0x3db06870	0.0861367
230	0xbe7dd27a	-0.24787322
231	0x3e632db0	0.22185397
232	0x3dd4cf18	0.103910625
233	0xbe6ea848	-0.23306382
234	0xbdc33f54	-0.09533563
235	0x3dd709dc	0.104999274
236	0x3dfa151c	0.122110575
237	0xbe596396	-0.21229395
238	0xbde5a0d0	-0.11212313
239	0x3d909964	0.07060507
240	0x3e0cd1d4	0.13751918
241	0xbe77c7fc	-0.24197382
242	0x3e5cb20a	0.21552292
243	0xbcb21ed0	-0.021743208
244	0xbca32870	-0.019916743
245	0x3de7d900	0.11320686
246	0x3e455f80	0.19274712
247	0x3e56216e	0.2091119
248	0x3e03a2aa	0.1285502
249	0xbe626626	-0.22109279
250	0xbcb43690	-0.021998674
251	0xbdc84c88	-0.09780222
252	0x3e3b9f20	0.1832242
253	0x3e7e3d54	0.24828082
254	0xbe1db7d4	-0.15402156
255	0x3c7a73e0	0.015286416

foundation_model.up_path.0.up.bias f4 [8]
0	0xbdacc9f4	-0.08436957
1	0xbe190f18	-0.14947164
2	0x3de74010	0.11291516
3	0xbd5d27f8	-0.053993195
4	0x3e6ac7b2	0.2292774
5	0xbe50825e	-0.20362231
6	0x3da6bf00	0.08141899
7	0x3e128f82	0.14312556

foundation_model.up_path.0.conv_block.block.0.weight f4 [8, 16, 3]
0	0x3d8ba4e8	0.06818563
1	0x3e004104	0.12524801
2	0x3bdafb8e	0.0066828197
3	0xbc7bc582	-0.015366914
4	0x3ca96a1e	0.020680483
5	0x3d90a80c	0.070633024
6	0x3d7727ec	0.060340807
7	0xbcc6526a	-0.02420922
8	0x3d2012a9	0.039080296
9	0xbc3df48d	-0.01159395
10	0x3da5ce5c	0.080960006
11	0x3c9b57b5	0.01896272
12	0xbde55452	-0.111977234
13	0x3cef4345	0.029206881
14	0xbdc61645	-0.09672216
15	0xbd6c2535	-0.05765267
16	0x3dbfb162	0.09360005
17	0x3dd96d69	0.106165715
18	0x3e07ef4f	0.13274883
19	0xbdd1d5bc	-0.10245845
20	0xbe08bc2c	-0.13353032
21	0xbca2d67e	-0.019877668
22	0x3cfefdbf	0.031126855
23	0x3d8e82b8	0.069585264
24	0xbca50d7d	-0.020148033
25	0x3de5693e	0.11201714
26	0x3ddd6117	0.10809534
27	0x3d993ce2	0.074823156
28	0xbe13a463	-0.14418177
29	0xbdfe540d	-0.12418375
30	0xbd5037a5	-0.050834317
31	0xbdb3c492	-0.08777727
32	0x3daf6bbd	0.08565471
33	0x3d2cd96c	0.042199537
34	0xbdaee457	-0.08539646
35	0x3e066746	0.13125333
36	0x3e13b8bd	0.14425941
37	0xbe1257bd	-0.14291282
38	0x3ce44c31	0.027868362
39	0x3d49a96f	0.04923385
40	0x3de85da0	0.113459826
41	0xbe13998e	-0.14414045
42	0x3d74c56e	0.059758596
43	0xbcea116a	-0.028572757
44	0x3d7f9e12	0.062406607
45	0x3a1d1ffe	0.0005993842
46	0xbdf3a2da	-0.11896296
47	0x3d6000bd	0.054688204
48	0xbbf7b51f	-0.007559433
49	0xbdddacf5	-0.108240046
50	0x3d013c9b	0.03155194
51	0xbccbf38d	-0.024896407
52	0xbca6af0e	-0.020347144
53	0x3dbfc988	0.09364611
54	0xbd7ad616	-0.061239325
55	0x3c262630	0.010140941
56	0xbcf490d6	-0.02985422
57	0x3bd36d94	0.0064522717
58	0x3d650d19	0.055920694
59	0x3d108672	0.035284467
60	0xbc01a9ac	-0.007913988
61	0x3d5b36fd	0.053519238
62	0xbdcc7f09	-0.099851675
63	0x3d40c639	0.04706404
64	0x3c598954	0.0132773705
65	0xbd90eff0	-0.070770144
66	0x3c8f5fa3	0.017501658
67	0xbd9fcdbe	-0.07802914
68	0xbdc05b42	-0.09392406
69	0xbd975df4	-0.07390967
70	0x3d8aa4ea	0.06769736
71	0x3dd03531	0.101663955
72	0xbb0a6b73	-0.0021121174
73	0xbd2835d0	-0.041066945
74	0x3ced10ad	0.028938616
75	0xbe0be43a	-0.1366128
76	0xbc44c290	-0.012009278
77	0xbbc0d9f1	-0.0058853556
78	0xbd71058c	-0.05884318
79	0xbdfeda54	-0.124439865
80	0x3e1388a7	0.14407597
81	0xbdf5e8ad	-0.1200727
82	0x3b94e68a	0.004544084
83	0x3da8afe5	0.08236674
84	0xbdef4340	-0.11682749
85	0x3daef7d6	0.08543365
86	0xbdd11282	-0.10208608
87	0xbdd18ad2	-0.10231556
88	0x3da4c5b5	0.08045522
89	0xbde42acc	-0.11140975
90	0xbdbc79ee	-0.09202944
91	0xbde7e3f3	-0.11322775
92	0x3dff068f	0.12452423
93	0x3d9c0b8f	0.07619392
94	0x3c63947d	0.013890383
95	0xbc65872c	-0.014009278
96	0x3ddacf17	0.106840305
97	0x3dc993aa	0.09842618
98	0x3d4e20f7	0.050324406
99	0xbdb151ee	-0.08658205
100	0x3d90fe43	0.070797466
101	0xbdb0a6e1	-0.086255796
102	0xbda7e9c4	-0.08198884
103	0xbdad168d	-0.08451567
104	0xbdee468d	-0.1163455
105	0x3dea02d4	0.11426321
106	0xbb6661c6	-0.0035153492
107	0x3d9a4efe	0.07534598
108	0xbdef47b1	-0.11683596
109	0xbc7e5a6e	-0.01552449
110	0x3e04d718	0.12972677
111	0xbb77d7e8	-0.00378179
112	0xba76694a	-0.00093998446
113	0xbc79cea2	-0.015247019
114	0xbdc01f4c	-0.093809694
115	0x3d8ef60b	0.06980523
116	0xbdcd319c	-0.10019228
117	0x3d6e7bd0	0.058223546
118	0xbd119f2a	-0.03555218
119	0x3e10c4c8	0.14137566
120	0x3ddbd031	0.10733069
121	0xbdf7b227	-0.12094527
122	0xba83621e	-0.0010023748
123	0x3e0aba0c	0.13547534
124	0x3c68acde	0.014201371
125	0x3da29cfc	0.07940099
126	0x3d97ae32	0.07406272
127	0xbde78bc2	-0.113059536
128	0xbd027fde	-0.031860225
129	0x3e126dcc	0.14299697
130	0xbca74e55	-0.020423094
131	0x3df9ee0c	0.12203607
132	0x3d2f2d4d	0.04276781
133	0xbd993435	-0.07480661
134	0x3db3a447	0.08771568
135	0xbb8b708e	-0.004255361
136	0x3bbc449f	0.005745485
137	0xbd8380d1	-0.06421054
138	0x3ddc5295	0.10757939
139	0x3d704d1a	0.05866728
140	0xbd81147f	-0.063027374
141	0xbdcca6b8	-0.099927366
142	0x3d656603	0.05600549
143	0xbc40d111	-0.011768595
144	0xbd9dac48	-0.07698876
145	0xbdf4e800	-0.11958313
146	0x3da02764	0.07820013
147	0x3da2aabe	0.07942723
148	0x3cb4705a	0.02202623
149	0x3d95a734	0.07307282
150	0x3cf97b7f	0.030454395
151	0xbdfdf019	-0.123993106
152	0x3df463ec	0.11933121
153	0x3da57418	0.08078784
154	0xbdc40f75	-0.09573261
155	0x3e0789a3	0.13236098
156	0x3d2bfee5	0.041991133
157	0x3dfd278f	0.12361061
158	0x3d18266e	0.037146024
159	0x3c581ffb	0.0131912185
160	0x3db516e4	0.08842257
161	0xbd6bc600	-0.057561874
162	0xbca4a9f7	-0.020100577
163	0xbdbd31c7	-0.0923801
164	0x3d3c0055	0.045898754
165	0xbd9c2375	-0.076239504
166	0x3d957dc5	0.07299379
167	0xbd75843e	-0.05994057
168	0x3d0f91a1	0.035050992
169	0xbe0b52d6	-0.13605818
170	0x3d3d4967	0.04621258
171	0xbdf5104c	-0.11965999
172	0x3d5c61d6	0.05380424
173	0xbdd216a1	-0.10258222
174	0xbbb170c3	-0.0054150536
175	0xbdd5fae5	-0.10448245
176	0x3dd351a6	0.103183076
177	0x3d603e9b	0.054747205
178	0x3d7f0471	0.062260095
179	0xbe0695cd	-0.13143082
180	0x3e05b0ab	0.13055675
181	0x3c2b8943	0.010469737
182	0xbc5eda81	-0.0136019
183	0x3db0fcb5	0.0864195
184	0x3d5a27b9	0.05326054
185	0xbe136094	-0.1439231
186	0xbd9ba9ec	-0.076007694
187	0xbda0500b	-0.07827767
188	0x3cbcf656	0.02306668
189	0xbdf27266	-0.11838226
190	0xbdb27346	-0.08713393
191	0x3d84105e	0.06448434
192	0x3db77442	0.08957721
193	0xbdba0d85	-0.0908461
194	0x3df3b592	0.11899866
195	0x3dc3f154	0.09567514
196	0x3d8872b8	0.06662506
197	0xbdebfb33	-0.11522522
198	0x3d01faa9	0.03173319
199	0x3d2b7483	0.04185916
200	0x3d0475a4	0.032338753
201	0x3d97edae	0.07418381
202	0x3e12c650	0.14333463
203	0xbe0d1692	-0.13778141
204	0x3d92fce7	0.071771435
205	0xbaa44b64	-0.0012534675
206	0x3d807ceb	0.06273826
207	0x3d91344f	0.07090055
208	0xbd696b7b	-0.056987267
209	0x3d70912d	0.0587322
210	0x3cee7d46	0.02911247
211	0x3d7d3547	0.061818387
212	0xbdedaf81	-0.1160574
213	0x3d4e1775	0.05031534
214	0x3ca4bf8b	0.020110866
215	0x3cb29e11	0.021803888
216	0x3d730c71	0.059338037
217	0x3d6f2c1a	0.058391668
218	0xbd367289	-0.044542823
219	0xbdfd15cc	-0.12357673
220	0xbddcd04f	-0.10781919
221	0x3d91f9cc	0.07127723
222	0xbd55830c	-0.05212693
223	0xbc4ce5c9	-0.012505957
224	0xbda1246a	-0.078682736
225	0xbcbbcf47	-0.022925986
226	0x3dd7fd0f	0.10546314
227	0x3bc052fd	0.005869268
228	0x3dd5a662	0.10432126
229	0x3c6fd258	0.014637552
230	0x3df3e486	0.11908822
231	0x3dfc1664	0.12308958
232	0x3df7c20f	0.120975606
233	0x3d8cd20c	0.06876001
234	0xbcfac4e9	-0.030611472
235	0xbdcabd1c	-0.09899351
236	0xbc0ace77	-0.008472077
237	0x3d9d8589	0.076914854
238	0xbd47ae6e	-0.048750333
239	0xbe01129c	-0.12604755
240	0x3d2c692f	0.0420925
241	0x3dfe23ec	0.12409195
242	0x3bb41a78	0.0054963194
243	0xbd07d8d2	-0.03316576
244	0x3decf3bf	0.115699284
245	0x3e10944f	0.14119075
246	0xbd11b0c1	-0.035568956
247	0x3dba1242	0.09085514
248	0xbd0d3410	-0.03447348
249	0xbdaa8ff9	-0.08328242
250	0x3d4ae2a1	0.049532536
251	0xbdb84890	-0.08998215
252	0x3d2a559b	0.041585546
253	0x3aa6b11d	0.0012717579
254	0x3d56b231	0.05241603
255	0x3c202b45	0.009775941

foundation_model.up_path.0.conv_block.block.0.bias f4 [8]
0	0xbdbf972f	-0.09355008
1	0x3d5b4660	0.05353391
2	0x3dc229ef	0.094806544
3	0x3dfdcc5f	0.12392496
4	0xbc27d85b	-0.010244454
5	0x3dbbe7d0	0.09175074
6	0x3dd70afb	0.10500141
7	0xbda665b0	-0.08124864

foundation_model.up_path.0.conv_block.block.2.weight f4 [8, 8, 3]
0	0x3e085d2f	0.13316797
1	0xbe14d62a	-0.14534822
2	0x3df05a44	0.11735967
3	0x3e24011c	0.16016048
4	0xbdd12181	-0.102114685
5	0xbe0e756f	-0.13911985
6	0x3d9a4721	0.07533098
7	0x3e19d9cb	0.15024488
8	0xbd80ec94	-0.06295124
9	0xbd218aea	-0.03943912
10	0x3d171326	0.036883496
11	0x3e242653	0.16030245
12	0x3c387fc7	0.011260933
13	0xbe0faaed	-0.14030047
14	0xbe2118fd	-0.15732189
15	0xbe14b0eb	-0.14520614
16	0xbe4f6894	-0.20254737
17	0x3e11df24	0.14245278
18	0xbdb083ef	-0.08618914
19	0xbe0a0358	-0.13477838
20	0xbdce76e0	-0.10081267
21	0x3dcf4481	0.10120488
22	0xbdb83a6d	-0.08995519
23	0x3dcfd773	0.101485156
24	0x3e32174f	0.17391704
25	0x3e07aa57	0.13248573
26	0x3e3d6eba	0.1849927
27	0x3d872d69	0.06600458
28	0xbdba740f	-0.09104168
29	0x3c8184f5	0.01581047
30	0x3e4cc054	0.19995242
31	0x3d04c28b	0.032412093
32	0x3e226a7b	0.15860932
33	0x3d375bb4	0.04476519
34	0x3e1ab69e	0.15108725
35	0x3ce6cb13	0.028173005
36	0xbc4eab59	-0.012614095
37	0x3e14fe39	0.14550103
38	0x3de9f25f	0.11423182
39	0xbe01b9e5	-0.1266857
40	0x3e419d7a	0.18907729
41	0x3e3d135c	0.18464416
42	0x3da0d872	0.07853784
43	0x3de2d36a	0.1107548
44	0xbe4d60a4	-0.20056397
45	0xbd7ad26b	-0.061235826
46	0x3e253ad3	0.16135721
47	0xbe3e8fa5	-0.18609484
48	0xbdc82f69	-0.09774668
49	0x3da1fe4c	0.079098314
50	0x3e3d6ffb	0.18499748
51	0x3cf448da	0.029819895
52	0x3dba233d	0.090887524
53	0xbe11c1e0	-0.14234114
54	0xbb5d848c	-0.0033800928
55	0xbd6264b1	-0.055271808
56	0x3e220557	0.1582235
57	0x3c99cf72	0.018775675
58	0xbdbd7ea4	-0.092526704
59	0x3e482584	0.19545561
60	0xbd2295dc	-0.0396937
61	0x3e02c2ef	0.12769674
62	0xbe02c058	-0.12768686
63	0x3da34710	0.079725385
64	0x3c5a195d	0.013311711
65	0x3e47ec37	0.19523703
66	0x3e2d6e1d	0.16936536
67	0xbe193244	-0.14960581
68	0xbe3dc499	-0.18532027
69	0x3d85b14e	0.06527959
70	0xbe41aed7	-0.18914352
71	0x3d496eb6	0.049177848
72	0x3d8c50fd	0.06851385
73	0xbd9e2d0d	-0.077234365
74	0xbdd0706d	-0.101776935
75	0x3e084c4b	0.13310353
76	0xbe101234	-0.14069444
77	0xbd224f5c	-0.039626464
78	0x3d37ee23	0.04490484
79	0x3e1e3841	0.15451147
80	0xbe3f83a9	-0.18702568
81	0x3d44da60	0.04805982
82	0x3d073d99	0.03301773
83	0xbd233837	-0.039848533
84	0xbd99f325	-0.07517079
85	0xbdacfd2b	-0.084467255
86	0xbe359398	-0.17732084
87	0xbe042f7c	-0.12908739
88	0xbe4e3e3b	-0.20140927
89	0x3dd92e2a	0.10604508
90	0x3d8e5511	0.06949819
91	0xbe2cfa68	-0.16892397
92	0x3e4518a4	0.19247681
93	0xbe0b8868	-0.13626254
94	0x3db5351d	0.08848021
95	0xbba00616	-0.004883538
96	0xbe0eb352	-0.13935593
97	0x3e3e26a3	0.18569426
98	0x3db4b399	0.08823318
99	0xbc752718	-0.014962934
100	0xbdc74af8	-0.09731096
101	0x3d9b60a7	0.07586794
102	0xbdd9b810	-0.1063081
103	0xbdd13b60	-0.10216403
104	0x3d69671f	0.05698311
105	0xbe48ddb8	-0.19615829
106	0x3d21c29e	0.039492242
107	0xbd9b462e	-0.07581745
108	0xbd1937c8	-0.037406713
109	0x3dc80c74	0.09768
110	0x3e4f6413	0.20253019
111	0xbe3a2b3a	-0.18180552
112	0xbb2b3a70	-0.002612736
113	0xbd05aa88	-0.032633334
114	0xbd39e976	-0.04538866
115	0xbca6a2d6	-0.020341318
116	0xbce3baa0	-0.02779895
117	0x3dac7761	0.08421207
118	0xbb8ed2ec	-0.00435864
119	0xbe18f1e2	-0.14936021
120	0x3dae360a	0.08506401
121	0xbd91d822	-0.07121302
122	0xbe211079	-0.1572894
123	0xbdc0faa7	-0.09422808
124	0x3d9a1d6c	0.07525143
125	0x3e4e220e	0.20130178
126	0xbe0299b8	-0.12753952
127	0x3d80a226	0.06280927
128	0xbe0b3936	-0.13596043
129	0x3c955ff5	0.018234232
130	0x3d24b92b	0.040215652
131	0x3e29151d	0.1651196
132	0x3dd3a077	0.103333406
133	0xbdf6be73	-0.12048044
134	0xbdb7e63a	-0.08979459
135	0x3ddc16ab	0.10746511
136	0xbe0c3f29	-0.13695969
137	0x3e4df306	0.20112237
138	0xbc17c376	-0.00926291
139	0xbd857fa0	-0.06518483
140	0x3d838a1b	0.06422826
141	0x3cda582f	0.026653377
142	0xbe2fd279	-0.17170133
143	0x3e3d7a5c	0.18503708
144	0xbde4d705	-0.11173824
145	0xbdea1d1c	-0.114313334
146	0x3dd58e92	0.10427584
147	0x3d9863e4	0.074409276
148	0xbe220176	-0.1582087
149	0xbbedd0d8	-0.007257562
150	0xbd806b6b	-0.06270488
151	0xbe413ea8	-0.18871558
152	0xbdad7acb	-0.084706865
153	0x3d8c9c4d	0.068657495
154	0x3c6a7476	0.014309993
155	0x3d745ee6	0.059660815
156	0xbe312a61	-0.17301323
157	0xbe276df7	-0.16350542
158	0x3dc8e430	0.09809148
159	0xbc1e674e	-0.009668184
160	0xbd6babc7	-0.057536867
161	0xbd82a313	-0.0637876
162	0x3e1bd42d	0.15217657
163	0xbd6d4c09	-0.05793384
164	0x3cd63762	0.026149455
165	0xbe13d2ec	-0.14435929
166	0x3ddfc9c4	0.109271556
167	0xbdaf1049	-0.08548028
168	0xbce05648	-0.027384892
169	0xbd8434a7	-0.06455355
170	0x3d0d59ce	0.034509473
171	0x3d998835	0.074966826
172	0xbc85cbe1	-0.016332569
173	0xbe32aced	-0.17448778
174	0xbe3a11e4	-0.18170887
175	0x3d60972a	0.05483166
176	0x3dff4046	0.12463431
177	0x3e152c4d	0.1456768
178	0x3d9b115a	0.07571669
179	0xbda3cf82	-0.07998563
180	0x3e096113	0.13415937
181	0x3d0c4d41	0.034253363
182	0x3d97171a	0.07377453
183	0xbddccab1	-0.10780848
184	0xbd4c5888	-0.049889117
185	0xbe403eb7	-0.18773924
186	0x3d14aeda	0.036299564
187	0xbd8cedf3	-0.06881323
188	0xbbb6dd6d	-0.005580595
189	0xbe4b4c91	-0.19853427
190	0x3da54de6	0.080714986
191	0x3d53f3cc	0.051746175

foundation_model.up_path.0.conv_block.block.2.bias f4 [8]
0	0x3db67637	0.089092664
1	0xbd18c6f4	-0.03729911
2	0xbd169506	-0.036763214
3	0x3e312372	0.17298678
4	0xbe1a1845	-0.1504832
5	0x3cac6512	0.021044288
6	0x3cf03ed0	0.029326826
7	0x3d88ed56	0.06685893

foundation_model.up_path.1.up.weight f4 [8, 4, 2]
0	0xbe98c45d	-0.29837313
1	0x3e657f37	0.2241181
2	0xbe56096d	-0.20902033
3	0xbd0a10c7	-0.033707406
4	0xbdf1df16	-0.118101284
5	0x3eb114bd	0.34586135
6	0x3d4a9e4e	0.049467377
7	0xbdb4ee30	-0.08834493
8	0x3d93f6df	0.07224821
9	0xbd94195d	-0.072314
10	0x3e1647c5	0.14675815
11	0xbde8a943	-0.11360409
12	0x3e2ca914	0.16861373
13	0x3e67b793	0.22628622
14	0xbe051ed8	-0.13000047
15	0x3e077f4d	0.13232155
16	0xbe9c1fb5	-0.3049294
17	0xbd2a96df	-0.041647788
18	0x3e267162	0.1625419
19	0xbe9d7404	-0.30752575
20	0x3e6391a2	0.22223523
21	0xbea8c857	-0.32965347
22	0xbdfcda63	-0.123463415
23	0x3dc907d4	0.09815946
24	0x3eae8ffe	0.34094232
25	0x3e73a737	0.23794256
26	0x3d1e673f	0.038672682
27	0x3e06ce15	0.13164552
28	0xbe931a87	-0.28731176
29	0x3e942fd0	0.28942728
30	0x3e58db8a	0.21177498
31	0x3e476872	0.19473436
32	0x3e93cc8a	0.28866988
33	0xbe018199	-0.12647094
34	0x3d5fa4fa	0.054600693
35	0x3dc2d350	0.09512961
36	0x3eadba14	0.3393103
37	0xbea19f2d	-0.31566754
38	0x3e13a4e4	0.1441837
39	0xbe102c1d	-0.14079328
40	0xbe2258f4	-0.15854245
41	0xbd58ad85	-0.052899856
42	0xbea485c7	-0.32133314
43	0x3e8300bb	0.25586495
44	0x3e78ee98	0.24309766
45	0x3e938083	0.28808984
46	0x3e2ffc8e	0.17186186
47	0x3ea21b5f	0.31661507
48	0xbe3edd22	-0.18639043
49	0xbe25e998	-0.1620239
50	0xbe26773f	-0.16256426
51	0xbd5866e6	-0.052832507
52	0xbdad961a	-0.08475895
53	0x3d927ca8	0.071526825
54	0x3e943a3a	0.28950673
55	0x3d90031c	0.07031843
56	0xbeb29f08	-0.34886956
57	0x3dd463bd	0.10370586
58	0xbe76cf70	-0.24102569
59	0x3bab27df	0.005223259
60	0x3e79674d	0.24355812
61	0x3e822cd2	0.2542482
62	0x3e90df71	0.28295472
63	0xbeab497f	-0.3345451

foundation_model.up_path.1.up.bias f4 [4]
0	0xbe816d4b	-0.25278696
1	0x3dce7dfa	0.10082622
2	0x3dc9e976	0.09858982
3	0x3d7a8fb0	0.061172187

foundation_model.up_path.1.conv_block.block.0.weight f4 [4, 8, 3]
0	0xbe37fac4	-0.17966753
1	0x3dc7e08e	0.09759627
2	0xbd9e591e	-0.077318415
3	0xbd96ae25	-0.07357434
4	0xbd79e815	-0.061012346
5	0x3c85259f	0.01625329
6	0x3daf92dd	0.08572934
7	0x3e067d55	0.13133748
8	0xbdf26dfc	-0.11837384
9	0xbd5b644d	-0.05356245
10	0x3de632dc	0.112401694
11	0xbda9648e	-0.082711324
12	0x3e13ea15	0.14444764
13	0xbdd7ffdb	-0.105468474
14	0xbdc17210	-0.09445584
15	0x3d0d2438	0.03445837
16	0xbe4f47f1	-0.20242287
17	0x3e0f5713	0.1399806
18	0x3d8ad0e8	0.06778127
19	0x3e17f428	0.14839232
20	0xbe177f4d	-0.14794655
21	0xbe3f971c	-0.18709987
22	0x3e2c82fe	0.16846845
23	0xbe12dac2	-0.14341262
24	0xbdee51ee	-0.116367206
25	0xbe4983ed	-0.19679232
26	0x3e42108e	0.18951628
27	0x3e11349a	0.14180222
28	0x3e4cadf3	0.19988231
29	0xbe2eed8c	-0.17082804
30	0xbd98cee0	-0.07461333
31	0x3d7c86f0	0.061652124
32	0xbd8b5a68	-0.06804353
33	0xbe35aaa5	-0.17740877
34	0x3e3f502f	0.18682931
35	0x3e50422e	0.20337746
36	0xbdf7f694	-0.12107578
37	0xbdbb4ca3	-0.09145477
38	0xbd07e2d0	-0.03317529
39	0x3cb069a7	0.021534754
40	0x3d891a90	0.066945195
41	0xbb0472a8	-0.0020209942
42	0xbe15ec37	-0.1464089
43	0x3dee297c	0.11629006
44	0x3ddb94b8	0.10721725
45	0x3e1c5f22	0.15270665
46	0x3dbab9cf	0.091174714
47	0x3c5b977c	0.013402816
48	0x3d18b4c9	0.037281785
49	0x3e0eb9f3	0.13938121
50	0x3e0ecad7	0.13944565
51	0xbd89819e	-0.06714176
52	0x3dce2142	0.10064937
53	0xbdea3f84	-0.11437896
54	0x3d89dc05	0.067314185
55	0x3da8f5c5	0.08250002
56	0xbe0e6b73	-0.13908176
57	0xbe3f1862	-0.18661645
58	0x3dde4977	0.10853856
59	0xbe1c8624	-0.15285546
60	0xbe31d73d	-0.17367263
61	0xbe250524	-0.16115242
62	0xbda7a2b4	-0.0818533
63	0xbdc7335b	-0.09726592
64	0xbdb0d95f	-0.0863521
65	0x3e10b4d9	0.14131488
66	0xbdb6d134	-0.08926621
67	0xbc81f52d	-0.01586398
68	0xbe346b49	-0.17619051
69	0xbda566f7	-0.080762796
70	0x3e09164b	0.1338741
71	0xbd06721d	-0.03282367
72	0xbdbf56c4	-0.09342721
73	0x3e18600e	0.14880392
74	0x3e1f950a	0.15584198
75	0x3e1973a1	0.14985515
76	0xbd595456	-0.053058945
77	0xbdcd1099	-0.100129314
78	0xbd42fc65	-0.047603983
79	0xbd8d34ec	-0.0689486
80	0xbb5139c5	-0.0031925302
81	0x3dd963a5	0.10614709
82	0x3dec1acf	0.11528551
83	0xbd5c95bf	-0.053853747
84	0xbc76b4d4	-0.015057761
85	0x3e462a10	0.19351983
86	0xbe1304d8	-0.14357316
87	0x3e2260df	0.15857266
88	0xbd0555cb	-0.03255252
89	0x3e1f4967	0.15555345
90	0xbe1b4cfd	-0.15166087
91	0xbc8504cf	-0.016237644
92	0x3e140414	0.1445468
93	0x3ddbf9bc	0.107409924
94	0xbddc1404	-0.10746005
95	0x3d0b68b6	0.034035407

foundation_model.up_path.1.conv_block.block.0.bias f4 [4]
0	0xbcae0484	-0.021242388
1	0x3d72859c	0.05920945
2	0x3e2879e9	0.16452755
3	0x3e405159	0.18781032
