wandb/run-20230701_195106-ejfta8a5/files/checkpoints/best.pt (torch, 119813 bytes, 66 tensors)

foundation_model.down_path.0.block.0.weight f4 [4, 8, 3]
000000 65 e4 f6 3d a2 e4 34 be f1 44 6d 3d 2c c2 a2 3d
       0.120552815 -0.17665341 0.057927076 0.079471916
000010 02 07 63 bd e7 cc 61 3c 41 dc 10 3e bb 8a a3 bd
       -0.055426605 0.013781763 0.1414652 -0.07985445
000020 95 b8 0c be fb 91 b1 3b 59 6d 1a 3e 31 d0 10 be
       -0.13742287 0.0054190136 0.15080775 -0.14141919
000030 fb 01 73 3b 40 fb 93 3d 42 cc fb bd 51 78 e4 3d
       0.0037080038 0.072256565 -0.122948185 0.11155761
000040 38 8e 65 3e 99 ca 98 3d fb 2c 48 be cf a4 8e 3d
       0.22417533 0.074605174 -0.19548409 0.069650285
000050 e1 cd 32 be f8 72 86 3d 0e 25 67 bc 73 5e 26 be
       -0.17461349 0.06564897 -0.014107956 -0.16246967
000060 95 05 79 bd 01 2f 8d be 18 64 4c be d4 56 ab 3c
       -0.06079634 -0.27574924 -0.19960058 0.020915426
000070 7a 8d 2e 3e af 0c 7c 3e d3 45 85 be 8f e4 bc bc
       0.17046157 0.24614213 -0.26029834 -0.023058204
000080 0a 3b b8 3d f9 09 df bd 90 e9 22 3e d2 b4 ef bd
       0.08995636 -0.10890574 0.1590941 -0.117044106
000090 f4 a3 7f bc 50 85 90 bd df 2d b7 3c 4d ec 3c ba
       -0.015603054 -0.07056677 0.02236074 -0.00072068424
0000a0 37 8f cc 3d a5 2c ff bc 73 7d ab bb d7 0b 9d 3d
       0.099882536 -0.031149218 -0.0052334606 0.07668274
0000b0 68 c4 76 3d c2 c4 0c 3b d2 c4 0c 3e 1b 70 16 be
       0.0602459 0.0021479581 0.13746956 -0.14691202
0000c0 d9 ae 26 3e df 21 35 3e 47 71 ad bc 42 5a 24 be
       0.16277637 0.17688702 -0.021172179 -0.16050056
0000d0 f1 59 d2 3d d1 5d 55 be f7 02 1e bc d1 e6 27 bb
       0.10271061 -0.2083657 -0.009644262 -0.0025619755
0000e0 08 1c c3 3d 6c 9d 40 bd c4 ca 70 3a 5d 9c d3 bd
       0.09526831 -0.04702513 0.0009185488 -0.10332558
0000f0 d1 de 01 be eb da 47 3e c3 89 36 bd 9e 93 70 3d
       -0.12682654 0.19517104 -0.044564974 0.05873453
000100 b3 cb 04 be ce 98 15 be fe 34 8b 3d 46 f3 3a 3e
       -0.1296833 -0.14609072 0.06797217 0.18256864
000110 0f b4 f3 3d 5a ea 02 3e c4 ac 94 bd 4e 2a 15 bd
       0.11899578 0.1278471 -0.07259515 -0.036417298
000120 7a 3e 26 bd 53 2a a6 bd f1 c0 86 3e d7 2e 20 bd
       -0.040586926 -0.081135415 0.26319078 -0.03910717
000130 7e 5e 8e be 43 4f bd 3d 6d 61 02 3d de d9 f8 3d
       -0.27806467 0.092436336 0.031831194 0.1215093
000140 5e 78 d5 3d ba e4 b0 bd 91 b1 e5 3d dc 71 43 3d
       0.10423349 -0.08637376 0.11215509 0.047716007
000150 f9 9e 7e 3e ec 26 b8 bd ac 6f 3c be 15 60 b6 bc
       0.24865331 -0.08991799 -0.18401974 -0.022262612
000160 8c 79 11 be 0c 90 4f be d1 68 66 3e 99 79 39 3d
       -0.14206523 -0.20269793 0.22500922 0.04528198
000170 1e 8a 92 3e d2 57 a0 bd 34 00 72 3d 84 e0 49 bd
       0.28621 -0.078292504 0.059082225 -0.04928638

foundation_model.down_path.0.block.0.bias f4 [4]
000000 00 89 ba bc f1 e4 cf bd a6 68 04 3e 93 b1 db 3d
       -0.022770405 -0.10151089 0.12930545 0.10727229

foundation_model.down_path.0.block.2.weight f4 [4, 4, 3]
000000 be 11 9c 3e 78 fb f4 3d 46 e1 25 3e 6c 12 c1 bd
       0.30482286 0.11962026 0.16199216 -0.09427342
000010 52 49 a6 bb 4f c3 8d 3e 9b 70 45 bd f4 28 0d be
       -0.0050746584 0.2768807 -0.048203092 -0.13785154
000020 68 62 d8 bd f8 d5 f9 3d ba 2e 23 be cf 57 7d be
       -0.105656445 0.121990144 -0.15935794 -0.24740528
000030 36 bd a2 3d ed 40 81 be ec 6b 32 bd 6e d0 24 be
       0.07946245 -0.25244847 -0.043559954 -0.16095135
000040 66 f8 23 be ed 45 f6 bd 26 62 34 be 3b 45 8c 3e
       -0.16012725 -0.12025056 -0.17615566 0.2739657
000050 eb 18 0b bd 96 3c 96 3e 84 af a4 3e a6 75 a1 3e
       -0.03395931 0.29343098 0.32165158 0.3153507
000060 35 e5 88 be 66 7d df bd f0 81 b3 be 8d 2b 26 3e
       -0.2673737 -0.1091259 -0.35060072 0.16227551
000070 bc e7 14 be ba 5f ae be 93 8d 7e 3e 1b e3 37 3e
       -0.14541525 -0.3405741 0.24858694 0.17957728
000080 8e 94 5a 3e 40 fc 17 3e b7 9b ba 3e 17 ff 10 be
       0.21345732 0.1484232 0.36446926 -0.14159809
000090 d9 99 02 3e 08 86 fd bd 03 d4 1d be 1d a8 4d be
       0.12754 -0.1237908 -0.15412907 -0.20083661
0000a0 cc de 22 3d 7d 58 b3 be 78 c7 bc bd cc d0 16 3e
       0.039763257 -0.3502845 -0.09217733 0.14728087
0000b0 fc c7 e4 3d 81 93 81 3e 8f 77 ce bd b4 fc 83 3e
       0.111709565 0.2530785 -0.10081398 0.25778735

foundation_model.down_path.0.block.2.bias f4 [4]
000000 ee 82 22 be d6 32 27 be ab 55 90 bd e1 8d 15 3e
       -0.15870258 -0.16327986 -0.0704759 0.14604904

foundation_model.down_path.1.block.0.weight f4 [8, 4, 3]
000000 ec f0 49 be 5e 3d 63 be 4b 51 87 be 73 7f ef bd
       -0.1972081 -0.22191378 -0.2642921 -0.11694231
000010 02 65 18 3e 3e b7 67 3e d6 02 7e 3e d9 b8 b2 bc
       0.14882281 0.22628495 0.2480577 -0.021816658
000020 75 65 9e 3e 69 f5 a2 3c cb f5 79 3d ae a7 88 3e
       0.3093678 0.019892411 0.061025422 0.2669043
000030 83 23 9e bd af 2c 84 bd 3b db 84 be 34 1e e8 bc
       -0.07721617 -0.06453835 -0.2594851 -0.028334714
000040 f0 b9 87 3e 38 9b d4 bd b5 36 6b 3e 6e 43 09 be
       0.26509047 -0.10381168 0.22970088 -0.13404629
000050 3b 1a 53 3e f7 94 71 3e e5 c6 8e 3e 30 f8 7f 3e
       0.20615475 0.23591982 0.2788612 0.2499702
000060 79 3f c0 3d f5 32 ca 3c 7c d5 0e 3d df d3 da 3d
       0.093871064 0.024682501 0.034871563 0.106849425
000070 df 7c c4 bc 06 5d 7c 3e 41 d7 8b 3e 4a d0 a5 3e
       -0.023985324 0.2464486 0.27312663 0.32385474
000080 8b 12 9f bc 51 98 c1 bd 50 0e 74 3e 43 a1 6c 3e
       -0.019418022 -0.0945288 0.23833585 0.23108391
000090 c0 cf ab be 61 4a ea 3d 92 d0 c1 3d 67 eb c4 3e
       -0.33556938 0.11439968 0.0946361 0.38460848
0000a0 02 9e 2c be 46 ca 38 3e 1f 3b 1e 3c e9 b2 a3 3e
       -0.1685715 0.18045911 0.00965765 0.31972435
0000b0 85 19 a0 3e 5a 79 6d 3d f2 c3 87 3e 87 1b 9b 3e
       0.3126947 0.057977058 0.26516682 0.3029444
0000c0 87 c0 a1 be 7d 30 5c 3d 5a 8e 19 3e 75 23 0a 3e
       -0.315922 0.05375718 0.14995709 0.13490088
0000d0 bc cb 56 bd 25 0d 2f 3e 33 02 9f 3e 3d 2b ef 3c
       -0.05244039 0.17094858 0.31056365 0.029195422
0000e0 2a 1e b3 3e 4e 5e aa 3e 68 ab 97 3e 3f ff 34 3e
       0.3498395 0.33275074 0.2962296 0.17675494
0000f0 a0 c3 96 3e 3f bd 24 3e 1c 84 a6 3e cb f7 7c be
       0.29446125 0.16087817 0.32522666 -0.247039
000100 5e a1 88 be e8 e4 44 3d 66 3e 12 bd b3 50 7e 3e
       -0.26685613 0.048069865 -0.03570404 0.24835472
000110 f7 a0 2b be 5a f3 a7 bd 3c 53 10 3e f3 cd 9d be
       -0.16760622 -0.082007125 0.14094251 -0.3082119
000120 46 c6 62 3d 53 89 02 be 14 39 56 3b f9 92 8d 3e
       0.05536487 -0.12747698 0.003268783 0.27651194
000130 8f a5 05 3e a0 71 06 be aa 25 26 3e ad 48 ef bd
       0.13051437 -0.13129282 0.16225305 -0.11683784
000140 b0 cf 08 3e 1a 6c ba bd d2 ac 31 3b 69 6e 92 3e
       0.13360476 -0.0910265 0.0027111066 0.2859986
000150 6b e7 3b be 14 34 39 3e de 5e 56 bd e8 15 9d be
       -0.18349998 0.18086272 -0.052336566 -0.30680776
000160 a2 48 d5 bc 83 24 8f be ad 1e db 3c 90 54 af be
       -0.02603561 -0.27957544 0.026748026 -0.34244204
000170 d3 7b 98 be c3 d3 40 be 2a 43 36 3d ab fc f9 3c
       -0.2978197 -0.1883078 0.044497646 0.03051599

foundation_model.down_path.1.block.0.bias f4 [8]
000000 85 61 24 3e eb e3 60 3d 7b ca 65 be 0a dc 06 bc
       0.16052826 0.05490486 -0.22440521 -0.008231172
000010 7a d9 bb bd 20 8e d8 3d ff 65 88 be c4 5c 11 3e
       -0.0917234 0.10573983 -0.26640317 0.14195544

foundation_model.down_path.1.block.2.weight f4 [8, 8, 3]
000000 b0 8d f7 3c 6d 56 7f be 8f 19 72 be d8 c1 a4 bd
       0.030218929 -0.24935313 -0.23642562 -0.08044785
000010 35 79 c9 3d ea a3 5f be 4d c0 f4 bd fe 9b f1 bd
       0.098375715 -0.21839872 -0.11950741 -0.11797331
000020 28 82 8a be ef b3 59 be e5 2d c1 3d 62 3a 13 be
       -0.27052426 -0.21260045 0.09432582 -0.1437774
000030 72 b9 5b be c0 51 d5 3d 5b 1a 04 be 0c 9c 86 3d
       -0.2145746 0.10415983 -0.12900679 0.06572732
000040 49 14 c1 bd 2b ea 7b 3d f8 d8 bc bd 46 46 05 3e
       -0.09427697 0.061502617 -0.09221071 0.13015088
000050 d3 70 84 be 32 b9 2b 3e 51 bd 76 3e 79 fe 8e bb
       -0.25867328 0.16769865 0.24095656 -0.0043638316
000060 ec 8d 9f 3d 1f 3b d4 3d 2d ae 5a 3e 5b ae d0 3d
       0.07790741 0.10362839 0.21355505 0.10189506
000070 86 7e 58 3e 80 0d 6f 3e d5 9a 7d 3e f7 6f 3c bd
       0.21142015 0.23344994 0.24766095 -0.046005215
000080 2f d4 b3 bd b6 a1 5e 3e 28 b3 07 bd 24 e7 d6 bc
       -0.08780705 0.21741375 -0.03312984 -0.026233263
000090 08 4d b4 3d a2 80 d5 3d 90 d0 d2 bd a7 8d 11 be
       0.08803755 0.104249254 -0.102936864 -0.14214192
0000a0 ac d3 c9 3d 57 10 18 be ac 20 20 3e 8e b4 27 bd
       0.09854826 -0.14849983 0.15637463 -0.040943675
0000b0 90 80 1f 3e 69 53 84 bd a9 9e 69 be 4c 5d 3d be
       0.15576386 -0.06461222 -0.2281443 -0.18492621
0000c0 57 33 8d 3d d4 fe 34 3d 90 ed 91 3d 56 13 6b bd
       0.06894558 0.044188336 0.071253896 -0.057391487
0000d0 cf 5c 46 3e 46 56 ee 3c 2b fd ed 3d 6a 0f c1 3d
       0.19371341 0.029093873 0.116205536 0.09426768
0000e0 d0 5b dc 3d d9 1e 1d 3a 4b db 70 bd 14 dc 0b 3e
       0.10759699 0.00059936714 -0.058802884 0.13658172
0000f0 33 a1 80 bd 4b 06 01 3d 88 e0 74 3d ed 79 ae 3c
       -0.06280746 0.031500142 0.059784442 0.021298373
000100 48 16 3c be cf b7 c3 bd 1a 0c e6 3d f3 a4 57 3e
       -0.18367875 -0.09556543 0.11232777 0.21059017
000110 27 67 5c 3e e3 2a 41 bd 91 9b ea bc b1 5c a0 3d
       0.21523724 -0.04716004 -0.028638633 0.078301795
000120 04 5d bc bd 03 6b 01 3e 3d 81 e0 bc 1d 67 dc 3d
       -0.09197429 0.12638478 -0.027405376 0.10761855
000130 49 e7 63 3e 50 90 34 3c 60 b2 05 3e c6 9c 16 3d
       0.22256197 0.011020735 0.13056326 0.036770605
000140 42 82 8d 3e 63 2a c6 3d d5 62 8c 3d 82 b6 3a 3e
       0.2763844 0.096760534 0.06854788 0.18233684
000150 0d c3 71 3d af 20 14 3e 79 24 92 3e d2 28 32 bd
       0.059023906 0.14465593 0.2854345 -0.04349596
000160 86 a0 04 3a e8 6b e6 38 af 96 78 3e a0 ad f7 3c
       0.000505932 0.00010987354 0.24276231 0.030234158
000170 bc 4e 30 3e 2c 1b cd bd 21 ca db bd a5 d2 34 bb
       0.17217535 -0.10014948 -0.107319124 -0.0027591374
000180 90 d4 79 be bc 92 07 bd 7e 8e 6f be 09 46 3a be
       -0.24397492 -0.03309892 -0.233942 -0.18190779
000190 70 7a c8 bd f4 09 e3 bd de 16 3d 3d c9 9f a8 3d
       -0.09788978 -0.11085883 0.046164386 0.082336016
0001a0 15 eb 6e be 00 ed ae 3d fa 46 79 bd 6d de c2 3d
       -0.23331864 0.08541298 -0.060858704 0.095150806
0001b0 9b 9c cd bd 56 9f 06 be 6e 59 9e 3d a2 1f 04 3e
       -0.10039636 -0.1314672 0.07731901 0.12902692
0001c0 b6 f6 95 3d df f4 9f 3c ad b7 ba 3b 62 bb 66 be
       0.07322447 0.019525943 0.0056981654 -0.22532418
0001d0 ed 67 25 be b2 a3 97 bd 07 0c 0f 3e 86 72 fa bd
       -0.16152926 -0.07404269 0.13969432 -0.12228875
0001e0 95 e7 25 3e 99 0a b9 bd 1b 2f fb 3c d3 03 20 3e
       0.16201623 -0.090352245 0.03066211 0.15626459
0001f0 ac 3f 7e 3e f2 95 fd 3b f9 aa a8 3d 3c 1a 63 3e
       0.24828976 0.007738822 0.082357354 0.22177976
000200 05 e5 bd 3d 6f c4 40 3e 0d d7 35 3e 79 c4 56 3e
       0.09272198 0.18824933 0.17757817 0.20973386
000210 99 dd 99 bd 73 5b ff bd 49 f1 20 3e 72 29 76 bd
       -0.075129695 -0.124686144 0.15717043 -0.06009812
000220 2e f9 fb bd ad a6 82 be e4 fd 45 3e 3d 52 6f 3e
       -0.12303387 -0.2551779 0.19335133 0.23371215
000230 b9 b7 ef 3d ca 95 a8 bd ac 0d ec bd a3 c5 37 be
       0.11704964 -0.08231695 -0.11526045 -0.17946486
000240 aa 70 47 3e 79 b2 24 3e 3a b1 5b 3d 31 45 12 3d
       0.19476572 0.16083707 0.053635813 0.035710517
000250 c3 19 8c bd 36 82 0a bc 15 84 dd 3d a3 43 ff 3d
       -0.06840851 -0.008453896 0.10816208 0.124640726
000260 ec 81 53 3e 7e 59 f9 bd dd 38 21 38 32 91 83 3e
       0.2065503 -0.121752724 3.843835e-05 0.25696713
000270 bd 3a 29 3d 1e f3 20 3d 6c cd e0 bb 4d 71 7d bd
       0.041315783 0.039294355 -0.0068604257 -0.06187563
000280 65 4f 19 bc 76 4e 5f be 01 0d 23 3d 2c f4 de bd
       -0.009357308 -0.21807274 0.039807323 -0.10886416
000290 24 ed de 3b a2 08 00 be ee 77 02 3e de c6 35 bd
       0.0068031717 -0.12503293 0.12741062 -0.044379108
0002a0 1c ba 22 3e 20 7c 42 bd 61 5c 76 3e e3 cb 6f bd
       0.15891308 -0.047481656 0.24058677 -0.05854405
0002b0 11 66 0c be f5 81 92 3d fc 4b 3e 3e 85 0b 47 3d
       -0.1371081 0.071536936 0.18583673 0.04859497
0002c0 60 c2 33 3e c7 69 94 3e 55 7e 19 3e 94 ab b1 bc
       0.17554617 0.28986952 0.14989598 -0.02168826
0002d0 6c d6 57 3c 73 51 a4 b9 ea aa 09 3e 3f 1c 06 bd
       0.013173681 -0.00031341202 0.13444105 -0.03274178
0002e0 d4 12 80 be e3 ce 0c bd e0 34 6f 3e f1 26 10 3c
       -0.25014365 -0.03437699 0.23360014 0.008798347
0002f0 c1 8a 77 39 6e 1d 91 3b e0 96 08 be 73 9c 6f be
       0.00023607445 0.004428557 -0.13338804 -0.23399524

foundation_model.down_path.1.block.2.bias f4 [8]
000000 55 a1 01 3e 28 1d 27 be 76 91 1f bc 74 cc c0 3d
       0.126592 -0.16319716 -0.00973927 0.09413996
000010 ca 2b 27 3e d5 02 ca 3c 6d c8 d7 bd 87 73 50 3d
       0.16325298 0.024659554 -0.10536275 0.050891425

foundation_model.down_path.2.block.0.weight f4 [16, 8, 3]
000000 ca da 57 3d e7 78 93 bd 4b 28 94 3d 03 af 9e bd
       0.052698888 -0.07200795 0.07234248 -0.077482246
000010 b4 86 74 bb 7e bc 52 be 4d cb e5 bd 71 48 15 bc
       -0.0037311735 -0.20579717 -0.11220417 -0.00911151
000020 7e a5 0b 3d 90 b2 83 be 2b 2e ef 3d 37 42 93 3d
       0.034093373 -0.2572217 0.11678728 0.07190364
000030 6c 47 0b 3d 94 dc 73 3d a8 c4 e4 3d df 93 0e 3c
       0.03400366 0.05953653 0.11170322 0.008702247
000040 23 c9 45 be 0f e5 55 be ec 99 ea 3d 3f bd ff bd
       -0.19315009 -0.2088816 0.114551395 -0.12487268
000050 10 6a 2d be 3b ed b4 bd 82 05 05 bd 76 1e cb 3c
       -0.16934991 -0.088343106 -0.032475956 0.024794798
000060 9d ec 34 3d 15 58 dc 3d 52 71 55 3a 21 c0 1f 3e
       0.044170965 0.10758988 0.0008142191 0.15600635
000070 fb 69 37 3c 29 d6 60 3e 67 9e 76 bc 25 4f 3e 3e
       0.011194701 0.21956696 -0.0150524145 0.18584879
000080 94 75 41 bd 58 2c 60 3e f6 2d a0 3c 2e 31 a1 3c
       -0.047231272 0.21891916 0.019553166 0.019676771
000090 e4 f0 d8 bd 7a 27 0d 3d e8 9b 12 be 8f 2c 14 bd
       -0.10592821 0.034461476 -0.14317286 -0.036175307
0000a0 f0 15 b1 bc c3 1f 82 3e dd ab 55 3e 5b cc 15 bc
       -0.021616906 0.25414857 0.20866342 -0.00914296
0000b0 43 f2 c2 bc ef 52 bc 3d dc 28 1c bd bd f7 39 3e
       -0.02379716 0.09195506 -0.038124904 0.18160911
0000c0 da 74 03 3d 99 4b b5 bc db 7e 1c 3e 0e 6c 3f 3d
       0.03209386 -0.022130774 0.15282767 0.04673391
0000d0 61 df 3f be fb 84 60 3d f2 9e 82 bd c3 7d 93 3c
       -0.18737556 0.05481432 -0.06377973 0.018004304
0000e0 05 eb 17 3e 7e 21 b0 3d 0e 94 7b be fe 80 79 be
       0.14835747 0.08600138 -0.24568197 -0.24365613
0000f0 2b 9f 9c 3d 4f f1 50 3e 97 82 b9 bd 34 6f 80 3b
       0.076475464 0.20404552 -0.09058111 0.0039195064
000100 d8 cf d3 3c d1 91 5c be 38 ec 8b be 1b 03 63 be
       0.025855944 -0.2154 -0.27328658 -0.22169153
000110 fa d7 d0 3d df 8b a7 bd b1 3d 4b be 77 f3 49 bd
       0.10197444 -0.08180975 -0.19847752 -0.04930445
000120 8d 38 92 3e 2e 26 71 3e 8a 7b fe 3d 67 c0 04 be
       0.2855877 0.2354972 0.12425907 -0.1296402
000130 87 61 d6 bd 21 53 35 be f4 a5 be bd 3b 61 4e bd
       -0.104678206 -0.17707492 -0.09308997 -0.050385695
000140 64 ca cf 3d 6a ad 7a be 0e fc 67 bb 8b 86 18 be
       0.10146025 -0.24480215 -0.003539804 -0.14895074
000150 94 af 70 3e b8 6d ba bd 65 c5 18 3e 2d e9 3d 3d
       0.23504478 -0.091029584 0.1491905 0.046364952
000160 7a 75 1a bb 58 ce 95 bb 38 2b 1d be 11 b7 08 be
       -0.0023568557 -0.004571717 -0.15348518 -0.13351084
000170 33 45 e1 3c cd 14 41 be 6f df 87 3c 9a 9a 47 be
       0.027498817 -0.18855591 0.016586034 -0.1949257
000180 d0 49 54 3e 40 b0 66 3e a2 4d 3d 3d 18 a5 b3 3d
       0.20731282 0.22528172 0.046216615 0.087717235
000190 30 e1 76 be da 6f 7b bc 35 a0 2c be 37 82 88 3d
       -0.2410934 -0.015346492 -0.16857989 0.066654615
0001a0 ad c7 7e be fa 96 b9 bd 57 f1 a3 3d 65 50 00 3e
       -0.24880858 -0.090619996 0.08005016 0.12530668
0001b0 48 11 c4 3c 7d 6a 30 3e ab 95 61 3e 21 47 53 be
       0.023934022 0.17228122 0.2202975 -0.20632602
0001c0 f6 89 0a be 09 e8 f4 3a 7a 3b f0 3b 7b 9e bf 3b
       -0.1352919 0.0018684875 0.007331309 0.0058477498
0001d0 d3 e8 ee 3c 66 4b 85 bd da 30 49 be 6d c4 53 be
       0.029163754 -0.06508522 -0.19647542 -0.20680399
0001e0 7d 48 43 3e 4e 1f e1 3d 92 8b 50 3c ee 3b 69 be
       0.19070621 0.10992299 0.012728589 -0.22776768
0001f0 eb 56 81 be 81 96 96 bd 18 c8 23 be 6c 7c 22 be
       -0.25261626 -0.07352925 -0.15994298 -0.15867776
000200 5a 9f 53 3d a0 fe 5f be d9 ae 33 bd 58 58 d4 bb
       0.05166564 -0.21874475 -0.04386792 -0.006480258
000210 4b 18 22 bc c3 ae c5 3d 8d ef 96 3d bb 70 1f be
       -0.009893487 0.09652474 0.073699094 -0.15570347
000220 28 1f ef 3c 86 da 5a be dd 48 fd 3c 92 1f 50 be
       0.029189661 -0.21372423 0.030918533 -0.20324543
000230 6b 01 18 be 1f 9c 5a be b5 24 71 bd a2 97 63 be
       -0.14844291 -0.21348618 -0.058872897 -0.22225812
000240 8a 52 d9 3d 8a 86 0e 3e 7b 06 bb 3d f6 9a 61 be
       0.10611446 0.1391851 0.091320954 -0.22031769
000250 a7 2b 21 be b5 fd 79 be 1c d0 8d 3d ea 1a 42 be
       -0.15739308 -0.24413188 0.06924459 -0.1895558
000260 6d 0a 16 3e a6 9b e4 3d a1 18 fc bd 72 29 74 be
       0.14652415 0.111625 -0.12309385 -0.23843935
000270 be 98 e3 3c 99 db 08 3d 6f e3 9a bd a4 2c 8d 3c
       0.027782794 0.03341255 -0.07562911 0.0172332
000280 7d f9 82 be 45 fa b3 3d c6 85 79 3d 2a 41 cc bd
       -0.2558097 0.087879695 0.060918592 -0.099733666
000290 58 a6 98 3c 1f 39 5f 3c e8 fa 9f 3d 39 74 12 3d
       0.018634006 0.013624459 0.078115284 0.03575537
0002a0 13 55 08 3e c4 75 8b be a4 af 62 be 0a 3e 8f bd
       0.13313703 -0.27238286 -0.22137314 -0.06994255
0002b0 3f c6 a1 bc d1 12 56 bd 62 92 58 3e 52 14 2f be
       -0.019747851 -0.05226404 0.2114959 -0.17097595
0002c0 dc b5 d1 b9 aa 96 58 3e 12 09 00 3e a2 b7 b3 3d
       -0.00039999082 0.21151224 0.1250346 0.087752596
0002d0 7a 70 1c be 90 9e fd 3d a8 d6 e1 bc 31 fa 26 3e
       -0.15277281 0.12383759 -0.027568176 0.16306378
0002e0 9f a6 fe bd 3a 36 68 3e 97 45 ea bd 78 4e 0b 3d
       -0.12434124 0.22676936 -0.114390545 0.03401038
0002f0 d1 d2 88 3e 35 07 f1 3d 02 6c 79 3e 29 42 2e 3e
       0.2672334 0.11768953 0.24357608 0.17017426
000300 ae 94 5f 3c 1f 19 7f be 96 8e 53 3d 8e 69 6f 3e
       0.013646288 -0.24911927 0.051649652 0.2338011
000310 d9 1a 71 3e 1d 92 25 bd fd 07 c7 3d 0c 99 66 3e
       0.23545398 -0.040422548 0.097183205 0.2251932
000320 7a 2f f0 3d 0c 70 35 3e e7 ff 0c be 81 9f 84 3e
       0.117278054 0.17718524 -0.13769494 0.25902942
000330 3a 3f 80 3d 17 86 51 be ad 1f 2a be c7 f2 d9 bd
       0.062620595 -0.20461307 -0.16613646 -0.10642009
000340 17 45 03 3e 05 6a f0 3d 21 be 16 bd 27 e6 ac 3d
       0.12819324 0.117389716 -0.036802415 0.084423356
000350 97 65 55 3e 65 0f 53 3e 38 1f 2c 3e 06 82 8e 3d
       0.20839535 0.20611341 0.16808784 0.06958394
000360 66 9e 34 bc e1 a0 e7 3d 86 5e 68 be 0b ca 39 bd
       -0.011024093 0.11309982 -0.22692308 -0.0453587
000370 dd 35 68 3e b8 b0 3d bd 54 1e 22 3e 1b 94 41 bd
       0.22676797 -0.04631111 0.15831882 -0.047260385
000380 c2 14 27 3e df 65 9d 3d 58 24 49 3e 7c fe 85 3e
       0.16316512 0.07685446 0.1964277 0.2617072
000390 48 e7 c5 bd b3 38 b0 3d 14 c6 d5 bd 3d 43 ec 3c
       -0.09663254 0.086045645 -0.10438171 0.028840655
0003a0 70 64 a4 3d 8d b9 50 3e 70 c2 00 3e b8 c2 05 3d
       0.080269694 0.20383282 0.12574172 0.0326564
0003b0 17 3f fb 3d 5a 6d 12 bb cc 3b f1 3d 1e d3 7d 3d
       0.12267893 -0.002234301 0.117789835 0.061968915
0003c0 7f dc e5 bc 7d c6 84 bd 73 51 e2 bb 67 8c d2 3d
       -0.028059242 -0.06483171 -0.006906682 0.10280686
0003d0 75 7f 8e be b5 4f 83 be 65 71 37 be 25 87 48 be
       -0.27831617 -0.2564675 -0.1791435 -0.19582804
0003e0 96 8a f3 bd 2b 18 d5 3c f6 58 5a be 59 0d dc bd
       -0.118916675 0.0260125 -0.21322998 -0.10744733
0003f0 4f 03 1e bd 47 10 0b 3d ea 53 83 3e a5 35 b6 ba
       -0.038577374 0.03395107 0.2564996 -0.0013901485

foundation_model.down_path.2.block.0.bias f4 [16]
000000 2c 38 42 3e 39 85 6f be 5e b6 d7 3d 53 d8 3f 3e
       0.1896674 -0.23390664 0.10532831 0.18734865
000010 7c 3b ef 3d 87 df d4 3d 65 f7 85 3d 0a 6a ba bd
       0.116812676 0.10394197 0.065413274 -0.091022566
000020 a9 20 1f bd 18 14 6b bd 8d d6 d5 3d 6c 80 4e bd
       -0.038849507 -0.05739221 0.10441313 -0.05041544
000030 84 4a 77 bc 00 59 3f be 30 4b 07 3e 1b 13 5a 3e
       -0.0150934495 -0.18686295 0.13212276 0.2129635

foundation_model.down_path.2.block.2.weight f4 [16, 16, 3]
000000 72 dd 9c 3d 71 70 c2 3d a5 d3 ba 3d cf bd 8c bd
       0.07659425 0.09494103 0.09122399 -0.068721406
000010 5f 22 ad bd 96 6b 20 be 88 85 91 bb bc 3b e5 bc
       -0.084538214 -0.15666041 -0.004440967 -0.027982585
000020 19 03 23 3e d2 04 14 3d a4 20 60 3d 2c 68 d7 3c
       0.1591915 0.03613741 0.05471863 0.02629479
000030 97 21 31 3e 0a e4 39 3e 79 bc 51 3e 4a 61 dc 3d
       0.1729797 0.18153396 0.20482053 0.10760744
000040 a1 da f4 bc 98 d7 e0 3d 56 60 15 3e 67 00 d8 3d
       -0.029889407 0.10978621 0.1458753 0.10546952
000050 cd 3f 1d 3e 1c 0c 23 be 8d c9 d6 3b 89 c5 d0 bd
       0.1535637 -0.15922588 0.0065547884 -0.10193927
000060 2b 9f 1c 3c b0 b0 18 3d 9d 8a 30 be 23 f5 dd bd
       0.009559433 0.037277877 -0.17240377 -0.10837772
000070 83 ae 2a bc 9f a3 55 be d2 78 c1 3b 1f 1f 5d 3d
       -0.010417583 -0.20863198 0.0059042955 0.053984758
000080 64 f6 00 3e d6 d1 eb 3d fb 5e 97 3d 71 63 80 3d
       0.1259399 0.115146324 0.07391163 0.06268967
000090 44 9c 17 3e 3f 6c c0 3d 95 39 a2 bc 42 b3 43 be
       0.14805704 0.09395646 -0.019802848 -0.1911135
0000a0 56 58 05 be 3e 09 09 be be 47 22 3e 1c 60 24 3e
       -0.13021979 -0.13382432 0.1584768 0.16052288
0000b0 7b 52 db bb e6 0c 99 3d d0 76 8c bd 2c 3b 81 3c
       -0.006693182 0.07473163 -0.06858599 0.015775286
0000c0 e1 d9 19 3e e2 41 1d 3d 77 90 6a bd 06 4c 30 3d
       0.1502452 0.03839291 -0.05726668 0.04304125
0000d0 cc 44 cf bd 76 2a 0d 3d ca 2c 1f 3e 05 4c 4c 3e
       -0.10120544 0.034464322 0.1554443 0.19950874
0000e0 64 0c 08 3e 10 4b 3b 3d 82 e0 77 bb 28 e4 8e bd
       0.13285977 0.045725882 -0.0037823026 -0.06977111
0000f0 73 7f 0f bd aa 57 78 3d 14 6e 5e 3e 72 bb 6e 3d
       -0.035033654 0.060630478 0.21721679 0.05828423
000100 6a 70 5d 3e a1 6d cc 3c 70 b1 a2 3b 2a 91 d4 3d
       0.21624914 0.024954619 0.004965 0.1037925
000110 70 4a ce 3d c7 87 3e bb 92 45 2e be 7a a4 d8 bd
       0.100727916 -0.0029072629 -0.17018726 -0.105782464
000120 1f 4c ed 3b 7c 78 e7 bd 2c 75 21 be 2f c0 e8 3c
       0.0072417404 -0.113022774 -0.15767354 0.028411953
000130 ef 77 01 be 64 a4 2f be 3d 9a a3 3d 83 01 a2 bb
       -0.12643407 -0.17152554 0.07988403 -0.004944028
000140 9b 24 19 3e 06 55 a8 3b 06 b2 18 3e 10 39 5e bc
       0.1495537 0.0051370887 0.1491166 -0.013563409
000150 3c 36 fd 3d 4f 81 96 3d 63 cf ef ba 9d be 00 be
       0.1236386 0.073488824 -0.0018296059 -0.12572713
000160 a5 27 c5 ba e2 02 0b bd b5 41 17 bd fd 86 e1 3d
       -0.0015041722 -0.033938296 -0.036927897 0.11012075
000170 a5 34 11 3d ac 29 3c 3e 86 c2 41 3e 07 8a 2c 3e
       0.035450596 0.18375272 0.18921861 0.16849528
000180 56 46 24 3e 03 b3 5f bd 02 3e a5 bd 9c 87 ee bd
       0.16042456 -0.05461408 -0.08068468 -0.11646959
000190 4c e3 8a bd 20 92 45 be 07 ef eb 3d 52 92 43 3d
       -0.06781635 -0.19294024 0.115202 0.047746964
0001a0 a8 84 60 3e c1 1f 2c 3e 70 13 34 3e eb e0 17 3d
       0.21925604 0.16808988 0.1758554 0.037079733
0001b0 58 e8 45 3e ce 97 5a bb 0e bc 9f 3c e4 05 df 3d
       0.19326913 -0.0033354643 0.019498851 0.108897954
0001c0 1f b2 2c 3d 36 84 d6 3c 8f 0f a5 3d 63 20 11 3e
       0.042162057 0.02618609 0.08059608 0.14172511
0001d0 0a 59 5f 3d 38 97 ec bd 08 1c 0e 3d 94 a8 03 3d
       0.054528274 -0.1155228 0.0346947 0.03214319
0001e0 f2 ed 8d bd f0 7c 9d bd 87 f1 28 be d6 ac 21 be
       -0.0693015 -0.076898456 -0.16498385 -0.15788588
0001f0 9f 6e 04 be 9c eb 8d bc 94 51 53 3e 54 c6 ea 3d
       -0.12932824 -0.017324261 0.20636588 0.11463609
000200 5a a7 47 3e c0 d7 0d 3e 7d 76 5b bc e3 0f 85 bc
       0.19497433 0.13851833 -0.013394949 -0.016242927
000210 94 80 55 bc 42 22 46 3d 22 15 6f 3d 64 ee b3 bc
       -0.013031144 0.048372515 0.058369763 -0.02196426
000220 94 a0 90 bc 61 77 37 bc ce b2 98 3d 68 4f c8 3c
       -0.017654695 -0.011197896 0.07455979 0.024451926
000230 3a a4 fa 3d 0f ea 00 bd 04 8c 33 3e d5 35 9b 3d
       0.12238355 -0.031473216 0.1753388 0.07578627
000240 93 65 13 be aa 32 ee 3b 7d d4 58 be 52 25 da 3c
       -0.14394216 0.007269223 -0.21174808 0.026629124
000250 33 7e 8c bd f7 21 6f bd 5f b5 f4 bd 90 fa 53 bd
       -0.06860008 -0.058382 -0.11948656 -0.051752627
000260 86 38 0f 3c e8 3c 9c 3c 05 4c 66 be 74 17 3b bc
       0.008741504 0.019072011 -0.22489937 -0.011419166
000270 3b 4f d7 bd 2e 41 37 bd 4c 47 1d be f0 63 26 3c
       -0.10513159 -0.044739895 -0.15359229 0.010155663
000280 e9 f0 6f be 7e 4d 36 be 6d 7e 24 be e2 24 61 be
       -0.23431744 -0.17802998 -0.16063853 -0.21986726
000290 2a c4 f9 3c 80 c1 54 3d b8 75 9a 3d c9 fe 04 3d
       0.030489046 0.05194235 0.07541984 0.032469545
0002a0 ee 3d b1 3d b3 5c 9a 3d 6b 6c 8e 3d c5 73 5c bb
       0.0865439 0.07537212 0.06954273 -0.003363834
0002b0 fc 1d 05 3e c0 9b 0a 3e f7 cc 06 bc 5a 5c 1d 3b
       0.1299972 0.13535976 -0.008227578 0.0024011345
0002c0 12 e6 52 be 86 c9 3e bd 97 46 4a be f5 d7 2c 3d
       -0.20595577 -0.046578906 -0.1975349 0.04219814
0002d0 07 d5 2e 3d 08 6b 33 be a8 41 a1 bd b3 d0 0c 3d
       0.042683627 -0.17521298 -0.07873851 0.03437872
0002e0 83 0e 3e 3e 3c 2f 45 3e aa 0b 52 be 25 25 40 be
       0.18560223 0.192563 -0.20512262 -0.1876417
0002f0 8c e6 23 3d 2f f1 55 3d f8 65 58 be cb aa c1 3c
       0.04001479 0.052231964 -0.21132648 0.02364101
000300 e3 9a b9 3c b4 bc 3d 3e 10 45 69 bd 0b 46 18 be
       0.022656864 0.18529016 -0.05695063 -0.1487047
000310 74 9a d9 bd 19 53 cd bd 86 5e 99 bd bc 55 31 bc
       -0.10625163 -0.10025615 -0.07488732 -0.010823663
000320 d3 77 bb bd 54 8d 74 bd e0 78 2f 3e 5c 13 a0 bd
       -0.09153714 -0.059705094 0.17135954 -0.078161925
000330 ec 73 85 3d 2b 7b 0e 3d 5b b4 18 3d 3a cf f3 bb
       0.06516251 0.03478543 0.037281375 -0.007440475
000340 bb 44 62 3c 2e c7 4a bd 0a b0 5a bd 8a e2 78 bd
       0.013810332 -0.04950636 -0.05339054 -0.06076292
000350 75 c6 12 bc b7 ba c8 bd 73 cf 93 bd 5c 41 88 bd
       -0.008958449 -0.09801238 -0.07217302 -0.06653091
000360 94 4a 3d be b3 de a3 3c db a1 0c 3d f6 87 2b be
       -0.1848548 0.020003652 0.034334045 -0.16751084
000370 28 75 5e 3d d5 7a 78 3c b1 74 73 3d c5 77 86 bd
       0.054310948 0.015166004 0.059437457 -0.06565813
000380 fa 5b 01 3e 1f 9b d5 3c e3 b5 f9 bc 83 96 0b 3e
       0.12632743 0.026074944 -0.030482238 0.13631634
000390 c1 12 58 3e df 89 7a bd e6 b2 ab 3d ab 2f d4 bc
       0.21100904 -0.06116664 0.083837315 -0.025901636
0003a0 8c d9 0d bc df 43 1b be d9 21 ac 3d f9 bd 5d bd
       -0.008657824 -0.1516261 0.084048934 -0.05413625
0003b0 00 e3 fc 3d d0 39 9a 3d 37 64 87 bd fc e7 df 3d
       0.12347984 0.07530558 -0.06610911 0.109329194
0003c0 49 41 0f 3b d8 2c 22 3c b0 31 33 bd 14 ea ea 3d
       0.0021858981 0.009898387 -0.043748558 0.11470428
0003d0 e8 e0 1c 3e 8f 78 66 bd ff 69 d5 3d 4a b4 9b bd
       0.1532017 -0.056267317 0.10420608 -0.07602747
0003e0 14 58 5d 3d 4d 29 84 3c 1d 79 0c ba 51 b6 95 bd
       0.054039076 0.016132975 -0.00053586235 -0.07310165
0003f0 4e 81 3a bd 3b 22 d5 bd 1f dc a1 3c 38 cc 24 be
       -0.04553347 -0.104069196 0.019758282 -0.16093528

foundation_model.down_path.2.block.2.bias f4 [16]
000000 c0 9f 1f 3e f5 be f6 3d 79 d6 d5 3d c4 e0 40 3b
       0.15588284 0.12048141 0.10441298 0.0029430846
000010 1e 46 25 3e 74 99 1d be af 41 38 bd 3f d3 5c 3d
       0.16140029 -0.15390569 -0.044984516 0.053912397
000020 57 e6 2c 3e 16 16 18 3e d2 b0 30 be 63 f8 22 3e
       0.16884743 0.14852175 -0.17254952 0.15915065
000030 62 54 bc bb 3d 03 d6 3c e4 38 7c 3c 2d 8e fb 3d
       -0.005747364 0.026124591 0.015394423 0.12282977

foundation_model.up_path.0.up.weight f4 [16, 8, 2]
000000 00 df 5a 3e 44 8f 8f 3d 08 2c 46 bd f2 60 3d 3e
       0.2137413 0.070097476 -0.048381835 0.18494013
000010 e0 6d 89 bc a8 f3 e8 3d da 7a 4b be 52 aa 03 3e
       -0.016776025 0.11374599 -0.19871083 0.12857941
000020 18 64 43 3d 80 c8 eb bb a8 d3 a5 3d 30 b7 1e be
       0.04770288 -0.0071955323 0.08097011 -0.15499568
000030 ec 11 38 be cc e9 3a be d8 c3 3e be 70 9b 11 3e
       -0.17975587 -0.18253249 -0.18629396 0.14219451
000040 f8 49 01 be d0 32 2e 3d 98 ed 7a be 40 e1 5c 3e
       -0.12625873 0.042528927 -0.24504697 0.21570301
000050 a0 43 34 3c 90 a1 16 3d 82 bb 78 be e0 e7 1b 3d
       0.011002451 0.03677517 -0.24290279 0.03806293
000060 f8 72 ce bd 2c 3c 7c 3e ba 6a 21 be f0 63 62 bd
       -0.10080522 0.24632329 -0.15763369 -0.05527109
000070 a8 eb 02 bd 20 ee 1d be 6c 7d 6a 3e 8a 2b 6b 3e
       -0.03196302 -0.15422869 0.22899407 0.22965828
000080 0c a3 25 3e f0 37 64 bd 40 64 92 3d 7c 9a 00 be
       0.16175479 -0.05571741 0.071480274 -0.12558931
000090 96 ee 02 be 70 da 2a bd 4c c2 c6 3d 30 be ab bd
       -0.12786326 -0.041712224 0.09705028 -0.08385885
0000a0 b0 a3 5f 3d 34 74 98 3d 08 4c 52 3e d0 39 57 3e
       0.054599464 0.07444039 0.20536816 0.21018147
0000b0 d0 e5 24 bd a8 56 7b be 88 07 5a 3d cc 4a 45 3e
       -0.04025823 -0.24544775 0.05322984 0.19266814
0000c0 58 c4 60 be b2 6b 06 be 6a b9 59 3e ec 3e 06 3e
       -0.21949899 -0.1312702 0.21262136 0.1310994
0000d0 00 d0 3b 39 34 3b 5c 3e 08 4b d4 bd b0 d7 27 3e
       0.00017911196 0.21506959 -0.103658736 0.16390872
0000e0 d8 71 d0 3d 90 49 84 bc d0 dc c9 bd bc c3 58 3e
       0.10177964 -0.016148359 -0.0985657 0.21168417
0000f0 86 17 57 3e ba bd 6e 3e 6c 3d 5b 3e e6 50 51 be
       0.21005067 0.23314562 0.2141015 -0.20441017
000100 7a ab 46 be 92 96 0d 3e b0 d7 3e bd 94 27 1e 3e
       -0.1940135 0.1382697 -0.046592414 0.15444785
000110 96 88 21 3e c2 81 3a 3e 40 fd 70 be d0 e0 9d bd
       0.1577476 0.18213561 -0.23534107 -0.07708895
000120 62 2d 5c 3e ec bf 68 3e 80 53 4a 3c 00 af 60 3b
       0.21501687 0.22729462 0.0123490095 0.0034283996
000130 02 ac 4e be 26 3c 4f 3e 30 62 89 3d ee 38 4b be
       -0.20182803 0.20237789 0.06708181 -0.19845936
000140 b0 80 57 3e 94 6a 5f be e4 38 b0 3d 8a 41 7a be
       0.21045184 -0.21818 0.08604601 -0.24439064
000150 d4 33 00 3e a8 55 c2 3d d6 1f 5d 3e 72 27 1e be
       0.12519771 0.09488994 0.21594176 -0.15444735
000160 ee 0f 10 3e 3a ae 5c be a8 f9 65 bd 7e 86 64 3e
       0.14068577 -0.21550837 -0.056146294 0.2231693
000170 50 9f 61 3d 18 8f 15 be 70 2c eb bd f0 8c 78 3e
       0.055083573 -0.14605367 -0.11483085 0.24272513
000180 f2 62 79 be 26 72 5a be 38 62 18 3d 30 58 ed bc
       -0.24354151 -0.21332607 0.037203044 -0.028972715
000190 bc 21 f7 3d 40 06 56 bd 0a e5 36 be 0c 2d d0 3d
       0.12066981 -0.052252054 -0.17860809 0.10164842
0001a0 38 8e 00 3e 20 06 97 3c 24 9a 0c be ac c1 3f be
       0.12554252 0.018435538 -0.13730675 -0.18726224
0001b0 90 c5 0d be e0 a2 e2 3c 90 60 c1 bc 18 a1 2f be
       -0.13844895 0.027665555 -0.023605615 -0.17151296
0001c0 30 6f 39 bd 10 7b cb bd 20 a4 0c bd 74 81 c3 3d
       -0.045272052 -0.09935582 -0.03433621 0.095461756
0001d0 c0 6d dc 3c 9c 2f 74 3e ec 57 7d 3e e8 81 14 be
       0.026907802 0.23846287 0.24740571 -0.1450268
0001e0 8c 7c a2 bd a0 b4 f1 3d 20 d9 cd bd 1e 43 74 be
       -0.07933912 0.118020296 -0.10051179 -0.23853728
0001f0 20 a8 08 3c 3a 2a 66 3e 58 31 29 3d 38 04 52 3e
       0.008340865 0.22477046 0.041306823 0.20509422
000200 a0 52 68 3e b8 cf 61 be d8 f6 88 3d 62 1b 18 3e
       0.22687769 -0.22051895 0.06687707 0.14854196
000210 f2 e8 27 3e 70 4e 0c 3d 30 b8 e6 3c d2 15 3c 3e
       0.16397455 0.03425449 0.028164 0.18367699
000220 14 e8 22 3e a6 01 2c 3e 70 bc 34 bd b8 6e 0e 3d
       0.15908843 0.16797504 -0.04412502 0.03477356
000230 80 d7 83 3d 70 b7 43 be 6a ee 61 3e 6a a6 29 be
       0.06437588 -0.19112945 0.22063604 -0.16567388
000240 e8 7d 96 bd f0 1a 92 3d d0 95 a9 bd 60 70 d5 bd
       -0.073482335 0.07134044 -0.082805276 -0.104218245
000250 98 55 42 3e 88 71 01 3d b8 4a 63 3d 78 d5 97 bd
       0.18977964 0.031602412 0.05549118 -0.07413763
000260 f8 74 68 3e 16 e3 43 3e 66 84 4c be b0 84 69 be
       0.2270087 0.19129595 -0.19972381 -0.22804523
000270 26 3c 5b be 0e 4a 4e 3e 82 51 21 3e 44 d9 0f 3e
       -0.21409664 0.20145437 0.15753749 0.14047724
000280 90 d7 2a be 08 b3 8d 3d 18 4c 56 3e 82 8e 51 3e
       -0.16683793 0.06918913 0.20927465 0.20464519
000290 64 91 6e 3e 68 1c d9 3d 68 ed 3d 3d fe b4 58 be
       0.2329765 0.10601121 0.046368986 -0.21162793
0002a0 04 6f d5 3d 30 0d 0f 3e 5e c6 22 3e 30 f0 4d bd
       0.10421565 0.13969874 0.15895984 -0.05027789
0002b0 f6 5c 42 be a0 d4 49 bd 80 e5 6d bc f0 ac 43 3d
       -0.18980774 -0.04927504 -0.014520049 0.047772348
0002c0 40 f2 35 be 90 31 b1 3c 08 36 71 be 88 cd 2c be
       -0.17768192 0.021630079 -0.23555768 -0.16875279
0002d0 e0 0d 51 bd 2e e8 00 be aa 22 5c be 14 03 c5 bd
       -0.051038623 -0.1258857 -0.21497598 -0.09619728
0002e0 68 e8 84 3d 88 dc b6 3d 80 6e 5a 3b 90 b6 93 3c
       0.064896405 0.08928782 0.0033330023 0.018031389
0002f0 04 41 67 be f0 b5 85 bc a0 f8 9e bc 2a 32 67 3e
       -0.22583395 -0.016322106 -0.019405663 0.2257773
000300 48 0f 27 bd 20 a0 d5 bd e4 44 94 3d e0 1d 60 bc
       -0.040786058 -0.10430932 0.07239702 -0.013678998
000310 9a a4 19 3e e8 ff 6c 3e 5e 0c 05 3e ac f9 16 be
       0.15004197 0.23144495 0.12992999 -0.1474368
000320 d8 d9 b7 bd 66 e1 01 3e f8 7a 2b bd 84 e4 c3 bd
       -0.08977097 0.12683639 -0.04186532 -0.0956507
000330 ae 94 27 3e ec ef 66 be 88 63 7a be 78 58 c4 3d
       0.1636531 -0.2255246 -0.2445203 0.095871866
000340 94 ad 71 3e e0 bf 31 3d 04 dd 2c be f8 a6 38 be
       0.23601371 0.043395877 -0.16881186 -0.18032444
000350 00 e2 07 bb e2 fe 22 3e f2 ec 2f 3e 0c ae ca bd
       -0.0020734072 0.15917543 0.17180231 -0.09896478
000360 d8 4d aa bd 50 64 ed 3d b4 5d 75 3e 00 60 d8 3d
       -0.08315629 0.11591399 0.23961526 0.105651855
000370 b0 75 1f be 40 cf b0 3c 40 fc 9f bc c0 43 48 3c
       -0.15572238 0.0215832 -0.019529462 0.012223184
000380 90 b2 47 3d 70 56 5f 3e ee 26 3d 3e e4 21 5f be
       0.048754275 0.21810317 0.18471882 -0.21790272
000390 de c4 61 3e 70 68 b0 3d 7a d2 7d be b0 2d 63 3e
       0.22047755 0.0861367 -0.24787322 0.22185397
0003a0 18 cf d4 3d 48 a8 6e be 54 3f c3 bd dc 09 d7 3d
       0.103910625 -0.23306382 -0.09533563 0.104999274
0003b0 1c 15 fa 3d 96 63 59 be d0 a0 e5 bd 64 99 90 3d
       0.122110575 -0.21229395 -0.11212313 0.07060507
0003c0 d4 d1 0c 3e fc c7 77 be 0a b2 5c 3e d0 1e b2 bc
       0.13751918 -0.24197382 0.21552292 -0.021743208
0003d0 70 28 a3 bc 00 d9 e7 3d 80 5f 45 3e 6e 21 56 3e
       -0.019916743 0.11320686 0.19274712 0.2091119
0003e0 aa a2 03 3e 26 66 62 be 90 36 b4 bc 88 4c c8 bd
       0.1285502 -0.22109279 -0.021998674 -0.09780222
0003f0 20 9f 3b 3e 54 3d 7e 3e d4 b7 1d be e0 73 7a 3c
       0.1832242 0.24828082 -0.15402156 0.015286416

foundation_model.up_path.0.up.bias f4 [8]
000000 f4 c9 ac bd 18 0f 19 be 10 40 e7 3d f8 27 5d bd
       -0.08436957 -0.14947164 0.11291516 -0.053993195
000010 b2 c7 6a 3e 5e 82 50 be 00 bf a6 3d 82 8f 12 3e
       0.2292774 -0.20362231 0.08141899 0.14312556

foundation_model.up_path.0.conv_block.block.0.weight f4 [8, 16, 3]
000000 e8 a4 8b 3d 04 41 00 3e 8e fb da 3b 82 c5 7b bc
       0.06818563 0.12524801 0.0066828197 -0.015366914
000010 1e 6a a9 3c 0c a8 90 3d ec 27 77 3d 6a 52 c6 bc
       0.020680483 0.070633024 0.060340807 -0.02420922
000020 a9 12 20 3d 8d f4 3d bc 5c ce a5 3d b5 57 9b 3c
       0.039080296 -0.01159395 0.080960006 0.01896272
000030 52 54 e5 bd 45 43 ef 3c 45 16 c6 bd 35 25 6c bd
       -0.111977234 0.029206881 -0.09672216 -0.05765267
000040 62 b1 bf 3d 69 6d d9 3d 4f ef 07 3e bc d5 d1 bd
       0.09360005 0.106165715 0.13274883 -0.10245845
000050 2c bc 08 be 7e d6 a2 bc bf fd fe 3c b8 82 8e 3d
       -0.13353032 -0.019877668 0.031126855 0.069585264
000060 7d 0d a5 bc 3e 69 e5 3d 17 61 dd 3d e2 3c 99 3d
       -0.020148033 0.11201714 0.10809534 0.074823156
000070 63 a4 13 be 0d 54 fe bd a5 37 50 bd 92 c4 b3 bd
       -0.14418177 -0.12418375 -0.050834317 -0.08777727
000080 bd 6b af 3d 6c d9 2c 3d 57 e4 ae bd 46 67 06 3e
       0.08565471 0.042199537 -0.08539646 0.13125333
000090 bd b8 13 3e bd 57 12 be 31 4c e4 3c 6f a9 49 3d
       0.14425941 -0.14291282 0.027868362 0.04923385
0000a0 a0 5d e8 3d 8e 99 13 be 6e c5 74 3d 6a 11 ea bc
       0.113459826 -0.14414045 0.059758596 -0.028572757
0000b0 12 9e 7f 3d fe 1f 1d 3a da a2 f3 bd bd 00 60 3d
       0.062406607 0.0005993842 -0.11896296 0.054688204
0000c0 1f b5 f7 bb f5 ac dd bd 9b 3c 01 3d 8d f3 cb bc
       -0.007559433 -0.108240046 0.03155194 -0.024896407
0000d0 0e af a6 bc 88 c9 bf 3d 16 d6 7a bd 30 26 26 3c
       -0.020347144 0.09364611 -0.061239325 0.010140941
0000e0 d6 90 f4 bc 94 6d d3 3b 19 0d 65 3d 72 86 10 3d
       -0.02985422 0.0064522717 0.055920694 0.035284467
0000f0 ac a9 01 bc fd 36 5b 3d 09 7f cc bd 39 c6 40 3d
       -0.007913988 0.053519238 -0.099851675 0.04706404
000100 54 89 59 3c f0 ef 90 bd a3 5f 8f 3c be cd 9f bd
       0.0132773705 -0.070770144 0.017501658 -0.07802914
000110 42 5b c0 bd f4 5d 97 bd ea a4 8a 3d 31 35 d0 3d
       -0.09392406 -0.07390967 0.06769736 0.101663955
000120 73 6b 0a bb d0 35 28 bd ad 10 ed 3c 3a e4 0b be
       -0.0021121174 -0.041066945 0.028938616 -0.1366128
000130 90 c2 44 bc f1 d9 c0 bb 8c 05 71 bd 54 da fe bd
       -0.012009278 -0.0058853556 -0.05884318 -0.124439865
000140 a7 88 13 3e ad e8 f5 bd 8a e6 94 3b e5 af a8 3d
       0.14407597 -0.1200727 0.004544084 0.08236674
000150 40 43 ef bd d6 f7 ae 3d 82 12 d1 bd d2 8a d1 bd
       -0.11682749 0.08543365 -0.10208608 -0.10231556
000160 b5 c5 a4 3d cc 2a e4 bd ee 79 bc bd f3 e3 e7 bd
       0.08045522 -0.11140975 -0.09202944 -0.11322775
000170 8f 06 ff 3d 8f 0b 9c 3d 7d 94 63 3c 2c 87 65 bc
       0.12452423 0.07619392 0.013890383 -0.014009278
000180 17 cf da 3d aa 93 c9 3d f7 20 4e 3d ee 51 b1 bd
       0.106840305 0.09842618 0.050324406 -0.08658205
000190 43 fe 90 3d e1 a6 b0 bd c4 e9 a7 bd 8d 16 ad bd
       0.070797466 -0.086255796 -0.08198884 -0.08451567
0001a0 8d 46 ee bd d4 02 ea 3d c6 61 66 bb fe 4e 9a 3d
       -0.1163455 0.11426321 -0.0035153492 0.07534598
0001b0 b1 47 ef bd 6e 5a 7e bc 18 d7 04 3e e8 d7 77 bb
       -0.11683596 -0.01552449 0.12972677 -0.00378179
0001c0 4a 69 76 ba a2 ce 79 bc 4c 1f c0 bd 0b f6 8e 3d
       -0.00093998446 -0.015247019 -0.093809694 0.06980523
0001d0 9c 31 cd bd d0 7b 6e 3d 2a 9f 11 bd c8 c4 10 3e
       -0.10019228 0.058223546 -0.03555218 0.14137566
0001e0 31 d0 db 3d 27 b2 f7 bd 1e 62 83 ba 0c ba 0a 3e
       0.10733069 -0.12094527 -0.0010023748 0.13547534
0001f0 de ac 68 3c fc 9c a2 3d 32 ae 97 3d c2 8b e7 bd
       0.014201371 0.07940099 0.07406272 -0.113059536
000200 de 7f 02 bd cc 6d 12 3e 55 4e a7 bc 0c ee f9 3d
       -0.031860225 0.14299697 -0.020423094 0.12203607
000210 4d 2d 2f 3d 35 34 99 bd 47 a4 b3 3d 8e 70 8b bb
       0.04276781 -0.07480661 0.08771568 -0.004255361
000220 9f 44 bc 3b d1 80 83 bd 95 52 dc 3d 1a 4d 70 3d
       0.005745485 -0.06421054 0.10757939 0.05866728
000230 7f 14 81 bd b8 a6 cc bd 03 66 65 3d 11 d1 40 bc
       -0.063027374 -0.099927366 0.05600549 -0.011768595
000240 48 ac 9d bd 00 e8 f4 bd 64 27 a0 3d be aa a2 3d
       -0.07698876 -0.11958313 0.07820013 0.07942723
000250 5a 70 b4 3c 34 a7 95 3d 7f 7b f9 3c 19 f0 fd bd
       0.02202623 0.07307282 0.030454395 -0.123993106
000260 ec 63 f4 3d 18 74 a5 3d 75 0f c4 bd a3 89 07 3e
       0.11933121 0.08078784 -0.09573261 0.13236098
000270 e5 fe 2b 3d 8f 27 fd 3d 6e 26 18 3d fb 1f 58 3c
       0.041991133 0.12361061 0.037146024 0.0131912185
000280 e4 16 b5 3d 00 c6 6b bd f7 a9 a4 bc c7 31 bd bd
       0.08842257 -0.057561874 -0.020100577 -0.0923801
000290 55 00 3c 3d 75 23 9c bd c5 7d 95 3d 3e 84 75 bd
       0.045898754 -0.076239504 0.07299379 -0.05994057
0002a0 a1 91 0f 3d d6 52 0b be 67 49 3d 3d 4c 10 f5 bd
       0.035050992 -0.13605818 0.04621258 -0.11965999
0002b0 d6 61 5c 3d a1 16 d2 bd c3 70 b1 bb e5 fa d5 bd
       0.05380424 -0.10258222 -0.0054150536 -0.10448245
0002c0 a6 51 d3 3d 9b 3e 60 3d 71 04 7f 3d cd 95 06 be
       0.103183076 0.054747205 0.062260095 -0.13143082
0002d0 ab b0 05 3e 43 89 2b 3c 81 da 5e bc b5 fc b0 3d
       0.13055675 0.010469737 -0.0136019 0.0864195
0002e0 b9 27 5a 3d 94 60 13 be ec a9 9b bd 0b 50 a0 bd
       0.05326054 -0.1439231 -0.076007694 -0.07827767
0002f0 56 f6 bc 3c 66 72 f2 bd 46 73 b2 bd 5e 10 84 3d
       0.02306668 -0.11838226 -0.08713393 0.06448434
000300 42 74 b7 3d 85 0d ba bd 92 b5 f3 3d 54 f1 c3 3d
       0.08957721 -0.0908461 0.11899866 0.09567514
000310 b8 72 88 3d 33 fb eb bd a9 fa 01 3d 83 74 2b 3d
       0.06662506 -0.11522522 0.03173319 0.04185916
000320 a4 75 04 3d ae ed 97 3d 50 c6 12 3e 92 16 0d be
       0.032338753 0.07418381 0.14333463 -0.13778141
000330 e7 fc 92 3d 64 4b a4 ba eb 7c 80 3d 4f 34 91 3d
       0.071771435 -0.0012534675 0.06273826 0.07090055
000340 7b 6b 69 bd 2d 91 70 3d 46 7d ee 3c 47 35 7d 3d
       -0.056987267 0.0587322 0.02911247 0.061818387
000350 81 af ed bd 75 17 4e 3d 8b bf a4 3c 11 9e b2 3c
       -0.1160574 0.05031534 0.020110866 0.021803888
000360 71 0c 73 3d 1a 2c 6f 3d 89 72 36 bd cc 15 fd bd
       0.059338037 0.058391668 -0.044542823 -0.12357673
000370 4f d0 dc bd cc f9 91 3d 0c 83 55 bd c9 e5 4c bc
       -0.10781919 0.07127723 -0.05212693 -0.012505957
000380 6a 24 a1 bd 47 cf bb bc 0f fd d7 3d fd 52 c0 3b
       -0.078682736 -0.022925986 0.10546314 0.005869268
000390 62 a6 d5 3d 58 d2 6f 3c 86 e4 f3 3d 64 16 fc 3d
       0.10432126 0.014637552 0.11908822 0.12308958
0003a0 0f c2 f7 3d 0c d2 8c 3d e9 c4 fa bc 1c bd ca bd
       0.120975606 0.06876001 -0.030611472 -0.09899351
0003b0 77 ce 0a bc 89 85 9d 3d 6e ae 47 bd 9c 12 01 be
       -0.008472077 0.076914854 -0.048750333 -0.12604755
0003c0 2f 69 2c 3d ec 23 fe 3d 78 1a b4 3b d2 d8 07 bd
       0.0420925 0.12409195 0.0054963194 -0.03316576
0003d0 bf f3 ec 3d 4f 94 10 3e c1 b0 11 bd 42 12 ba 3d
       0.115699284 0.14119075 -0.035568956 0.09085514
0003e0 10 34 0d bd f9 8f aa bd a1 e2 4a 3d 90 48 b8 bd
       -0.03447348 -0.08328242 0.049532536 -0.08998215
0003f0 9b 55 2a 3d 1d b1 a6 3a 31 b2 56 3d 45 2b 20 3c
       0.041585546 0.0012717579 0.05241603 0.009775941

foundation_model.up_path.0.conv_block.block.0.bias f4 [8]
000000 2f 97 bf bd 60 46 5b 3d ef 29 c2 3d 5f cc fd 3d
       -0.09355008 0.05353391 0.094806544 0.12392496
000010 5b d8 27 bc d0 e7 bb 3d fb 0a d7 3d b0 65 a6 bd
       -0.010244454 0.09175074 0.10500141 -0.08124864

foundation_model.up_path.0.conv_block.block.2.weight f4 [8, 8, 3]
000000 2f 5d 08 3e 2a d6 14 be 44 5a f0 3d 1c 01 24 3e
       0.13316797 -0.14534822 0.11735967 0.16016048
000010 81 21 d1 bd 6f 75 0e be 21 47 9a 3d cb d9 19 3e
       -0.102114685 -0.13911985 0.07533098 0.15024488
000020 94 ec 80 bd ea 8a 21 bd 26 13 17 3d 53 26 24 3e
       -0.06295124 -0.03943912 0.036883496 0.16030245
000030 c7 7f 38 3c ed aa 0f be fd 18 21 be eb b0 14 be
       0.011260933 -0.14030047 -0.15732189 -0.14520614
000040 94 68 4f be 24 df 11 3e ef 83 b0 bd 58 03 0a be
       -0.20254737 0.14245278 -0.08618914 -0.13477838
000050 e0 76 ce bd 81 44 cf 3d 6d 3a b8 bd 73 d7 cf 3d
       -0.10081267 0.10120488 -0.08995519 0.101485156
000060 4f 17 32 3e 57 aa 07 3e ba 6e 3d 3e 69 2d 87 3d
       0.17391704 0.13248573 0.1849927 0.06600458
000070 0f 74 ba bd f5 84 81 3c 54 c0 4c 3e 8b c2 04 3d
       -0.09104168 0.01581047 0.19995242 0.032412093
000080 7b 6a 22 3e b4 5b 37 3d 9e b6 1a 3e 13 cb e6 3c
       0.15860932 0.04476519 0.15108725 0.028173005
000090 59 ab 4e bc 39 fe 14 3e 5f f2 e9 3d e5 b9 01 be
       -0.012614095 0.14550103 0.11423182 -0.1266857
0000a0 7a 9d 41 3e 5c 13 3d 3e 72 d8 a0 3d 6a d3 e2 3d
       0.18907729 0.18464416 0.07853784 0.1107548
0000b0 a4 60 4d be 6b d2 7a bd d3 3a 25 3e a5 8f 3e be
       -0.20056397 -0.061235826 0.16135721 -0.18609484
0000c0 69 2f c8 bd 4c fe a1 3d fb 6f 3d 3e da 48 f4 3c
       -0.09774668 0.079098314 0.18499748 0.029819895
0000d0 3d 23 ba 3d e0 c1 11 be 8c 84 5d bb b1 64 62 bd
       0.090887524 -0.14234114 -0.0033800928 -0.055271808
0000e0 57 05 22 3e 72 cf 99 3c a4 7e bd bd 84 25 48 3e
       0.1582235 0.018775675 -0.092526704 0.19545561
0000f0 dc 95 22 bd ef c2 02 3e 58 c0 02 be 10 47 a3 3d
       -0.0396937 0.12769674 -0.12768686 0.079725385
000100 5d 19 5a 3c 37 ec 47 3e 1d 6e 2d 3e 44 32 19 be
       0.013311711 0.19523703 0.16936536 -0.14960581
000110 99 c4 3d be 4e b1 85 3d d7 ae 41 be b6 6e 49 3d
       -0.18532027 0.06527959 -0.18914352 0.049177848
000120 fd 50 8c 3d 0d 2d 9e bd 6d 70 d0 bd 4b 4c 08 3e
       0.06851385 -0.077234365 -0.101776935 0.13310353
000130 34 12 10 be 5c 4f 22 bd 23 ee 37 3d 41 38 1e 3e
       -0.14069444 -0.039626464 0.04490484 0.15451147
000140 a9 83 3f be 60 da 44 3d 99 3d 07 3d 37 38 23 bd
       -0.18702568 0.04805982 0.03301773 -0.039848533
000150 25 f3 99 bd 2b fd ac bd 98 93 35 be 7c 2f 04 be
       -0.07517079 -0.084467255 -0.17732084 -0.12908739
000160 3b 3e 4e be 2a 2e d9 3d 11 55 8e 3d 68 fa 2c be
       -0.20140927 0.10604508 0.06949819 -0.16892397
000170 a4 18 45 3e 68 88 0b be 1d 35 b5 3d 16 06 a0 bb
       0.19247681 -0.13626254 0.08848021 -0.004883538
000180 52 b3 0e be a3 26 3e 3e 99 b3 b4 3d 18 27 75 bc
       -0.13935593 0.18569426 0.08823318 -0.014962934
000190 f8 4a c7 bd a7 60 9b 3d 10 b8 d9 bd 60 3b d1 bd
       -0.09731096 0.07586794 -0.1063081 -0.10216403
0001a0 1f 67 69 3d b8 dd 48 be 9e c2 21 3d 2e 46 9b bd
       0.05698311 -0.19615829 0.039492242 -0.07581745
0001b0 c8 37 19 bd 74 0c c8 3d 13 64 4f 3e 3a 2b 3a be
       -0.037406713 0.09768 0.20253019 -0.18180552
0001c0 70 3a 2b bb 88 aa 05 bd 76 e9 39 bd d6 a2 a6 bc
       -0.002612736 -0.032633334 -0.04538866 -0.020341318
0001d0 a0 ba e3 bc 61 77 ac 3d ec d2 8e bb e2 f1 18 be
       -0.02779895 0.08421207 -0.00435864 -0.14936021
0001e0 0a 36 ae 3d 22 d8 91 bd 79 10 21 be a7 fa c0 bd
       0.08506401 -0.07121302 -0.1572894 -0.09422808
0001f0 6c 1d 9a 3d 0e 22 4e 3e b8 99 02 be 26 a2 80 3d
       0.07525143 0.20130178 -0.12753952 0.06280927
000200 36 39 0b be f5 5f 95 3c 2b b9 24 3d 1d 15 29 3e
       -0.13596043 0.018234232 0.040215652 0.1651196
000210 77 a0 d3 3d 73 be f6 bd 3a e6 b7 bd ab 16 dc 3d
       0.103333406 -0.12048044 -0.08979459 0.10746511
000220 29 3f 0c be 06 f3 4d 3e 76 c3 17 bc a0 7f 85 bd
       -0.13695969 0.20112237 -0.00926291 -0.06518483
000230 1b 8a 83 3d 2f 58 da 3c 79 d2 2f be 5c 7a 3d 3e
       0.06422826 0.026653377 -0.17170133 0.18503708
000240 05 d7 e4 bd 1c 1d ea bd 92 8e d5 3d e4 63 98 3d
       -0.11173824 -0.114313334 0.10427584 0.074409276
000250 76 01 22 be d8 d0 ed bb 6b 6b 80 bd a8 3e 41 be
       -0.1582087 -0.007257562 -0.06270488 -0.18871558
000260 cb 7a ad bd 4d 9c 8c 3d 76 74 6a 3c e6 5e 74 3d
       -0.084706865 0.068657495 0.014309993 0.059660815
000270 61 2a 31 be f7 6d 27 be 30 e4 c8 3d 4e 67 1e bc
       -0.17301323 -0.16350542 0.09809148 -0.009668184
000280 c7 ab 6b bd 13 a3 82 bd 2d d4 1b 3e 09 4c 6d bd
       -0.057536867 -0.0637876 0.15217657 -0.05793384
000290 62 37 d6 3c ec d2 13 be c4 c9 df 3d 49 10 af bd
       0.026149455 -0.14435929 0.109271556 -0.08548028
0002a0 48 56 e0 bc a7 34 84 bd ce 59 0d 3d 35 88 99 3d
       -0.027384892 -0.06455355 0.034509473 0.074966826
0002b0 e1 cb 85 bc ed ac 32 be e4 11 3a be 2a 97 60 3d
       -0.016332569 -0.17448778 -0.18170887 0.05483166
0002c0 46 40 ff 3d 4d 2c 15 3e 5a 11 9b 3d 82 cf a3 bd
       0.12463431 0.1456768 0.07571669 -0.07998563
0002d0 13 61 09 3e 41 4d 0c 3d 1a 17 97 3d b1 ca dc bd
       0.13415937 0.034253363 0.07377453 -0.10780848
0002e0 88 58 4c bd b7 3e 40 be da ae 14 3d f3 ed 8c bd
       -0.049889117 -0.18773924 0.036299564 -0.06881323
0002f0 6d dd b6 bb 91 4c 4b be e6 4d a5 3d cc f3 53 3d
       -0.005580595 -0.19853427 0.080714986 0.051746175

foundation_model.up_path.0.conv_block.block.2.bias f4 [8]
000000 37 76 b6 3d f4 c6 18 bd 06 95 16 bd 72 23 31 3e
       0.089092664 -0.03729911 -0.036763214 0.17298678
000010 45 18 1a be 12 65 ac 3c d0 3e f0 3c 56 ed 88 3d
       -0.1504832 0.021044288 0.029326826 0.06685893

foundation_model.up_path.1.up.weight f4 [8, 4, 2]
000000 5d c4 98 be 37 7f 65 3e 6d 09 56 be c7 10 0a bd
       -0.29837313 0.2241181 -0.20902033 -0.033707406
000010 16 df f1 bd bd 14 b1 3e 4e 9e 4a 3d 30 ee b4 bd
       -0.118101284 0.34586135 0.049467377 -0.08834493
000020 df f6 93 3d 5d 19 94 bd c5 47 16 3e 43 a9 e8 bd
       0.07224821 -0.072314 0.14675815 -0.11360409
000030 14 a9 2c 3e 93 b7 67 3e d8 1e 05 be 4d 7f 07 3e
       0.16861373 0.22628622 -0.13000047 0.13232155
000040 b5 1f 9c be df 96 2a bd 62 71 26 3e 04 74 9d be
       -0.3049294 -0.041647788 0.1625419 -0.30752575
000050 a2 91 63 3e 57 c8 a8 be 63 da fc bd d4 07 c9 3d
       0.22223523 -0.32965347 -0.123463415 0.09815946
000060 fe 8f ae 3e 37 a7 73 3e 3f 67 1e 3d 15 ce 06 3e
       0.34094232 0.23794256 0.038672682 0.13164552
000070 87 1a 93 be d0 2f 94 3e 8a db 58 3e 72 68 47 3e
       -0.28731176 0.28942728 0.21177498 0.19473436
000080 8a cc 93 3e 99 81 01 be fa a4 5f 3d 50 d3 c2 3d
       0.28866988 -0.12647094 0.054600693 0.09512961
000090 14 ba ad 3e 2d 9f a1 be e4 a4 13 3e 1d 2c 10 be
       0.3393103 -0.31566754 0.1441837 -0.14079328
0000a0 f4 58 22 be 85 ad 58 bd c7 85 a4 be bb 00 83 3e
       -0.15854245 -0.052899856 -0.32133314 0.25586495
0000b0 98 ee 78 3e 83 80 93 3e 8e fc 2f 3e 5f 1b a2 3e
       0.24309766 0.28808984 0.17186186 0.31661507
0000c0 22 dd 3e be 98 e9 25 be 3f 77 26 be e6 66 58 bd
       -0.18639043 -0.1620239 -0.16256426 -0.052832507
0000d0 1a 96 ad bd a8 7c 92 3d 3a 3a 94 3e 1c 03 90 3d
       -0.08475895 0.071526825 0.28950673 0.07031843
0000e0 08 9f b2 be bd 63 d4 3d 70 cf 76 be df 27 ab 3b
       -0.34886956 0.10370586 -0.24102569 0.005223259
0000f0 4d 67 79 3e d2 2c 82 3e 71 df 90 3e 7f 49 ab be
       0.24355812 0.2542482 0.28295472 -0.3345451

foundation_model.up_path.1.up.bias f4 [4]
000000 4b 6d 81 be fa 7d ce 3d 76 e9 c9 3d b0 8f 7a 3d
       -0.25278696 0.10082622 0.09858982 0.061172187
