wandb/run-20230704_030431-ehl0hckd/files/checkpoints/best.pt (torch, 119813 bytes, 66 tensors)

foundation_model.down_path.0.block.0.weight f4 [4, 8, 3]
0	0x3e87d323	0.26528272
1	0xbd0cf86c	-0.0344166
2	0x3e4b82b0	0.19874072
3	0x3e049a57	0.12949501
4	0xbc23f0a3	-0.010006103
5	0x3d6c2f29	0.057662163
6	0x3e954572	0.29154545
7	0x3d917fb3	0.07104435
8	0x3c54c7c3	0.01298708
9	0x3d9389aa	0.07203992
10	0x3e5e6848	0.21719468
11	0xbd9bad68	-0.07601434
12	0x3e01eb69	0.12687458
13	0x3cf860b2	0.030319545
14	0xbe743899	-0.23849715
15	0x3e051cbd	0.12999244
16	0x3e780d0c	0.24223727
17	0x3dbddcc8	0.09270626
18	0xbce49f03	-0.027907854
19	0x3e6eca98	0.23319471
20	0xbc57041d	-0.013123539
21	0x3de4e4f6	0.11176483
22	0x3d028a9f	0.03187048
23	0xbdefa528	-0.11701423
24	0x3dc9a82d	0.0984653
25	0xbdeec2a6	-0.1165822
26	0xbd241b34	-0.040065005
27	0x3b6d4d9b	0.0036209587
28	0x3e1cc960	0.15311193
29	0x3e6a35cf	0.22872089
30	0xbdd3ea99	-0.1034748
31	0x3e08d1a1	0.13361217
32	0x3e7c81e6	0.24658927
33	0xbda94874	-0.082657725
34	0x3e3c6392	0.18397358
35	0xbdc30fac	-0.095244735
36	0xbbd2f5c0	-0.006437987
37	0xbe426260	-0.1898284
38	0xbc66d52d	-0.014088911
39	0x3cde4422	0.027132098
40	0x3e02b00d	0.1276247
41	0xbb680b91	-0.0035407285
42	0x3e10fa8e	0.14158079
43	0x3e6500ff	0.22363661
44	0x3e54ad03	0.20769124
45	0x3d8ae9fc	0.0678291
46	0x3e4ffc11	0.20311
47	0xbda85e01	-0.08221055
48	0x3ce58f0b	0.02802231
49	0x3d277100	0.04087925
50	0xbe20f8b0	-0.15719867
51	0xbdfffee9	-0.12499792
52	0x3e0c70b5	0.1371487
53	0xbe31f6a1	-0.17379238
54	0xbe3a2eb7	-0.18181883
55	0xbe330a8e	-0.17484495
56	0xbd9d3b0e	-0.076772794
57	0xbd00f464	-0.03148307
58	0x3c8804a5	0.016603777
59	0xbdb2e81b	-0.08735677
60	0xbdcb8773	-0.09937944
61	0x3e0d222c	0.13782567
62	0x3d043ae0	0.03228271
63	0x3dd95c7b	0.106133424
64	0xbda823c2	-0.08209945
65	0xbdc983cc	-0.098395914
66	0xbd94f048	-0.072723925
67	0x3d27bb43	0.04095007
68	0xbcbb18cb	-0.02283897
69	0x3df430cf	0.11923372
70	0xbda70fe5	-0.081573285
71	0xbd385759	-0.045005176
72	0xbe6102d4	-0.21973735
73	0xbe83ca4f	-0.25740287
74	0x3dae07f4	0.08497611
75	0xbcd5766c	-0.026057445
76	0xbe867970	-0.26264524
77	0x3dd827be	0.10554455
78	0xbe327333	-0.17426758
79	0xbda8dfe9	-0.082458325
80	0xbdcc5459	-0.099770255
81	0xbdc52afc	-0.09627339
82	0x3dd2be59	0.10290212
83	0x3d1cdabe	0.038294546
84	0x3e43aeda	0.1910967
85	0xbb2daffd	-0.0026502602
86	0xbe04371e	-0.1291165
87	0x3bf4af47	0.0074671838
88	0xbde2c13c	-0.11072013
89	0xbe2f9d04	-0.1714974
90	0x3d2b6dc1	0.041852716
91	0xbe0a3cb7	-0.13499723
92	0x3dd32aa3	0.10310867
93	0xbd91ec75	-0.07125179
94	0x3d87fa5e	0.066395506
95	0xbd2d9a67	-0.042383578

foundation_model.down_path.0.block.0.bias f4 [4]
0	0xbb7cf2e2	-0.0038596918
1	0xbdf6f6b2	-0.12058772
2	0x3d9dff8e	0.07714759
3	0x3deb4005	0.1148682

foundation_model.down_path.0.block.2.weight f4 [4, 4, 3]
0	0x3ec0d9fb	0.37666306
1	0x3e400a9d	0.18754049
2	0x3e6a254d	0.22865792
3	0xbd368960	-0.044564605
4	0x3d51d6eb	0.051230352
5	0x3eaa31d6	0.33241147
6	0xbdec8ed6	-0.11550681
7	0xbe596df4	-0.2123335
8	0xbe3539f4	-0.17697889
9	0x3d0b5ddf	0.03402507
10	0xbe8192d4	-0.25307333
11	0xbeb0b1cc	-0.34510648
12	0x3d9854b9	0.074380346
13	0xbe823082	-0.25427634
14	0xbd425a6c	-0.047449514
15	0xbe1488df	-0.14505337
16	0xbe16c883	-0.14724927
17	0xbde900d0	-0.11377108
18	0xbe458328	-0.19288313
19	0x3e8858ed	0.26630345
20	0xbd2144fe	-0.039372437
21	0x3e8dec82	0.27719504
22	0x3e9834e3	0.2972785
23	0x3e962dc0	0.2933178
24	0xbe6c7d6b	-0.23094718
25	0xbda4e81a	-0.08052082
26	0xbea7976b	-0.3273271
27	0x3e312033	0.1729744
28	0xbe06e1a2	-0.1317201
29	0xbea5c036	-0.32373208
30	0x3e690230	0.2275474
31	0x3e1d3579	0.1535243
32	0x3e410824	0.18850762
33	0x3da77ef0	0.08178508
34	0x3e9b1d0d	0.302956
35	0xbe56e069	-0.20984043
36	0x3e381266	0.17975768
37	0xbdad5802	-0.08464052
38	0xbde1b1a4	-0.110202104
39	0xbe3cde25	-0.18444116
40	0x3d7e5187	0.06208947
41	0xbea60c97	-0.3243148
42	0xbe14eb0a	-0.14542785
43	0x3da879c5	0.08226351
44	0x3d4f3896	0.050591074
45	0x3e2e2a38	0.17008293
46	0xbe37480b	-0.17898576
47	0x3e354023	0.17700247

foundation_model.down_path.0.block.2.bias f4 [4]
0	0xbdf5295e	-0.11970781
1	0xbe1508af	-0.14554094
2	0xbd4bd71a	-0.049765684
3	0x3e1ac797	0.151152

foundation_model.down_path.1.block.0.weight f4 [8, 4, 3]
0	0xbe1fcc23	-0.15605216
1	0xbe394eb9	-0.18096437
2	0xbe66b1a9	-0.2252871
3	0xbe5777c1	-0.21041776
4	0x3d63491a	0.055489637
5	0x3e0d2e30	0.1378715
6	0x3e26b6dd	0.16280694
7	0xbde9a809	-0.11409003
8	0x3e612bd4	0.21989375
9	0xbd80c75e	-0.06288026
10	0xbcd5d78c	-0.026103757
11	0x3e3b6595	0.18300469
12	0x3dc8b8ce	0.09800874
13	0x3dd97c5a	0.10619421
14	0xbdaf868e	-0.08570586
15	0xbe49366a	-0.19649664
16	0x3dc38f04	0.095487624
17	0xbe8d21c8	-0.27564836
18	0x3d2944e4	0.041325465
19	0xbea4fcee	-0.3222422
20	0x3c951a4a	0.018201012
21	0x3df4b72d	0.119490005
22	0x3e2050f3	0.1565588
23	0x3e0187a7	0.12649404
24	0x3e85ddd9	0.2614582
25	0x3e474509	0.19459929
26	0x3e5323b5	0.2061909
27	0xbc2aba4f	-0.010420396
28	0xbe0ce8bc	-0.13760656
29	0x3e06febd	0.13183112
30	0x3df21514	0.118204266
31	0x3e2ddd62	0.16978982
32	0xbe344ae6	-0.17606696
33	0xbe32fa3d	-0.17478271
34	0x3e27caab	0.16385905
35	0x3e1f15b3	0.15535621
36	0xbeb26b3a	-0.34847432
37	0x3dce3fa4	0.10070732
38	0x3da9c94b	0.08290347
39	0x3ea5bf2a	0.3237241
40	0xbe640cd8	-0.22270525
41	0x3e019b96	0.12657008
42	0xbc3c625e	-0.011498062
43	0x3e9a0e37	0.3008897
44	0x3e96f14f	0.2948098
45	0x3cdefc05	0.027219782
46	0x3e791ad0	0.24326634
47	0x3e8d4fc4	0.2759992
48	0xbe85945d	-0.26089755
49	0x3de6fca7	0.11278658
50	0x3e6083eb	0.21925323
51	0x3d74f055	0.05979951
52	0xbdfbaad0	-0.12288439
53	0x3db8818f	0.09009086
54	0x3e640f18	0.22271383
55	0xbd71b367	-0.059008982
56	0x3e8642af	0.2622275
57	0x3e8dfba3	0.27731046
58	0x3e7b7128	0.24554884
59	0x3dfddfc6	0.12396197
60	0x3ea46c55	0.321139
61	0x3e42d548	0.19026673
62	0x3eb35136	0.35022897
63	0xbe960a41	-0.29304698
64	0xbea04a1a	-0.31306535
65	0x3a91c67f	0.0011121779
66	0xbdee06b1	-0.1162237
67	0x3e2c3ce7	0.16820107
68	0xbe7ef29d	-0.24897237
69	0xbd6d0e12	-0.057874747
70	0x3e338950	0.1753285
71	0xbe8e677c	-0.27813327
72	0x3e64afd3	0.22332697
73	0x3d1ef3d1	0.03880674
74	0x3e2edb71	0.17075898
75	0x3de176c7	0.11008983
76	0xbd1492be	-0.036272757
77	0xbe98cf21	-0.29845527
78	0xbcda04b9	-0.02661358
79	0xbe9c052b	-0.30472693
80	0xbd62b523	-0.055348527
81	0xbe3614fe	-0.17781445
82	0xbda8e541	-0.08246852
83	0x3e4b8d4d	0.1987812
84	0xbeb0aae5	-0.34505382
85	0x3ca8020b	0.020508787
86	0xbe5a37e2	-0.2131038
87	0xbe1dcc14	-0.15409881
88	0x3e05910a	0.1304361
89	0xbdfa6918	-0.12227076
90	0x3e46f281	0.19428445
91	0xbe3446ba	-0.17605105
92	0xbe03ca8b	-0.12870233
93	0xbd927144	-0.0715051
94	0x3e25daa9	0.16196693
95	0x3e18f0db	0.14935629

foundation_model.down_path.1.block.0.bias f4 [8]
0	0x3deb3b8b	0.11485966
1	0x3d213d64	0.039365187
2	0xbe6abf9a	-0.22924653
3	0x3a8c9ba1	0.0010727533
4	0xbe217f71	-0.15771271
5	0x3e1a2b9f	0.15055703
6	0xbe82211a	-0.2541588
7	0x3de572a6	0.11203508

foundation_model.down_path.1.block.2.weight f4 [8, 8, 3]
0	0x3e207c7b	0.15672486
1	0xbdf9ac42	-0.12191059
2	0xbdd9ecb9	-0.106408544
3	0xbd4bd5b8	-0.049764365
4	0x3e030414	0.12794524
5	0xbe424c0c	-0.18974322
6	0xbdecb94c	-0.1155878
7	0xbde9a0f6	-0.11407654
8	0xbe87d892	-0.26532418
9	0xbdabb15c	-0.08383438
10	0x3e67fb7e	0.2265453
11	0xbbf291f9	-0.007402655
12	0xbe118a17	-0.14212833
13	0x3e344215	0.17603333
14	0xbd564dcd	-0.05232029
15	0xbdd101e8	-0.10205442
16	0xbe869a98	-0.2628982
17	0xbdd79285	-0.10525993
18	0xbde3ec2e	-0.11129032
19	0x3de71ea3	0.1128514
20	0xbe8e4b9e	-0.27792066
21	0x3e1379e7	0.14401971
22	0x3e5b2b1a	0.2140316
23	0xbcf697bf	-0.030101655
24	0xbd8cdeaa	-0.06878407
25	0xbd3253f9	-0.043537114
26	0x3d8934ce	0.06699525
27	0x3d972053	0.07379212
28	0x3e3c4e42	0.18389228
29	0x3e4fc277	0.20289026
30	0x3e64ceaa	0.22344461
31	0xbd8f65f5	-0.07001869
32	0xbde8cee2	-0.11367585
33	0x3d3bf5ad	0.04588859
34	0xbe50e74f	-0.20400737
35	0xbe4ae771	-0.1981485
36	0xbce00517	-0.027346177
37	0xbc8666fd	-0.01640653
38	0xbe665e91	-0.22497012
39	0x3cb465b9	0.022021161
40	0x3e85b437	0.26114056
41	0x3c80982b	0.01569756
42	0x3e2de7b7	0.16982923
43	0xbccf37ac	-0.025295101
44	0x3e2b0615	0.16701539
45	0xbca8b6d3	-0.02059499
46	0xbe426c08	-0.18986523
47	0xbe16e2fd	-0.14735027
48	0xbda2ef15	-0.079557575
49	0xbdda6ad2	-0.106649056
50	0xbd9fb01e	-0.077972636
51	0xbdac91e7	-0.08426266
52	0x3e25535f	0.16145085
53	0xb9df813c	-0.00042630162
54	0x3dba9483	0.091103576
55	0x3d8f45e2	0.06995751
56	0x3da57506	0.08078961
57	0xbe22995a	-0.15878811
58	0xbe5d7a05	-0.21628578
59	0xbce4c058	-0.027923748
60	0xbe3871df	-0.18012188
61	0xbdaa54f1	-0.083169825
62	0xbd6b597a	-0.05745838
63	0x3e39e832	0.18154982
64	0xbcb523b2	-0.022111747
65	0x3d8b7b56	0.06810634
66	0x3df2cf01	0.11855889
67	0x3e5abf34	0.21362
68	0x3e5a3a64	0.21311337
69	0xbbb14dde	-0.005410894
70	0x3c358c29	0.01108078
71	0x3dfac29a	0.122441486
72	0xbe5199e0	-0.20468855
73	0x3c702f3a	0.014659697
74	0xbe0f1ddc	-0.13976234
75	0x3dc9e83a	0.09858747
76	0x3e58323a	0.2111291
77	0x3b14eaeb	0.002272303
78	0x3dede6c6	0.11616282
79	0x3cbb3640	0.022853017
80	0x3e86756e	0.26261467
81	0xbc9a1d8c	-0.018812917
82	0xbd295a5a	-0.04134593
83	0x3d892b0f	0.06697666
84	0xb93afe96	-0.00017833183
85	0x3db1982b	0.08671602
86	0x3e69b1db	0.22821753
87	0x3de312ad	0.110875465
88	0x3e1dcf18	0.15411031
89	0x3e1d7f89	0.15380682
90	0x3e8686a2	0.26274592
91	0x3d3f9fcd	0.046783257
92	0x3e44411a	0.1916546
93	0xbd9626cd	-0.073316194
94	0xbdab4599	-0.08362884
95	0x3cbf110b	0.023323556
96	0xbdf58c0e	-0.11989604
97	0x3db8c01f	0.09021019
98	0xbddf46a5	-0.10902146
99	0xbe298f2b	-0.1655852
100	0xbda017f5	-0.078170694
101	0xbdbb6ea4	-0.091519624
102	0x3d1c2b34	0.03812714
103	0x3d98955a	0.074503615
104	0xbe784069	-0.2424332
105	0x3e39fe5c	0.18163437
106	0x3cfacd0f	0.030615358
107	0x3e43eb69	0.1913277
108	0xbd53a197	-0.051667776
109	0xbda8e8cb	-0.08247527
110	0x3e007e99	0.12548293
111	0xbcf8bf89	-0.030364769
112	0xbdae1de2	-0.085017934
113	0xbe0f83aa	-0.1401507
114	0xbc987918	-0.01861243
115	0xbe7eb4b0	-0.24873614
116	0xbe3dd7c8	-0.18539345
117	0xbdc5c324	-0.09656361
118	0x3df061ad	0.1173738
119	0xbe1236c0	-0.14278698
120	0x3d40cec5	0.04707219
121	0xbe51d68c	-0.20492
122	0xbdab1541	-0.08353663
123	0x3e0e5d5e	0.13902804
124	0x3e6d3d82	0.23167995
125	0xbc0bcba1	-0.008532436
126	0x3d5428ef	0.05179685
127	0x3e439466	0.19099578
128	0x3d76c40a	0.06024555
129	0x3d9e4453	0.077278756
130	0x3d81baed	0.063344814
131	0x3dd0a418	0.101875484
132	0xbe15fc0b	-0.14646928
133	0xbe4c0034	-0.19921952
134	0x3db34097	0.08752554
135	0x3ddb55bf	0.10709714
136	0x3d26e35c	0.04074417
137	0xbdb7deb6	-0.089780256
138	0x3e55a595	0.20863946
139	0x3e7ae1f1	0.24500252
140	0x3e04d755	0.12972768
141	0xbd3a0855	-0.045418102
142	0xbdb09e2c	-0.08623919
143	0xbe121a1b	-0.14267771
144	0x3d478157	0.048707332
145	0x3c7290f8	0.014805071
146	0xbdbe696d	-0.09297452
147	0x3c275506	0.010213142
148	0xbdc4befa	-0.096067384
149	0xbd091243	-0.03346468
150	0x3dabfd34	0.08397904
151	0x3dcefe8f	0.10107147
152	0x3e3bdaed	0.18345232
153	0xbe897522	-0.26847178
154	0xbe1d5306	-0.15363702
155	0x3dd84f85	0.10562042
156	0xbd9b979c	-0.075972766
157	0xbda2c57f	-0.07947826
158	0xbe0037b1	-0.12521245
159	0x3dbf3ee0	0.09338164
160	0x3e19491a	0.14969292
161	0xbd72f8bd	-0.059319247
162	0x3d27f76d	0.041007448
163	0xbde17435	-0.11008493
164	0x3baacdcf	0.0052125226
165	0xbdbdeec0	-0.092740536
166	0x3e25a4cb	0.16176145
167	0xbc07c2e0	-0.008286208
168	0x3e1602ba	0.14649478
169	0xbd6c192c	-0.057641193
170	0x3e6ad0fd	0.22931285
171	0xbe30b708	-0.17257321
172	0xbe8118fa	-0.25214368
173	0xbd30e231	-0.043184463
174	0x3d9cc56a	0.07654841
175	0xbd74b8bc	-0.05974649
176	0x3d8758f7	0.066087656
177	0x3e7663c8	0.24061501
178	0x3dcd0265	0.10010222
179	0xbd8a32f3	-0.06747999
180	0xbd7d31d1	-0.061815087
181	0xbd991c68	-0.07476121
182	0x3d7bf4dc	0.061512813
183	0xbd179a0c	-0.037012145
184	0xbe8301ce	-0.25587314
185	0xbd23d870	-0.040001333
186	0x3df3fa69	0.11912996
187	0xbdd3600b	-0.10321053
188	0xbde6d3ee	-0.11270891
189	0x3dd603d2	0.104499474
190	0xbd12d0e8	-0.03584376
191	0xbe064985	-0.13113983

foundation_model.down_path.1.block.2.bias f4 [8]
0	0x3dead5d3	0.11466565
1	0xbe26ab1a	-0.16276208
2	0xbc0fcce8	-0.008776881
3	0x3dcd0f9a	0.100127414
4	0x3e19d218	0.1502155
5	0x3cb491c3	0.02204216
6	0xbdd08b82	-0.10182859
7	0x3d83f0c6	0.06442408

foundation_model.down_path.2.block.0.weight f4 [16, 8, 3]
0	0x3d3da3d5	0.04629882
1	0xbda124aa	-0.07868321
2	0x3d84ba44	0.0648084
3	0xbda7a8f8	-0.08186525
4	0xbc12e1e7	-0.008964992
5	0xbe557211	-0.20844294
6	0xbe3101cb	-0.1728584
7	0xbd86b451	-0.065773614
8	0xbcbe372e	-0.023219671
9	0xbe8bea76	-0.27327317
10	0x3dd35ec9	0.10320813
11	0x3d7e55df	0.06209361
12	0x3c1c0847	0.009523458
13	0x3d0fb360	0.035083175
14	0x3daf1a03	0.08549883
15	0x3c3cd89d	0.011526254
16	0xbe43291d	-0.19058652
17	0xbe502507	-0.20326625
18	0x3df19b16	0.117971584
19	0xbdf90c05	-0.12160496
20	0xbe297d95	-0.16551812
21	0x3d39432a	0.04523007
22	0x3dc90fca	0.09817465
23	0x3e2386e3	0.15969424
24	0x3cd429c8	0.02589883
25	0x3db68445	0.08911947
26	0xbc8f7b0c	-0.017514728
27	0x3e12914f	0.14313243
28	0xbae84f3b	-0.0017723808
29	0x3e53f922	0.20700505
30	0x3ce49ecf	0.027907757
31	0x3e6aebab	0.22941463
32	0xbab9ff77	-0.0014190514
33	0x3e69227a	0.22767058
34	0x3cea7d5d	0.028624231
35	0x3cf4f769	0.02990313
36	0xbde71996	-0.11284177
37	0x3cd962d2	0.026536379
38	0xbe1aac11	-0.151047
39	0xbd5914a1	-0.05299819
40	0xbd195919	-0.037438486
41	0x3e74aa61	0.2389312
42	0x3e3a5db2	0.18199804
43	0xbd0a5d95	-0.033780653
44	0xbd3dc1e9	-0.046327505
45	0xbd514187	-0.051087882
46	0xbe37b802	-0.17941287
47	0x3d267a85	0.040644187
48	0x3c9cc4d2	0.01913682
49	0xbd0f1925	-0.03493609
50	0x3e0f5f55	0.1400121
51	0x3d83eac9	0.06441266
52	0xbe2dbb13	-0.16965894
53	0x3d9692d3	0.07352223
54	0xbdd0dede	-0.101987585
55	0xbca0b2fe	-0.0196166
56	0x3ddf07bd	0.10890148
57	0x3dbea23a	0.09308286
58	0xbe75f63a	-0.24019709
59	0xbe73d940	-0.23813343
60	0x3d3aa6be	0.045569174
61	0x3e31fe61	0.17382194
62	0xbdf70ee6	-0.120633885
63	0x3d0e0a4f	0.0346778
64	0x3d626334	0.05527039
65	0xbe3ebf3b	-0.18627636
66	0xbe7e00f8	-0.24805057
67	0xbe49acfb	-0.19694893
68	0x3e017060	0.12640524
69	0x3d92e159	0.07171888
70	0xbd370579	-0.044682954
71	0x3ddea931	0.108721144
72	0x3e8ba6e5	0.27275768
73	0x3e64e727	0.22353803
74	0x3de6b552	0.11265053
75	0xbde4f216	-0.11178987
76	0xbdb2df6d	-0.08734021
77	0xbe233327	-0.15937482
78	0xbe032524	-0.12807137
79	0xbdaf07e0	-0.08546424
80	0x3d819c4c	0.063286394
81	0xbe6c9dc0	-0.23107052
82	0x3c0e6bf1	0.008692727
83	0xbe0d5388	-0.13801396
84	0x3e4fb69c	0.20284504
85	0xbdfc4bcb	-0.12319144
86	0x3def00bf	0.11670064
87	0x3da641e2	0.08118035
88	0x3d004670	0.031317174
89	0x3ce659f0	0.028119057
90	0xbe0326ea	-0.12807813
91	0xbddfa913	-0.1092092
92	0x3d4f7199	0.050645445
93	0xbd0aaf09	-0.033858333
94	0x3e2d9f63	0.16955332
95	0xbd23f6c8	-0.04003027
96	0x3e489cb0	0.19591022
97	0x3e5b8dd0	0.21440816
98	0x3d11ed67	0.035626795
99	0x3dcf3315	0.10117165
100	0xbe6a1e84	-0.22863203
101	0xbb0495ec	-0.0020230962
102	0xbe533246	-0.20624647
103	0x3ce6aa95	0.028157512
104	0xbe93b4b9	-0.28848818
105	0xbd9d7fb7	-0.07690375
106	0x3dbda81e	0.092605814
107	0x3e0dc413	0.13844328
108	0xbbfb04c4	-0.00766048
109	0x3e0f67fa	0.14004508
110	0x3e404a4e	0.18778345
111	0xbe375278	-0.17902553
112	0xbddf54a6	-0.10904817
113	0x3ced4947	0.028965605
114	0x3cf27253	0.02959553
115	0x3cdaca3e	0.026707765
116	0x3d4aae36	0.049482547
117	0x3d9d580a	0.07682808
118	0xbd6823cf	-0.056674775
119	0xbd86cdff	-0.065822594
120	0x3e3be82f	0.1835029
121	0x3dd1d2e6	0.10245304
122	0x3bb245d9	0.0054404554
123	0xbe5e5425	-0.21711786
124	0xbe768926	-0.24075755
125	0xbd787432	-0.060657687
126	0xbe46d018	-0.19415319
127	0xbe453a4c	-0.1926052
128	0x3c8b20bd	0.016983384
129	0xbe5e7d79	-0.21727552
130	0xbd26aea2	-0.040693887
131	0xbb2606a2	-0.0025333543
132	0xbcd106e1	-0.025515975
133	0x3da3a523	0.07990482
134	0x3d6607a5	0.056159634
135	0xbe0a5dfc	-0.13512415
136	0x3d516ac7	0.05112722
137	0xbe444fcb	-0.19171064
138	0x3d4fc815	0.050727922
139	0xbe3b73f7	-0.18305956
140	0xbe03f037	-0.12884603
141	0xbd47aa2d	-0.048746277
142	0x3dd8fd12	0.10595144
143	0xbd6dc28a	-0.058046855
144	0x3dc41299	0.0957386
145	0x3e0335e0	0.1281352
146	0x3da2ffbd	0.079589345
147	0xbe5a9cbb	-0.2134885
148	0xbe18d7db	-0.14926092
149	0xbe6ebdc6	-0.2331458
150	0x3cd0f06d	0.025505269
151	0xbe6fbcaa	-0.23411813
152	0x3dd1335b	0.102148734
153	0x3de9cebf	0.11416387
154	0xbdf68ba2	-0.120383516
155	0xbe6ee710	-0.23330331
156	0xbb878553	-0.0041357665
157	0x3a1c746b	0.00059682754
158	0xbde0709f	-0.10958981
159	0x3d33d560	0.043904662
160	0xbe6a2392	-0.22865131
161	0x3dee0517	0.116220646
162	0x3da23636	0.07920496
163	0xbda610e0	-0.081086874
164	0x3d183cb4	0.037167266
165	0x3e1e4bfe	0.15458676
166	0x3e631787	0.22176944
167	0x3e38bbb6	0.18040356
168	0x3e0b68e0	0.13614225
169	0xbe8a5a0d	-0.27021828
170	0xbe5ff2ce	-0.21869966
171	0xbd9976f5	-0.074933924
172	0xbccb62b6	-0.024827342
173	0xbd6674eb	-0.056263845
174	0x3e8be39f	0.273221
175	0xbddb9ffb	-0.10723873
176	0x3d890a1c	0.06691381
177	0x3e5816eb	0.21102493
178	0x3e00eb00	0.12589645
179	0x3dbb2b81	0.09139157
180	0xbe016d84	-0.12639433
181	0x3e1a0167	0.15039597
182	0xbaff357d	-0.0019470897
183	0x3e0e023a	0.13868037
184	0xbe17b5b5	-0.1481541
185	0x3e5204d3	0.20509653
186	0xbe061946	-0.13095579
187	0x3c9fa9fd	0.019490236
188	0x3e834f57	0.2564647
189	0xbb601134	-0.0034189941
190	0x3dfa4b97	0.12221449
191	0x3d4a95c6	0.04945924
192	0x3bba02a0	0.0056765825
193	0xbe8470cf	-0.25867316
194	0x3d2eebf3	0.042705487
195	0x3e608ae4	0.21927983
196	0x3e62d81e	0.22152755
197	0xbd5dedc5	-0.054181833
198	0x3e1934f8	0.14961612
199	0x3e8e4fed	0.27795354
200	0x3e2c4749	0.16824068
201	0x3e3e058b	0.18556802
202	0xbe0341d2	-0.12818077
203	0x3e8969b2	0.26838452
204	0x3d886454	0.06659761
205	0xbe4ff975	-0.20310004
206	0xbe287c19	-0.1645359
207	0xbe004598	-0.12526548
208	0x3de4a82d	0.111648895
209	0x3dd04763	0.10169866
210	0xbd8b741d	-0.06809256
211	0x3d671252	0.056413956
212	0x3e3a93ee	0.18220493
213	0x3d67455d	0.056462634
214	0x3c8d0b02	0.017217163
215	0xbda49cd6	-0.080377266
216	0x388357e8	6.2629406e-05
217	0x3e01f1f0	0.12689948
218	0xbe59bfe6	-0.2126461
219	0xbd672556	-0.05643209
220	0x3e5c6bfd	0.2152557
221	0xbd66d69b	-0.056357007
222	0x3e5cb03d	0.21551605
223	0x3c4311be	0.011906086
224	0x3e68402f	0.22680734
225	0x3da49bc7	0.08037525
226	0x3e4c8469	0.19972385
227	0x3e8872b1	0.26650003
228	0xbd89c23a	-0.06726499
229	0x3df51413	0.119667195
230	0xbd8e48dd	-0.06947491
231	0x3bb2b342	0.005453498
232	0x3d6ae92d	0.05735128
233	0x3e3ad400	0.18244934
234	0x3dce0396	0.10059278
235	0x3c2b013e	0.010437308
236	0x3dd54cd3	0.10415044
237	0xbe0e32d2	-0.13886574
238	0xbc8c0cf1	-0.017096015
239	0xbd92407b	-0.07141205
240	0xbd0a6d1c	-0.03379546
241	0xbd90e77e	-0.07075404
242	0xbc567562	-0.01308951
243	0x3dd7e83d	0.10542343
244	0xbe8d88bd	-0.27643386
245	0xbe8273a6	-0.25478858
246	0xbe6675cf	-0.22505878
247	0xbe7abf3f	-0.24487017
248	0xbe2d6f18	-0.1693691
249	0x3cabdaa9	0.020978289
250	0xbe616865	-0.2201248
251	0xbde7bb64	-0.11315039
252	0xbd7b74cd	-0.061390687
253	0x3c284b1b	0.010271813
254	0x3e6cfebd	0.2314405
255	0x3c5c6701	0.013452292

foundation_model.down_path.2.block.0.bias f4 [16]
0	0x3e3848ad	0.17996474
1	0xbe5c87cd	-0.21536179
2	0x3dcc3650	0.09971297
3	0x3e37b659	0.17940654
4	0x3ddcd3ca	0.10782583
5	0x3dbcf98c	0.09227285
6	0x3d87da05	0.06633381
7	0xbdc72707	-0.09724241
8	0xbd1085d6	-0.035283886
9	0xbd81422c	-0.063114494
10	0x3dbdd02c	0.09268221
11	0xbd9aaef1	-0.07552899
12	0xbcb6b781	-0.022304298
13	0xbe40eed3	-0.18841104
14	0x3e01ea08	0.12686932
15	0x3e556786	0.20840272

foundation_model.down_path.2.block.2.weight f4 [16, 16, 3]
0	0x3d8e3e78	0.06945509
1	0x3db42d4a	0.08797701
2	0x3dad5504	0.08463481
3	0xbd68b443	-0.056812536
4	0xbd93eec2	-0.07223274
5	0xbe145aaa	-0.1448771
6	0xbc95fe00	-0.018309593
7	0xbd31a7c1	-0.043372873
8	0x3e13b1be	0.14423272
9	0x3ce91209	0.028450983
10	0x3d3fe926	0.046853207
11	0x3c98cf26	0.018653464
12	0x3e2031bd	0.15643974
13	0x3e292f42	0.16521934
14	0x3e4115f6	0.18856034
15	0x3dc91ca9	0.098199196
16	0xbd21b406	-0.039478324
17	0x3dcd76dc	0.10032436
18	0x3e1566cf	0.1459
19	0x3dd4d084	0.10391334
20	0x3e1c236f	0.15247892
21	0xbe0cccdb	-0.13750021
22	0x3cef0094	0.02917508
23	0xbda23aea	-0.07921393
24	0x3c66cc44	0.014086787
25	0x3d31f429	0.04344574
26	0xbe29c6c9	-0.16579737
27	0xbddb6897	-0.10713308
28	0xbbf211d9	-0.0073873815
29	0xbe5297ce	-0.20565721
30	0x3a27158a	0.0006373754
31	0x3d43200d	0.047637988
32	0x3df5c0de	0.11999677
33	0x3dcfa1e2	0.101382986
34	0x3d72a5fc	0.059240326
35	0x3d42914d	0.04750185
36	0xbba9fc53	-0.00518755
37	0xbd719f6c	-0.058989927
38	0xbe30f33d	-0.17280288
39	0xbe2cf0cb	-0.1688873
40	0xbdda2d70	-0.10653198
41	0xbde0f9c1	-0.10985137
42	0x3e1c1f9f	0.15246437
43	0x3e1db980	0.15402794
44	0xbc5928a8	-0.013254322
45	0x3d949e1c	0.072567195
46	0xbd927d9e	-0.07152866
47	0x3c5d225e	0.013496963
48	0x3e11e26b	0.14246528
49	0x3cf0acd4	0.029379286
50	0xbd8931cb	-0.066989504
51	0x3d7cb9fe	0.061700813
52	0xbda37ab8	-0.07982391
53	0x3d664959	0.056222294
54	0x3e11e48e	0.14247343
55	0x3e3b2344	0.18275172
56	0x3dea42be	0.11438511
57	0x3d1ddee2	0.038542636
58	0xbc4d928f	-0.012547149
59	0xbda35258	-0.0797469
60	0xbd58fc8d	-0.052975226
61	0x3d2a2763	0.04154147
62	0x3e4988dc	0.19681114
63	0x3d4cb763	0.04997958
64	0x3e535fdc	0.20642036
65	0x3c5aa79c	0.013345625
66	0x3b8badfb	0.0042626834
67	0x3dcb2aae	0.0992025
68	0x3dc42cb4	0.09578839
69	0x3cdbe3ee	0.026842084
70	0xbe0c0adb	-0.13676016
71	0xbd90178b	-0.070357405
72	0x3c886235	0.016648391
73	0xbdcc4fac	-0.09976134
74	0xbe11f8cd	-0.14255066
75	0x3d1577fc	0.03649138
76	0xbdea6e02	-0.114467636
77	0xbe225cd9	-0.15855731
78	0x3d98bf8e	0.07458411
79	0xbc5b1298	-0.013371132
80	0x3e0fbc15	0.14036591
81	0xbbe91dd1	-0.00711415
82	0x3e0b2cac	0.1359126
83	0xbcecaefd	-0.028892035
84	0xbcd95d1f	-0.026533661
85	0xbd9d6af9	-0.07686419
86	0xbe1fb838	-0.15597618
87	0xbdc77c47	-0.09740501
88	0x3d00a72c	0.031409428
89	0x3a9d447e	0.0011998562
90	0xbd2d3856	-0.042290054
91	0x3dd2a98b	0.10286244
92	0x3cd94444	0.02652181
93	0x3e396858	0.1810621
94	0x3e3c7bb6	0.18406567
95	0x3e277c7a	0.16356078
96	0x3e1ba7de	0.15200755
97	0xbd818a00	-0.063251495
98	0xbdb612c0	-0.08890295
99	0xbdca7e7a	-0.09887405
100	0xbd4a450a	-0.049382247
101	0xbe336d22	-0.175221
102	0x3dcd4995	0.100238
103	0x3d024536	0.031804286
104	0x3e503dd7	0.2033609
105	0x3e236de0	0.15959883
106	0x3e2b25ee	0.16713688
107	0x3ceb154b	0.028696677
108	0x3e3251c5	0.17414005
109	0xbcb7aa3b	-0.02242004
110	0x3a8c9513	0.001072558
111	0x3dca1596	0.098673984
112	0x3d029e5f	0.031889316
113	0x3c874769	0.016513543
114	0x3d9e5068	0.0773018
115	0x3e0d215d	0.13782258
116	0x3d50060a	0.05078701
117	0xbdacc727	-0.08436423
118	0x3d88db03	0.06682398
119	0x3d830afd	0.0639858
120	0xbd6ecb05	-0.058299083
121	0xbd84cf3e	-0.06484841
122	0xbe1c88f7	-0.15286623
123	0xbe1774bd	-0.14790626
124	0xbdf4185d	-0.119187094
125	0xbbff4689	-0.007790391
126	0x3e4c3d04	0.1994515
127	0x3ddc20b8	0.10748428
128	0x3e40b8d7	0.18820511
129	0x3dff580d	0.12467966
130	0xbce27f81	-0.02764869
131	0xbcf9f2a1	-0.030511202
132	0xbe279a55	-0.16367467
133	0xbdd0bbe8	-0.1019209
134	0xbdc05677	-0.09391492
135	0x3bd76063	0.0065727695
136	0x3c4f15d2	0.01263948
137	0x3ca20928	0.019779757
138	0x3d899ae6	0.06718998
139	0x3c8af4d9	0.016962456
140	0x3debae2c	0.1150783
141	0xbd0f0b90	-0.034923136
142	0x3e2f9eaa	0.1715037
143	0x3d93b66e	0.0721253
144	0xbdcc7db3	-0.09984913
145	0x3d5bc0bd	0.053650606
146	0xbe288af2	-0.16459253
147	0xbbebae58	-0.0071924143
148	0xbdc95373	-0.0983037
149	0xbdb1bf56	-0.086790726
150	0xbd8faed1	-0.070157655
151	0xba42b797	-0.000742787
152	0x3d766426	0.060154103
153	0x3d804fa6	0.06265192
154	0xbe383213	-0.17987852
155	0x3d0a50df	0.03376853
156	0xbd4dc351	-0.050235096
157	0x3c38e13c	0.011284169
158	0xbdc826ce	-0.097730264
159	0x3d3d394d	0.046197224
160	0xbe4a2637	-0.1974114
161	0xbe112af1	-0.14176537
162	0xbe148ee3	-0.14507632
163	0xbe50c3c5	-0.2038718
164	0x3d3f27c5	0.046668787
165	0x3c6e678e	0.014551057
166	0x3d2813c6	0.041034482
167	0xb9834a7a	-0.00025041756
168	0x3d9f40fc	0.07776067
169	0x3d89e977	0.06733983
170	0x3d8115b4	0.06302968
171	0xbbdadc44	-0.0066790897
172	0x3e03d461	0.12873985
173	0x3e0a3e8f	0.13500427
174	0x3cb182d5	0.02166883
175	0x3d0a8eb7	0.03382751
176	0xbe326f03	-0.1742516
177	0xbce1037d	-0.027467484
178	0xbe35b63b	-0.17745297
179	0x3d8082dc	0.062749594
180	0x3e54c05d	0.20776506
181	0xbc1eb309	-0.00968624
182	0x3db36035	0.087585844
183	0xbc901ef3	-0.017592883
184	0x3e0a35d8	0.13497102
185	0x3e115aa6	0.14194736
186	0xbe2e568c	-0.17025203
187	0xbe1b20b8	-0.151492
188	0x3d9bf282	0.07614614
189	0x3da9bd78	0.082880914
190	0xbe38113c	-0.17975324
191	0x3d626eeb	0.05528156
192	0x3c289de5	0.010291551
193	0x3e33275a	0.1749548
194	0xbd775995	-0.060388166
195	0xbe044476	-0.12916741
196	0xbdb1b77f	-0.08677577
197	0xbdb0a0e3	-0.08624437
198	0xbdba0f84	-0.090849906
199	0xbc4944e4	-0.012284491
200	0xbdbcc269	-0.09216768
201	0xbd92850a	-0.071542814
202	0x3e279459	0.16365184
203	0xbda67c8d	-0.08129225
204	0x3d377cb3	0.044796657
205	0x3cac9153	0.02106539
206	0x3cef0ce9	0.02918096
207	0xbca25294	-0.019814767
208	0x3c44fe74	0.012023557
209	0xbd45c4bf	-0.048283335
210	0xbd59fe97	-0.05322131
211	0xbd3fbfa7	-0.046813633
212	0x3b81b6b8	0.0039585494
213	0xbda4d180	-0.080477715
214	0xbd8868fe	-0.06660651
215	0xbd85fbac	-0.06542143
216	0xbe36b167	-0.17841111
217	0x3c88f072	0.016716216
218	0x3cd148e3	0.02554745
219	0xbe2a7cb0	-0.16649127
220	0x3d2f92e7	0.042864706
221	0x3b529989	0.003213497
222	0x3d5066b9	0.050879214
223	0xbd702aa0	-0.0586344
224	0x3e092eb2	0.13396719
225	0x3c61677c	0.013757583
226	0xbcb7e0cf	-0.022446064
227	0x3e10388e	0.14084074
228	0x3d9cf612	0.07664122
229	0xbe2fde40	-0.17174625
230	0xbcc7bee0	-0.024383008
231	0xb9051130	-0.00012690271
232	0x3c3dd77b	0.011587019
233	0xbe0c9652	-0.13729218
234	0x3d993022	0.07479884
235	0xbd6092ed	-0.05482762
236	0x3e0102a9	0.12598671
237	0x3d913fe8	0.07092267
238	0xbd83036d	-0.06397138
239	0x3de60fd4	0.11233488
240	0x3b54a4d1	0.003244687
241	0x3c3d3108	0.0115473345
242	0xbd31dbcc	-0.043422505
243	0x3d952f2c	0.07284388
244	0x3de6ecc2	0.11275627
245	0xbdc2b62d	-0.095074035
246	0x3de2402f	0.11047398
247	0xbd8f6b5a	-0.070028976
248	0x3d71d979	0.05904529
249	0x3c5b6ade	0.013392178
250	0xbb5456e2	-0.003240042
251	0xbd9e825a	-0.07739706
252	0xbd3942e5	-0.04522981
253	0xbdd357af	-0.10319459
254	0x3ca48cda	0.020086695
255	0xbe2dfa3b	-0.16989987

foundation_model.down_path.2.block.2.bias f4 [16]
0	0x3e16c5c7	0.14723884
1	0x3de6727e	0.112523064
2	0x3dc69913	0.09697165
3	0xbc867331	-0.01641235
4	0x3e0d51d1	0.13800742
5	0xbdf979b6	-0.12181418
6	0xbc5f3f53	-0.0136259375
7	0x3d3f5905	0.046715755
8	0x3e21a4fe	0.15785596
9	0x3e114dae	0.14189789
10	0xbdef01e7	-0.11670285
11	0x3e17a3b1	0.14808537
12	0xbc28e069	-0.01030741
13	0x3c97913d	0.018501872
14	0xbc029f09	-0.007972487
15	0x3df049b7	0.1173281

foundation_model.up_path.0.up.weight f4 [16, 8, 2]
0	0x3e5adf00	0.2137413
1	0x3d8f8f44	0.070097476
2	0xbd462c08	-0.048381835
3	0x3e3d60f2	0.18494013
4	0xbc896de0	-0.016776025
5	0x3de8f3a8	0.11374599
6	0xbe4b7ada	-0.19871083
7	0x3e03aa52	0.12857941
8	0x3d436418	0.04770288
9	0xbbebc880	-0.0071955323
10	0x3da5d3a8	0.08097011
11	0xbe1eb730	-0.15499568
12	0xbe3811ec	-0.17975587
13	0xbe3ae9cc	-0.18253249
14	0xbe3ec3d8	-0.18629396
15	0x3e119b70	0.14219451
16	0xbe0149f8	-0.12625873
17	0x3d2e32d0	0.042528927
18	0xbe7aed98	-0.24504697
19	0x3e5ce140	0.21570301
20	0x3c3443a0	0.011002451
21	0x3d16a190	0.03677517
22	0xbe78bb82	-0.24290279
23	0x3d1be7e0	0.03806293
24	0xbdce72f8	-0.10080522
25	0x3e7c3c2c	0.24632329
26	0xbe216aba	-0.15763369
27	0xbd6263f0	-0.05527109
28	0xbd02eba8	-0.03196302
29	0xbe1dee20	-0.15422869
30	0x3e6a7d6c	0.22899407
31	0x3e6b2b8a	0.22965828
32	0x3e25a30c	0.16175479
33	0xbd6437f0	-0.05571741
34	0x3d926440	0.071480274
35	0xbe009a7c	-0.12558931
36	0xbe02ee96	-0.12786326
37	0xbd2ada70	-0.041712224
38	0x3dc6c24c	0.09705028
39	0xbdabbe30	-0.08385885
40	0x3d5fa3b0	0.054599464
41	0x3d987434	0.07444039
42	0x3e524c08	0.20536816
43	0x3e5739d0	0.21018147
44	0xbd24e5d0	-0.04025823
45	0xbe7b56a8	-0.24544775
46	0x3d5a0788	0.05322984
47	0x3e454acc	0.19266814
48	0xbe60c458	-0.21949899
49	0xbe066bb2	-0.1312702
50	0x3e59b96a	0.21262136
51	0x3e063eec	0.1310994
52	0x393bd000	0.00017911196
53	0x3e5c3b34	0.21506959
54	0xbdd44b08	-0.103658736
55	0x3e27d7b0	0.16390872
56	0x3dd071d8	0.10177964
57	0xbc844990	-0.016148359
58	0xbdc9dcd0	-0.0985657
59	0x3e58c3bc	0.21168417
60	0x3e571786	0.21005067
61	0x3e6ebdba	0.23314562
62	0x3e5b3d6c	0.2141015
63	0xbe5150e6	-0.20441017
64	0xbe46ab7a	-0.1940135
65	0x3e0d9692	0.1382697
66	0xbd3ed7b0	-0.046592414
67	0x3e1e2794	0.15444785
68	0x3e218896	0.1577476
69	0x3e3a81c2	0.18213561
70	0xbe70fd40	-0.23534107
71	0xbd9de0d0	-0.07708895
72	0x3e5c2d62	0.21501687
73	0x3e68bfec	0.22729462
74	0x3c4a5380	0.0123490095
75	0x3b60af00	0.0034283996
76	0xbe4eac02	-0.20182803
77	0x3e4f3c26	0.20237789
78	0x3d896230	0.06708181
79	0xbe4b38ee	-0.19845936
80	0x3e5780b0	0.21045184
81	0xbe5f6a94	-0.21818
82	0x3db038e4	0.08604601
83	0xbe7a418a	-0.24439064
84	0x3e0033d4	0.12519771
85	0x3dc255a8	0.09488994
86	0x3e5d1fd6	0.21594176
87	0xbe1e2772	-0.15444735
88	0x3e100fee	0.14068577
89	0xbe5cae3a	-0.21550837
90	0xbd65f9a8	-0.056146294
91	0x3e64867e	0.2231693
92	0x3d619f50	0.055083573
93	0xbe158f18	-0.14605367
94	0xbdeb2c70	-0.11483085
95	0x3e788cf0	0.24272513
96	0xbe7962f2	-0.24354151
97	0xbe5a7226	-0.21332607
98	0x3d186238	0.037203044
99	0xbced5830	-0.028972715
100	0x3df721bc	0.12066981
101	0xbd560640	-0.052252054
102	0xbe36e50a	-0.17860809
103	0x3dd02d0c	0.10164842
104	0x3e008e38	0.12554252
105	0x3c970620	0.018435538
106	0xbe0c9a24	-0.13730675
107	0xbe3fc1ac	-0.18726224
108	0xbe0dc590	-0.13844895
109	0x3ce2a2e0	0.027665555
110	0xbcc16090	-0.023605615
111	0xbe2fa118	-0.17151296
112	0xbd396f30	-0.045272052
113	0xbdcb7b10	-0.09935582
114	0xbd0ca420	-0.03433621
115	0x3dc38174	0.095461756
116	0x3cdc6dc0	0.026907802
117	0x3e742f9c	0.23846287
118	0x3e7d57ec	0.24740571
119	0xbe1481e8	-0.1450268
120	0xbda27c8c	-0.07933912
121	0x3df1b4a0	0.118020296
122	0xbdcdd920	-0.10051179
123	0xbe74431e	-0.23853728
124	0x3c08a820	0.008340865
125	0x3e662a3a	0.22477046
126	0x3d293158	0.041306823
127	0x3e520438	0.20509422
128	0x3e6852a0	0.22687769
129	0xbe61cfb8	-0.22051895
130	0x3d88f6d8	0.06687707
131	0x3e181b62	0.14854196
132	0x3e27e8f2	0.16397455
133	0x3d0c4e70	0.03425449
134	0x3ce6b830	0.028164
135	0x3e3c15d2	0.18367699
136	0x3e22e814	0.15908843
137	0x3e2c01a6	0.16797504
138	0xbd34bc70	-0.04412502
139	0x3d0e6eb8	0.03477356
140	0x3d83d780	0.06437588
141	0xbe43b770	-0.19112945
142	0x3e61ee6a	0.22063604
143	0xbe29a66a	-0.16567388
144	0xbd967de8	-0.073482335
145	0x3d921af0	0.07134044
146	0xbda995d0	-0.082805276
147	0xbdd57060	-0.104218245
148	0x3e425598	0.18977964
149	0x3d017188	0.031602412
150	0x3d634ab8	0.05549118
151	0xbd97d578	-0.07413763
152	0x3e6874f8	0.2270087
153	0x3e43e316	0.19129595
154	0xbe4c8466	-0.19972381
155	0xbe6984b0	-0.22804523
156	0xbe5b3c26	-0.21409664
157	0x3e4e4a0e	0.20145437
158	0x3e215182	0.15753749
159	0x3e0fd944	0.14047724
160	0xbe2ad790	-0.16683793
161	0x3d8db308	0.06918913
162	0x3e564c18	0.20927465
163	0x3e518e82	0.20464519
164	0x3e6e9164	0.2329765
165	0x3dd91c68	0.10601121
166	0x3d3ded68	0.046368986
167	0xbe58b4fe	-0.21162793
168	0x3dd56f04	0.10421565
169	0x3e0f0d30	0.13969874
170	0x3e22c65e	0.15895984
171	0xbd4df030	-0.05027789
172	0xbe425cf6	-0.18980774
173	0xbd49d4a0	-0.04927504
174	0xbc6de580	-0.014520049
175	0x3d43acf0	0.047772348
176	0xbe35f240	-0.17768192
177	0x3cb13190	0.021630079
178	0xbe713608	-0.23555768
179	0xbe2ccd88	-0.16875279
180	0xbd510de0	-0.051038623
181	0xbe00e82e	-0.1258857
182	0xbe5c22aa	-0.21497598
183	0xbdc50314	-0.09619728
184	0x3d84e868	0.064896405
185	0x3db6dc88	0.08928782
186	0x3b5a6e80	0.0033330023
187	0x3c93b690	0.018031389
188	0xbe674104	-0.22583395
189	0xbc85b5f0	-0.016322106
190	0xbc9ef8a0	-0.019405663
191	0x3e67322a	0.2257773
192	0xbd270f48	-0.040786058
193	0xbdd5a020	-0.10430932
194	0x3d9444e4	0.07239702
195	0xbc601de0	-0.013678998
196	0x3e19a49a	0.15004197
197	0x3e6cffe8	0.23144495
198	0x3e050c5e	0.12992999
199	0xbe16f9ac	-0.1474368
200	0xbdb7d9d8	-0.08977097
201	0x3e01e166	0.12683639
202	0xbd2b7af8	-0.04186532
203	0xbdc3e484	-0.0956507
204	0x3e2794ae	0.1636531
205	0xbe66efec	-0.2255246
206	0xbe7a6388	-0.2445203
207	0x3dc45878	0.095871866
208	0x3e71ad94	0.23601371
209	0x3d31bfe0	0.043395877
210	0xbe2cdd04	-0.16881186
211	0xbe38a6f8	-0.18032444
212	0xbb07e200	-0.0020734072
213	0x3e22fee2	0.15917543
214	0x3e2fecf2	0.17180231
215	0xbdcaae0c	-0.09896478
216	0xbdaa4dd8	-0.08315629
217	0x3ded6450	0.11591399
218	0x3e755db4	0.23961526
219	0x3dd86000	0.105651855
220	0xbe1f75b0	-0.15572238
221	0x3cb0cf40	0.0215832
222	0xbc9ffc40	-0.019529462
223	0x3c4843c0	0.012223184
224	0x3d47b290	0.048754275
225	0x3e5f5670	0.21810317
226	0x3e3d26ee	0.18471882
227	0xbe5f21e4	-0.21790272
228	0x3e61c4de	0.22047755
229	0x3db06870	0.0861367
230	0xbe7dd27a	-0.24787322
231	0x3e632db0	0.22185397
232	0x3dd4cf18	0.103910625
233	0xbe6ea848	-0.23306382
234	0xbdc33f54	-0.09533563
235	0x3dd709dc	0.104999274
236	0x3dfa151c	0.122110575
237	0xbe596396	-0.21229395
238	0xbde5a0d0	-0.11212313
239	0x3d909964	0.07060507
240	0x3e0cd1d4	0.13751918
241	0xbe77c7fc	-0.24197382
242	0x3e5cb20a	0.21552292
243	0xbcb21ed0	-0.021743208
244	0xbca32870	-0.019916743
245	0x3de7d900	0.11320686
246	0x3e455f80	0.19274712
247	0x3e56216e	0.2091119
248	0x3e03a2aa	0.1285502
249	0xbe626626	-0.22109279
250	0xbcb43690	-0.021998674
251	0xbdc84c88	-0.09780222
252	0x3e3b9f20	0.1832242
253	0x3e7e3d54	0.24828082
254	0xbe1db7d4	-0.15402156
255	0x3c7a73e0	0.015286416

foundation_model.up_path.0.up.bias f4 [8]
0	0xbdacc9f4	-0.08436957
1	0xbe190f18	-0.14947164
2	0x3de74010	0.11291516
3	0xbd5d27f8	-0.053993195
4	0x3e6ac7b2	0.2292774
5	0xbe50825e	-0.20362231
6	0x3da6bf00	0.08141899
7	0x3e128f82	0.14312556

foundation_model.up_path.0.conv_block.block.0.weight f4 [8, 16, 3]
0	0x3d8ba4e8	0.06818563
1	0x3e004104	0.12524801
2	0x3bdafb8e	0.0066828197
3	0xbc7bc582	-0.015366914
4	0x3ca96a1e	0.020680483
5	0x3d90a80c	0.070633024
6	0x3d7727ec	0.060340807
7	0xbcc6526a	-0.02420922
8	0x3d2012a9	0.039080296
9	0xbc3df48d	-0.01159395
10	0x3da5ce5c	0.080960006
11	0x3c9b57b5	0.01896272
12	0xbde55452	-0.111977234
13	0x3cef4345	0.029206881
14	0xbdc61645	-0.09672216
15	0xbd6c2535	-0.05765267
16	0x3dbfb162	0.09360005
17	0x3dd96d69	0.106165715
18	0x3e07ef4f	0.13274883
19	0xbdd1d5bc	-0.10245845
20	0xbe08bc2c	-0.13353032
21	0xbca2d67e	-0.019877668
22	0x3cfefdbf	0.031126855
23	0x3d8e82b8	0.069585264
24	0xbca50d7d	-0.020148033
25	0x3de5693e	0.11201714
26	0x3ddd6117	0.10809534
27	0x3d993ce2	0.074823156
28	0xbe13a463	-0.14418177
29	0xbdfe540d	-0.12418375
30	0xbd5037a5	-0.050834317
31	0xbdb3c492	-0.08777727
32	0x3daf6bbd	0.08565471
33	0x3d2cd96c	0.042199537
34	0xbdaee457	-0.08539646
35	0x3e066746	0.13125333
36	0x3e13b8bd	0.14425941
37	0xbe1257bd	-0.14291282
38	0x3ce44c31	0.027868362
39	0x3d49a96f	0.04923385
40	0x3de85da0	0.113459826
41	0xbe13998e	-0.14414045
42	0x3d74c56e	0.059758596
43	0xbcea116a	-0.028572757
44	0x3d7f9e12	0.062406607
45	0x3a1d1ffe	0.0005993842
46	0xbdf3a2da	-0.11896296
47	0x3d6000bd	0.054688204
48	0xbbf7b51f	-0.007559433
49	0xbdddacf5	-0.108240046
50	0x3d013c9b	0.03155194
51	0xbccbf38d	-0.024896407
52	0xbca6af0e	-0.020347144
53	0x3dbfc988	0.09364611
54	0xbd7ad616	-0.061239325
55	0x3c262630	0.010140941
56	0xbcf490d6	-0.02985422
57	0x3bd36d94	0.0064522717
58	0x3d650d19	0.055920694
59	0x3d108672	0.035284467
60	0xbc01a9ac	-0.007913988
61	0x3d5b36fd	0.053519238
62	0xbdcc7f09	-0.099851675
63	0x3d40c639	0.04706404
64	0x3c598954	0.0132773705
65	0xbd90eff0	-0.070770144
66	0x3c8f5fa3	0.017501658
67	0xbd9fcdbe	-0.07802914
68	0xbdc05b42	-0.09392406
69	0xbd975df4	-0.07390967
70	0x3d8aa4ea	0.06769736
71	0x3dd03531	0.101663955
72	0xbb0a6b73	-0.0021121174
73	0xbd2835d0	-0.041066945
74	0x3ced10ad	0.028938616
75	0xbe0be43a	-0.1366128
76	0xbc44c290	-0.012009278
77	0xbbc0d9f1	-0.0058853556
78	0xbd71058c	-0.05884318
79	0xbdfeda54	-0.124439865
80	0x3e1388a7	0.14407597
81	0xbdf5e8ad	-0.1200727
82	0x3b94e68a	0.004544084
83	0x3da8afe5	0.08236674
84	0xbdef4340	-0.11682749
85	0x3daef7d6	0.08543365
86	0xbdd11282	-0.10208608
87	0xbdd18ad2	-0.10231556
88	0x3da4c5b5	0.08045522
89	0xbde42acc	-0.11140975
90	0xbdbc79ee	-0.09202944
91	0xbde7e3f3	-0.11322775
92	0x3dff068f	0.12452423
93	0x3d9c0b8f	0.07619392
94	0x3c63947d	0.013890383
95	0xbc65872c	-0.014009278
96	0x3ddacf17	0.106840305
97	0x3dc993aa	0.09842618
98	0x3d4e20f7	0.050324406
99	0xbdb151ee	-0.08658205
100	0x3d90fe43	0.070797466
101	0xbdb0a6e1	-0.086255796
102	0xbda7e9c4	-0.08198884
103	0xbdad168d	-0.08451567
104	0xbdee468d	-0.1163455
105	0x3dea02d4	0.11426321
106	0xbb6661c6	-0.0035153492
107	0x3d9a4efe	0.07534598
108	0xbdef47b1	-0.11683596
109	0xbc7e5a6e	-0.01552449
110	0x3e04d718	0.12972677
111	0xbb77d7e8	-0.00378179
112	0xba76694a	-0.00093998446
113	0xbc79cea2	-0.015247019
114	0xbdc01f4c	-0.093809694
115	0x3d8ef60b	0.06980523
116	0xbdcd319c	-0.10019228
117	0x3d6e7bd0	0.058223546
118	0xbd119f2a	-0.03555218
119	0x3e10c4c8	0.14137566
120	0x3ddbd031	0.10733069
121	0xbdf7b227	-0.12094527
122	0xba83621e	-0.0010023748
123	0x3e0aba0c	0.13547534
124	0x3c68acde	0.014201371
125	0x3da29cfc	0.07940099
126	0x3d97ae32	0.07406272
127	0xbde78bc2	-0.113059536
128	0xbd027fde	-0.031860225
129	0x3e126dcc	0.14299697
130	0xbca74e55	-0.020423094
131	0x3df9ee0c	0.12203607
132	0x3d2f2d4d	0.04276781
133	0xbd993435	-0.07480661
134	0x3db3a447	0.08771568
135	0xbb8b708e	-0.004255361
136	0x3bbc449f	0.005745485
137	0xbd8380d1	-0.06421054
138	0x3ddc5295	0.10757939
139	0x3d704d1a	0.05866728
140	0xbd81147f	-0.063027374
141	0xbdcca6b8	-0.099927366
142	0x3d656603	0.05600549
143	0xbc40d111	-0.011768595
144	0xbd9dac48	-0.07698876
145	0xbdf4e800	-0.11958313
146	0x3da02764	0.07820013
147	0x3da2aabe	0.07942723
148	0x3cb4705a	0.02202623
149	0x3d95a734	0.07307282
150	0x3cf97b7f	0.030454395
151	0xbdfdf019	-0.123993106
152	0x3df463ec	0.11933121
153	0x3da57418	0.08078784
154	0xbdc40f75	-0.09573261
155	0x3e0789a3	0.13236098
156	0x3d2bfee5	0.041991133
157	0x3dfd278f	0.12361061
158	0x3d18266e	0.037146024
159	0x3c581ffb	0.0131912185
160	0x3db516e4	0.08842257
161	0xbd6bc600	-0.057561874
162	0xbca4a9f7	-0.020100577
163	0xbdbd31c7	-0.0923801
164	0x3d3c0055	0.045898754
165	0xbd9c2375	-0.076239504
166	0x3d957dc5	0.07299379
167	0xbd75843e	-0.05994057
168	0x3d0f91a1	0.035050992
169	0xbe0b52d6	-0.13605818
170	0x3d3d4967	0.04621258
171	0xbdf5104c	-0.11965999
172	0x3d5c61d6	0.05380424
173	0xbdd216a1	-0.10258222
174	0xbbb170c3	-0.0054150536
175	0xbdd5fae5	-0.10448245
176	0x3dd351a6	0.103183076
177	0x3d603e9b	0.054747205
178	0x3d7f0471	0.062260095
179	0xbe0695cd	-0.13143082
180	0x3e05b0ab	0.13055675
181	0x3c2b8943	0.010469737
182	0xbc5eda81	-0.0136019
183	0x3db0fcb5	0.0864195
184	0x3d5a27b9	0.05326054
185	0xbe136094	-0.1439231
186	0xbd9ba9ec	-0.076007694
187	0xbda0500b	-0.07827767
188	0x3cbcf656	0.02306668
189	0xbdf27266	-0.11838226
190	0xbdb27346	-0.08713393
191	0x3d84105e	0.06448434
192	0x3db77442	0.08957721
193	0xbdba0d85	-0.0908461
194	0x3df3b592	0.11899866
195	0x3dc3f154	0.09567514
196	0x3d8872b8	0.06662506
197	0xbdebfb33	-0.11522522
198	0x3d01faa9	0.03173319
199	0x3d2b7483	0.04185916
200	0x3d0475a4	0.032338753
201	0x3d97edae	0.07418381
202	0x3e12c650	0.14333463
203	0xbe0d1692	-0.13778141
204	0x3d92fce7	0.071771435
205	0xbaa44b64	-0.0012534675
206	0x3d807ceb	0.06273826
207	0x3d91344f	0.07090055
208	0xbd696b7b	-0.056987267
209	0x3d70912d	0.0587322
210	0x3cee7d46	0.02911247
211	0x3d7d3547	0.061818387
212	0xbdedaf81	-0.1160574
213	0x3d4e1775	0.05031534
214	0x3ca4bf8b	0.020110866
215	0x3cb29e11	0.021803888
216	0x3d730c71	0.059338037
217	0x3d6f2c1a	0.058391668
218	0xbd367289	-0.044542823
219	0xbdfd15cc	-0.12357673
220	0xbddcd04f	-0.10781919
221	0x3d91f9cc	0.07127723
222	0xbd55830c	-0.05212693
223	0xbc4ce5c9	-0.012505957
224	0xbda1246a	-0.078682736
225	0xbcbbcf47	-0.022925986
226	0x3dd7fd0f	0.10546314
227	0x3bc052fd	0.005869268
228	0x3dd5a662	0.10432126
229	0x3c6fd258	0.014637552
230	0x3df3e486	0.11908822
231	0x3dfc1664	0.12308958
232	0x3df7c20f	0.120975606
233	0x3d8cd20c	0.06876001
234	0xbcfac4e9	-0.030611472
235	0xbdcabd1c	-0.09899351
236	0xbc0ace77	-0.008472077
237	0x3d9d8589	0.076914854
238	0xbd47ae6e	-0.048750333
239	0xbe01129c	-0.12604755
240	0x3d2c692f	0.0420925
241	0x3dfe23ec	0.12409195
242	0x3bb41a78	0.0054963194
243	0xbd07d8d2	-0.03316576
244	0x3decf3bf	0.115699284
245	0x3e10944f	0.14119075
246	0xbd11b0c1	-0.035568956
247	0x3dba1242	0.09085514
248	0xbd0d3410	-0.03447348
249	0xbdaa8ff9	-0.08328242
250	0x3d4ae2a1	0.049532536
251	0xbdb84890	-0.08998215
252	0x3d2a559b	0.041585546
253	0x3aa6b11d	0.0012717579
254	0x3d56b231	0.05241603
255	0x3c202b45	0.009775941

foundation_model.up_path.0.conv_block.block.0.bias f4 [8]
0	0xbdbf972f	-0.09355008
1	0x3d5b4660	0.05353391
2	0x3dc229ef	0.094806544
3	0x3dfdcc5f	0.12392496
4	0xbc27d85b	-0.010244454
5	0x3dbbe7d0	0.09175074
6	0x3dd70afb	0.10500141
7	0xbda665b0	-0.08124864

foundation_model.up_path.0.conv_block.block.2.weight f4 [8, 8, 3]
0	0x3e085d2f	0.13316797
1	0xbe14d62a	-0.14534822
2	0x3df05a44	0.11735967
3	0x3e24011c	0.16016048
4	0xbdd12181	-0.102114685
5	0xbe0e756f	-0.13911985
6	0x3d9a4721	0.07533098
7	0x3e19d9cb	0.15024488
8	0xbd80ec94	-0.06295124
9	0xbd218aea	-0.03943912
10	0x3d171326	0.036883496
11	0x3e242653	0.16030245
12	0x3c387fc7	0.011260933
13	0xbe0faaed	-0.14030047
14	0xbe2118fd	-0.15732189
15	0xbe14b0eb	-0.14520614
16	0xbe4f6894	-0.20254737
17	0x3e11df24	0.14245278
18	0xbdb083ef	-0.08618914
19	0xbe0a0358	-0.13477838
20	0xbdce76e0	-0.10081267
21	0x3dcf4481	0.10120488
22	0xbdb83a6d	-0.08995519
23	0x3dcfd773	0.101485156
24	0x3e32174f	0.17391704
25	0x3e07aa57	0.13248573
26	0x3e3d6eba	0.1849927
27	0x3d872d69	0.06600458
28	0xbdba740f	-0.09104168
29	0x3c8184f5	0.01581047
30	0x3e4cc054	0.19995242
31	0x3d04c28b	0.032412093
32	0x3e226a7b	0.15860932
33	0x3d375bb4	0.04476519
34	0x3e1ab69e	0.15108725
35	0x3ce6cb13	0.028173005
36	0xbc4eab59	-0.012614095
37	0x3e14fe39	0.14550103
38	0x3de9f25f	0.11423182
39	0xbe01b9e5	-0.1266857
40	0x3e419d7a	0.18907729
41	0x3e3d135c	0.18464416
42	0x3da0d872	0.07853784
43	0x3de2d36a	0.1107548
44	0xbe4d60a4	-0.20056397
45	0xbd7ad26b	-0.061235826
46	0x3e253ad3	0.16135721
47	0xbe3e8fa5	-0.18609484
48	0xbdc82f69	-0.09774668
49	0x3da1fe4c	0.079098314
50	0x3e3d6ffb	0.18499748
51	0x3cf448da	0.029819895
52	0x3dba233d	0.090887524
53	0xbe11c1e0	-0.14234114
54	0xbb5d848c	-0.0033800928
55	0xbd6264b1	-0.055271808
56	0x3e220557	0.1582235
57	0x3c99cf72	0.018775675
58	0xbdbd7ea4	-0.092526704
59	0x3e482584	0.19545561
60	0xbd2295dc	-0.0396937
61	0x3e02c2ef	0.12769674
62	0xbe02c058	-0.12768686
63	0x3da34710	0.079725385
64	0x3c5a195d	0.013311711
65	0x3e47ec37	0.19523703
66	0x3e2d6e1d	0.16936536
67	0xbe193244	-0.14960581
68	0xbe3dc499	-0.18532027
69	0x3d85b14e	0.06527959
70	0xbe41aed7	-0.18914352
71	0x3d496eb6	0.049177848
72	0x3d8c50fd	0.06851385
73	0xbd9e2d0d	-0.077234365
74	0xbdd0706d	-0.101776935
75	0x3e084c4b	0.13310353
76	0xbe101234	-0.14069444
77	0xbd224f5c	-0.039626464
78	0x3d37ee23	0.04490484
79	0x3e1e3841	0.15451147
80	0xbe3f83a9	-0.18702568
81	0x3d44da60	0.04805982
82	0x3d073d99	0.03301773
83	0xbd233837	-0.039848533
84	0xbd99f325	-0.07517079
85	0xbdacfd2b	-0.084467255
86	0xbe359398	-0.17732084
87	0xbe042f7c	-0.12908739
88	0xbe4e3e3b	-0.20140927
89	0x3dd92e2a	0.10604508
90	0x3d8e5511	0.06949819
91	0xbe2cfa68	-0.16892397
92	0x3e4518a4	0.19247681
93	0xbe0b8868	-0.13626254
94	0x3db5351d	0.08848021
95	0xbba00616	-0.004883538
96	0xbe0eb352	-0.13935593
97	0x3e3e26a3	0.18569426
98	0x3db4b399	0.08823318
99	0xbc752718	-0.014962934
100	0xbdc74af8	-0.09731096
101	0x3d9b60a7	0.07586794
102	0xbdd9b810	-0.1063081
103	0xbdd13b60	-0.10216403
104	0x3d69671f	0.05698311
105	0xbe48ddb8	-0.19615829
106	0x3d21c29e	0.039492242
107	0xbd9b462e	-0.07581745
108	0xbd1937c8	-0.037406713
109	0x3dc80c74	0.09768
110	0x3e4f6413	0.20253019
111	0xbe3a2b3a	-0.18180552
112	0xbb2b3a70	-0.002612736
113	0xbd05aa88	-0.032633334
114	0xbd39e976	-0.04538866
115	0xbca6a2d6	-0.020341318
116	0xbce3baa0	-0.02779895
117	0x3dac7761	0.08421207
118	0xbb8ed2ec	-0.00435864
119	0xbe18f1e2	-0.14936021
120	0x3dae360a	0.08506401
121	0xbd91d822	-0.07121302
122	0xbe211079	-0.1572894
123	0xbdc0faa7	-0.09422808
124	0x3d9a1d6c	0.07525143
125	0x3e4e220e	0.20130178
126	0xbe0299b8	-0.12753952
127	0x3d80a226	0.06280927
128	0xbe0b3936	-0.13596043
129	0x3c955ff5	0.018234232
130	0x3d24b92b	0.040215652
131	0x3e29151d	0.1651196
132	0x3dd3a077	0.103333406
133	0xbdf6be73	-0.12048044
134	0xbdb7e63a	-0.08979459
135	0x3ddc16ab	0.10746511
136	0xbe0c3f29	-0.13695969
137	0x3e4df306	0.20112237
138	0xbc17c376	-0.00926291
139	0xbd857fa0	-0.06518483
140	0x3d838a1b	0.06422826
141	0x3cda582f	0.026653377
142	0xbe2fd279	-0.17170133
143	0x3e3d7a5c	0.18503708
144	0xbde4d705	-0.11173824
145	0xbdea1d1c	-0.114313334
146	0x3dd58e92	0.10427584
147	0x3d9863e4	0.074409276
148	0xbe220176	-0.1582087
149	0xbbedd0d8	-0.007257562
150	0xbd806b6b	-0.06270488
151	0xbe413ea8	-0.18871558
152	0xbdad7acb	-0.084706865
153	0x3d8c9c4d	0.068657495
154	0x3c6a7476	0.014309993
155	0x3d745ee6	0.059660815
156	0xbe312a61	-0.17301323
157	0xbe276df7	-0.16350542
158	0x3dc8e430	0.09809148
159	0xbc1e674e	-0.009668184
160	0xbd6babc7	-0.057536867
161	0xbd82a313	-0.0637876
162	0x3e1bd42d	0.15217657
163	0xbd6d4c09	-0.05793384
164	0x3cd63762	0.026149455
165	0xbe13d2ec	-0.14435929
166	0x3ddfc9c4	0.109271556
167	0xbdaf1049	-0.08548028
168	0xbce05648	-0.027384892
169	0xbd8434a7	-0.06455355
170	0x3d0d59ce	0.034509473
171	0x3d998835	0.074966826
172	0xbc85cbe1	-0.016332569
173	0xbe32aced	-0.17448778
174	0xbe3a11e4	-0.18170887
175	0x3d60972a	0.05483166
176	0x3dff4046	0.12463431
177	0x3e152c4d	0.1456768
178	0x3d9b115a	0.07571669
179	0xbda3cf82	-0.07998563
180	0x3e096113	0.13415937
181	0x3d0c4d41	0.034253363
182	0x3d97171a	0.07377453
183	0xbddccab1	-0.10780848
184	0xbd4c5888	-0.049889117
185	0xbe403eb7	-0.18773924
186	0x3d14aeda	0.036299564
187	0xbd8cedf3	-0.06881323
188	0xbbb6dd6d	-0.005580595
189	0xbe4b4c91	-0.19853427
190	0x3da54de6	0.080714986
191	0x3d53f3cc	0.051746175

foundation_model.up_path.0.conv_block.block.2.bias f4 [8]
0	0x3db67637	0.089092664
1	0xbd18c6f4	-0.03729911
2	0xbd169506	-0.036763214
3	0x3e312372	0.17298678
4	0xbe1a1845	-0.1504832
5	0x3cac6512	0.021044288
6	0x3cf03ed0	0.029326826
7	0x3d88ed56	0.06685893

foundation_model.up_path.1.up.weight f4 [8, 4, 2]
0	0xbe98c45d	-0.29837313
1	0x3e657f37	0.2241181
2	0xbe56096d	-0.20902033
3	0xbd0a10c7	-0.033707406
4	0xbdf1df16	-0.118101284
5	0x3eb114bd	0.34586135
6	0x3d4a9e4e	0.049467377
7	0xbdb4ee30	-0.08834493
8	0x3d93f6df	0.07224821
9	0xbd94195d	-0.072314
10	0x3e1647c5	0.14675815
11	0xbde8a943	-0.11360409
12	0x3e2ca914	0.16861373
13	0x3e67b793	0.22628622
14	0xbe051ed8	-0.13000047
15	0x3e077f4d	0.13232155
16	0xbe9c1fb5	-0.3049294
17	0xbd2a96df	-0.041647788
18	0x3e267162	0.1625419
19	0xbe9d7404	-0.30752575
20	0x3e6391a2	0.22223523
21	0xbea8c857	-0.32965347
22	0xbdfcda63	-0.123463415
23	0x3dc907d4	0.09815946
24	0x3eae8ffe	0.34094232
25	0x3e73a737	0.23794256
26	0x3d1e673f	0.038672682
27	0x3e06ce15	0.13164552
28	0xbe931a87	-0.28731176
29	0x3e942fd0	0.28942728
30	0x3e58db8a	0.21177498
31	0x3e476872	0.19473436
32	0x3e93cc8a	0.28866988
33	0xbe018199	-0.12647094
34	0x3d5fa4fa	0.054600693
35	0x3dc2d350	0.09512961
36	0x3eadba14	0.3393103
37	0xbea19f2d	-0.31566754
38	0x3e13a4e4	0.1441837
39	0xbe102c1d	-0.14079328
40	0xbe2258f4	-0.15854245
41	0xbd58ad85	-0.052899856
42	0xbea485c7	-0.32133314
43	0x3e8300bb	0.25586495
44	0x3e78ee98	0.24309766
45	0x3e938083	0.28808984
46	0x3e2ffc8e	0.17186186
47	0x3ea21b5f	0.31661507
48	0xbe3edd22	-0.18639043
49	0xbe25e998	-0.1620239
50	0xbe26773f	-0.16256426
51	0xbd5866e6	-0.052832507
52	0xbdad961a	-0.08475895
53	0x3d927ca8	0.071526825
54	0x3e943a3a	0.28950673
55	0x3d90031c	0.07031843
56	0xbeb29f08	-0.34886956
57	0x3dd463bd	0.10370586
58	0xbe76cf70	-0.24102569
59	0x3bab27df	0.005223259
60	0x3e79674d	0.24355812
61	0x3e822cd2	0.2542482
62	0x3e90df71	0.28295472
63	0xbeab497f	-0.3345451

foundation_model.up_path.1.up.bias f4 [4]
0	0xbe816d4b	-0.25278696
1	0x3dce7dfa	0.10082622
2	0x3dc9e976	0.09858982
3	0x3d7a8fb0	0.061172187

foundation_model.up_path.1.conv_block.block.0.weight f4 [4, 8, 3]
0	0xbe37fac4	-0.17966753
1	0x3dc7e08e	0.09759627
2	0xbd9e591e	-0.077318415
3	0xbd96ae25	-0.07357434
4	0xbd79e815	-0.061012346
5	0x3c85259f	0.01625329
6	0x3daf92dd	0.08572934
7	0x3e067d55	0.13133748
8	0xbdf26dfc	-0.11837384
9	0xbd5b644d	-0.05356245
10	0x3de632dc	0.112401694
11	0xbda9648e	-0.082711324
12	0x3e13ea15	0.14444764
13	0xbdd7ffdb	-0.105468474
14	0xbdc17210	-0.09445584
15	0x3d0d2438	0.03445837
16	0xbe4f47f1	-0.20242287
17	0x3e0f5713	0.1399806
18	0x3d8ad0e8	0.06778127
19	0x3e17f428	0.14839232
20	0xbe177f4d	-0.14794655
21	0xbe3f971c	-0.18709987
22	0x3e2c82fe	0.16846845
23	0xbe12dac2	-0.14341262
24	0xbdee51ee	-0.116367206
25	0xbe4983ed	-0.19679232
26	0x3e42108e	0.18951628
27	0x3e11349a	0.14180222
28	0x3e4cadf3	0.19988231
29	0xbe2eed8c	-0.17082804
30	0xbd98cee0	-0.07461333
31	0x3d7c86f0	0.061652124
32	0xbd8b5a68	-0.06804353
33	0xbe35aaa5	-0.17740877
34	0x3e3f502f	0.18682931
35	0x3e50422e	0.20337746
36	0xbdf7f694	-0.12107578
37	0xbdbb4ca3	-0.09145477
38	0xbd07e2d0	-0.03317529
39	0x3cb069a7	0.021534754
40	0x3d891a90	0.066945195
41	0xbb0472a8	-0.0020209942
42	0xbe15ec37	-0.1464089
43	0x3dee297c	0.11629006
44	0x3ddb94b8	0.10721725
45	0x3e1c5f22	0.15270665
46	0x3dbab9cf	0.091174714
47	0x3c5b977c	0.013402816
48	0x3d18b4c9	0.037281785
49	0x3e0eb9f3	0.13938121
50	0x3e0ecad7	0.13944565
51	0xbd89819e	-0.06714176
52	0x3dce2142	0.10064937
53	0xbdea3f84	-0.11437896
54	0x3d89dc05	0.067314185
55	0x3da8f5c5	0.08250002
56	0xbe0e6b73	-0.13908176
57	0xbe3f1862	-0.18661645
58	0x3dde4977	0.10853856
59	0xbe1c8624	-0.15285546
60	0xbe31d73d	-0.17367263
61	0xbe250524	-0.16115242
62	0xbda7a2b4	-0.0818533
63	0xbdc7335b	-0.09726592
64	0xbdb0d95f	-0.0863521
65	0x3e10b4d9	0.14131488
66	0xbdb6d134	-0.08926621
67	0xbc81f52d	-0.01586398
68	0xbe346b49	-0.17619051
69	0xbda566f7	-0.080762796
70	0x3e09164b	0.1338741
71	0xbd06721d	-0.03282367
72	0xbdbf56c4	-0.09342721
73	0x3e18600e	0.14880392
74	0x3e1f950a	0.15584198
75	0x3e1973a1	0.14985515
76	0xbd595456	-0.053058945
77	0xbdcd1099	-0.100129314
78	0xbd42fc65	-0.047603983
79	0xbd8d34ec	-0.0689486
80	0xbb5139c5	-0.0031925302
81	0x3dd963a5	0.10614709
82	0x3dec1acf	0.11528551
83	0xbd5c95bf	-0.053853747
84	0xbc76b4d4	-0.015057761
85	0x3e462a10	0.19351983
86	0xbe1304d8	-0.14357316
87	0x3e2260df	0.15857266
88	0xbd0555cb	-0.03255252
89	0x3e1f4967	0.15555345
90	0xbe1b4cfd	-0.15166087
91	0xbc8504cf	-0.016237644
92	0x3e140414	0.1445468
93	0x3ddbf9bc	0.107409924
94	0xbddc1404	-0.10746005
95	0x3d0b68b6	0.034035407

foundation_model.up_path.1.conv_block.block.0.bias f4 [4]
0	0xbcae0484	-0.021242388
1	0x3d72859c	0.05920945
2	0x3e2879e9	0.16452755
3	0x3e405159	0.18781032
