wandb/run-20230701_201345-lzeqtavd/files/checkpoints/best.pt (torch, 119813 bytes, 66 tensors)

foundation_model.down_path.0.block.0.weight f4 [4, 8, 3]
0.28455797 -0.010275039 0.22394574 0.17061703 0.03399114 0.10351787 0.2876004 0.0681124
0.010468487 0.046364646 0.1913916 -0.10016109 -0.0024054693 0.086259715 -0.10936721 0.17954108
0.2910297 0.14209267 -0.089612454 0.17667028 -0.067780286 0.13722388 0.058172416 -0.09067792
-0.11482475 -0.32917333 -0.2527872 -0.06431496 0.08446682 0.15965511 -0.30980998 -0.07344217
0.039616477 -0.06285886 0.2046487 -0.07121582 0.044372447 -0.14155294 -0.07807201 -0.11610524
-0.015600046 -0.1461135 -0.10356504 -0.022203514 -0.037788216 0.005352497 0.13996638 -0.14335182
0.201247 0.21543188 0.017671572 0.022437964 0.28506222 -0.025131676 -0.0017063853 0.0054458887
0.10309266 -0.07383177 -0.024703506 -0.12770611 -0.08604508 0.097434744 -0.013180748 0.3003248
0.11287238 0.09625261 -0.0018153669 0.11260546 0.04901892 0.105787106 -0.09445219 -0.05781505
-0.039467692 -0.0774467 0.26521704 0.123342805 -0.11432061 0.25463137 0.004235151 0.09616969
0.0783685 -0.12375853 0.07501468 0.011865371 0.08622051 -0.04394073 -0.083123215 0.21509029
0.09794029 0.037127074 0.12722455 -0.048844844 0.19066623 -0.088240564 0.049531348 -0.05894448
00000000: 95b1 913e a358 28bc 0852 653e 3bb6 2e3e
00000010: 4b3a 0b3d 2d01 d43d 5c40 933e 847e 8b3d
00000020: 0484 2b3c dbe8 3d3d 29fc 433e 4221 cdbd
00000030: 14a5 1dbb efa8 b03d eafb dfbd 9ed9 373e
00000040: d801 953e be80 113e bc86 b7bd 0ee9 343e
00000050: 64d0 8abd 6b84 0c3e 3346 6e3d 58b5 b9bd
00000060: 3d29 ebbd 6889 a8be 536d 81be 90b7 83bd
00000070: f1fc ac3d a17c 233e 6a9f 9ebe d968 96bd
00000080: e344 223d 25bc 80bd 6e8f 513e 9ad9 91bd
00000090: e2bf 353d 41f3 10be 38e4 9fbd 96c8 edbd
000000a0: 5697 7fbc c79e 15be e819 d4bd 25e4 b5bc
000000b0: d1c7 1abd 0064 af3b 5953 0f3e d2ca 12be
000000c0: b213 4e3e 2d9a 5c3e f9c3 903c d2cf b73c
000000d0: adf3 913e f2e0 cdbc caa8 dfba 6d73 b23b
000000e0: 3f22 d33d 1c35 97bd 025f cabc 64c5 02be
000000f0: 6738 b0bd de8b c73d 10f4 57bc 2cc4 993e
00000100: a229 e73d 1720 c53d 9bf1 edba b19d e63d
00000110: 10c8 483d e9a6 d83d 2670 c1bd 79cf 6cbd
00000120: e0a8 21bd 609c 9ebd 87ca 873e 279b fc3d
00000130: ed20 eabd 0b5f 823e 06c7 8a3b 9df4 c43d
00000140: aa7f a03d 1d75 fdbd 4ca1 993d f966 423c
00000150: 6194 b03d 32fb 33bd 813c aabd a140 5c3e
00000160: eb94 c83d 8f12 183d 2747 023e 8811 48bd
00000170: 023e 433e 78b7 b4bd 62e1 4a3d c46f 71bd

foundation_model.down_path.0.block.0.bias f4 [4]
-0.012834038 -0.02981456 0.11211512 0.067051895
00000000: db45 52bc aa3d f4bc 9d9c e53d 8152 893d

foundation_model.down_path.0.block.2.weight f4 [4, 4, 3]
0.39393544 0.20780052 0.25235313 -0.2585178 -0.17450227 0.10704619 0.10756723 0.017845446
0.044843897 0.19429359 -0.079972476 -0.14164971 0.2942372 -0.03496828 0.17724675 -0.19692433
-0.20086403 -0.17486775 -0.15324445 0.301497 0.0013287375 0.27921176 0.28650352 0.28022856
-0.05046439 0.10245275 -0.13858205 0.1213678 -0.18690756 -0.37048522 0.2811246 0.21683314
0.24275167 0.09772649 0.3237393 -0.1546109 0.33423316 0.07954382 0.05540655 -0.21016371
0.031689074 -0.34368095 -0.0777741 0.15168872 0.10983772 0.19149786 -0.1382441 0.21721308
00000000: e8b1 c93e a9c9 543e 6e34 813e 725c 84be
00000010: b9b0 32be 083b db3d 354c dc3d 9d30 923c
00000020: 3cae 373d e6f4 463e 9cc8 a3bd 9f0c 11be
00000030: 42a6 963e e63a 0fbd 2c80 353e 88a6 49be
00000040: 4daf 4dbe 8810 33be 1dec 1cbe d15d 9a3e
00000050: 0829 ae3a d8f4 8e3e 97b0 923e 1e7a 8f3e
00000060: c0b3 4ebd bfd2 d13d 74e8 0dbe ae8f f83d
00000070: b264 3fbe 3db0 bdbe 90ef 8f3e 8209 5e3e
00000080: e593 783e d324 c83d 28c1 a53e 5252 1ebe
00000090: 9c20 ab3e dfe7 a23d fbf1 623d 2835 57be
000000a0: 67cc 013d f3f6 afbe 0748 9fbd 4a54 1b3e
000000b0: 99f2 e03d 0418 443e dd8f 0dbe 1b6d 5e3e

foundation_model.down_path.0.block.2.bias f4 [4]
-0.15072766 -0.17382301 -0.10821162 0.09884966
00000000: 5a58 1abe a9fe 31be 0e9e ddbd b171 ca3d

foundation_model.down_path.1.block.0.weight f4 [8, 4, 3]
-0.008908184 -0.031680826 -0.07694808 -0.07594716 0.18686531 0.2657551 0.2724665 0.00048268627
0.32475874 0.0027010448 0.0424472 0.24912366 0.11061172 0.118157566 -0.07342089 -0.008078577
0.2819185 -0.086072795 0.20176141 -0.1541381 0.1806723 0.21418858 0.2553902 0.22604868
0.28170064 0.21384889 0.22595148 0.1238842 -0.004414822 0.26427853 0.25919756 0.30491945
-0.035869595 -0.10959385 0.22340538 0.21646623 -0.16709325 0.27892613 0.2618999 0.37754756
-0.16866365 0.1794385 -0.0048814625 0.29558757 0.2962755 0.059292737 0.26984152 0.30525452
-0.16950028 0.20027561 0.3025114 0.1335882 -0.049616855 0.1633416 0.2815246 0.0037862097
0.32753557 0.3277688 0.29190755 0.17069101 0.34105107 0.21093872 0.36909527 -0.108781956
-0.12988617 0.18340409 0.055078622 0.34028098 -0.077223375 -0.0014940732 0.22242163 -0.22516407
0.23541918 0.051361233 0.1828982 0.28943616 0.14564914 -0.11545435 0.14921306 -0.12917282
0.121295065 -0.11457866 -0.019887932 0.261966 -0.35840437 0.0067221634 -0.22597782 -0.33051315
-0.048688248 -0.30056396 0.042458672 -0.33338627 -0.2816065 -0.16562833 0.06738176 0.05513593
00000000: a2f3 11bc c1c3 01bd f496 9dbd 2f8a 9bbd
00000010: 9f59 3f3e 0d11 883e bb80 8b3e 0e11 fd39
00000020: c746 a63e 0304 313b 1ddd 2d3d 461a 7f3e
00000030: 6688 e23d 98fc f13d b15d 96bd 025c 04bc
00000040: 9f57 903e ef46 b0bd 8b9a 4e3e 61d6 1dbe
00000050: 2902 393e 4054 5b3e 81c2 823e 4e79 673e
00000060: 113b 903e 34fb 5a3e d35f 673e 00b7 fd3d
00000070: 36aa 90bb 844f 873e 8bb5 843e 671e 9c3e
00000080: ffeb 12bd be72 e0bd 61c4 643e 53a9 5d3e
00000090: 7e1a 2bbe 68cf 8e3e be17 863e ea4d c13e
000000a0: 2ab6 2cbe babe 373e adf4 9fbb 4157 973e
000000b0: 6cb1 973e f1dc 723d ab28 8a3e 524a 9c3e
000000c0: 7b91 2dbe 0d15 4d3e c6e2 9a3e 58cb 083e
000000d0: 0b3b 4bbd 0543 273e fe23 903e 0f22 783b
000000e0: beb2 a73e 50d1 a73e e874 953e a0c9 2e3e
000000f0: 3f9e ae3e 5200 583e 0efa bc3e 13c9 debd
00000100: e100 05be 48ce 3b3e 1f9a 613d 4f39 ae3e
00000110: 4a27 9ebd c7d4 c3ba 7fc2 633e 6991 66be
00000120: ba11 713e 2860 523d aa49 3b3e fa30 943e
00000130: 0c25 153e 5573 ecbd 4fcb 183e e145 04be
00000140: 8c69 f83d 37a8 eabd 04ec a2bc 6820 863e
00000150: c780 b7be 9845 dc3b bb66 67be 0539 a9be
00000160: 546d 47bd 85e3 99be 25e9 2d3d 9bb1 aabe
00000170: ba2e 90be 799a 29be 73ff 893d 37d6 613d

foundation_model.down_path.1.block.0.bias f4 [8]
0.15954767 0.06412308 -0.19597228 0.02914142 -0.074082695 0.14464507 -0.23745322 0.15343451
00000000: 7760 233e f652 833d f5ac 48be fdb9 ee3c
00000010: abb8 97bd d61d 143e f026 73be f01d 1d3e

foundation_model.down_path.1.block.2.weight f4 [8, 8, 3]
0.074528754 -0.20397624 -0.18889421 -0.035345893 0.14477938 -0.1713778 -0.124995016 -0.12348265
-0.2741705 -0.19568235 0.11270586 -0.122896746 -0.18288217 0.13635944 -0.09568807 -0.06750268
-0.2320204 -0.068444006 -0.10543168 0.120345004 -0.272264 0.21378574 0.2861088 0.037450705
0.066541955 0.09170994 0.20164938 0.096684024 0.2055371 0.22682846 0.2816976 -0.010506581
-0.051481873 0.23964012 -0.009009294 -0.002400574 0.105803296 0.122287415 -0.08470371 0.03193244
0.26933482 0.026154863 0.18079354 -0.014174802 0.17949106 -0.13265486 -0.2961956 -0.25170252
0.04598027 0.01865628 0.04852861 -0.06320956 0.18196052 0.019231403 0.13226822 0.11011002
0.12218202 0.027569693 -0.033563618 0.1606007 -0.042529587 0.05117297 0.07868513 0.17514627
-0.027316421 0.061872877 0.12086122 0.21558253 0.21545465 -0.12918095 -0.11019078 -0.0009175989
-0.14102142 0.076733224 -0.075821176 0.08107494 0.1940884 -0.016088914 0.13133122 0.03834145
0.27698243 0.08504253 0.058584157 0.16989957 0.05209511 0.1378336 0.27815124 0.07827901
0.12135436 0.12097415 0.23707896 0.022527343 0.16417731 -0.13767003 -0.14537382 -0.039331093
-0.22210827 -0.009565364 -0.20616356 -0.16186064 -0.076650366 -0.08710267 -0.0011236373 0.03563295
-0.27754304 0.04628785 -0.09847223 0.059454262 -0.11557041 -0.14467244 0.06520373 -0.025536131
-0.08272405 -0.13412885 -0.024618505 -0.25250053 -0.19097236 -0.0168694 0.19991082 -0.06416382
0.14237987 -0.106543556 0.0136973495 0.15535782 0.24845159 0.008943506 0.101615846 0.24174398
0.112122275 0.20672788 0.19816798 0.23142028 -0.06286846 -0.1120788 0.16956799 0.11248381
0.045333847 -0.083582856 0.20884997 0.24752161 0.13119471 -0.1410339 -0.1738876 -0.2358575
0.17898251 0.14497162 0.038163975 0.038413644 -0.06651217 -0.0073493663 0.123039335 0.13911875
0.22085342 -0.09054653 0.029301908 0.28885362 0.06194675 0.057868402 0.011727847 0.09712621
0.15457909 -0.0527313 0.044889435 -0.105514 0.008376366 -0.20478903 0.04652059 -0.123586334
0.1292284 -0.07534669 0.21017738 -0.06728276 -0.14335641 0.063061185 0.19554633 0.05850632
0.18535435 0.30082121 0.16183284 -0.007473518 0.02246301 0.0092620645 0.1438584 0.10511776
-0.1155434 0.10084036 0.22875766 0.007500462 -0.0024317566 -0.057333805 -0.19506733 -0.29426792
00000000: 88a2 983d 26df 50be 7c6d 41be dbc6 10bd
00000010: 0c41 143e a97d 2fbe 63fd ffbd 79e4 fcbd
00000020: 1360 8cbe f460 48be 54d2 e63d 4ab1 fbbd
00000030: 7745 3bbe cfa1 0b3e 1bf8 c3bd d83e 8abd
00000040: c196 6dbe 5f2c 8cbd 91ec d7bd 7177 f63d
00000050: 3066 8bbe a6ea 5a3e da7c 923e e965 193d
00000060: 2647 883d 6cd2 bb3d 2d7d 4e3e 4602 c63d
00000070: 5178 523e b845 683e ab3a 903e cb23 2cbc
00000080: a8de 52bd 3864 753e b89b 13bc f352 1dbb
00000090: 66af d83d d371 fa3d 2479 adbd 97cb 023d
000000a0: 41e6 893e b942 d63c f121 393e 6e3d 68bc
000000b0: 81cc 373e add6 07be f3a6 97be 27df 80be
000000c0: cf55 3c3d 0ed5 983c f0c5 463d 0474 81bd
000000d0: dc53 3a3e 2d8b 9d3c 5271 073e 5d81 e13d
000000e0: 913a fa3d d6d9 e13c 017a 09bd 8374 243e
000000f0: 8133 2ebd c09a 513d ab25 a13d 8b59 333e
00000100: b0c6 dfbc 6a6e 7d3d 1686 f73d abc1 5c3e
00000110: 25a0 5c3e 0348 04be b4ab e1bd 058b 70ba
00000120: eb67 10be 4f26 9d3d 2248 9bbd 9e0a a63d
00000130: 1cbf 463e e6cc 83bc b17b 063e ed0b 1d3d
00000140: a4d0 8d3e c72a ae3d f1f5 6f3d 27fa 2d3e
00000150: af61 553d 4024 0d3e d769 8e3e bf50 a03d
00000160: a288 f83d 4cc1 f73d d4c4 723e 438b b83c
00000170: 191e 283e 5ff9 0cbe e0dc 14be a419 21bd
00000180: 5a70 63be 0bb8 1cbc 8a1c 53be ccbe 25be
00000190: defa 9cbd e262 b2bd 0347 93ba dbf3 113d
000001a0: 1f1a 8ebe 5498 3d3d cfab c9bd 5086 733d
000001b0: 2eb0 ecbd 0325 14be 8889 853d 2631 d1bc
000001c0: 3a6b a9bd 1359 09be bfac c9bc c047 81be
000001d0: 428e 43be b231 8abc 6cb5 4c3e 5268 83bd
000001e0: 07cc 113e 8233 dabd d96a 603c 1f16 1f3e
000001f0: 186a 7e3e c887 123c f81b d03d bc8b 773e
00000200: 5da0 e53d 79b0 533e 8cec 4a3e 70f9 6c3e
00000210: 2ec1 80bd 9289 e5bd 3ba3 2d3e e95d e63d
00000220: fcaf 393d 7d2d abbd c4dc 553e 4e76 7d3e
00000230: e857 063e 316b 10be 970f 32be a184 71be
00000240: 3147 373e 7173 143e d451 1c3d a057 1d3d
00000250: 8837 88bd f4d2 f0bb 0cfc fb3d 2575 0e3e
00000260: 6627 623e 7670 b9bd 8e0a f03c 9fe4 933e
00000270: e0bb 7d3d 6b07 6d3d 2826 403c 1bea c63d
00000280: fb49 1e3e c7fc 57bd fcdd 373d b917 d8bd
00000290: 073d 093c 37b4 51be 608c 3e3d d51a fdbd
000002a0: 7354 043e 5e4f 9abd bd38 573e 8bcb 89bd
000002b0: 06cc 12be 3926 813d 4c3d 483e 53a4 6f3d
000002c0: 88cd 3d3e 3d05 9a3e 82b7 253e 6ae4 f4bb
000002d0: 5904 b83c eabf 173c 9e4f 133e fb47 d73d
000002e0: 05a2 ecbd 6485 ce3d 733f 6a3e 6fc6 f53b
000002f0: 1b5e 1fbb dad6 6abd bbbf 47be 49aa 96be

foundation_model.down_path.1.block.2.bias f4 [8]
0.12615566 -0.14460485 0.009071108 0.094498836 0.14700991 0.04513579 -0.0736891 0.069747545
00000000: f32e 013e 4b13 14be fc9e 143c 9b88 c13d
00000010: c489 163e 4ee0 383d 50ea 96bd cdd7 8e3d

foundation_model.down_path.2.block.0.weight f4 [16, 8, 3]
0.07667625 -0.046747517 0.09360267 -0.07093638 -0.0018528268 -0.19883989 -0.15787043 -0.05391836
-0.008699145 -0.2639997 0.10806937 0.06989801 0.032614876 0.059663646 0.10901193 0.02609628
-0.17782252 -0.18601204 0.111173734 -0.12908404 -0.16715366 -0.09222219 -0.0388285 0.02431723
-0.028946977 0.030835746 -0.07718874 0.17506184 0.031166881 0.24357207 0.028059017 0.23078789
0.0025009108 0.24352977 0.046921324 0.049492836 -0.13899627 -0.0050515546 -0.18553102 -0.0121701155
0.004349513 0.28225446 0.21447995 -0.0005916038 -0.012660789 0.115803145 -0.011272088 0.2104591
0.06399525 0.009408122 0.18173839 0.04198602 -0.19464195 0.049357843 -0.11823337 -0.038302116
0.091916405 0.115807876 -0.21559207 -0.20841065 0.083818085 0.2102033 -0.08487868 0.0013682619
0.020687565 -0.21648884 -0.2690986 -0.22003216 0.106570736 -0.07547182 -0.19505906 -0.040995963
0.3152425 0.26615527 0.1534886 -0.10956734 -0.08924439 -0.16081019 -0.13430175 -0.09704485
0.052000046 -0.21598202 0.0219831 -0.12109101 0.24075085 -0.08468798 0.15434958 0.032521635
-0.02055727 -0.02140958 -0.14760259 -0.13286152 0.029161595 -0.1754473 0.025240997 -0.18329734
0.23659605 0.2547078 0.07284976 0.08555038 -0.24656725 -0.019143509 -0.1988603 0.03189197
-0.28114763 -0.112963036 0.05426591 0.10267084 0.029020099 0.1762356 0.2226736 -0.19353719
-0.12689558 0.014131729 0.003103736 -0.00071611337 0.025853993 -0.04416116 -0.1780285 -0.18315181
0.22893833 0.14634259 0.046410207 -0.2122688 -0.23168728 -0.04671594 -0.18104967 -0.17661491
0.036024448 -0.22804081 -0.04809921 -0.005782279 -0.000926292 0.10356826 0.07782637 -0.15249608
0.039187293 -0.19710264 0.044881508 -0.18281128 -0.12311611 -0.21949022 -0.05763945 -0.2154128
0.13508426 0.1652734 0.11417595 -0.20642044 -0.14380413 -0.22532691 0.019311728 -0.2398895
0.09735812 0.12281862 -0.107734606 -0.21632662 0.036961004 0.040480297 -0.07128409 0.005561874
-0.26544756 0.081743576 0.049570855 -0.10903416 0.012676999 -0.006470035 0.05951335 0.020630604
0.07675194 -0.32779235 -0.27697244 -0.052555896 -0.0019185806 -0.032469876 0.24492429 -0.13486823
0.038084675 0.21302891 0.12734844 0.091934465 -0.20057574 0.07600012 -0.076975085 0.18082637
-0.10556955 0.24634299 -0.122848466 0.025223326 0.25894403 0.12093826 0.24680778 0.17492048
-0.048877362 -0.31259862 -0.011774475 0.24761052 0.2501413 -0.024255585 0.12669234 0.25273833
0.14371796 0.17060049 -0.14332695 0.25188482 0.013430956 -0.25510535 -0.21723925 -0.09280145
0.14205688 0.1319201 -0.048650626 0.0722601 0.19598328 0.20361632 0.16855027 0.07072651
-0.060705543 0.06823747 -0.26991174 -0.035402715 0.23693934 -0.03331702 0.18827634 -0.014822387
0.19900294 0.07396796 0.19380857 0.2602713 -0.14315139 0.04559046 -0.1434045 0.03897728
0.09090028 0.21592912 0.111648485 0.01900107 0.11046516 -0.008775896 0.11173231 0.057075888
0.017851915 -0.020198833 0.03558223 0.09007867 -0.28766206 -0.2601761 -0.22695713 -0.24284953
-0.16092049 -0.009029341 -0.2467078 -0.13402715 -0.023708321 0.04725427 0.26689643 -0.033383887
00000000: 7008 9d3d 537a 3fbd c2b2 bf3d 1847 91bd
00000010: 8dda f2ba af9c 4bbe c9a8 21be 80d9 5cbd
00000020: dc86 0ebc f82a 87be 7953 dd3d b026 8f3d
00000030: 2d97 053d de61 743d a641 df3d dec7 d53c
00000040: 1b17 36be f179 3ebe 0eaf e33d 9b2e 04be
00000050: 542a 2bbe fdde bcbd a20a 1fbd ed34 c73c
00000060: 3622 edbc 3f9b fc3c 2115 9ebd 6943 333e
00000070: b051 ff3c f56a 793e 06dc e53c a953 6c3e
00000080: 52e6 233b de5f 793e 9330 403d 00b9 4a3d
00000090: 0a55 0ebe 8387 a5bb d8fb 3dbe 2a65 47bc
000000a0: 5c86 8e3b a883 903e a2a0 5b3e dc15 1bba
000000b0: 336f 4fbc 332a ed3d 90ae 38bc 9782 573e
000000c0: f10f 833d 8624 1a3c a119 3a3e 88f9 2b3d
000000d0: 3850 47be 732b 4a3d 5624 f2bd aee2 1cbd
000000e0: ab3e bc3d ae2c ed3d 2bc4 5cbe 9a69 55be
000000f0: d1a8 ab3d 893f 573e e0d4 adbd 4057 b33a
00000100: f878 a93c 40af 5dbe 4bc7 89be 1c50 61be
00000110: c241 da3d f890 9abd 90bd 47be 62eb 27bd
00000120: 7767 a13e 8145 883e 1e2c 1d3e d764 e0bd
00000130: c3c5 b6bd 6dab 24be 6686 09be 73bf c6bd
00000140: 00fe 543d 642a 5dbe e715 b43c 90fe f7bd
00000150: 6487 763e e470 adbd d10d 1e3e 6835 053d
00000160: b867 a8bc 2563 afbc 2225 17be da0c 08be
00000170: 4ce4 ee3c 75a8 33be 35c6 ce3c 4cb2 3bbe
00000180: 3c46 723e 1069 823e 4132 953d 0a35 af3d
00000190: 207c 7cbe d9d2 9cbc 09a2 4bbe 28a1 023d
000001a0: 95f2 8fbe 2a59 e7bd ee45 5e3d 1745 d23d
000001b0: 8fbb ed3c 1b77 343e 8c04 643e 9d2e 46be
000001c0: eaf0 01be c488 673c 0d68 4b3b 8eb9 3bba
000001d0: c1cb d33c 55e2 34bd 1a4d 36be 268c 3bbe
000001e0: cf6e 6a3e d5da 153e a118 3e3d fe5c 59be
000001f0: 6e3f 6dbe 3759 3fbd 1665 39be 8ada 34be
00000200: 5f8e 133d 8883 69be ad03 45bd 4679 bdbb
00000210: 67d2 72ba 991b d43d 6f63 9f3d ef27 1cbe
00000220: db82 203d 46d5 49be acd5 373d e132 3bbe
00000230: 4d24 fcbd 0bc2 60be 5817 6cbd 2c95 5cbe
00000240: 8753 0a3e 6e3d 293e 15d5 e93d e15f 53be
00000250: 6441 13be 19bc 66be a133 9e3c 98a5 75be
00000260: b263 c73d 5488 fb3d f6a3 dcbd ba84 5dbe
00000270: 6c64 173d abce 253d 65fd 91bd 6140 b63b
00000280: bee8 87be 2d69 a73d cf0a 4b3d 4d4d dfbd
00000290: 30b3 4f3c 9602 d4bb 45c4 733d 8301 a93c
000002a0: 1f30 9d3d 66d4 a7be 55cf 8dbe da44 57bd
000002b0: e278 fbba 22ff 04bd 6fcd 7a3e e61a 0abe
000002c0: adfe 1b3d 4024 5a3e a167 023e 2348 bc3d
000002d0: ba63 4dbe f3a5 9b3d 1da5 9dbd 8c2a 393e
000002e0: d934 d8bd 5641 7c3e fa97 fbbd 26a1 ce3c
000002f0: 5094 843e 7aae f73d 2ebb 7c3e 5b1e 333e
00000300: a133 48bd ed0c a0be bae9 40bc 9d8d 7d3e
00000310: 8512 803e a6b3 c6bc a3bb 013e eb66 813e
00000320: cd2a 133e e5b1 2e3e 4dc4 12be 0cf7 803e
00000330: 830d 5c3c 2b9d 82be f773 5ebe b00e bebd
00000340: 5c77 113e 1016 073e e145 47bd 1afd 933d
00000350: d7af 483e cc80 503e 7198 2c3e 0fd9 903d
00000360: 60a6 78bd 16c0 8b3d df31 8abe 7002 11bd
00000370: 3aa0 723e 6d77 08bd 83cb 403e 99d9 72bc
00000380: 6dc7 4b3e 847c 973d c175 463e 4842 853e
00000390: 4796 12be 10bd 3a3d a1d8 12be a4a6 1f3d
000003a0: ed29 ba3d 861c 5d3e f6a7 e43d 22a8 9b3c
000003b0: 8f3b e23d c7c8 0fbc e9d3 e43d 68c8 693d
000003c0: 2e3e 923c 0678 a5bc acbe 113d 2a7b b83d
000003d0: 7148 93be cd35 85be 7367 68be 8cad 78be
000003e0: 57c8 24be cdef 13bc f8a0 7cbe 6a3e 09be
000003f0: f437 c2bc b28d 413d a6a6 883e 8bbd 08bd

foundation_model.down_path.2.block.0.bias f4 [16]
0.17842773 -0.18823369 0.09599586 0.17996001 0.106461674 0.095431544 0.055501506 -0.04904999
0.0062165456 -0.02048502 0.08754412 -0.062866785 0.02120859 -0.14814813 0.12673381 0.20312889
00000000: c2b5 363e 55c0 40be 7a99 c43d 7047 383e
00000010: 9408 da3d 9d71 c33d 8c55 633d a4e8 48bd
00000020: 2ab4 cb3b 33d0 a7bc 554a b33d 4dc0 80bd
00000030: a3bd ad3c 25b4 17be 82c6 013e 0501 503e

foundation_model.down_path.2.block.2.weight f4 [16, 16, 3]
0.09555535 0.11455331 0.111310676 -0.10511054 -0.12159856 -0.19355729 0.03801479 0.0142922
0.20000504 0.06125407 0.08046914 0.052610952 0.20600085 0.21604437 0.23979793 0.15079616
0.015407322 0.15491575 0.1902355 0.1497762 0.19696786 -0.22233029 -0.05727407 -0.16408089
-0.063466765 -0.03639862 -0.244513 -0.1758621 -0.077618666 -0.2737005 0.053135905 0.10167019
0.17264877 0.17150657 0.13269609 0.121255085 -0.066468254 -0.1220517 -0.23538545 -0.21603514
-0.1550547 -0.15813181 0.19157828 0.19435781 0.027700152 0.09426195 -0.049322277 0.034243703
0.17303616 0.05893037 -0.03757276 0.003367303 -0.13568245 0.0019543702 0.2044594 0.2436077
0.17318144 0.07600548 0.024314454 -0.043246213 0.003789443 0.0975478 0.25169745 0.108318806
0.2645072 0.07021369 0.05471424 0.14854957 0.14291424 -0.072377644 -0.23341043 -0.1631027
-0.07073184 -0.18542275 -0.22571294 -0.042869005 -0.19142754 -0.23179772 0.1319145 0.044178985
0.19499214 0.06879617 0.21283698 0.045586098 -0.09732573 -0.14628157 -0.22268152 -0.15479751
-0.024497423 -0.05417152 0.0024973727 0.14677335 0.06958396 0.20644797 0.20809817 0.18646051
0.1783974 -0.03769849 -0.062960505 -0.14920743 -0.096317224 -0.22172503 0.15415528 0.08566402
0.2550726 0.19195916 0.19875622 0.06027312 0.22452484 0.027976232 0.05029797 0.14953807
0.08344719 0.06586841 0.12071634 0.1811225 0.09251808 -0.17338772 -0.021104427 -0.021507733
-0.1363628 -0.14229748 -0.22839816 -0.21781217 -0.18816353 -0.074066095 0.2486417 0.15748984
0.23552997 0.19411126 0.044842146 0.037548885 -0.22518176 -0.16350642 -0.15329577 -0.044134792
-0.0363578 -0.030066565 0.10592525 0.05577911 0.15228203 -0.0131994 0.19158864 0.09252046
-0.16036947 -0.0041958033 -0.21951757 0.004315119 -0.08606703 -0.07491214 -0.13110462 -0.061337944
-0.001265218 0.0035681336 -0.23525746 -0.019112881 -0.11731937 -0.052549057 -0.15933216 0.009434122
-0.22913344 -0.16924751 -0.17451116 -0.2325208 0.016411653 0.03649859 0.062948346 0.02120953
0.07600225 0.06688947 0.063228875 -0.015927514 0.12046915 0.12646338 0.0011604138 0.0149614485
-0.19323108 -0.0422323 -0.18907623 0.052926682 0.18483406 -0.030892728 0.06666147 0.0037029868
0.15632407 0.16382739 -0.22107928 -0.20010658 0.028586712 0.0442128 -0.21684173 0.016624307
0.05004592 0.21454774 -0.018094666 -0.2010417 -0.15791458 -0.15913002 -0.0042694304 0.074788846
-0.005477591 -0.019847605 0.21533091 -0.027239481 0.11472329 0.09228542 0.10207127 0.062215835
0.09596617 0.036552653 0.015552712 0.022444325 0.072861105 -0.19119555 -0.17882615 -0.17744617
-0.2863686 -0.09414508 -0.0852495 -0.2682199 -0.061818037 -0.100550756 0.13418017 0.026608834
0.21803503 0.11158442 0.0784026 0.24050827 -0.014908088 -0.26469198 -0.11765164 -0.071166344
-0.058657087 -0.20831779 0.13734294 0.00934964 0.19039555 0.106140025 -0.029386578 0.1472418
-0.11341539 -0.09546762 -0.14574756 0.07565784 0.120317675 -0.085856296 -0.032945618 -0.19834605
-0.069238245 -0.12600115 -0.12907483 -0.1943368 -0.17818679 -0.2254814 -0.09673362 -0.31898388
00000000: 86b2 c33d ed9a ea3d daf6 e33d 3244 d7bd
00000010: aa08 f9bd e233 46be 65b5 1b3d d529 6a3c
00000020: 1fce 4c3e 8ce5 7a3d 01cd a43d 957e 573d
00000030: e3f1 523e bc3a 5d3e 978d 753e 4f6a 1a3e
00000040: fe6e 7c3c 3ca2 1e3e 18cd 423e ef5e 193e
00000050: f1b1 493e 8daa 63be 3798 6abd d204 28be
00000060: ddfa 81bd b816 15bd 9e61 7abe 3215 34be
00000070: 89f6 9ebd 7922 8cbe 09a5 593d 7638 d03d
00000080: d7ca 303e 6b9f 2f3e 7ce1 073e 9654 f83d
00000090: 8220 88bd 3ef6 f9bd e208 71be 5138 5dbe
000000a0: a9c6 1ebe 4eed 21be 192d 443e bc05 473e
000000b0: 6eeb e23c 690c c13d 2806 4abd 2043 0c3d
000000c0: 6430 313e f960 713d e5e5 19bd f8ad 5c3b
000000d0: 57f0 0abe e414 003b ce5d 513e 4c74 793e
000000e0: 7a56 313e c3a8 9b3d 1b2f c73c f122 31bd
000000f0: 4e58 783b 24c7 c73d 7dde 803e 40d6 dd3d
00000100: 7d6d 873e 32cc 8f3d 0a1c 603d 611d 183e
00000110: 1c58 123e bb3a 94bd 2503 6fbe 6504 27be
00000120: dbdb 90bd 76df 3dbe 4b21 67be 6997 2fbd
00000130: 9505 44be 625c 6dbe 9814 073e 06f5 343d
00000140: 05ac 473e 02e5 8c3d f0f1 593e 7db8 3a3d
00000150: b652 c7bd d6ca 15be a006 64be 3d83 1ebe
00000160: d2ae c8bc f5e2 5dbd f6aa 233b c14b 163e
00000170: 0982 8e3d 1967 533e b017 553e 81ef 3e3e
00000180: cfad 363e bb69 1abd 70f1 80bd d5c9 18be
00000190: f741 c5bd e30b 63be e2da 1d3e 9e70 af3d
000001a0: e098 823e f190 443e c086 4b3e f2e0 763d
000001b0: d7e9 653e 692e e53c 3f05 4e3d 8220 193e
000001c0: 5ce6 aa3d 04e6 863d 213a f73d 2d78 393e
000001d0: 1e7a bd3d 8d8c 31be 31e3 acbc fc30 b0bc
000001e0: b1a2 0bbe 6eb6 11be 35e1 69be 270a 5fbe
000001f0: f1ad 40be f7af 97bd ee9b 7e3e 0445 213e
00000200: c52e 713e 1ac5 463e 66ac 373d dccc 193d
00000210: 0c96 66be 3a6e 27be 91f9 1cbe afc6 34bd
00000220: ebeb 14bd 284e f6bc 56ef d83d a378 643d
00000230: d2ef 1b3e 4c42 58bc d02f 443e 5e7b bd3d
00000240: e537 24be f37c 89bb 37c9 60be d765 8d3b
00000250: e943 b0bd 896b 99bd 4a40 06be 7f3d 7bbd
00000260: acd5 a5ba 59d7 693b 55e7 70be 9e92 9cbc
00000270: 2345 f0bd ae3d 57bd f827 23be 9391 1a3c
00000280: f5a1 6abe 384f 2dbe 0eb3 32be ef19 6ebe
00000290: bb71 863c 8c7f 153d 10eb 803d 9cbf ad3c
000002a0: 11a7 9b3d 59fd 883d 247e 813d 6b7a 82bc
000002b0: 88b8 f63d 9e7f 013e 0719 983a dd20 753c
000002c0: 5ede 45be c7fb 2cbd 339d 41be a6c9 583d
000002d0: 2445 3d3e bf12 fdbc cf85 883d cfad 723b
000002e0: 6b13 203e 5ec2 273e 9b62 62be bde8 4cbe
000002f0: ae2e ea3c 7b18 353d c20b 5ebe b32f 883c
00000300: f3fc 4c3d 67b2 5b3e 443b 94bc e0dd 4dbe
00000310: 5cb4 21be fbf2 22be 94e6 8bbb e52a 993d
00000320: 5d7d b3bb 7297 a2bc b57f 5c3e 5525 dfbc
00000330: 0bf4 ea3d 2300 bd3d be0a d13d 08d6 7e3d
00000340: e989 c43d 3cb8 153d cdd0 7e3c 29dd b73c
00000350: 3438 953d c4c8 43be 341e 37be 73b4 35be
00000360: e89e 92be 23cf c0bd 4a97 aebd 1e54 89be
00000370: e934 7dbd 8eed cdbd 8766 093e c5fa d93c
00000380: 9344 5f3e 5f86 e43d 8b91 a03d cd47 763e
00000390: 0e41 74bc b585 87be 58f3 f0bd a9bf 91bd
000003a0: 6a42 70bd 4251 55be a1a3 0c3e 3c2f 193c
000003b0: 0df7 423e f15f d93d 1fbc f0bc 8ec6 163e
000003c0: 5446 e8bd 8784 c3bd d93e 15be 7ff2 9a3d
000003d0: 1d69 f63d 6dd5 afbd fcf1 06bd 3a1b 4bbe
000003e0: c8cc 8dbd 7206 01be 312c 04be 3a00 47be
000003f0: 9976 36be 99e4 66be 471c c6bd db51 a3be

foundation_model.down_path.2.block.2.bias f4 [16]
0.13326679 0.095446974 0.08347575 0.0031214012 0.10105603 -0.030287836 -0.00065938925 0.03630498
0.14770643 0.12863833 -0.069884054 0.13333713 0.014911298 0.014678591 0.01152011 0.10524931
00000000: 1777 083e b479 c33d 56f5 aa3d 6c90 4c3b
00000010: 77f6 ce3d 321e f8bc ddda 2cba 88b4 143d
00000020: 5b40 173e c4b9 033e 5f1f 8fbd 8789 083e
00000030: 844e 743c 797e 703c d8be 3c3c f38c d73d

foundation_model.up_path.0.up.weight f4 [16, 8, 2]
0.2137413 0.070097476 -0.048381835 0.18494013 -0.016776025 0.11374599 -0.19871083 0.12857941
0.04770288 -0.0071955323 0.08097011 -0.15499568 -0.17975587 -0.18253249 -0.18629396 0.14219451
-0.12625873 0.042528927 -0.24504697 0.21570301 0.011002451 0.03677517 -0.24290279 0.03806293
-0.10080522 0.24632329 -0.15763369 -0.05527109 -0.03196302 -0.15422869 0.22899407 0.22965828
0.16175479 -0.05571741 0.071480274 -0.12558931 -0.12786326 -0.041712224 0.09705028 -0.08385885
0.054599464 0.07444039 0.20536816 0.21018147 -0.04025823 -0.24544775 0.05322984 0.19266814
-0.21949899 -0.1312702 0.21262136 0.1310994 0.00017911196 0.21506959 -0.103658736 0.16390872
0.10177964 -0.016148359 -0.0985657 0.21168417 0.21005067 0.23314562 0.2141015 -0.20441017
-0.1940135 0.1382697 -0.046592414 0.15444785 0.1577476 0.18213561 -0.23534107 -0.07708895
0.21501687 0.22729462 0.0123490095 0.0034283996 -0.20182803 0.20237789 0.06708181 -0.19845936
0.21045184 -0.21818 0.08604601 -0.24439064 0.12519771 0.09488994 0.21594176 -0.15444735
0.14068577 -0.21550837 -0.056146294 0.2231693 0.055083573 -0.14605367 -0.11483085 0.24272513
-0.24354151 -0.21332607 0.037203044 -0.028972715 0.12066981 -0.052252054 -0.17860809 0.10164842
0.12554252 0.018435538 -0.13730675 -0.18726224 -0.13844895 0.027665555 -0.023605615 -0.17151296
-0.045272052 -0.09935582 -0.03433621 0.095461756 0.026907802 0.23846287 0.24740571 -0.1450268
-0.07933912 0.118020296 -0.10051179 -0.23853728 0.008340865 0.22477046 0.041306823 0.20509422
0.22687769 -0.22051895 0.06687707 0.14854196 0.16397455 0.03425449 0.028164 0.18367699
0.15908843 0.16797504 -0.04412502 0.03477356 0.06437588 -0.19112945 0.22063604 -0.16567388
-0.073482335 0.07134044 -0.082805276 -0.104218245 0.18977964 0.031602412 0.05549118 -0.07413763
0.2270087 0.19129595 -0.19972381 -0.22804523 -0.21409664 0.20145437 0.15753749 0.14047724
-0.16683793 0.06918913 0.20927465 0.20464519 0.2329765 0.10601121 0.046368986 -0.21162793
0.10421565 0.13969874 0.15895984 -0.05027789 -0.18980774 -0.04927504 -0.014520049 0.047772348
-0.17768192 0.021630079 -0.23555768 -0.16875279 -0.051038623 -0.1258857 -0.21497598 -0.09619728
0.064896405 0.08928782 0.0033330023 0.018031389 -0.22583395 -0.016322106 -0.019405663 0.2257773
-0.040786058 -0.10430932 0.07239702 -0.013678998 0.15004197 0.23144495 0.12992999 -0.1474368
-0.08977097 0.12683639 -0.04186532 -0.0956507 0.1636531 -0.2255246 -0.2445203 0.095871866
0.23601371 0.043395877 -0.16881186 -0.18032444 -0.0020734072 0.15917543 0.17180231 -0.09896478
-0.08315629 0.11591399 0.23961526 0.105651855 -0.15572238 0.0215832 -0.019529462 0.012223184
0.048754275 0.21810317 0.18471882 -0.21790272 0.22047755 0.0861367 -0.24787322 0.22185397
0.103910625 -0.23306382 -0.09533563 0.104999274 0.122110575 -0.21229395 -0.11212313 0.07060507
0.13751918 -0.24197382 0.21552292 -0.021743208 -0.019916743 0.11320686 0.19274712 0.2091119
0.1285502 -0.22109279 -0.021998674 -0.09780222 0.1832242 0.24828082 -0.15402156 0.015286416
00000000: 00df 5a3e 448f 8f3d 082c 46bd f260 3d3e
00000010: e06d 89bc a8f3 e83d da7a 4bbe 52aa 033e
00000020: 1864 433d 80c8 ebbb a8d3 a53d 30b7 1ebe
00000030: ec11 38be cce9 3abe d8c3 3ebe 709b 113e
00000040: f849 01be d032 2e3d 98ed 7abe 40e1 5c3e
00000050: a043 343c 90a1 163d 82bb 78be e0e7 1b3d
00000060: f872 cebd 2c3c 7c3e ba6a 21be f063 62bd
00000070: a8eb 02bd 20ee 1dbe 6c7d 6a3e 8a2b 6b3e
00000080: 0ca3 253e f037 64bd 4064 923d 7c9a 00be
00000090: 96ee 02be 70da 2abd 4cc2 c63d 30be abbd
000000a0: b0a3 5f3d 3474 983d 084c 523e d039 573e
000000b0: d0e5 24bd a856 7bbe 8807 5a3d cc4a 453e
000000c0: 58c4 60be b26b 06be 6ab9 593e ec3e 063e
000000d0: 00d0 3b39 343b 5c3e 084b d4bd b0d7 273e
000000e0: d871 d03d 9049 84bc d0dc c9bd bcc3 583e
000000f0: 8617 573e babd 6e3e 6c3d 5b3e e650 51be
00000100: 7aab 46be 9296 0d3e b0d7 3ebd 9427 1e3e
00000110: 9688 213e c281 3a3e 40fd 70be d0e0 9dbd
00000120: 622d 5c3e ecbf 683e 8053 4a3c 00af 603b
00000130: 02ac 4ebe 263c 4f3e 3062 893d ee38 4bbe
00000140: b080 573e 946a 5fbe e438 b03d 8a41 7abe
00000150: d433 003e a855 c23d d61f 5d3e 7227 1ebe
00000160: ee0f 103e 3aae 5cbe a8f9 65bd 7e86 643e
00000170: 509f 613d 188f 15be 702c ebbd f08c 783e
00000180: f262 79be 2672 5abe 3862 183d 3058 edbc
00000190: bc21 f73d 4006 56bd 0ae5 36be 0c2d d03d
000001a0: 388e 003e 2006 973c 249a 0cbe acc1 3fbe
000001b0: 90c5 0dbe e0a2 e23c 9060 c1bc 18a1 2fbe
000001c0: 306f 39bd 107b cbbd 20a4 0cbd 7481 c33d
000001d0: c06d dc3c 9c2f 743e ec57 7d3e e881 14be
000001e0: 8c7c a2bd a0b4 f13d 20d9 cdbd 1e43 74be
000001f0: 20a8 083c 3a2a 663e 5831 293d 3804 523e
00000200: a052 683e b8cf 61be d8f6 883d 621b 183e
00000210: f2e8 273e 704e 0c3d 30b8 e63c d215 3c3e
00000220: 14e8 223e a601 2c3e 70bc 34bd b86e 0e3d
00000230: 80d7 833d 70b7 43be 6aee 613e 6aa6 29be
00000240: e87d 96bd f01a 923d d095 a9bd 6070 d5bd
00000250: 9855 423e 8871 013d b84a 633d 78d5 97bd
00000260: f874 683e 16e3 433e 6684 4cbe b084 69be
00000270: 263c 5bbe 0e4a 4e3e 8251 213e 44d9 0f3e
00000280: 90d7 2abe 08b3 8d3d 184c 563e 828e 513e
00000290: 6491 6e3e 681c d93d 68ed 3d3d feb4 58be
000002a0: 046f d53d 300d 0f3e 5ec6 223e 30f0 4dbd
000002b0: f65c 42be a0d4 49bd 80e5 6dbc f0ac 433d
000002c0: 40f2 35be 9031 b13c 0836 71be 88cd 2cbe
000002d0: e00d 51bd 2ee8 00be aa22 5cbe 1403 c5bd
000002e0: 68e8 843d 88dc b63d 806e 5a3b 90b6 933c
000002f0: 0441 67be f0b5 85bc a0f8 9ebc 2a32 673e
00000300: 480f 27bd 20a0 d5bd e444 943d e01d 60bc
00000310: 9aa4 193e e8ff 6c3e 5e0c 053e acf9 16be
00000320: d8d9 b7bd 66e1 013e f87a 2bbd 84e4 c3bd
00000330: ae94 273e ecef 66be 8863 7abe 7858 c43d
00000340: 94ad 713e e0bf 313d 04dd 2cbe f8a6 38be
00000350: 00e2 07bb e2fe 223e f2ec 2f3e 0cae cabd
00000360: d84d aabd 5064 ed3d b45d 753e 0060 d83d
00000370: b075 1fbe 40cf b03c 40fc 9fbc c043 483c
00000380: 90b2 473d 7056 5f3e ee26 3d3e e421 5fbe
00000390: dec4 613e 7068 b03d 7ad2 7dbe b02d 633e
000003a0: 18cf d43d 48a8 6ebe 543f c3bd dc09 d73d
000003b0: 1c15 fa3d 9663 59be d0a0 e5bd 6499 903d
000003c0: d4d1 0c3e fcc7 77be 0ab2 5c3e d01e b2bc
000003d0: 7028 a3bc 00d9 e73d 805f 453e 6e21 563e
000003e0: aaa2 033e 2666 62be 9036 b4bc 884c c8bd
000003f0: 209f 3b3e 543d 7e3e d4b7 1dbe e073 7a3c

foundation_model.up_path.0.up.bias f4 [8]
-0.08436957 -0.14947164 0.11291516 -0.053993195 0.2292774 -0.20362231 0.08141899 0.14312556
00000000: f4c9 acbd 180f 19be 1040 e73d f827 5dbd
00000010: b2c7 6a3e 5e82 50be 00bf a63d 828f 123e

foundation_model.up_path.0.conv_block.block.0.weight f4 [8, 16, 3]
0.06818563 0.12524801 0.0066828197 -0.015366914 0.020680483 0.070633024 0.060340807 -0.02420922
0.039080296 -0.01159395 0.080960006 0.01896272 -0.111977234 0.029206881 -0.09672216 -0.05765267
0.09360005 0.106165715 0.13274883 -0.10245845 -0.13353032 -0.019877668 0.031126855 0.069585264
-0.020148033 0.11201714 0.10809534 0.074823156 -0.14418177 -0.12418375 -0.050834317 -0.08777727
0.08565471 0.042199537 -0.08539646 0.13125333 0.14425941 -0.14291282 0.027868362 0.04923385
0.113459826 -0.14414045 0.059758596 -0.028572757 0.062406607 0.0005993842 -0.11896296 0.054688204
-0.007559433 -0.108240046 0.03155194 -0.024896407 -0.020347144 0.09364611 -0.061239325 0.010140941
-0.02985422 0.0064522717 0.055920694 0.035284467 -0.007913988 0.053519238 -0.099851675 0.04706404
0.0132773705 -0.070770144 0.017501658 -0.07802914 -0.09392406 -0.07390967 0.06769736 0.101663955
-0.0021121174 -0.041066945 0.028938616 -0.1366128 -0.012009278 -0.0058853556 -0.05884318 -0.124439865
0.14407597 -0.1200727 0.004544084 0.08236674 -0.11682749 0.08543365 -0.10208608 -0.10231556
0.08045522 -0.11140975 -0.09202944 -0.11322775 0.12452423 0.07619392 0.013890383 -0.014009278
0.106840305 0.09842618 0.050324406 -0.08658205 0.070797466 -0.086255796 -0.08198884 -0.08451567
-0.1163455 0.11426321 -0.0035153492 0.07534598 -0.11683596 -0.01552449 0.12972677 -0.00378179
-0.00093998446 -0.015247019 -0.093809694 0.06980523 -0.10019228 0.058223546 -0.03555218 0.14137566
0.10733069 -0.12094527 -0.0010023748 0.13547534 0.014201371 0.07940099 0.07406272 -0.113059536
-0.031860225 0.14299697 -0.020423094 0.12203607 0.04276781 -0.07480661 0.08771568 -0.004255361
0.005745485 -0.06421054 0.10757939 0.05866728 -0.063027374 -0.099927366 0.05600549 -0.011768595
-0.07698876 -0.11958313 0.07820013 0.07942723 0.02202623 0.07307282 0.030454395 -0.123993106
0.11933121 0.08078784 -0.09573261 0.13236098 0.041991133 0.12361061 0.037146024 0.0131912185
0.08842257 -0.057561874 -0.020100577 -0.0923801 0.045898754 -0.076239504 0.07299379 -0.05994057
0.035050992 -0.13605818 0.04621258 -0.11965999 0.05380424 -0.10258222 -0.0054150536 -0.10448245
0.103183076 0.054747205 0.062260095 -0.13143082 0.13055675 0.010469737 -0.0136019 0.0864195
0.05326054 -0.1439231 -0.076007694 -0.07827767 0.02306668 -0.11838226 -0.08713393 0.06448434
0.08957721 -0.0908461 0.11899866 0.09567514 0.06662506 -0.11522522 0.03173319 0.04185916
0.032338753 0.07418381 0.14333463 -0.13778141 0.071771435 -0.0012534675 0.06273826 0.07090055
-0.056987267 0.0587322 0.02911247 0.061818387 -0.1160574 0.05031534 0.020110866 0.021803888
0.059338037 0.058391668 -0.044542823 -0.12357673 -0.10781919 0.07127723 -0.05212693 -0.012505957
-0.078682736 -0.022925986 0.10546314 0.005869268 0.10432126 0.014637552 0.11908822 0.12308958
0.120975606 0.06876001 -0.030611472 -0.09899351 -0.008472077 0.076914854 -0.048750333 -0.12604755
0.0420925 0.12409195 0.0054963194 -0.03316576 0.115699284 0.14119075 -0.035568956 0.09085514
-0.03447348 -0.08328242 0.049532536 -0.08998215 0.041585546 0.0012717579 0.05241603 0.009775941
00000000: e8a4 8b3d 0441 003e 8efb da3b 82c5 7bbc
00000010: 1e6a a93c 0ca8 903d ec27 773d 6a52 c6bc
00000020: a912 203d 8df4 3dbc 5cce a53d b557 9b3c
00000030: 5254 e5bd 4543 ef3c 4516 c6bd 3525 6cbd
00000040: 62b1 bf3d 696d d93d 4fef 073e bcd5 d1bd
00000050: 2cbc 08be 7ed6 a2bc bffd fe3c b882 8e3d
00000060: 7d0d a5bc 3e69 e53d 1761 dd3d e23c 993d
00000070: 63a4 13be 0d54 febd a537 50bd 92c4 b3bd
00000080: bd6b af3d 6cd9 2c3d 57e4 aebd 4667 063e
00000090: bdb8 133e bd57 12be 314c e43c 6fa9 493d
000000a0: a05d e83d 8e99 13be 6ec5 743d 6a11 eabc
000000b0: 129e 7f3d fe1f 1d3a daa2 f3bd bd00 603d
000000c0: 1fb5 f7bb f5ac ddbd 9b3c 013d 8df3 cbbc
000000d0: 0eaf a6bc 88c9 bf3d 16d6 7abd 3026 263c
000000e0: d690 f4bc 946d d33b 190d 653d 7286 103d
000000f0: aca9 01bc fd36 5b3d 097f ccbd 39c6 403d
00000100: 5489 593c f0ef 90bd a35f 8f3c becd 9fbd
00000110: 425b c0bd f45d 97bd eaa4 8a3d 3135 d03d
00000120: 736b 0abb d035 28bd ad10 ed3c 3ae4 0bbe
00000130: 90c2 44bc f1d9 c0bb 8c05 71bd 54da febd
00000140: a788 133e ade8 f5bd 8ae6 943b e5af a83d
00000150: 4043 efbd d6f7 ae3d 8212 d1bd d28a d1bd
00000160: b5c5 a43d cc2a e4bd ee79 bcbd f3e3 e7bd
00000170: 8f06 ff3d 8f0b 9c3d 7d94 633c 2c87 65bc
00000180: 17cf da3d aa93 c93d f720 4e3d ee51 b1bd
00000190: 43fe 903d e1a6 b0bd c4e9 a7bd 8d16 adbd
000001a0: 8d46 eebd d402 ea3d c661 66bb fe4e 9a3d
000001b0: b147 efbd 6e5a 7ebc 18d7 043e e8d7 77bb
000001c0: 4a69 76ba a2ce 79bc 4c1f c0bd 0bf6 8e3d
000001d0: 9c31 cdbd d07b 6e3d 2a9f 11bd c8c4 103e
000001e0: 31d0 db3d 27b2 f7bd 1e62 83ba 0cba 0a3e
000001f0: deac 683c fc9c a23d 32ae 973d c28b e7bd
00000200: de7f 02bd cc6d 123e 554e a7bc 0cee f93d
00000210: 4d2d 2f3d 3534 99bd 47a4 b33d 8e70 8bbb
00000220: 9f44 bc3b d180 83bd 9552 dc3d 1a4d 703d
00000230: 7f14 81bd b8a6 ccbd 0366 653d 11d1 40bc
00000240: 48ac 9dbd 00e8 f4bd 6427 a03d beaa a23d
00000250: 5a70 b43c 34a7 953d 7f7b f93c 19f0 fdbd
00000260: ec63 f43d 1874 a53d 750f c4bd a389 073e
00000270: e5fe 2b3d 8f27 fd3d 6e26 183d fb1f 583c
00000280: e416 b53d 00c6 6bbd f7a9 a4bc c731 bdbd
00000290: 5500 3c3d 7523 9cbd c57d 953d 3e84 75bd
000002a0: a191 0f3d d652 0bbe 6749 3d3d 4c10 f5bd
000002b0: d661 5c3d a116 d2bd c370 b1bb e5fa d5bd
000002c0: a651 d33d 9b3e 603d 7104 7f3d cd95 06be
000002d0: abb0 053e 4389 2b3c 81da 5ebc b5fc b03d
000002e0: b927 5a3d 9460 13be eca9 9bbd 0b50 a0bd
000002f0: 56f6 bc3c 6672 f2bd 4673 b2bd 5e10 843d
00000300: 4274 b73d 850d babd 92b5 f33d 54f1 c33d
00000310: b872 883d 33fb ebbd a9fa 013d 8374 2b3d
00000320: a475 043d aeed 973d 50c6 123e 9216 0dbe
00000330: e7fc 923d 644b a4ba eb7c 803d 4f34 913d
00000340: 7b6b 69bd 2d91 703d 467d ee3c 4735 7d3d
00000350: 81af edbd 7517 4e3d 8bbf a43c 119e b23c
00000360: 710c 733d 1a2c 6f3d 8972 36bd cc15 fdbd
00000370: 4fd0 dcbd ccf9 913d 0c83 55bd c9e5 4cbc
00000380: 6a24 a1bd 47cf bbbc 0ffd d73d fd52 c03b
00000390: 62a6 d53d 58d2 6f3c 86e4 f33d 6416 fc3d
000003a0: 0fc2 f73d 0cd2 8c3d e9c4 fabc 1cbd cabd
000003b0: 77ce 0abc 8985 9d3d 6eae 47bd 9c12 01be
000003c0: 2f69 2c3d ec23 fe3d 781a b43b d2d8 07bd
000003d0: bff3 ec3d 4f94 103e c1b0 11bd 4212 ba3d
000003e0: 1034 0dbd f98f aabd a1e2 4a3d 9048 b8bd
000003f0: 9b55 2a3d 1db1 a63a 31b2 563d 452b 203c

foundation_model.up_path.0.conv_block.block.0.bias f4 [8]
-0.09355008 0.05353391 0.094806544 0.12392496 -0.010244454 0.09175074 0.10500141 -0.08124864
00000000: 2f97 bfbd 6046 5b3d ef29 c23d 5fcc fd3d
00000010: 5bd8 27bc d0e7 bb3d fb0a d73d b065 a6bd

foundation_model.up_path.0.conv_block.block.2.weight f4 [8, 8, 3]
0.13316797 -0.14534822 0.11735967 0.16016048 -0.102114685 -0.13911985 0.07533098 0.15024488
-0.06295124 -0.03943912 0.036883496 0.16030245 0.011260933 -0.14030047 -0.15732189 -0.14520614
-0.20254737 0.14245278 -0.08618914 -0.13477838 -0.10081267 0.10120488 -0.08995519 0.101485156
0.17391704 0.13248573 0.1849927 0.06600458 -0.09104168 0.01581047 0.19995242 0.032412093
0.15860932 0.04476519 0.15108725 0.028173005 -0.012614095 0.14550103 0.11423182 -0.1266857
0.18907729 0.18464416 0.07853784 0.1107548 -0.20056397 -0.061235826 0.16135721 -0.18609484
-0.09774668 0.079098314 0.18499748 0.029819895 0.090887524 -0.14234114 -0.0033800928 -0.055271808
0.1582235 0.018775675 -0.092526704 0.19545561 -0.0396937 0.12769674 -0.12768686 0.079725385
0.013311711 0.19523703 0.16936536 -0.14960581 -0.18532027 0.06527959 -0.18914352 0.049177848
0.06851385 -0.077234365 -0.101776935 0.13310353 -0.14069444 -0.039626464 0.04490484 0.15451147
-0.18702568 0.04805982 0.03301773 -0.039848533 -0.07517079 -0.084467255 -0.17732084 -0.12908739
-0.20140927 0.10604508 0.06949819 -0.16892397 0.19247681 -0.13626254 0.08848021 -0.004883538
-0.13935593 0.18569426 0.08823318 -0.014962934 -0.09731096 0.07586794 -0.1063081 -0.10216403
0.05698311 -0.19615829 0.039492242 -0.07581745 -0.037406713 0.09768 0.20253019 -0.18180552
-0.002612736 -0.032633334 -0.04538866 -0.020341318 -0.02779895 0.08421207 -0.00435864 -0.14936021
0.08506401 -0.07121302 -0.1572894 -0.09422808 0.07525143 0.20130178 -0.12753952 0.06280927
-0.13596043 0.018234232 0.040215652 0.1651196 0.103333406 -0.12048044 -0.08979459 0.10746511
-0.13695969 0.20112237 -0.00926291 -0.06518483 0.06422826 0.026653377 -0.17170133 0.18503708
-0.11173824 -0.114313334 0.10427584 0.074409276 -0.1582087 -0.007257562 -0.06270488 -0.18871558
-0.084706865 0.068657495 0.014309993 0.059660815 -0.17301323 -0.16350542 0.09809148 -0.009668184
-0.057536867 -0.0637876 0.15217657 -0.05793384 0.026149455 -0.14435929 0.109271556 -0.08548028
-0.027384892 -0.06455355 0.034509473 0.074966826 -0.016332569 -0.17448778 -0.18170887 0.05483166
0.12463431 0.1456768 0.07571669 -0.07998563 0.13415937 0.034253363 0.07377453 -0.10780848
-0.049889117 -0.18773924 0.036299564 -0.06881323 -0.005580595 -0.19853427 0.080714986 0.051746175
00000000: 2f5d 083e 2ad6 14be 445a f03d 1c01 243e
00000010: 8121 d1bd 6f75 0ebe 2147 9a3d cbd9 193e
00000020: 94ec 80bd ea8a 21bd 2613 173d 5326 243e
00000030: c77f 383c edaa 0fbe fd18 21be ebb0 14be
00000040: 9468 4fbe 24df 113e ef83 b0bd 5803 0abe
00000050: e076 cebd 8144 cf3d 6d3a b8bd 73d7 cf3d
00000060: 4f17 323e 57aa 073e ba6e 3d3e 692d 873d
00000070: 0f74 babd f584 813c 54c0 4c3e 8bc2 043d
00000080: 7b6a 223e b45b 373d 9eb6 1a3e 13cb e63c
00000090: 59ab 4ebc 39fe 143e 5ff2 e93d e5b9 01be
000000a0: 7a9d 413e 5c13 3d3e 72d8 a03d 6ad3 e23d
000000b0: a460 4dbe 6bd2 7abd d33a 253e a58f 3ebe
000000c0: 692f c8bd 4cfe a13d fb6f 3d3e da48 f43c
000000d0: 3d23 ba3d e0c1 11be 8c84 5dbb b164 62bd
000000e0: 5705 223e 72cf 993c a47e bdbd 8425 483e
000000f0: dc95 22bd efc2 023e 58c0 02be 1047 a33d
00000100: 5d19 5a3c 37ec 473e 1d6e 2d3e 4432 19be
00000110: 99c4 3dbe 4eb1 853d d7ae 41be b66e 493d
00000120: fd50 8c3d 0d2d 9ebd 6d70 d0bd 4b4c 083e
00000130: 3412 10be 5c4f 22bd 23ee 373d 4138 1e3e
00000140: a983 3fbe 60da 443d 993d 073d 3738 23bd
00000150: 25f3 99bd 2bfd acbd 9893 35be 7c2f 04be
00000160: 3b3e 4ebe 2a2e d93d 1155 8e3d 68fa 2cbe
00000170: a418 453e 6888 0bbe 1d35 b53d 1606 a0bb
00000180: 52b3 0ebe a326 3e3e 99b3 b43d 1827 75bc
00000190: f84a c7bd a760 9b3d 10b8 d9bd 603b d1bd
000001a0: 1f67 693d b8dd 48be 9ec2 213d 2e46 9bbd
000001b0: c837 19bd 740c c83d 1364 4f3e 3a2b 3abe
000001c0: 703a 2bbb 88aa 05bd 76e9 39bd d6a2 a6bc
000001d0: a0ba e3bc 6177 ac3d ecd2 8ebb e2f1 18be
000001e0: 0a36 ae3d 22d8 91bd 7910 21be a7fa c0bd
000001f0: 6c1d 9a3d 0e22 4e3e b899 02be 26a2 803d
00000200: 3639 0bbe f55f 953c 2bb9 243d 1d15 293e
00000210: 77a0 d33d 73be f6bd 3ae6 b7bd ab16 dc3d
00000220: 293f 0cbe 06f3 4d3e 76c3 17bc a07f 85bd
00000230: 1b8a 833d 2f58 da3c 79d2 2fbe 5c7a 3d3e
00000240: 05d7 e4bd 1c1d eabd 928e d53d e463 983d
00000250: 7601 22be d8d0 edbb 6b6b 80bd a83e 41be
00000260: cb7a adbd 4d9c 8c3d 7674 6a3c e65e 743d
00000270: 612a 31be f76d 27be 30e4 c83d 4e67 1ebc
00000280: c7ab 6bbd 13a3 82bd 2dd4 1b3e 094c 6dbd
00000290: 6237 d63c ecd2 13be c4c9 df3d 4910 afbd
000002a0: 4856 e0bc a734 84bd ce59 0d3d 3588 993d
000002b0: e1cb 85bc edac 32be e411 3abe 2a97 603d
000002c0: 4640 ff3d 4d2c 153e 5a11 9b3d 82cf a3bd
000002d0: 1361 093e 414d 0c3d 1a17 973d b1ca dcbd
000002e0: 8858 4cbd b73e 40be daae 143d f3ed 8cbd
000002f0: 6ddd b6bb 914c 4bbe e64d a53d ccf3 533d

foundation_model.up_path.0.conv_block.block.2.bias f4 [8]
0.089092664 -0.03729911 -0.036763214 0.17298678 -0.1504832 0.021044288 0.029326826 0.06685893
00000000: 3776 b63d f4c6 18bd 0695 16bd 7223 313e
00000010: 4518 1abe 1265 ac3c d03e f03c 56ed 883d

foundation_model.up_path.1.up.weight f4 [8, 4, 2]
-0.29837313 0.2241181 -0.20902033 -0.033707406 -0.118101284 0.34586135 0.049467377 -0.08834493
0.07224821 -0.072314 0.14675815 -0.11360409 0.16861373 0.22628622 -0.13000047 0.13232155
-0.3049294 -0.041647788 0.1625419 -0.30752575 0.22223523 -0.32965347 -0.123463415 0.09815946
0.34094232 0.23794256 0.038672682 0.13164552 -0.28731176 0.28942728 0.21177498 0.19473436
0.28866988 -0.12647094 0.054600693 0.09512961 0.3393103 -0.31566754 0.1441837 -0.14079328
-0.15854245 -0.052899856 -0.32133314 0.25586495 0.24309766 0.28808984 0.17186186 0.31661507
-0.18639043 -0.1620239 -0.16256426 -0.052832507 -0.08475895 0.071526825 0.28950673 0.07031843
-0.34886956 0.10370586 -0.24102569 0.005223259 0.24355812 0.2542482 0.28295472 -0.3345451
00000000: 5dc4 98be 377f 653e 6d09 56be c710 0abd
00000010: 16df f1bd bd14 b13e 4e9e 4a3d 30ee b4bd
00000020: dff6 933d 5d19 94bd c547 163e 43a9 e8bd
00000030: 14a9 2c3e 93b7 673e d81e 05be 4d7f 073e
00000040: b51f 9cbe df96 2abd 6271 263e 0474 9dbe
00000050: a291 633e 57c8 a8be 63da fcbd d407 c93d
00000060: fe8f ae3e 37a7 733e 3f67 1e3d 15ce 063e
00000070: 871a 93be d02f 943e 8adb 583e 7268 473e
00000080: 8acc 933e 9981 01be faa4 5f3d 50d3 c23d
00000090: 14ba ad3e 2d9f a1be e4a4 133e 1d2c 10be
000000a0: f458 22be 85ad 58bd c785 a4be bb00 833e
000000b0: 98ee 783e 8380 933e 8efc 2f3e 5f1b a23e
000000c0: 22dd 3ebe 98e9 25be 3f77 26be e666 58bd
000000d0: 1a96 adbd a87c 923d 3a3a 943e 1c03 903d
000000e0: 089f b2be bd63 d43d 70cf 76be df27 ab3b
000000f0: 4d67 793e d22c 823e 71df 903e 7f49 abbe

foundation_model.up_path.1.up.bias f4 [4]
-0.25278696 0.10082622 0.09858982 0.061172187
00000000: 4b6d 81be fa7d ce3d 76e9 c93d b08f 7a3d

foundation_model.up_path.1.conv_block.block.0.weight f4 [4, 8, 3]
-0.17966753 0.09759627 -0.077318415 -0.07357434 -0.061012346 0.01625329 0.08572934 0.13133748
-0.11837384 -0.05356245 0.112401694 -0.082711324 0.14444764 -0.105468474 -0.09445584 0.03445837
-0.20242287 0.1399806 0.06778127 0.14839232 -0.14794655 -0.18709987 0.16846845 -0.14341262
-0.116367206 -0.19679232 0.18951628 0.14180222 0.19988231 -0.17082804 -0.07461333 0.061652124
-0.06804353 -0.17740877 0.18682931 0.20337746 -0.12107578 -0.09145477 -0.03317529 0.021534754
0.066945195 -0.0020209942 -0.1464089 0.11629006 0.10721725 0.15270665 0.091174714 0.013402816
0.037281785 0.13938121 0.13944565 -0.06714176 0.10064937 -0.11437896 0.067314185 0.08250002
-0.13908176 -0.18661645 0.10853856 -0.15285546 -0.17367263 -0.16115242 -0.0818533 -0.09726592
-0.0863521 0.14131488 -0.08926621 -0.01586398 -0.17619051 -0.080762796 0.1338741 -0.03282367
-0.09342721 0.14880392 0.15584198 0.14985515 -0.053058945 -0.100129314 -0.047603983 -0.0689486
-0.0031925302 0.10614709 0.11528551 -0.053853747 -0.015057761 0.19351983 -0.14357316 0.15857266
-0.03255252 0.15555345 -0.15166087 -0.016237644 0.1445468 0.107409924 -0.10746005 0.034035407
00000000: c4fa 37be 8ee0 c73d 1e59 9ebd 25ae 96bd
00000010: 15e8 79bd 9f25 853c dd92 af3d 557d 063e
00000020: fc6d f2bd 4d64 5bbd dc32 e63d 8e64 a9bd
00000030: 15ea 133e dbff d7bd 1072 c1bd 3824 0d3d
00000040: f147 4fbe 1357 0f3e e8d0 8a3d 28f4 173e
00000050: 4d7f 17be 1c97 3fbe fe82 2c3e c2da 12be
00000060: ee51 eebd ed83 49be 8e10 423e 9a34 113e
00000070: f3ad 4c3e 8ced 2ebe e0ce 98bd f086 7c3d
00000080: 685a 8bbd a5aa 35be 2f50 3f3e 2e42 503e
00000090: 94f6 f7bd a34c bbbd d0e2 07bd a769 b03c
000000a0: 901a 893d a872 04bb 37ec 15be 7c29 ee3d
000000b0: b894 db3d 225f 1c3e cfb9 ba3d 7c97 5b3c
000000c0: c9b4 183d f3b9 0e3e d7ca 0e3e 9e81 89bd
000000d0: 4221 ce3d 843f eabd 05dc 893d c5f5 a83d
000000e0: 736b 0ebe 6218 3fbe 7749 de3d 2486 1cbe
000000f0: 3dd7 31be 2405 25be b4a2 a7bd 5b33 c7bd
00000100: 5fd9 b0bd d9b4 103e 34d1 b6bd 2df5 81bc
00000110: 496b 34be f766 a5bd 4b16 093e 1d72 06bd
00000120: c456 bfbd 0e60 183e 0a95 1f3e a173 193e
00000130: 5654 59bd 9910 cdbd 65fc 42bd ec34 8dbd
00000140: c539 51bb a563 d93d cf1a ec3d bf95 5cbd
00000150: d4b4 76bc 102a 463e d804 13be df60 223e
00000160: cb55 05bd 6749 1f3e fd4c 1bbe cf04 85bc
00000170: 1404 143e bcf9 db3d 0414 dcbd b668 0b3d

foundation_model.up_path.1.conv_block.block.0.bias f4 [4]
-0.021242388 0.05920945 0.16452755 0.18781032
00000000: 8404 aebc 9c85 723d e979 283e 5951 403e

foundation_model.up_path.1.conv_block.block.2.weight f4 [4, 4, 3]
-0.18549642 -0.17722367 -0.21900623 0.1497502 0.2505184 0.24431472 -0.2855278 0.19375704
0.0046155765 0.20209208 0.057677913 0.04515057 -0.018375518 -0.22348695 -0.04837515 -0.2719489
0.10221652 -0.21828549 0.04569109 -0.26414427 0.1262626 -0.20825836 -0.21383643 -0.15842532
-0.0004585844 0.17099676 0.2789677 0.09552593 0.263377 0.20437437 -0.16542663 -0.03078197
-0.18998003 0.25837958 0.17195463 0.11300977 0.24753864 -0.077794336 -0.17597549 0.18659602
-0.08808836 -0.20638074 -0.15300569 0.16103463 0.025063911 0.101215556 -0.27862257 0.011019412
00000000: c6f2 3dbe 1f7a 35be 2b43 60be 1e58 193e
00000010: f343 803e a32d 7a3e b330 92be 3f68 463e
00000020: 433e 973b 3af1 4e3e ad3f 6c3d ceef 383d
00000030: 4188 96bc c3d9 64be 0525 46bd e33c 8bbe
00000040: e556 d13d 3b86 5fbe 9526 3b3d eb3d 87be
00000050: fc4a 013e ae41 55be f0f7 5abe 3f3a 22be
00000060: 286e f0b9 c619 2f3e dbd4 8e3e 19a3 c33d
00000070: 5ad9 863e 8447 513e 9965 29be 782a fcbc
00000080: 208a 42be 544a 843e e014 303e ab71 e73d
00000090: c57a 7d3e a352 9fbd eb32 34be 0713 3f3e
000000a0: ac67 b4bd 7955 53be 86ad 1cbe 43e6 243e
000000b0: d552 cd3c 1a4a cf3d 9ea7 8ebe c48a 343c

foundation_model.up_path.1.conv_block.block.2.bias f4 [4]
0.085069336 0.06300095 -0.096032895 0.27087492
00000000: d538 ae3d a406 813d e5ac c4bd 1eb0 8a3e

foundation_model.last.weight f4 [8, 4, 1]
-0.4408282 -0.21309054 -0.04415244 -0.020295084 0.4003932 -0.18170089 0.13981235 0.36982358
0.38458633 -0.27279478 0.48129988 -0.4629373 0.10565972 -0.14682859 0.18014616 -0.20595616
0.3943761 -0.08927363 -0.092324376 0.050521076 0.102298975 -0.2583472 0.4537776 -0.31885546
-0.38765824 -0.28523874 -0.44847274 -0.100708306 -0.44200647 -0.4352035 -0.03149861 0.19642985
00000000: 3cb4 e1be 6834 5abe 30d9 34bd e041 a6bc
00000010: 5600 cd3e cc0f 3abe f82a 0f3e 8459 bd3e
00000020: 80e8 c43e c2ab 8bbe f06c f63e 1e06 edbe
00000030: 2064 d83d 3c5a 16be 3c78 383e 2ce6 52be
00000040: aaeb c93e 18d5 b6bd 9014 bdbd 30ef 4e3d
00000050: 2082 d13d 1646 84be 8a55 e83e 0641 a3be
00000060: 247b c6be d00a 92be 389e e5be 2840 cebd
00000070: ac4e e2be fed2 debe b004 01bd e824 493e

foundation_model.last.bias f4 [8]
0.38838428 -0.31250787 -0.21455795 0.089912355 -0.38351685 -0.13762575 0.37931013 -0.056905568
00000000: 4eda c63e 0801 a0be 14b5 5bbe f823 b83d
00000010: 525c c4be c4ed 0cbe f034 c23e d015 69bd
