wandb/run-20230704_030731-r4mewlyg/files/checkpoints/best.pt (torch, 119813 bytes, 66 tensors)

foundation_model.down_path.0.block.0.weight f4 [4, 8, 3]
000000 2d f3 71 3e 5d b8 72 bd bc 7c 33 3e 5b a6 30 3e
       0.2362792 -0.059257854 0.17528051 0.1725096
000010 10 8c 14 3d b1 f4 d7 3d b1 a6 6c 3e b8 2d 38 3c
       0.036266387 0.10544718 0.23110463 0.011241369
000020 5f 8d 3e bd 76 16 84 3d f7 6d 56 3e c4 c0 aa bd
       -0.04652154 0.064495966 0.20940386 -0.083375484
000030 39 2f 1a 3e 4f cd 18 3d 03 eb 77 be e1 2a c9 3d
       0.15057077 0.037305173 -0.24210744 0.098226316
000040 26 b7 57 3e 78 cb 7a 3d 47 f1 3c bd 3f a3 61 3e
       0.2106596 0.0612292 -0.046128538 0.2203493
000050 af ac c2 bc 42 03 11 3e 88 f5 7c 3d 05 e1 b2 bd
       -0.023763983 0.14161399 0.061757594 -0.08734325
000060 be 80 8a 3d 48 a1 17 be e4 ed 92 bd 46 2b 74 3d
       0.06762837 -0.14807618 -0.0717428 0.05961158
000070 7d 35 55 3e 95 4d 91 3e a2 45 3a be d3 80 5e 3d
       0.20821185 0.28379503 -0.18190625 0.054322075
000080 0f 64 2b 3e 8d 07 a1 bd 9b 11 41 3e 8a a7 b7 bd
       0.16737388 -0.07862768 0.18854372 -0.089675024
000090 4f d1 9a b9 7b 4a 3c be 68 78 15 39 ac 39 19 bd
       -0.00029529116 -0.18387787 0.00014254602 -0.037408516
0000a0 b6 96 7e 3d 48 a4 8c bd b3 2a e3 3d bc c8 44 3e
       0.062155448 -0.06867272 0.110921286 0.19217199
0000b0 f3 a6 33 3e 53 a6 e4 3d d9 b1 7c 3e 0e 9a 1e bd
       0.17544155 0.11164536 0.24677218 -0.038721137
0000c0 78 04 28 3e 83 a5 36 3e 09 7f a0 bc 1b 76 33 3d
       0.16407955 0.17836575 -0.019591825 0.043813806
0000d0 f4 16 9d 3e 35 f0 7c bb 9a 01 92 bd 70 5e 83 bd
       0.30681574 -0.0038595323 -0.07129212 -0.06414497
0000e0 a6 b9 09 3d 15 1a f1 bd 05 09 8d bd 48 ae 30 be
       0.033624314 -0.11772553 -0.06886486 -0.17253983
0000f0 06 1e 23 be 88 6d 3d 3e c5 76 9f 3d 41 82 54 3e
       -0.15929422 0.18498814 0.07786325 0.20752813
000100 58 73 9d 3c 85 97 2c 3b 8f 62 27 3d 40 48 1f 3e
       0.01922004 0.002633543 0.040865477 0.15554905
000110 b0 c5 bb 3d b7 ed c4 3d b8 38 d5 bd a8 ee 8a bd
       0.09168565 0.09615653 -0.10411209 -0.06783801
000120 dd 05 5b bd 37 64 bf bd eb 30 80 3e 64 e3 36 3e
       -0.05347239 -0.09345286 0.2503732 0.1786018
000130 d4 c9 76 bd 8b a7 9e 3e d6 1a 2a bd 36 2e 48 3d
       -0.060251072 0.309872 -0.0415295 0.048872195
000140 5e 6d 00 3d 94 07 09 be b9 fb 87 3d 35 5f 89 3b
       0.0313543 -0.13381797 0.06639809 0.0041922578
000150 7b 7e 88 3e ac 99 82 3d f4 33 81 be 9a 4f 06 3e
       0.26658997 0.06376967 -0.2523495 0.13116303
000160 a1 db 43 3c 93 bd 48 bd 9c db 46 3e d3 0c 77 3c
       0.011954219 -0.049008917 0.19419712 0.015078741
000170 b2 fe 82 3e bf 80 d5 bd aa d6 06 3d 1f f1 99 bd
       0.25584942 -0.10424947 0.032919563 -0.07516693

foundation_model.down_path.0.block.0.bias f4 [4]
000000 09 54 64 3c 61 88 9a bd 30 d4 2f 3e 4d fa 0c 3e
       0.013936051 -0.075455435 0.17170787 0.13767357

foundation_model.down_path.0.block.2.weight f4 [4, 4, 3]
000000 35 81 b6 3e 44 26 28 3e 17 3d 4d 3e a3 61 77 3b
       0.35645452 0.16420847 0.20042835 0.0037747405
000010 5d bd d0 3d 13 f1 c0 3e ac f7 e2 3d c9 3f 45 3c
       0.10192368 0.37683925 0.11082396 0.012039133
000020 82 8f 48 3d d9 55 89 3e 5b e0 62 bc 10 3c e1 bd
       0.048964985 0.2682331 -0.013847436 -0.10997784
000030 62 9a 7a 3e 38 5c ac bd 44 6a 03 3e 44 b4 59 3d
       0.24472955 -0.08416027 0.12833506 0.05315043
000040 fb d8 5f 3d bd 0d be 3d 2c ad 1e be 0d 59 9c 3e
       0.054650288 0.09279964 -0.15495747 0.3053669
000050 53 db 75 3b 78 66 a0 3e d2 e8 a9 3e cb 39 a7 3e
       0.003751476 0.31328177 0.3318544 0.3266128
000060 c4 99 ba bd f3 01 7c 3d b2 9a 48 be 5c 9b b8 3e
       -0.0911136 0.061525296 -0.19590262 0.3605603
000070 cd 16 74 3d 89 0b 0c be 2d 5f 99 3e fe 65 6a 3e
       0.059592057 -0.13676275 0.29955426 0.2289047
000080 82 7a 86 3e d8 ab 31 3e 69 d0 c8 3e 15 d9 f6 bd
       0.2626534 0.1735071 0.39221504 -0.12053124
000090 2e 2d 9a 3e 33 b7 12 3d 40 b2 8a 3c bb 63 34 3c
       0.30112594 0.035819244 0.0169307 0.011010106
0000a0 c2 18 80 3e 10 e8 13 be 1f 1b 50 bd 42 0a 3b 3e
       0.2501889 -0.14443994 -0.050807115 0.18265632
0000b0 e7 08 1b 3e c9 77 8c 3e 6d 35 a4 bd e6 df 8e 3e
       0.15140115 0.2743514 -0.08018003 0.27905196

foundation_model.down_path.0.block.2.bias f4 [4]
000000 f6 e4 d6 bd b9 84 ff bd c2 19 18 bd 9c df 36 3e
       -0.104928896 -0.12476487 -0.03713394 0.17858738

foundation_model.down_path.1.block.0.weight f4 [8, 4, 3]
000000 5d d3 fa bc f4 b7 6c bd 7f af c7 bd 7e 5b c4 bd
       -0.030618364 -0.05779262 -0.0975027 -0.09587763
000010 0c 07 2c 3e ad 19 7c 3e 02 c0 96 3e 61 01 a9 3c
       0.16799563 0.2461917 0.29443365 0.02063054
000020 a5 ad b4 3e d6 4c 24 3d 1a e2 9f 3d 64 2d 93 3e
       0.3528873 0.04011234 0.07806797 0.28745568
000030 6f aa b0 3d 0c 5d bc 3d 17 29 c9 bd e3 a3 4f bc
       0.08626258 0.09197435 -0.098222904 -0.012673351
000040 2d 66 8f 3e ab b8 b3 bd 10 95 80 3e c2 63 de bd
       0.2800764 -0.08775457 0.25113726 -0.10858871
000050 02 e3 68 3e a2 10 81 3e 74 4b 94 3e 92 97 86 3e
       0.22742847 0.25208002 0.28963816 0.26287514
000060 74 b5 7e 3e 30 52 39 3e 10 a2 45 3e 94 26 ef 3d
       0.24873906 0.18097758 0.19300103 0.1167728
000070 1a 60 63 bc 0d 4f 83 3e d5 96 8e 3e 0a 8c a7 3e
       -0.013877893 0.25646248 0.2784945 0.3272403
000080 f3 ae 84 bc 25 99 b7 bd 64 8d 7b 3e 86 1e 72 3e
       -0.016196704 -0.08964757 0.24565655 0.23644456
000090 ab cc 46 be f9 ed 82 3e 19 06 73 3e 9f f8 c2 3e
       -0.19414012 0.25572184 0.23732795 0.38080308
0000a0 38 80 2f be e7 73 34 3e 71 70 9d 3c 8b ed a7 3e
       -0.17138755 0.17622338 0.019218655 0.32798418
0000b0 2b 97 a4 3e 93 02 9d 3d b5 60 94 3e c3 02 a6 3e
       0.32146582 0.076665066 0.28980032 0.32423982
0000c0 cc ad 41 be 0f eb 35 3e b8 f6 90 3e d1 6b 10 3e
       -0.18913954 0.17765449 0.2831323 0.14103629
0000d0 6d 51 38 bd 20 8f 37 3e 11 ad a7 3e bd dd 38 3d
       -0.04499953 0.17925692 0.32749227 0.04513334
0000e0 ce 76 ba 3e d0 5d b6 3e 63 84 a4 3e 71 98 4c 3e
       0.36418766 0.35618448 0.32132253 0.19980027
0000f0 cd b4 9f 3e bf 78 38 3e 0f 60 af 3e 62 75 cf bd
       0.31192628 0.18014811 0.34252974 -0.10129811
000100 b7 4c f9 bd ed 06 46 3e e7 37 c7 3d 9c 44 c3 3e
       -0.12172835 0.1933858 0.097274594 0.38138282
000110 77 70 0c bd 6f ac 4a 3d e7 8f 8c 3e f2 e7 32 be
       -0.034286942 0.04948085 0.2745354 -0.17471293
000120 cc 49 5a 3e 37 3d e5 3c 68 5a 24 3e 85 37 93 3e
       0.21317214 0.027983291 0.16050112 0.28753296
000130 6d c7 11 3e 27 55 f3 bd 1f 97 36 3e 19 41 c8 bd
       0.14236231 -0.11881476 0.17831086 -0.097780414
000140 81 38 1a 3e 78 2c af bd d8 3d 18 3c 9e ed 94 3e
       0.15060617 -0.085534036 0.009292088 0.29087538
000150 64 76 b6 be 3b 0d 1e 3c 59 09 66 be 99 b6 af be
       -0.356372 0.009646709 -0.22464503 -0.34318998
000160 6b 89 7e bd 5f 2b a1 be 51 44 d1 bc db 40 cb be
       -0.06214277 -0.31478402 -0.025545271 -0.39697918
000170 8e 17 b3 be fc c3 61 be 1c 2f 61 3c 7f 3a 67 ba
       -0.34978908 -0.22047418 0.013744142 -0.0008820667

foundation_model.down_path.1.block.0.bias f4 [8]
000000 12 ef 1f 3e 5d 69 93 3d 8c fe 49 be 7d 00 f7 3c
       0.15618542 0.07197831 -0.19726008 0.0301516
000010 e6 e4 64 bd 6a 05 18 3e 25 14 7a be 77 9a 00 3e
       -0.055882357 0.14845815 -0.24421747 0.12558924

foundation_model.down_path.1.block.2.weight f4 [8, 8, 3]
000000 f8 5f 44 3d cb 81 6b be 17 c7 5a be 91 84 cd bd
       0.047943085 -0.22998731 -0.21365009 -0.10035051
000010 05 1a 9e 3d 0c ad 74 be f9 6b 09 be 62 5f 07 be
       0.077198066 -0.23894137 -0.13420095 -0.1321998
000020 62 1c 91 be 17 36 83 be 84 af 4e 3d 1b f7 3d be
       -0.28341967 -0.25627205 0.050460353 -0.18551295
000030 b0 ae 81 be c6 e3 82 3d 92 35 2b be bf 54 db bd
       -0.25328588 0.063911006 -0.16719654 -0.107095234
000040 08 4a 88 be a9 cd e5 bd 5b 70 b3 bd 9e 36 0a 3e
       -0.2661898 -0.11220867 -0.087616645 0.13497397
000050 4e 80 81 be 26 df 46 3e 62 90 88 3e ed 65 ae 3c
       -0.252932 0.19421062 0.26672655 0.021288836
000060 be ed 89 3d 62 04 b9 3d 02 d5 4f 3e cb 43 e8 3d
       0.06734799 0.09034039 0.202961 0.113410555
000070 ad 8e 63 3e ca f4 79 3e 34 d7 6f 3e 39 e4 72 bd
       0.22222395 0.24409786 0.23421937 -0.05929968
000080 45 7d d0 bd b8 18 79 3e 65 4e e4 bb c0 9f 52 b9
       -0.10180143 0.24325836 -0.006967353 -0.00020086672
000090 73 f9 e7 3d 59 90 03 3e 82 7b a0 bd ad 4b c3 3c
       0.113268755 0.12848033 -0.07836057 0.023839796
0000a0 be 7b 87 3e e1 07 8a 3c 48 cd 04 3e 90 eb 87 bd
       0.26461595 0.01684946 0.12968934 -0.06636727
0000b0 f1 19 03 3e d0 70 a5 bd 9c a9 7b be 8f bd 4e be
       0.12802865 -0.08078158 -0.2457642 -0.20189498
0000c0 17 e2 4d 3d 41 e3 c7 3c c3 2b 4f 3d 12 49 68 bd
       0.050264444 0.024400355 0.050578844 -0.05671031
0000d0 b0 14 45 3e 47 39 eb 3c 9f 9e f8 3d a0 a6 c8 3d
       0.19246173 0.028713835 0.121396296 0.09797406
0000e0 c0 79 e0 3d 39 39 e9 3c f4 f6 00 bd 31 4f 27 3e
       0.10960722 0.028469669 -0.031485513 0.16338803
0000f0 68 0a 21 bd 11 cc 5e 3d 28 66 a7 3d 0c a9 31 3e
       -0.039316565 0.05439383 0.08173782 0.17349643
000100 8f 22 0a bd 28 ff 6f 3d 19 a4 d0 3d e1 9d 4b 3e
       -0.033724364 0.058592945 0.10187549 0.19884445
000110 05 8f 4b 3e f7 e0 a1 bd 0d 55 6d bd 6b f5 4c 3d
       0.19878776 -0.07904237 -0.05794244 0.050038736
000120 5d 57 c5 bd 1b a7 fa 3d a5 3d 01 bd b9 e4 ec 3d
       -0.09635804 0.12238904 -0.03155293 0.11567063
000130 12 75 6b 3e cf f5 a0 3c b3 64 05 3e 17 c0 16 3d
       0.22993878 0.01964846 0.13026695 0.036804285
000140 43 84 8d 3e 54 f0 e4 3d 9a 7c ad 3d e7 bf 4a 3e
       0.2763997 0.111786515 0.084710315 0.19799767
000150 c8 dc 9c 3d 9d f0 26 3e c7 bf 9b 3e 96 a4 b7 3d
       0.07659298 0.16302724 0.30419752 0.08966939
000160 aa 64 07 3e 14 a0 07 3e 6e db 69 3e 97 44 5a 3c
       0.13221994 0.13244659 0.22837612 0.013322017
000170 c0 e9 22 3e 5f e4 06 be 5c 96 0d be e0 ee 09 bd
       0.15909481 -0.13173054 -0.13826889 -0.033675075
000180 85 59 74 be 43 91 f9 bc 78 46 68 be 5e 8b 58 be
       -0.23862274 -0.030464774 -0.22683132 -0.21146914
000190 9d 82 02 be 50 3f 10 be d5 61 0d 3c d2 fe 3c 3d
       -0.12745138 -0.14086652 0.008629282 0.046141453
0001a0 c7 bb 89 be 95 12 33 3c 89 54 0b be 6c 39 b5 3c
       -0.26901075 0.010929723 -0.13606466 0.022122107
0001b0 90 aa 28 be da 0c 48 be e8 b3 58 3c 67 f7 1a bd
       -0.16471314 -0.19536152 0.013226487 -0.037833598
0001c0 e8 2a be bd b6 b1 18 be 1a 3a 50 bb 5e d6 6c be
       -0.092855275 -0.14911541 -0.0031772912 -0.2312865
0001d0 69 18 2b be 2b 4d 17 bd 1c 8e 33 3e d9 b3 b1 bd
       -0.1670853 -0.036938827 0.17534679 -0.08676881
0001e0 58 50 22 3e 7d b4 c3 bd b8 88 e0 3c cd c5 2f 3e
       0.15850961 -0.0955591 0.027408943 0.17165299
0001f0 35 35 87 3e b1 11 c6 3c a6 2b a1 3d 95 2b 5f 3e
       0.2640778 0.024178358 0.078696534 0.21793969
000200 39 c6 b4 3d 4b 27 5c 3e 48 8e 52 3e fb b6 74 3e
       0.088268705 0.21499364 0.20562088 0.23897927
000210 32 42 5c bd 88 4e d8 bd 3b 3e 36 3e 6b 51 d3 3d
       -0.053774066 -0.10561854 0.17797177 0.103182636
000220 99 9e 24 3d 2e bc b7 bd 1a d5 35 3e dd 16 5d 3e
       0.040190313 -0.08971439 0.17757073 0.21590753
000230 e4 ae ce 3d 43 14 d1 bd 4e 39 0a be 45 d4 4b be
       0.100919515 -0.10208943 -0.13498423 -0.19905193
000240 68 c5 3b 3e 4e b2 1a 3e 2b 44 2d 3d 7d df 37 3d
       0.18337023 0.1510708 0.04230134 0.04489087
000250 3f 8c 74 bd d6 85 3f 3b 65 88 de 3d 32 73 00 3e
       -0.05970406 0.002922406 0.10865859 0.12543944
000260 7e 9e 55 3e aa 27 b5 bd fc 0f 09 3d 89 e9 94 3e
       0.20861241 -0.08845456 0.03346251 0.29084423
000270 88 d7 82 3d 9a f4 76 3d 71 89 7c 3c ca be c6 3d
       0.063887656 0.060291864 0.015413628 0.09704359
000280 31 d0 1c 3e 91 99 67 bd 22 ef b4 3c b6 74 04 be
       0.15313794 -0.056542937 0.022086684 -0.12935147
000290 54 3b 26 bc 6e 4e 1d be 05 42 d0 3d f8 46 94 bd
       -0.010145981 -0.1536195 0.10168842 -0.07240099
0002a0 f7 3e 1f 3e 0d c8 5a bd b1 c5 72 3e 7f ec 40 bd
       0.15551363 -0.05341344 0.23708226 -0.04710054
0002b0 4d 5e 00 be 4e b1 a7 3d 8c c3 40 3e b3 04 4e 3d
       -0.12535973 0.08188115 0.18824595 0.05029745
0002c0 69 70 36 3e f8 68 a0 3e cc 40 32 3e 5b f3 87 3b
       0.17816319 0.31330085 0.1740753 0.0041488833
0002d0 88 ba 0e 3d 6d 8c a4 3c d7 d0 1f 3e b6 c5 da 3d
       0.03484586 0.020086491 0.1560701 0.106822416
0002e0 c8 71 e5 bd 08 44 d8 3d 7a d4 61 3e 3a c9 ad bb
       -0.11203343 0.10559851 0.2205371 -0.005303529
0002f0 a4 ce 38 bc 0f 41 ff bc 94 0b 2c be b1 8e 8a be
       -0.011279736 -0.031158952 -0.16801292 -0.2706199

foundation_model.down_path.1.block.2.bias f4 [8]
000000 1c b1 db 3d cd 0f 19 be da 6d 24 bc ff 9a e8 3d
       0.1072714 -0.14947434 -0.010035956 0.11357688
000010 5c 66 13 3e 73 b7 2a 3d 43 aa bb bd 8d e9 8e 3d
       0.14394516 0.041678857 -0.09163334 0.0697814

foundation_model.down_path.2.block.0.weight f4 [16, 8, 3]
000000 e4 f2 82 3d 94 74 77 bd bf 4b aa 3d 44 e8 aa bd
       0.06393984 -0.060413912 0.08315229 -0.083450824
000010 8b 01 34 bc 34 66 58 be 73 28 1d be e2 29 3e bd
       -0.010986696 -0.21132737 -0.15347461 -0.04642666
000020 e0 85 72 bb e3 65 95 be 5d 4a ac 3d 3e e8 2a 3d
       -0.0037006065 -0.29179296 0.08412621 0.04172539
000030 a7 36 e9 3c dd a2 62 3d 5e e9 da 3d 58 a1 be bc
       0.028468443 0.0553311 0.106890425 -0.023270294
000040 ba d5 66 be e1 d4 74 be 88 c5 ea 3d c8 e2 fe bd
       -0.22542468 -0.23909332 0.11463457 -0.12445599
000050 2a fd 29 be f2 a1 eb bd 69 ef 6f bd 07 c8 18 ba
       -0.1660048 -0.11505498 -0.05857793 -0.0005828146
000060 61 df 80 3c 7e ae a1 3d 53 d9 e4 bc fc 51 10 3e
       0.015731515 0.0789461 -0.02793566 0.14093775
000070 d8 8f 6a bb 52 1b 53 3e 3d d2 1a 3b e9 db 4f 3e
       -0.0035791304 0.2061589 0.0023623847 0.20298733
000080 01 e1 e0 bc 45 ea 73 3e 83 a0 20 3d f7 7e 2b 3d
       -0.02745104 0.23819835 0.039215576 0.04186913
000090 cb 7f da bd 57 af 02 3d d8 d6 15 be 2d 7a db bc
       -0.10668906 0.0319055 -0.14632738 -0.026791656
0000a0 2a 7d 41 bc 65 e0 87 3e ee 56 3c 3e 99 1a 0b bd
       -0.011809627 0.26538387 0.18392536 -0.033960912
0000b0 76 f5 44 bd 65 ec db 3d 12 b4 b2 bc 85 45 4c 3e
       -0.048085652 0.10738448 -0.02181438 0.19948395
0000c0 b5 ee 32 3d 41 ac 31 bc a2 f5 27 3e 9b b4 59 3d
       0.04368468 -0.010844291 0.16402295 0.053150754
0000d0 fb 7e 39 be 3d 3d 79 3d 01 79 c0 bd b8 d8 34 bc
       -0.18114845 0.060849417 -0.0939808 -0.011037998
0000e0 a1 01 f0 3d d1 41 3a 3d dc 89 92 be e7 73 91 be
       0.11719061 0.045472924 -0.28620803 -0.2840874
0000f0 2f 81 90 3d 43 8d 4a 3e 2b dc c5 bd ed 91 af bc
       0.0705589 0.1978045 -0.09661134 -0.021431888
000100 03 89 65 39 03 ac 76 be 26 ae 85 be 37 8d 55 be
       0.00021890183 -0.24089055 -0.26109427 -0.2085465
000110 b3 f9 ec 3d 0f ab e4 bd 85 30 6a be 32 eb a0 bd
       0.11571064 -0.11165439 -0.22870071 -0.0785736
000120 aa f5 99 3e 8e b4 80 3e 8f 72 0f 3e f7 76 ff bd
       0.3007024 0.25137752 0.14008544 -0.124738626
000130 4b 7f cd bd 7c 29 31 be 54 81 fa bd e5 fd a1 bd
       -0.10034045 -0.17300981 -0.12231699 -0.07909755
000140 c9 3c 8f 3d 16 41 93 be 31 16 40 bd 0c 53 45 be
       0.06994016 -0.28760594 -0.046896163 -0.19269961
000150 9e bd 6d 3e 63 28 bf bd 5d ca 16 3e f6 ee a5 3c
       0.23216864 -0.09333875 0.14725633 0.020255547
000160 16 14 ec bc 10 6b 00 bd 4f b3 11 be 47 70 fa bd
       -0.028818171 -0.031352103 -0.14228557 -0.122284465
000170 d0 4c 21 3d 0a a3 5f be f4 a9 66 bc 0f 32 67 be
       0.039379895 -0.21839538 -0.014078606 -0.2257769
000180 84 28 62 3e 5e 19 75 3e 93 3a 78 3d 85 dc bc 3d
       0.22085768 0.23935458 0.060602736 0.09221748
000190 48 20 73 be 1d c3 40 bc 3e 42 47 be 2b 5b 24 3d
       -0.23742783 -0.011765269 -0.19458863 0.040126007
0001a0 d3 55 8d be e8 51 f0 bd 4d dd 5a 3d fa 7c ca 3d
       -0.2760454 -0.117343724 0.053433705 0.09887119
0001b0 45 b6 a0 3c 03 36 2c 3e a6 17 5e 3e 10 22 6b be
       0.019618163 0.16817479 0.21688709 -0.22962213
0001c0 1d df 22 be d8 33 af bc 51 d0 9a 3c 81 45 91 3c
       -0.15905423 -0.021387026 0.018898161 0.017733337
0001d0 03 1c 2c 3d f0 69 c0 bd 1f 67 68 be 6b 71 72 be
       0.0420189 -0.09395206 -0.22695588 -0.23676078
0001e0 c3 2c 56 3e 16 1a 03 3e 6c c2 fe 3c 04 38 69 be
       0.20915513 0.1280292 0.031098567 -0.22775275
0001f0 69 ba 80 be 48 aa 93 bd fc 76 3d be 4d 46 3b be
       -0.2514222 -0.07210213 -0.1850242 -0.18288536
000200 c0 2c da 3c 1e 31 88 be 2a 28 b7 bd 41 dc 53 bd
       0.026632667 -0.26599973 -0.089432076 -0.051723722
000210 13 44 22 bc 67 70 c5 3d 9f 28 97 3d 43 a2 40 be
       -0.0099039255 0.0964058 0.07380795 -0.18811898
000220 7b 61 fd ba 9c 8f 7a be a9 87 20 3d c2 62 45 be
       -0.001933142 -0.24468845 0.039191876 -0.19275954
000230 9a 92 0c be 62 11 81 be 9d ed c4 bd 8f e8 84 be
       -0.13727799 -0.25208575 -0.09615634 -0.25958678
000240 9b b8 f5 3d 54 75 1b 3e e1 7b d3 3d fb 00 63 be
       0.11998101 0.15181476 0.103263624 -0.22168343
000250 94 ca 21 be a7 7d 78 be 1f a8 10 3d 95 2c 65 be
       -0.15799934 -0.24266683 0.035316583 -0.22380288
000260 ec 2b e6 3d 7f 0c 82 3d 89 af 2d be a7 73 90 be
       0.11238846 0.0635004 -0.16961493 -0.28213236
000270 31 68 bb 3c b2 97 e2 3c b1 75 a7 bd ca c5 63 bc
       0.02287683 0.027660225 -0.08176745 -0.013902137
000280 b9 1d 92 be 3e 14 74 3d 8f 01 8d 3d 25 55 b8 bd
       -0.28538302 0.059589617 0.06885063 -0.09000615
000290 e8 0b f5 3c be 71 96 bc 35 ed 42 3d 2b 00 cb 3b
       0.029912904 -0.018364783 0.0475895 0.0061950884
0002a0 da 5d 01 3e a8 1c 8f be b8 fc 69 be 43 f0 8f bd
       0.12633458 -0.2795155 -0.22850311 -0.07028248
0002b0 e7 6e a6 bc f8 02 52 bd d4 60 7e 3e 62 55 07 be
       -0.020316554 -0.051272362 0.24841624 -0.13216165
0002c0 bc 6a 29 3d 1a b1 61 3e aa c9 09 3e b6 dd cc 3d
       0.041361555 0.22040215 0.13455835 0.100032255
0002d0 ec cd 0f be 18 74 0a 3e 9a 6c 93 bc b3 f1 32 3e
       -0.14043397 0.13520849 -0.017996121 0.17475013
0002e0 a1 b8 e6 bd 69 e5 75 3e 4a 37 ff bd 43 82 be 3c
       -0.11265684 0.24013294 -0.124617174 0.023255473
0002f0 ef d3 83 3e f8 8d 02 3e 2a a8 81 3e fb 1f 3a 3e
       0.2574763 0.1274947 0.25323611 0.18176262
000300 b2 64 98 ba 7a 67 87 be 30 2a 14 3d 95 b1 66 3e
       -0.0011626689 -0.26446134 0.036173046 0.2252868
000310 7f 1b 69 3e c1 0c 42 bd 11 65 02 3e 7f 75 82 3e
       0.22764395 -0.047375444 0.12733866 0.25480267
000320 d6 d9 14 3e 7b 19 3d 3e 47 ab 05 be 89 92 88 3e
       0.14536223 0.18466751 -0.13053618 0.26674297
000330 5f 50 97 3d da fd 47 be ba 62 21 be c0 42 c9 bd
       0.073883764 -0.1953043 -0.15760317 -0.09827185
000340 07 eb 0b 3e fe be 01 3e 2b 28 60 bd 49 15 87 3d
       0.13663875 0.12670514 -0.054725807 0.06595857
000350 09 96 42 3e 12 6b 5a 3e 17 5d 34 3e 46 d6 a0 3d
       0.19002546 0.21329907 0.17613636 0.078533694
000360 cd d9 48 bc 8b cc ea 3d ba 94 65 be 9b 37 47 bd
       -0.012258959 0.11464795 -0.22420016 -0.048637014
000370 f3 c3 63 3e 36 9a 47 bd 06 31 46 3e 5f cf 3c bc
       0.22242717 -0.04873105 0.19354638 -0.0115240505
000380 2d a3 4f 3e 33 bd b1 3d c1 18 52 3e 8d 72 8b 3e
       0.2027709 0.08678665 0.20517255 0.27235833
000390 eb 97 a7 bd de d1 d5 3d 5e ea ae bd 4a a6 20 3d
       -0.08183273 0.104404196 -0.08540796 0.039221086
0003a0 34 b0 b7 3d 60 0e 5c 3e 46 47 e8 3d eb 60 9e 3c
       0.08969155 0.21489859 0.11341719 0.019333323
0003b0 07 1f e3 3d 41 2a fb 3b bd f6 01 3e 34 bf 94 3d
       0.11089902 0.007664949 0.1269178 0.072630316
0003c0 ce 2e 3b bc af 95 46 bd f1 51 21 3c 87 bb c6 3d
       -0.011424733 -0.048482593 0.0098461965 0.09703737
0003d0 76 a9 91 be b1 e3 86 be 3a ef 59 be 6f d6 6c be
       -0.284496 -0.2634559 -0.21282664 -0.23128675
0003e0 52 1f 20 be 1b 89 d2 bc e1 51 88 be d6 a1 24 be
       -0.15636948 -0.025700143 -0.2662497 -0.1607736
0003f0 c6 4c 20 bd a1 33 0a 3d dc f8 82 3e d8 07 1d bd
       -0.039135717 0.033740643 0.2558049 -0.03833756

foundation_model.down_path.2.block.0.bias f4 [16]
000000 c7 1b 41 3e 9a 7e 60 be f6 8b cb 3d 05 36 38 3e
       0.18858252 -0.21923295 0.09938805 0.17989357
000010 1d d9 e6 3d b3 a5 bc 3d 61 82 6b 3d da e1 a2 bd
       0.1127188 0.09211292 0.057497386 -0.07953234
000020 fd 63 ab bc c3 79 4a bd 11 bf bf 3d 36 d4 76 bd
       -0.020921702 -0.049432527 0.09362615 -0.060260974
000030 1b cb cc bc 82 9f 34 be d5 1f 03 3e d0 f9 55 3e
       -0.024999192 -0.17638972 0.12805112 0.20896077

foundation_model.down_path.2.block.2.weight f4 [16, 16, 3]
000000 4d fe a2 3d 94 3f cd 3d fe 8c c3 3d 41 72 80 bd
       0.0795866 0.10021892 0.095483765 -0.06271792
000010 e2 4e a5 bd 35 f0 1a be fe dd c5 3b 61 78 97 bc
       -0.08071686 -0.15130694 0.0060384264 -0.018490018
000020 10 31 2c 3e a0 8e 3b 3d f6 13 86 3d da 36 15 3d
       0.16815591 0.045790315 0.06546776 0.036429264
000030 ca 68 37 3e db 7e 41 3e a4 8f 58 3e 39 82 ee 3d
       0.17911068 0.18896048 0.21148545 0.11645932
000040 78 1f a9 bc cd 76 f2 3d e2 d5 1d 3e bc 84 e6 3d
       -0.020644888 0.11839066 0.15413621 0.11255786
000050 bd a6 24 3e ae 55 2b be 20 43 a1 ba e8 95 de bd
       0.1607923 -0.16731903 -0.001230333 -0.10868436
000060 d5 c9 3c 3c fe 94 24 3d 31 68 2c be 4f 6e e5 bd
       0.01152273 0.040181153 -0.16836621 -0.1120268
000070 c2 10 39 bc a2 6e 56 be b6 21 44 3c 6c 6c 72 3d
       -0.011295499 -0.2094064 0.011970928 0.05918543
000080 b3 1c 06 3e 9e 8d 0a 3e 70 c2 b9 3d a7 97 a5 3d
       0.13096885 0.13530585 0.09070289 0.08085566
000090 a4 a4 77 bb 9e 34 68 bd 2d 44 2f be 81 ca 44 be
       -0.0037787342 -0.056690805 -0.17115851 -0.19217874
0000a0 86 07 08 be 53 03 0a be b6 ce 2c 3e 68 13 2f 3e
       -0.1328412 -0.1347783 0.16875729 0.17097247
0000b0 ec 47 58 3b af 3c a7 3d 28 89 79 bd cf 84 bb 3c
       0.0033001853 0.08165871 -0.060921818 0.022890477
0000c0 24 8d 18 3e 4b c8 14 3d 5a 16 7a bd e3 ab 78 3d
       0.14897591 0.036323827 -0.061056472 0.0607108
0000d0 65 68 a7 bd 61 1a 67 3d e0 4c 2c 3e 83 90 56 3e
       -0.081742086 0.05642164 0.168262 0.20953564
0000e0 92 88 0f 3e 6e 44 5f 3d 71 58 80 3b 43 28 83 bd
       0.14016941 0.05450862 0.003916793 -0.06404164
0000f0 c2 a1 f3 bc 61 63 84 3d 3b ac 60 3e bb 97 90 3d
       -0.029740218 0.064642675 0.219407 0.0706019
000100 51 96 68 3e 58 1e 0c 3d aa 88 6d 3c 0c 43 e1 3d
       0.22713591 0.034208626 0.014497915 0.10999116
000110 88 ef d7 3d ee 9e 59 bc 00 69 35 be 9f 21 e3 bd
       0.10543734 -0.013282521 -0.17715836 -0.11090397
000120 08 7d 72 3b 84 a9 e8 bd d2 d6 20 be 33 07 a6 3c
       0.0037000794 -0.113604575 -0.15706947 0.020267105
000130 f9 c5 05 be eb ed 32 be 41 0b b5 3d 45 14 65 3a
       -0.13063802 -0.17473571 0.08840037 0.0008738677
000140 9f b8 1d 3e 9f d9 34 3d 93 e9 3e 3e cc 57 c3 3c
       0.15402459 0.044152852 0.18643789 0.023845576
000150 a0 af 16 bd 6c e1 b3 bd bb 4f 2a be 74 c9 ec bd
       -0.036788583 -0.0878323 -0.16631977 -0.11561862
000160 d9 12 3a 3c d6 3f 93 bc 39 c6 d7 bc e9 d7 f3 3d
       0.011357033 -0.017974775 -0.026339637 0.11906416
000170 ba da 2b 3d 0b 87 40 3e 18 39 44 3e 70 6e 2d 3e
       0.04195664 0.18801515 0.19162405 0.1693666
000180 e9 80 22 3e 85 51 64 bd ca e0 a6 bd f0 60 cd bd
       0.15869488 -0.055741806 -0.08148344 -0.10028255
000190 fe e8 51 bd dc 76 34 be 46 95 02 3e 84 1d 70 3d
       -0.05124759 -0.17623466 0.12752256 0.0586219
0001a0 e7 af 6b 3e 42 a6 34 3e 54 6d 3c 3e bc f5 3a 3d
       0.2301632 0.17641547 0.1840108 0.045644507
0001b0 d2 aa 4a 3e b6 06 e1 3a a4 9d cc 3c 58 28 f7 3d
       0.19791725 0.0017168138 0.024977513 0.12068242
0001c0 f2 11 5c 3d e9 03 1d 3d c9 9d b8 3d a8 99 19 3e
       0.05372805 0.038333807 0.0901447 0.15000021
0001d0 f3 a2 81 3d 6a 6b 01 be f3 ec cb 3c 01 70 b8 3c
       0.06329908 -0.12638631 0.02489326 0.022514345
0001e0 fb 2f 98 bd ee 09 a5 bd 3b e4 2c be 4a a2 2b be
       -0.074310265 -0.080585346 -0.16883938 -0.16761127
0001f0 a0 44 0c be b5 b1 cd bc be 92 5b 3e 52 30 fa 3d
       -0.13698053 -0.025109151 0.21442696 0.122162476
000200 b1 66 4f 3e fa 5f 37 3e e1 b4 d1 3c aa 47 bb 3c
       0.20254017 0.17907706 0.025598945 0.02286132
000210 36 43 35 be b8 6c e8 bd ee 5c d7 bd cf 19 41 bc
       -0.1770142 -0.113488615 -0.10515772 -0.011785938
000220 7f 3c e6 bb 79 32 06 ba d9 1e ad 3d b5 de 0a 3d
       -0.0070262547 -0.00051192153 0.08453149 0.033903796
000230 32 1d 07 3e 3c e0 de bc bc 4b 37 3e 41 53 a3 3d
       0.13194731 -0.027206533 0.17899984 0.07974864
000240 31 db b2 bd 0b 5c 87 3d 09 59 1b be 1b 1c 49 3c
       -0.08733214 0.06609353 -0.15170683 0.012274767
000250 86 58 a3 bd 86 31 8d bd 06 07 a9 bd e8 83 53 bc
       -0.07975869 -0.068942115 -0.08253293 -0.012909867
000260 9d 4f 45 3d 16 71 8c 3d f6 2f 31 be 38 b4 2a 3d
       0.04817163 0.06857507 -0.17303452 0.041675776
000270 a5 85 5d bd 97 c8 fe 3b 6c af ce bd d2 84 34 3d
       -0.05408253 0.007775377 -0.10092053 0.04407198
000280 07 68 4a be 27 ff 0f be 4c c5 f2 bd 63 06 35 be
       -0.19766246 -0.14062177 -0.11854038 -0.17678218
000290 db 9e 97 3d bb 8f 27 3d cd 78 87 3d 24 23 c4 3c
       0.07403346 0.040908556 0.06614838 0.023942538
0002a0 b3 56 a2 3d b6 35 8c 3d 7e 5d 83 3d 10 ee 22 bc
       0.07926693 0.06846182 0.064143166 -0.009944454
0002b0 87 2f 00 3e b9 77 06 3e e9 6e f3 3c 0d 42 2d 3d
       0.1251813 0.13131608 0.029715972 0.04229932
0002c0 08 22 29 be 0d 2f 4f bd b1 e5 4b be 2d e1 26 3d
       -0.16516888 -0.05058198 -0.19911839 0.040742088
0002d0 f6 d5 44 3e 85 73 cd bc 73 b3 93 3d be c4 3f 3c
       0.19222245 -0.025079498 0.072119616 0.011704622
0002e0 39 cd 27 3e bd 56 2f 3e 20 2f 25 be 14 38 11 be
       0.1638688 0.17122932 -0.16131258 -0.14181548
0002f0 f2 5c b1 3d e1 6a e0 3d b0 77 1c be 41 51 aa 3d
       0.08660306 0.109578855 -0.15280032 0.08316279
000300 32 47 d3 3c d3 ca 43 3e 20 36 37 bd dc c8 17 be
       0.025790785 0.1912034 -0.044729352 -0.14822716
000310 7b a9 db bd 6d 0c da bd de 44 c1 bd 51 ed 86 bc
       -0.10725685 -0.10646901 -0.094369635 -0.016470583
000320 40 57 c2 bd bc 61 89 bd 01 3c 2c 3e b9 a8 9c bd
       -0.09489298 -0.067080945 0.16819765 -0.07649369
000330 ba 85 47 3d 28 2a cc 3c d9 be 07 3d 70 08 f5 bc
       0.048711516 0.024922445 0.03314099 -0.02991125
000340 07 9c bc 3a a5 57 6e bd ce 3a 9a bd ce 47 8e bd
       0.0014389761 -0.058189053 -0.07530747 -0.069472894
000350 0b cf 8a bc 78 81 99 bd 5c 38 78 bd fd 57 76 bd
       -0.016944429 -0.07495397 -0.060600623 -0.060142506
000360 ad 22 1c be c8 3b 2d 3d 8f dd 4b 3d bc 34 11 be
       -0.15247603 0.04229334 0.04977184 -0.14180273
000370 39 eb 89 3d 77 c3 db 3c 50 db 09 3d 7e b5 9b bd
       0.06734318 0.026826603 0.03365642 -0.07602976
000380 87 4c f0 3d 55 f8 02 3c e4 52 e1 bc 3a d2 0a 3e
       0.117333464 0.007993777 -0.027505346 0.13556758
000390 38 2f e0 3d a9 ff 0d be ce 07 fd 3b 4a 38 04 bd
       0.10946506 -0.13867058 0.0077218777 -0.032280244
0003a0 c8 bc aa bc 27 b8 2d be cc a6 8f 3d 59 8b 74 bd
       -0.020841971 -0.1696478 0.07014236 -0.059703205
0003b0 57 d9 f8 3d b0 17 9a 3d c8 c8 6d bd c6 95 f4 3d
       0.12150829 0.07524049 -0.058052808 0.119426295
0003c0 53 cb 16 3c 2a 0b 85 3c 4b c8 20 bd 5e e6 d5 3d
       0.00920375 0.016240675 -0.039253514 0.1044433
0003d0 98 4d 13 3e 64 0c 84 bd 88 d6 b9 3d 32 43 b5 bd
       0.14385068 -0.06447676 0.09074122 -0.08850707
0003e0 9b 04 25 3d 0c 1f 77 3c ff b1 ed ba 1e a7 9a bd
       0.040287595 0.015083086 -0.0018134712 -0.07551406
0003f0 82 b2 3f bd f7 41 d8 bd a4 0e 83 3c c9 d7 34 be
       -0.046801098 -0.10559457 0.015998192 -0.1766044

foundation_model.down_path.2.block.2.bias f4 [16]
000000 d2 8b 27 3e f2 e1 e7 3d e0 f1 c6 3d c6 5b 86 3c
       0.16361931 0.113223925 0.09714103 0.016401183
000010 05 cb 33 3e a5 25 de bd 79 57 e4 bb e3 16 33 3d
       0.17557915 -0.10847024 -0.0069684354 0.043723
000020 e4 33 20 3e c7 70 1f 3e cb cf 25 be af ed 36 3e
       0.15644795 0.15570365 -0.16192548 0.17864107
000030 10 dd f2 3c cb 6b 29 3c 2c 40 a6 3c fc cb 0a 3e
       0.029646426 0.010340641 0.020294271 0.13554376

foundation_model.up_path.0.up.weight f4 [16, 8, 2]
000000 00 df 5a 3e 44 8f 8f 3d 08 2c 46 bd f2 60 3d 3e
       0.2137413 0.070097476 -0.048381835 0.18494013
000010 e0 6d 89 bc a8 f3 e8 3d da 7a 4b be 52 aa 03 3e
       -0.016776025 0.11374599 -0.19871083 0.12857941
000020 18 64 43 3d 80 c8 eb bb a8 d3 a5 3d 30 b7 1e be
       0.04770288 -0.0071955323 0.08097011 -0.15499568
000030 ec 11 38 be cc e9 3a be d8 c3 3e be 70 9b 11 3e
       -0.17975587 -0.18253249 -0.18629396 0.14219451
000040 f8 49 01 be d0 32 2e 3d 98 ed 7a be 40 e1 5c 3e
       -0.12625873 0.042528927 -0.24504697 0.21570301
000050 a0 43 34 3c 90 a1 16 3d 82 bb 78 be e0 e7 1b 3d
       0.011002451 0.03677517 -0.24290279 0.03806293
000060 f8 72 ce bd 2c 3c 7c 3e ba 6a 21 be f0 63 62 bd
       -0.10080522 0.24632329 -0.15763369 -0.05527109
000070 a8 eb 02 bd 20 ee 1d be 6c 7d 6a 3e 8a 2b 6b 3e
       -0.03196302 -0.15422869 0.22899407 0.22965828
000080 0c a3 25 3e f0 37 64 bd 40 64 92 3d 7c 9a 00 be
       0.16175479 -0.05571741 0.071480274 -0.12558931
000090 96 ee 02 be 70 da 2a bd 4c c2 c6 3d 30 be ab bd
       -0.12786326 -0.041712224 0.09705028 -0.08385885
0000a0 b0 a3 5f 3d 34 74 98 3d 08 4c 52 3e d0 39 57 3e
       0.054599464 0.07444039 0.20536816 0.21018147
0000b0 d0 e5 24 bd a8 56 7b be 88 07 5a 3d cc 4a 45 3e
       -0.04025823 -0.24544775 0.05322984 0.19266814
0000c0 58 c4 60 be b2 6b 06 be 6a b9 59 3e ec 3e 06 3e
       -0.21949899 -0.1312702 0.21262136 0.1310994
0000d0 00 d0 3b 39 34 3b 5c 3e 08 4b d4 bd b0 d7 27 3e
       0.00017911196 0.21506959 -0.103658736 0.16390872
0000e0 d8 71 d0 3d 90 49 84 bc d0 dc c9 bd bc c3 58 3e
       0.10177964 -0.016148359 -0.0985657 0.21168417
0000f0 86 17 57 3e ba bd 6e 3e 6c 3d 5b 3e e6 50 51 be
       0.21005067 0.23314562 0.2141015 -0.20441017
000100 7a ab 46 be 92 96 0d 3e b0 d7 3e bd 94 27 1e 3e
       -0.1940135 0.1382697 -0.046592414 0.15444785
000110 96 88 21 3e c2 81 3a 3e 40 fd 70 be d0 e0 9d bd
       0.1577476 0.18213561 -0.23534107 -0.07708895
000120 62 2d 5c 3e ec bf 68 3e 80 53 4a 3c 00 af 60 3b
       0.21501687 0.22729462 0.0123490095 0.0034283996
000130 02 ac 4e be 26 3c 4f 3e 30 62 89 3d ee 38 4b be
       -0.20182803 0.20237789 0.06708181 -0.19845936
000140 b0 80 57 3e 94 6a 5f be e4 38 b0 3d 8a 41 7a be
       0.21045184 -0.21818 0.08604601 -0.24439064
000150 d4 33 00 3e a8 55 c2 3d d6 1f 5d 3e 72 27 1e be
       0.12519771 0.09488994 0.21594176 -0.15444735
000160 ee 0f 10 3e 3a ae 5c be a8 f9 65 bd 7e 86 64 3e
       0.14068577 -0.21550837 -0.056146294 0.2231693
000170 50 9f 61 3d 18 8f 15 be 70 2c eb bd f0 8c 78 3e
       0.055083573 -0.14605367 -0.11483085 0.24272513
000180 f2 62 79 be 26 72 5a be 38 62 18 3d 30 58 ed bc
       -0.24354151 -0.21332607 0.037203044 -0.028972715
000190 bc 21 f7 3d 40 06 56 bd 0a e5 36 be 0c 2d d0 3d
       0.12066981 -0.052252054 -0.17860809 0.10164842
0001a0 38 8e 00 3e 20 06 97 3c 24 9a 0c be ac c1 3f be
       0.12554252 0.018435538 -0.13730675 -0.18726224
0001b0 90 c5 0d be e0 a2 e2 3c 90 60 c1 bc 18 a1 2f be
       -0.13844895 0.027665555 -0.023605615 -0.17151296
0001c0 30 6f 39 bd 10 7b cb bd 20 a4 0c bd 74 81 c3 3d
       -0.045272052 -0.09935582 -0.03433621 0.095461756
0001d0 c0 6d dc 3c 9c 2f 74 3e ec 57 7d 3e e8 81 14 be
       0.026907802 0.23846287 0.24740571 -0.1450268
0001e0 8c 7c a2 bd a0 b4 f1 3d 20 d9 cd bd 1e 43 74 be
       -0.07933912 0.118020296 -0.10051179 -0.23853728
0001f0 20 a8 08 3c 3a 2a 66 3e 58 31 29 3d 38 04 52 3e
       0.008340865 0.22477046 0.041306823 0.20509422
000200 a0 52 68 3e b8 cf 61 be d8 f6 88 3d 62 1b 18 3e
       0.22687769 -0.22051895 0.06687707 0.14854196
000210 f2 e8 27 3e 70 4e 0c 3d 30 b8 e6 3c d2 15 3c 3e
       0.16397455 0.03425449 0.028164 0.18367699
000220 14 e8 22 3e a6 01 2c 3e 70 bc 34 bd b8 6e 0e 3d
       0.15908843 0.16797504 -0.04412502 0.03477356
000230 80 d7 83 3d 70 b7 43 be 6a ee 61 3e 6a a6 29 be
       0.06437588 -0.19112945 0.22063604 -0.16567388
000240 e8 7d 96 bd f0 1a 92 3d d0 95 a9 bd 60 70 d5 bd
       -0.073482335 0.07134044 -0.082805276 -0.104218245
000250 98 55 42 3e 88 71 01 3d b8 4a 63 3d 78 d5 97 bd
       0.18977964 0.031602412 0.05549118 -0.07413763
000260 f8 74 68 3e 16 e3 43 3e 66 84 4c be b0 84 69 be
       0.2270087 0.19129595 -0.19972381 -0.22804523
000270 26 3c 5b be 0e 4a 4e 3e 82 51 21 3e 44 d9 0f 3e
       -0.21409664 0.20145437 0.15753749 0.14047724
000280 90 d7 2a be 08 b3 8d 3d 18 4c 56 3e 82 8e 51 3e
       -0.16683793 0.06918913 0.20927465 0.20464519
000290 64 91 6e 3e 68 1c d9 3d 68 ed 3d 3d fe b4 58 be
       0.2329765 0.10601121 0.046368986 -0.21162793
0002a0 04 6f d5 3d 30 0d 0f 3e 5e c6 22 3e 30 f0 4d bd
       0.10421565 0.13969874 0.15895984 -0.05027789
0002b0 f6 5c 42 be a0 d4 49 bd 80 e5 6d bc f0 ac 43 3d
       -0.18980774 -0.04927504 -0.014520049 0.047772348
0002c0 40 f2 35 be 90 31 b1 3c 08 36 71 be 88 cd 2c be
       -0.17768192 0.021630079 -0.23555768 -0.16875279
0002d0 e0 0d 51 bd 2e e8 00 be aa 22 5c be 14 03 c5 bd
       -0.051038623 -0.1258857 -0.21497598 -0.09619728
0002e0 68 e8 84 3d 88 dc b6 3d 80 6e 5a 3b 90 b6 93 3c
       0.064896405 0.08928782 0.0033330023 0.018031389
0002f0 04 41 67 be f0 b5 85 bc a0 f8 9e bc 2a 32 67 3e
       -0.22583395 -0.016322106 -0.019405663 0.2257773
000300 48 0f 27 bd 20 a0 d5 bd e4 44 94 3d e0 1d 60 bc
       -0.040786058 -0.10430932 0.07239702 -0.013678998
000310 9a a4 19 3e e8 ff 6c 3e 5e 0c 05 3e ac f9 16 be
       0.15004197 0.23144495 0.12992999 -0.1474368
000320 d8 d9 b7 bd 66 e1 01 3e f8 7a 2b bd 84 e4 c3 bd
       -0.08977097 0.12683639 -0.04186532 -0.0956507
000330 ae 94 27 3e ec ef 66 be 88 63 7a be 78 58 c4 3d
       0.1636531 -0.2255246 -0.2445203 0.095871866
000340 94 ad 71 3e e0 bf 31 3d 04 dd 2c be f8 a6 38 be
       0.23601371 0.043395877 -0.16881186 -0.18032444
000350 00 e2 07 bb e2 fe 22 3e f2 ec 2f 3e 0c ae ca bd
       -0.0020734072 0.15917543 0.17180231 -0.09896478
000360 d8 4d aa bd 50 64 ed 3d b4 5d 75 3e 00 60 d8 3d
       -0.08315629 0.11591399 0.23961526 0.105651855
000370 b0 75 1f be 40 cf b0 3c 40 fc 9f bc c0 43 48 3c
       -0.15572238 0.0215832 -0.019529462 0.012223184
000380 90 b2 47 3d 70 56 5f 3e ee 26 3d 3e e4 21 5f be
       0.048754275 0.21810317 0.18471882 -0.21790272
000390 de c4 61 3e 70 68 b0 3d 7a d2 7d be b0 2d 63 3e
       0.22047755 0.0861367 -0.24787322 0.22185397
0003a0 18 cf d4 3d 48 a8 6e be 54 3f c3 bd dc 09 d7 3d
       0.103910625 -0.23306382 -0.09533563 0.104999274
0003b0 1c 15 fa 3d 96 63 59 be d0 a0 e5 bd 64 99 90 3d
       0.122110575 -0.21229395 -0.11212313 0.07060507
0003c0 d4 d1 0c 3e fc c7 77 be 0a b2 5c 3e d0 1e b2 bc
       0.13751918 -0.24197382 0.21552292 -0.021743208
0003d0 70 28 a3 bc 00 d9 e7 3d 80 5f 45 3e 6e 21 56 3e
       -0.019916743 0.11320686 0.19274712 0.2091119
0003e0 aa a2 03 3e 26 66 62 be 90 36 b4 bc 88 4c c8 bd
       0.1285502 -0.22109279 -0.021998674 -0.09780222
0003f0 20 9f 3b 3e 54 3d 7e 3e d4 b7 1d be e0 73 7a 3c
       0.1832242 0.24828082 -0.15402156 0.015286416

foundation_model.up_path.0.up.bias f4 [8]
000000 f4 c9 ac bd 18 0f 19 be 10 40 e7 3d f8 27 5d bd
       -0.08436957 -0.14947164 0.11291516 -0.053993195
000010 b2 c7 6a 3e 5e 82 50 be 00 bf a6 3d 82 8f 12 3e
       0.2292774 -0.20362231 0.08141899 0.14312556

foundation_model.up_path.0.conv_block.block.0.weight f4 [8, 16, 3]
000000 e8 a4 8b 3d 04 41 00 3e 8e fb da 3b 82 c5 7b bc
       0.06818563 0.12524801 0.0066828197 -0.015366914
000010 1e 6a a9 3c 0c a8 90 3d ec 27 77 3d 6a 52 c6 bc
       0.020680483 0.070633024 0.060340807 -0.02420922
000020 a9 12 20 3d 8d f4 3d bc 5c ce a5 3d b5 57 9b 3c
       0.039080296 -0.01159395 0.080960006 0.01896272
000030 52 54 e5 bd 45 43 ef 3c 45 16 c6 bd 35 25 6c bd
       -0.111977234 0.029206881 -0.09672216 -0.05765267
000040 62 b1 bf 3d 69 6d d9 3d 4f ef 07 3e bc d5 d1 bd
       0.09360005 0.106165715 0.13274883 -0.10245845
000050 2c bc 08 be 7e d6 a2 bc bf fd fe 3c b8 82 8e 3d
       -0.13353032 -0.019877668 0.031126855 0.069585264
000060 7d 0d a5 bc 3e 69 e5 3d 17 61 dd 3d e2 3c 99 3d
       -0.020148033 0.11201714 0.10809534 0.074823156
000070 63 a4 13 be 0d 54 fe bd a5 37 50 bd 92 c4 b3 bd
       -0.14418177 -0.12418375 -0.050834317 -0.08777727
000080 bd 6b af 3d 6c d9 2c 3d 57 e4 ae bd 46 67 06 3e
       0.08565471 0.042199537 -0.08539646 0.13125333
000090 bd b8 13 3e bd 57 12 be 31 4c e4 3c 6f a9 49 3d
       0.14425941 -0.14291282 0.027868362 0.04923385
0000a0 a0 5d e8 3d 8e 99 13 be 6e c5 74 3d 6a 11 ea bc
       0.113459826 -0.14414045 0.059758596 -0.028572757
0000b0 12 9e 7f 3d fe 1f 1d 3a da a2 f3 bd bd 00 60 3d
       0.062406607 0.0005993842 -0.11896296 0.054688204
0000c0 1f b5 f7 bb f5 ac dd bd 9b 3c 01 3d 8d f3 cb bc
       -0.007559433 -0.108240046 0.03155194 -0.024896407
0000d0 0e af a6 bc 88 c9 bf 3d 16 d6 7a bd 30 26 26 3c
       -0.020347144 0.09364611 -0.061239325 0.010140941
0000e0 d6 90 f4 bc 94 6d d3 3b 19 0d 65 3d 72 86 10 3d
       -0.02985422 0.0064522717 0.055920694 0.035284467
0000f0 ac a9 01 bc fd 36 5b 3d 09 7f cc bd 39 c6 40 3d
       -0.007913988 0.053519238 -0.099851675 0.04706404
000100 54 89 59 3c f0 ef 90 bd a3 5f 8f 3c be cd 9f bd
       0.0132773705 -0.070770144 0.017501658 -0.07802914
000110 42 5b c0 bd f4 5d 97 bd ea a4 8a 3d 31 35 d0 3d
       -0.09392406 -0.07390967 0.06769736 0.101663955
000120 73 6b 0a bb d0 35 28 bd ad 10 ed 3c 3a e4 0b be
       -0.0021121174 -0.041066945 0.028938616 -0.1366128
000130 90 c2 44 bc f1 d9 c0 bb 8c 05 71 bd 54 da fe bd
       -0.012009278 -0.0058853556 -0.05884318 -0.124439865
000140 a7 88 13 3e ad e8 f5 bd 8a e6 94 3b e5 af a8 3d
       0.14407597 -0.1200727 0.004544084 0.08236674
000150 40 43 ef bd d6 f7 ae 3d 82 12 d1 bd d2 8a d1 bd
       -0.11682749 0.08543365 -0.10208608 -0.10231556
000160 b5 c5 a4 3d cc 2a e4 bd ee 79 bc bd f3 e3 e7 bd
       0.08045522 -0.11140975 -0.09202944 -0.11322775
000170 8f 06 ff 3d 8f 0b 9c 3d 7d 94 63 3c 2c 87 65 bc
       0.12452423 0.07619392 0.013890383 -0.014009278
000180 17 cf da 3d aa 93 c9 3d f7 20 4e 3d ee 51 b1 bd
       0.106840305 0.09842618 0.050324406 -0.08658205
000190 43 fe 90 3d e1 a6 b0 bd c4 e9 a7 bd 8d 16 ad bd
       0.070797466 -0.086255796 -0.08198884 -0.08451567
0001a0 8d 46 ee bd d4 02 ea 3d c6 61 66 bb fe 4e 9a 3d
       -0.1163455 0.11426321 -0.0035153492 0.07534598
0001b0 b1 47 ef bd 6e 5a 7e bc 18 d7 04 3e e8 d7 77 bb
       -0.11683596 -0.01552449 0.12972677 -0.00378179
0001c0 4a 69 76 ba a2 ce 79 bc 4c 1f c0 bd 0b f6 8e 3d
       -0.00093998446 -0.015247019 -0.093809694 0.06980523
0001d0 9c 31 cd bd d0 7b 6e 3d 2a 9f 11 bd c8 c4 10 3e
       -0.10019228 0.058223546 -0.03555218 0.14137566
0001e0 31 d0 db 3d 27 b2 f7 bd 1e 62 83 ba 0c ba 0a 3e
       0.10733069 -0.12094527 -0.0010023748 0.13547534
0001f0 de ac 68 3c fc 9c a2 3d 32 ae 97 3d c2 8b e7 bd
       0.014201371 0.07940099 0.07406272 -0.113059536
000200 de 7f 02 bd cc 6d 12 3e 55 4e a7 bc 0c ee f9 3d
       -0.031860225 0.14299697 -0.020423094 0.12203607
000210 4d 2d 2f 3d 35 34 99 bd 47 a4 b3 3d 8e 70 8b bb
       0.04276781 -0.07480661 0.08771568 -0.004255361
000220 9f 44 bc 3b d1 80 83 bd 95 52 dc 3d 1a 4d 70 3d
       0.005745485 -0.06421054 0.10757939 0.05866728
000230 7f 14 81 bd b8 a6 cc bd 03 66 65 3d 11 d1 40 bc
       -0.063027374 -0.099927366 0.05600549 -0.011768595
000240 48 ac 9d bd 00 e8 f4 bd 64 27 a0 3d be aa a2 3d
       -0.07698876 -0.11958313 0.07820013 0.07942723
000250 5a 70 b4 3c 34 a7 95 3d 7f 7b f9 3c 19 f0 fd bd
       0.02202623 0.07307282 0.030454395 -0.123993106
000260 ec 63 f4 3d 18 74 a5 3d 75 0f c4 bd a3 89 07 3e
       0.11933121 0.08078784 -0.09573261 0.13236098
000270 e5 fe 2b 3d 8f 27 fd 3d 6e 26 18 3d fb 1f 58 3c
       0.041991133 0.12361061 0.037146024 0.0131912185
000280 e4 16 b5 3d 00 c6 6b bd f7 a9 a4 bc c7 31 bd bd
       0.08842257 -0.057561874 -0.020100577 -0.0923801
000290 55 00 3c 3d 75 23 9c bd c5 7d 95 3d 3e 84 75 bd
       0.045898754 -0.076239504 0.07299379 -0.05994057
0002a0 a1 91 0f 3d d6 52 0b be 67 49 3d 3d 4c 10 f5 bd
       0.035050992 -0.13605818 0.04621258 -0.11965999
0002b0 d6 61 5c 3d a1 16 d2 bd c3 70 b1 bb e5 fa d5 bd
       0.05380424 -0.10258222 -0.0054150536 -0.10448245
0002c0 a6 51 d3 3d 9b 3e 60 3d 71 04 7f 3d cd 95 06 be
       0.103183076 0.054747205 0.062260095 -0.13143082
0002d0 ab b0 05 3e 43 89 2b 3c 81 da 5e bc b5 fc b0 3d
       0.13055675 0.010469737 -0.0136019 0.0864195
0002e0 b9 27 5a 3d 94 60 13 be ec a9 9b bd 0b 50 a0 bd
       0.05326054 -0.1439231 -0.076007694 -0.07827767
0002f0 56 f6 bc 3c 66 72 f2 bd 46 73 b2 bd 5e 10 84 3d
       0.02306668 -0.11838226 -0.08713393 0.06448434
000300 42 74 b7 3d 85 0d ba bd 92 b5 f3 3d 54 f1 c3 3d
       0.08957721 -0.0908461 0.11899866 0.09567514
000310 b8 72 88 3d 33 fb eb bd a9 fa 01 3d 83 74 2b 3d
       0.06662506 -0.11522522 0.03173319 0.04185916
000320 a4 75 04 3d ae ed 97 3d 50 c6 12 3e 92 16 0d be
       0.032338753 0.07418381 0.14333463 -0.13778141
000330 e7 fc 92 3d 64 4b a4 ba eb 7c 80 3d 4f 34 91 3d
       0.071771435 -0.0012534675 0.06273826 0.07090055
000340 7b 6b 69 bd 2d 91 70 3d 46 7d ee 3c 47 35 7d 3d
       -0.056987267 0.0587322 0.02911247 0.061818387
000350 81 af ed bd 75 17 4e 3d 8b bf a4 3c 11 9e b2 3c
       -0.1160574 0.05031534 0.020110866 0.021803888
000360 71 0c 73 3d 1a 2c 6f 3d 89 72 36 bd cc 15 fd bd
       0.059338037 0.058391668 -0.044542823 -0.12357673
000370 4f d0 dc bd cc f9 91 3d 0c 83 55 bd c9 e5 4c bc
       -0.10781919 0.07127723 -0.05212693 -0.012505957
000380 6a 24 a1 bd 47 cf bb bc 0f fd d7 3d fd 52 c0 3b
       -0.078682736 -0.022925986 0.10546314 0.005869268
000390 62 a6 d5 3d 58 d2 6f 3c 86 e4 f3 3d 64 16 fc 3d
       0.10432126 0.014637552 0.11908822 0.12308958
0003a0 0f c2 f7 3d 0c d2 8c 3d e9 c4 fa bc 1c bd ca bd
       0.120975606 0.06876001 -0.030611472 -0.09899351
0003b0 77 ce 0a bc 89 85 9d 3d 6e ae 47 bd 9c 12 01 be
       -0.008472077 0.076914854 -0.048750333 -0.12604755
0003c0 2f 69 2c 3d ec 23 fe 3d 78 1a b4 3b d2 d8 07 bd
       0.0420925 0.12409195 0.0054963194 -0.03316576
0003d0 bf f3 ec 3d 4f 94 10 3e c1 b0 11 bd 42 12 ba 3d
       0.115699284 0.14119075 -0.035568956 0.09085514
0003e0 10 34 0d bd f9 8f aa bd a1 e2 4a 3d 90 48 b8 bd
       -0.03447348 -0.08328242 0.049532536 -0.08998215
0003f0 9b 55 2a 3d 1d b1 a6 3a 31 b2 56 3d 45 2b 20 3c
       0.041585546 0.0012717579 0.05241603 0.009775941

foundation_model.up_path.0.conv_block.block.0.bias f4 [8]
000000 2f 97 bf bd 60 46 5b 3d ef 29 c2 3d 5f cc fd 3d
       -0.09355008 0.05353391 0.094806544 0.12392496
000010 5b d8 27 bc d0 e7 bb 3d fb 0a d7 3d b0 65 a6 bd
       -0.010244454 0.09175074 0.10500141 -0.08124864

foundation_model.up_path.0.conv_block.block.2.weight f4 [8, 8, 3]
000000 2f 5d 08 3e 2a d6 14 be 44 5a f0 3d 1c 01 24 3e
       0.13316797 -0.14534822 0.11735967 0.16016048
000010 81 21 d1 bd 6f 75 0e be 21 47 9a 3d cb d9 19 3e
       -0.102114685 -0.13911985 0.07533098 0.15024488
000020 94 ec 80 bd ea 8a 21 bd 26 13 17 3d 53 26 24 3e
       -0.06295124 -0.03943912 0.036883496 0.16030245
000030 c7 7f 38 3c ed aa 0f be fd 18 21 be eb b0 14 be
       0.011260933 -0.14030047 -0.15732189 -0.14520614
000040 94 68 4f be 24 df 11 3e ef 83 b0 bd 58 03 0a be
       -0.20254737 0.14245278 -0.08618914 -0.13477838
000050 e0 76 ce bd 81 44 cf 3d 6d 3a b8 bd 73 d7 cf 3d
       -0.10081267 0.10120488 -0.08995519 0.101485156
000060 4f 17 32 3e 57 aa 07 3e ba 6e 3d 3e 69 2d 87 3d
       0.17391704 0.13248573 0.1849927 0.06600458
000070 0f 74 ba bd f5 84 81 3c 54 c0 4c 3e 8b c2 04 3d
       -0.09104168 0.01581047 0.19995242 0.032412093
000080 7b 6a 22 3e b4 5b 37 3d 9e b6 1a 3e 13 cb e6 3c
       0.15860932 0.04476519 0.15108725 0.028173005
000090 59 ab 4e bc 39 fe 14 3e 5f f2 e9 3d e5 b9 01 be
       -0.012614095 0.14550103 0.11423182 -0.1266857
0000a0 7a 9d 41 3e 5c 13 3d 3e 72 d8 a0 3d 6a d3 e2 3d
       0.18907729 0.18464416 0.07853784 0.1107548
0000b0 a4 60 4d be 6b d2 7a bd d3 3a 25 3e a5 8f 3e be
       -0.20056397 -0.061235826 0.16135721 -0.18609484
0000c0 69 2f c8 bd 4c fe a1 3d fb 6f 3d 3e da 48 f4 3c
       -0.09774668 0.079098314 0.18499748 0.029819895
0000d0 3d 23 ba 3d e0 c1 11 be 8c 84 5d bb b1 64 62 bd
       0.090887524 -0.14234114 -0.0033800928 -0.055271808
0000e0 57 05 22 3e 72 cf 99 3c a4 7e bd bd 84 25 48 3e
       0.1582235 0.018775675 -0.092526704 0.19545561
0000f0 dc 95 22 bd ef c2 02 3e 58 c0 02 be 10 47 a3 3d
       -0.0396937 0.12769674 -0.12768686 0.079725385
000100 5d 19 5a 3c 37 ec 47 3e 1d 6e 2d 3e 44 32 19 be
       0.013311711 0.19523703 0.16936536 -0.14960581
000110 99 c4 3d be 4e b1 85 3d d7 ae 41 be b6 6e 49 3d
       -0.18532027 0.06527959 -0.18914352 0.049177848
000120 fd 50 8c 3d 0d 2d 9e bd 6d 70 d0 bd 4b 4c 08 3e
       0.06851385 -0.077234365 -0.101776935 0.13310353
000130 34 12 10 be 5c 4f 22 bd 23 ee 37 3d 41 38 1e 3e
       -0.14069444 -0.039626464 0.04490484 0.15451147
000140 a9 83 3f be 60 da 44 3d 99 3d 07 3d 37 38 23 bd
       -0.18702568 0.04805982 0.03301773 -0.039848533
000150 25 f3 99 bd 2b fd ac bd 98 93 35 be 7c 2f 04 be
       -0.07517079 -0.084467255 -0.17732084 -0.12908739
000160 3b 3e 4e be 2a 2e d9 3d 11 55 8e 3d 68 fa 2c be
       -0.20140927 0.10604508 0.06949819 -0.16892397
000170 a4 18 45 3e 68 88 0b be 1d 35 b5 3d 16 06 a0 bb
       0.19247681 -0.13626254 0.08848021 -0.004883538
000180 52 b3 0e be a3 26 3e 3e 99 b3 b4 3d 18 27 75 bc
       -0.13935593 0.18569426 0.08823318 -0.014962934
000190 f8 4a c7 bd a7 60 9b 3d 10 b8 d9 bd 60 3b d1 bd
       -0.09731096 0.07586794 -0.1063081 -0.10216403
0001a0 1f 67 69 3d b8 dd 48 be 9e c2 21 3d 2e 46 9b bd
       0.05698311 -0.19615829 0.039492242 -0.07581745
0001b0 c8 37 19 bd 74 0c c8 3d 13 64 4f 3e 3a 2b 3a be
       -0.037406713 0.09768 0.20253019 -0.18180552
0001c0 70 3a 2b bb 88 aa 05 bd 76 e9 39 bd d6 a2 a6 bc
       -0.002612736 -0.032633334 -0.04538866 -0.020341318
0001d0 a0 ba e3 bc 61 77 ac 3d ec d2 8e bb e2 f1 18 be
       -0.02779895 0.08421207 -0.00435864 -0.14936021
0001e0 0a 36 ae 3d 22 d8 91 bd 79 10 21 be a7 fa c0 bd
       0.08506401 -0.07121302 -0.1572894 -0.09422808
0001f0 6c 1d 9a 3d 0e 22 4e 3e b8 99 02 be 26 a2 80 3d
       0.07525143 0.20130178 -0.12753952 0.06280927
000200 36 39 0b be f5 5f 95 3c 2b b9 24 3d 1d 15 29 3e
       -0.13596043 0.018234232 0.040215652 0.1651196
000210 77 a0 d3 3d 73 be f6 bd 3a e6 b7 bd ab 16 dc 3d
       0.103333406 -0.12048044 -0.08979459 0.10746511
000220 29 3f 0c be 06 f3 4d 3e 76 c3 17 bc a0 7f 85 bd
       -0.13695969 0.20112237 -0.00926291 -0.06518483
000230 1b 8a 83 3d 2f 58 da 3c 79 d2 2f be 5c 7a 3d 3e
       0.06422826 0.026653377 -0.17170133 0.18503708
000240 05 d7 e4 bd 1c 1d ea bd 92 8e d5 3d e4 63 98 3d
       -0.11173824 -0.114313334 0.10427584 0.074409276
000250 76 01 22 be d8 d0 ed bb 6b 6b 80 bd a8 3e 41 be
       -0.1582087 -0.007257562 -0.06270488 -0.18871558
000260 cb 7a ad bd 4d 9c 8c 3d 76 74 6a 3c e6 5e 74 3d
       -0.084706865 0.068657495 0.014309993 0.059660815
000270 61 2a 31 be f7 6d 27 be 30 e4 c8 3d 4e 67 1e bc
       -0.17301323 -0.16350542 0.09809148 -0.009668184
000280 c7 ab 6b bd 13 a3 82 bd 2d d4 1b 3e 09 4c 6d bd
       -0.057536867 -0.0637876 0.15217657 -0.05793384
000290 62 37 d6 3c ec d2 13 be c4 c9 df 3d 49 10 af bd
       0.026149455 -0.14435929 0.109271556 -0.08548028
0002a0 48 56 e0 bc a7 34 84 bd ce 59 0d 3d 35 88 99 3d
       -0.027384892 -0.06455355 0.034509473 0.074966826
0002b0 e1 cb 85 bc ed ac 32 be e4 11 3a be 2a 97 60 3d
       -0.016332569 -0.17448778 -0.18170887 0.05483166
0002c0 46 40 ff 3d 4d 2c 15 3e 5a 11 9b 3d 82 cf a3 bd
       0.12463431 0.1456768 0.07571669 -0.07998563
0002d0 13 61 09 3e 41 4d 0c 3d 1a 17 97 3d b1 ca dc bd
       0.13415937 0.034253363 0.07377453 -0.10780848
0002e0 88 58 4c bd b7 3e 40 be da ae 14 3d f3 ed 8c bd
       -0.049889117 -0.18773924 0.036299564 -0.06881323
0002f0 6d dd b6 bb 91 4c 4b be e6 4d a5 3d cc f3 53 3d
       -0.005580595 -0.19853427 0.080714986 0.051746175

foundation_model.up_path.0.conv_block.block.2.bias f4 [8]
000000 37 76 b6 3d f4 c6 18 bd 06 95 16 bd 72 23 31 3e
       0.089092664 -0.03729911 -0.036763214 0.17298678
000010 45 18 1a be 12 65 ac 3c d0 3e f0 3c 56 ed 88 3d
       -0.1504832 0.021044288 0.029326826 0.06685893

foundation_model.up_path.1.up.weight f4 [8, 4, 2]
000000 5d c4 98 be 37 7f 65 3e 6d 09 56 be c7 10 0a bd
       -0.29837313 0.2241181 -0.20902033 -0.033707406
000010 16 df f1 bd bd 14 b1 3e 4e 9e 4a 3d 30 ee b4 bd
       -0.118101284 0.34586135 0.049467377 -0.08834493
000020 df f6 93 3d 5d 19 94 bd c5 47 16 3e 43 a9 e8 bd
       0.07224821 -0.072314 0.14675815 -0.11360409
000030 14 a9 2c 3e 93 b7 67 3e d8 1e 05 be 4d 7f 07 3e
       0.16861373 0.22628622 -0.13000047 0.13232155
000040 b5 1f 9c be df 96 2a bd 62 71 26 3e 04 74 9d be
       -0.3049294 -0.041647788 0.1625419 -0.30752575
000050 a2 91 63 3e 57 c8 a8 be 63 da fc bd d4 07 c9 3d
       0.22223523 -0.32965347 -0.123463415 0.09815946
000060 fe 8f ae 3e 37 a7 73 3e 3f 67 1e 3d 15 ce 06 3e
       0.34094232 0.23794256 0.038672682 0.13164552
000070 87 1a 93 be d0 2f 94 3e 8a db 58 3e 72 68 47 3e
       -0.28731176 0.28942728 0.21177498 0.19473436
000080 8a cc 93 3e 99 81 01 be fa a4 5f 3d 50 d3 c2 3d
       0.28866988 -0.12647094 0.054600693 0.09512961
000090 14 ba ad 3e 2d 9f a1 be e4 a4 13 3e 1d 2c 10 be
       0.3393103 -0.31566754 0.1441837 -0.14079328
0000a0 f4 58 22 be 85 ad 58 bd c7 85 a4 be bb 00 83 3e
       -0.15854245 -0.052899856 -0.32133314 0.25586495
0000b0 98 ee 78 3e 83 80 93 3e 8e fc 2f 3e 5f 1b a2 3e
       0.24309766 0.28808984 0.17186186 0.31661507
0000c0 22 dd 3e be 98 e9 25 be 3f 77 26 be e6 66 58 bd
       -0.18639043 -0.1620239 -0.16256426 -0.052832507
0000d0 1a 96 ad bd a8 7c 92 3d 3a 3a 94 3e 1c 03 90 3d
       -0.08475895 0.071526825 0.28950673 0.07031843
0000e0 08 9f b2 be bd 63 d4 3d 70 cf 76 be df 27 ab 3b
       -0.34886956 0.10370586 -0.24102569 0.005223259
0000f0 4d 67 79 3e d2 2c 82 3e 71 df 90 3e 7f 49 ab be
       0.24355812 0.2542482 0.28295472 -0.3345451

foundation_model.up_path.1.up.bias f4 [4]
000000 4b 6d 81 be fa 7d ce 3d 76 e9 c9 3d b0 8f 7a 3d
       -0.25278696 0.10082622 0.09858982 0.061172187
