wandb/run-20230701_195228-rr6dg3d4/files/checkpoints/best.pt (torch, 119813 bytes, 66 tensors)

foundation_model.down_path.0.block.0.weight f4 [4, 8, 3]
00000000: be32 e63d 9cc0 38be 8b30 583d d378 b73d
00000010: 70d0 36bd 6631 c53c c6f5 be3d e3bd ffbd
00000020: f78d 3abe b898 0c3a 3601 163e c9f4 11be
00000030: d9f4 0abd c4ec a73d 1d5d 8abd 3485 173e
00000040: 3bed 843e f0dd e33d 484d 4bbd 1ea2 5c3e
00000050: 894b e1bc 68d4 d93d 54ac db3c 9d04 f9bd
00000060: cf89 17bd ca40 81be af3e 37be abc5 3c3c
00000070: b542 223e ba3b 6e3e db1c 40be 3569 3c3d
00000080: c5a0 203e e230 a5bd cec3 3d3e e0f5 b9bd
00000090: 51ab bcbb 073a 4d3c 179a 9d3b 334d 39be
000000a0: 7980 a6bd b00e 56be b522 b53d 25f8 2b3e
000000b0: f26c 193e 2bc1 e03c 9572 263e 57a9 fcbd
000000c0: 264b e3bd bc03 c8bd 49cc 96be 7d49 15be
000000d0: 2e0d e93d 5f95 47be f2d8 aabe 1167 a7be
000000e0: 5977 6bbe b6e6 c2bc e7ea ac3c ca74 adbd
000000f0: 94fc eabd 5637 013e 1a1a 0b3e 58d8 5d3e
00000100: 7ffc f23c 4656 593c 979f b9bd 5304 bc3c
00000110: 04c7 22bd 12f8 f63d e746 a0bd aad8 2cbd
00000120: b108 bbbe 7db6 cfbe 8f8c 82bd 5414 90bd
00000130: 76ab 9dbe aa32 6d3d 2926 9dbe 35ce 5ebe
00000140: e7a4 70be 26a6 8ebd 8975 ff3d bd41 673d
00000150: dd67 b83c 6a97 ddbd 025f 2dbe 3e35 343e
00000160: 7328 6c3d 5b7a 32bb e96a 673d 2364 fbbd
00000170: 9594 ee3d 40bf 53bd 1e9a ac3d ee6f c0bc
0.11240147 -0.18042225 0.05278067 0.08958592 -0.044632375 0.024071407 0.09324221 -0.1248739
-0.18218218 0.0005363333 0.146489 -0.14253534 -0.03392491 0.08199456 -0.06756041 0.14796907
0.25962242 0.111263156 -0.049634248 0.21546218 -0.027501838 0.106362164 0.02681557 -0.12159083
-0.03699666 -0.25244743 -0.17895006 0.011521737 0.15845759 0.23264971 -0.18761007 0.04599877
0.15686329 -0.08065964 0.18531725 -0.090801 -0.005757727 0.012526042 0.0048096287 -0.18095855
-0.08129973 -0.2090404 0.088445105 0.16793878 0.14982966 0.02743586 0.16254647 -0.123369865
-0.11098318 -0.09766337 -0.29452732 -0.14578815 0.11379467 -0.19490574 -0.3336864 -0.3269582
-0.22994746 -0.023791652 0.021108104 -0.08469541 -0.11473957 0.12618765 0.13584176 0.2166456
0.029661415 0.013265198 -0.090636425 0.02295128 -0.039740577 0.120590344 -0.078260235 -0.042198814
-0.3653007 -0.40568915 -0.06374466 -0.07035127 -0.30794877 0.057909645 -0.30693176 -0.21758349
-0.23500405 -0.06965284 0.1247359 0.056459177 0.022510463 -0.108198956 -0.16930774 0.17598435
0.057655763 -0.0027233574 0.05649844 -0.12274959 0.116494335 -0.051696062 0.08427833 -0.023490872

foundation_model.down_path.0.block.0.bias f4 [4]
00000000: 210a ebbd 35f0 2dbe c0e6 9a3d 7348 d63c
-0.11476541 -0.16986163 0.07563543 0.026157593

foundation_model.down_path.0.block.2.weight f4 [4, 4, 3]
00000000: 4038 9b3e e47a 013e 40fe 2e3e 9871 13be
00000010: fba0 5ebd dbf9 623e 3c5c e6bd 6963 54be
00000020: bb78 3cbe 50cc 863a 38e6 85be 7f1f b0be
00000030: ad00 a03e 4735 15bc d793 453e f2cb e1bd
00000040: 188b ebbd 9f38 97bd 6403 dfbe 2f8b ce3c
00000050: dbeb 8cbe dc82 50bb 64a9 843b a871 a2ba
00000060: 3fd2 1ebe cae9 d63c e901 76be 0956 b6bd
00000070: 6a34 ccbe 4e06 16bf a39a 1fbd e5a1 dcbd
00000080: a445 a6bd a51d e9bd ffd8 e03d 8423 cabe
00000090: e640 9f3e ffef 853d ff79 0c3d ad87 93bd
000000a0: 8e66 293e f357 63be 84af 9fbe c63f b4bd
000000b0: de3b febd 24fd 13bc 1a7c b3be 8dce 8bb8
0.30316353 0.12644535 0.17089176 -0.14398801 -0.05435274 0.22165625 -0.11248061 -0.20741047
-0.1840543 0.0010284279 -0.26152205 -0.3439903 0.31250516 -0.009106941 0.19294678 -0.110252276
-0.115011394 -0.073838465 -0.43557274 0.025212852 -0.27523693 -0.003181628 0.0040485132 -0.0012393491
-0.1550989 0.026234526 -0.24024166 -0.08903129 -0.3988374 -0.5860337 -0.038965832 -0.107730664
-0.08118752 -0.11382607 0.10978889 -0.3948022 0.311042 0.06539916 0.034296032 -0.072036125
0.16543028 -0.22201519 -0.31188595 -0.08801226 -0.124137625 -0.009032521 -0.3505562 -6.6665096e-05

foundation_model.down_path.0.block.2.bias f4 [4]
00000000: 3d95 83be cde1 2cbe 18a3 80bd 8fd5 bb3d
-0.25699797 -0.16883011 -0.06281108 0.091715924

foundation_model.down_path.1.block.0.weight f4 [8, 4, 3]
00000000: ff7a 31be dd13 4abe 56d2 7bbe cf63 8bbe
00000010: 2214 54bc 13f2 8c3d b15d 123e 3cda 01be
00000020: 9044 4b3e 71b5 30be 0ae8 03be 7b6f 8b3d
00000030: 6478 e63d 7cea 033e 7f7f 89bd f08d 6abd
00000040: 9a05 693e a495 16be 9d95 1e3e 1f3c 4ebe
00000050: 8e2d 0b3e 5737 8b3e e60e a63e 461d 933e
00000060: 5ed7 953e ca9d 663e 0f95 723e 9a31 063d
00000070: 80f3 a9bd 71d1 3d3e b2b4 463e 3f22 753e
00000080: 26f4 c8bd 9a2e a1bd 17e2 803e 6dbe 7f3e
00000090: 5f10 35be ac68 853e 2c97 7f3e 1862 9b3e
000000a0: 5d41 5dbe 9ffb 083e 0ff5 98bd c6dd 623e
000000b0: 48be 5f3e b626 a33d d71a 903e 5eea a33e
000000c0: 0f8d 50be e51a 2c3e 68f5 893e 9365 e73d
000000d0: eaf8 77bd ed45 f83d ecc1 7a3e 5a75 09bd
000000e0: cad7 983e 64de ad3e d718 9f3e e7c8 453e
000000f0: 4ba4 c03e d317 803e 04c8 d13e 3a3c 33be
00000100: 1cdc 47be 8794 e73d c741 663b bb7d 913e
00000110: a942 04be 82f0 903d 3e09 973e 29d8 18be
00000120: 6fee 833e 0722 993d 264f 533e d2b1 5c3e
00000130: 37ca 9e3d 5a36 37be 0748 c63d 3069 3bbe
00000140: 582c 853d adcf 8dbd 576f bd3c 8335 9c3e
00000150: 578b cabe 3240 09bd 85df 89be 14f0 a1be
00000160: 661a d6bc e607 8ebe 2537 3c3d f85c a7be
00000170: 1bec 8cbe ddd0 8fbe 54c9 62bd a051 8bbd
-0.17332076 -0.1973414 -0.24591956 -0.27224585 -0.012944253 0.068821095 0.14293553 -0.12680906
0.19850373 -0.17256714 -0.12881485 0.068083726 0.112534314 0.12882417 -0.06713771 -0.05726427
0.22756043 -0.14705521 0.1548676 -0.20140122 0.13591596 0.27190658 0.32433242 0.2873327
0.29265875 0.22521129 0.23689674 0.032762147 -0.08298397 0.18536927 0.19404867 0.23938845
-0.098121926 -0.07870217 0.25172493 0.24974985 -0.17682026 0.2605642 0.24960011 0.30348277
-0.21606965 0.13377236 -0.07468616 0.22154912 0.2184993 0.07966368 0.28145477 0.32014745
-0.2036631 0.16807134 0.26945043 0.112986706 -0.060540117 0.12122712 0.24488038 -0.03355918
0.29852134 0.33958733 0.3107364 0.1931492 0.37625346 0.25018176 0.40972912 -0.17503443
-0.19517559 0.11307626 0.0035134421 0.28416237 -0.12916054 0.07077123 0.2949924 -0.14926209
0.25767848 0.07477193 0.20635661 0.21552208 0.07753413 -0.17891827 0.09681707 -0.18301845
0.065025985 -0.06924377 0.02312438 0.30509576 -0.39559433 -0.033508487 -0.26928344 -0.31628478
-0.026135635 -0.277404 0.045951027 -0.32688117 -0.27523884 -0.28089038 -0.055367783 -0.06802678

foundation_model.down_path.1.block.0.bias f4 [8]
00000000: 3fcb be3d 40e8 8a3d fd6e 53be bcb9 d23c
00000010: 323b 8cbd a55a 193e 76fd 81be d66e ff3d
0.0931611 0.067825794 -0.20647807 0.02572333 -0.06847228 0.14975984 -0.25388688 0.12472312

foundation_model.down_path.1.block.2.weight f4 [8, 8, 3]
00000000: 4caf 273e e82a e4bd 46a2 c7bd 6ed0 fbbd
00000010: 37f4 6e3d d275 87be 6d88 0cbe 990d 0cbe
00000020: cf72 92be 41bc 9bbe 0499 033b 939d 6ebe
00000030: ca4a 7fbe fd81 843d 183a 28be 7a9d c9bd
00000040: 80a5 86be f202 cbbd f5e6 a5bd 8163 113e
00000050: 20a3 7bbe 8a31 563e 16d6 913e 467d 233d
00000060: 8d5a c9bd 0efa 93bd de68 023d 9a42 073e
00000070: 77b5 7a3e 091b 863e 4bc5 743e c9be 5ebd
00000080: 908f bcbd 7b91 943e 8505 543d 3619 883d
00000090: af88 e13d bbfa 033e bba7 9cbd 539b 623d
000000a0: 8c23 933e faa8 543d 062c 013e 753c 85bd
000000b0: d1da 013e f558 ffbd aea7 92be 5d5f 7bbe
000000c0: 29e0 d9bd 94cc 06be 74c6 d1bd 940b 3cbd
000000d0: 39a7 433e 4320 163d 4b9f e63d 439d bd3d
000000e0: 98eb d83d bc20 503d 714d 41bc e3ad 373e
000000f0: e321 20bd ff39 4e3d 8ff0 a93d 5318 3b3e
00000100: c142 80bc 3b2e 8d3d 9eb7 cd3d a95b 473e
00000110: 152c 4a3e acb5 fdbd ce2a e0bd 00d7 1fba
00000120: 8f30 68be 8916 cdbb 0c09 23be 7426 cf3d
00000130: fe65 5c3e c9c7 ab3b d39b 033e 545e 0e3d
00000140: 6f88 8b3e d19e 053e 30cb d03d dc5a 5f3e
00000150: efe4 a13d 6639 263e 1c38 9c3e 328b be3d
00000160: eb16 073e 9e10 083e 1277 693e 9ceb 823c
00000170: 19b9 213e 77f9 32be aa74 3dbe 6773 a3bd
00000180: 9c28 d0bd 8a95 ed3d eaac a8bd f0f4 5fbe
00000190: 5d0e ffbd 5c38 15be 77e2 323c 779c 2e3d
000001a0: 82cb 8abe c1d7 0dbd deeb 3cbe 0434 efbc
000001b0: a688 2fbe 98c3 50be daca 343a 4845 9dbb
000001c0: 61fe 86bd c0f2 eabd 4a01 17bb 39e2 6ebe
000001d0: a10d 2ebe 02c5 a03a c64b 5f3e 1a46 35bd
000001e0: eb56 263b cae5 76be aa4d 00be 3f04 263e
000001f0: 3381 853e 6748 ad3c df87 8e3d 372c 543e
00000200: d1b4 a23d 12a4 753e bc58 693e daff 893e
00000210: 6845 72bd fcd7 ddbd e6d6 343e 39c2 ec3d
00000220: aad1 313d 4b05 aabd 79f3 2c3e 23c5 523e
00000230: f028 bd3d 0bcf 10be 7253 31be cbb3 72be
00000240: a93f 5dba 1ae8 0cbd ad39 0fbe 55da 803d
00000250: b512 37bd 9941 823c 6a85 033e 7bc4 143e
00000260: ab20 693e 4e41 33bd e52a 8f3d cfdf a63e
00000270: 6c6e a93d 6adb 9d3d 20c9 053d f68a f53d
00000280: f8cb 343e c511 fdbc 39ca 263d 12e4 e2bd
00000290: e924 983b 2556 59be d3f9 183d b6de 06be
000002a0: 675c 133c a63e 46be a957 b53d 5add 12bd
000002b0: 08a8 dfbd daec bf3d 17e2 383e b964 283d
000002c0: c099 2c3e 6a6d aa3e 5e93 463e 51a1 1e3d
000002d0: 11bd 153d d121 d43c 25d2 253e a331 033e
000002e0: ee65 c7bd add3 f53d 9b73 563e 0cf6 1bbc
000002f0: 14b9 9ebc 2bf0 9bbd a681 5bbe f627 9fbe
0.16375464 -0.11140996 -0.09747748 -0.12295614 0.05833837 -0.26457077 -0.13723917 -0.13677062
-0.28603217 -0.30417064 0.0020080218 -0.23302297 -0.24930874 0.06470106 -0.16428411 -0.098444894
-0.2629814 -0.09912671 -0.08100692 0.14198114 -0.24573946 0.20917335 0.28483647 0.039914392
-0.09831724 -0.072254285 0.03183829 0.13209 0.24483286 0.261925 0.23903386 -0.054381166
-0.0920707 0.29017243 0.051763076 0.066454336 0.110123985 0.12888615 -0.076491795 0.05532391
0.28738058 0.05191896 0.1261445 -0.06505672 0.12681128 -0.12468139 -0.28643554 -0.24548097
-0.10638458 -0.13163978 -0.1024293 -0.04590948 0.19106759 0.03665186 0.112608515 0.09258511
0.10591811 0.050812468 -0.011798249 0.17937426 -0.039094817 0.050348278 0.08297836 0.18270998
-0.01565683 0.068935834 0.10044788 0.1946856 0.19743378 -0.12388167 -0.10945664 -0.0006097406
-0.22674774 -0.00625879 -0.1592142 0.10114756 0.21523282 0.005242322 0.12852411 0.034757927
0.27252528 0.13048865 0.10195005 0.21812004 0.07904994 0.16232833 0.30511558 0.09303893
0.13192336 0.13287589 0.22799328 0.015981488 0.15793265 -0.17477976 -0.18501535 -0.079809956
-0.101639956 0.11600788 -0.08236106 -0.2187078 -0.124539115 -0.1457228 0.010918251 0.042629685
-0.2710839 -0.034629587 -0.18449351 -0.029199608 -0.17141971 -0.20387113 0.00068966823 -0.0047995187
-0.06591488 -0.11472082 -0.002304154 -0.23328485 -0.16997387 0.0012265744 0.21806249 -0.044256307
0.0025381397 -0.24111095 -0.12529626 0.16212557 0.26075134 0.021152688 0.06959509 0.20719992
0.07944644 0.23988369 0.22787756 0.26953012 -0.059148222 -0.108322114 0.17660102 0.115604825
0.04341284 -0.08301791 0.16889752 0.20583014 0.09236324 -0.1414148 -0.17316988 -0.23701398
-0.0008439967 -0.034401037 -0.13986845 0.062916435 -0.044695575 0.01590042 0.12843862 0.14528076
0.22766368 -0.04376345 0.06990603 0.32592627 0.082730144 0.077078655 0.03266251 0.11989395
0.17655933 -0.030892262 0.0407202 -0.11078657 0.004643072 -0.21224268 0.037347626 -0.13170895
0.008994198 -0.19359836 0.088546105 -0.03585563 -0.10920721 0.09371348 0.18054996 0.04111168
0.16855526 0.332866 0.19392154 0.038728062 0.03655726 0.025895031 0.16193445 0.12811904
-0.097362384 0.120032646 0.20942537 -0.009519111 -0.019375362 -0.07614168 -0.21436176 -0.31085175

foundation_model.down_path.1.block.2.bias f4 [8]
00000000: 701c b93d a602 0abe 7cc6 57bc 829d b83d
00000010: 7663 163e 7757 113d d048 c2bd a306 743d
0.09038627 -0.13477573 -0.013169881 0.09014417 0.14686379 0.035483804 -0.09486544 0.05957664

foundation_model.down_path.2.block.0.weight f4 [16, 8, 3]
00000000: 0813 0a3d 20f5 babd 33a7 593d 14c0 72bd
00000010: 34fa 6d3c ab37 3dbe 54ad 0bbe 84ea ebbc
00000020: a075 493c b833 74be fbb6 0c3e afdf c13d
00000030: d0dd 763b 85f7 f23c 630b a43d bd25 df3b
00000040: 532f 46be 02ca 54be ddd4 063e 026f d8bd
00000050: 8341 16be c349 99bd 9e7f 95bc 2c21 293d
00000060: 3d8e 763c 2995 9f3d cfb4 f0bc 022d 0e3e
00000070: 0f14 16bc b704 493e 7405 6d3b b7c1 4c3e
00000080: c6c3 00bd 23c8 543e 580a c63b 4ea6 be3b
00000090: d9b0 e2bd 391d e23c b302 18be 1469 1cbd
000000a0: 0773 e8bc eb1e 7b3e bd4a 333e 1b12 38bd
000000b0: db42 7cbd 4143 943d d702 7dbd c24b 1e3e
000000c0: 4473 613d 1f09 c93a 7b09 363e dcb6 263d
000000d0: 7069 44be 1a7a 443d 8629 02be 0991 3dbd
000000e0: cb2a a13d 33c9 4cbc 7513 afbe 7596 afbe
000000f0: 0f1c 7b3d 0c26 403e 85e8 d7bd 0db1 8bbd
00000100: 1b3f 40bd c6da 93be 0da5 82be 5b46 50be
00000110: 20bc f13d a9dd 11be a448 84be 17f7 e0bd
00000120: cff6 993e 7a25 813e b10f 123e f905 fcbd
00000130: 23be c9bd d637 2fbe 1e91 10be d59f c9bd
00000140: 3ca6 443d 81e8 a4be e37f a6bd 5c05 6abe
00000150: 4a15 5e3e 3f50 dcbd c4e6 053e b621 c7bb
00000160: 476f 60bd 35bd 70bd 068d 03be d535 dfbd
00000170: 9047 513d eac9 6cbe b33e dcbc 7472 72be
00000180: 50a2 513e 81d2 643e e40c 3d3d 0d01 dc3d
00000190: 9655 61be 52c4 a43b e4c3 41be 3fe2 333d
000001a0: 489f 8abe e03f c1bd 3c9f 9f3d 0063 f93d
000001b0: 6a24 1cbb a766 143e e3b3 453e ccf4 61be
000001c0: 7c7a 18be d7d7 51bc d197 143d 2a85 0d3d
000001d0: 093a 6f3d f6c2 98bd 67f1 50be 7aed 5abe
000001e0: 2028 5e3e 46c3 0b3e 0efa 273d 5d9e 76be
000001f0: ac17 87be 072b b0bd 7456 64be 1bba 62be
00000200: 4baa 70bc 017e a5be 103a 16be 29d0 e2bd
00000210: 9cca 92bc 2a25 b23d bf24 823d 099c 6ebe
00000220: 2a73 43bd b1d1 94be faeb 263d c9cc 42be
00000230: 74ed 0abe 73a8 8fbe ae6e ffbd 884b 93be
00000240: f3fc 003e 9c5b 223e 140f e63d 43f1 67be
00000250: 0429 26be 128a 7dbe 7fbd 383c 076e 7dbe
00000260: a19d ac3d 9d0d e83c 32d7 50be 6d0c a3be
00000270: eb8f 173c ab94 633c ec4c c4bd ce34 40bd
00000280: a454 a2be ab8c be3c 1150 a13d 16d9 a3bd
00000290: a7d2 1c3d fe2d 1abd d43e ec3c 7f06 5ebc
000002a0: bc39 f03d 684e 92be 4c25 72be 18ec 99bd
000002b0: 84b3 d6bc 65d9 68bd b459 803e d733 03be
000002c0: 3c8b 343d 6521 403e e222 d13d 76b4 8b3d
000002d0: 9c19 0abe 0b57 0e3e b076 2dbc d9d5 213e
000002e0: 1aef 02be a07d 643e ea62 06be 85b9 8a3c
000002f0: 00b4 7f3e fce2 d53d 71a7 693e da41 203e
00000300: 1cf9 d0bc d535 93be cd4a 303c 423e 603e
00000310: 0335 643e 4099 51bd bf75 043e f617 853e
00000320: e1d7 1b3e 4e17 293e fa62 17be af17 7d3e
00000330: 4265 a63d c3f6 3ebe 57da 16be 29ab d5bd
00000340: 66d3 053e 125a f63d aa82 85bd ce7c 6c3d
00000350: e3a5 393e 99c8 4a3e 9d0f 223e 3d1a 803d
00000360: 43d6 2dbd 7c48 a93d e1eb 82be e398 69bd
00000370: a310 5b3e 83bb 61bd fd28 4c3e a4ed 97ba
00000380: 00e3 5a3e 4826 9a3d 0693 473e affd 853e
00000390: 36b3 89bd 57ab f33d 5ec0 8bbd b3e5 103d
000003a0: 338e b23d 1269 593e beb1 ba3d 9c15 8f39
000003b0: 3315 bd3d 1441 8839 9b63 f43d 4d7a 843d
000003c0: 5805 a1bc 1a3b 65bd cf82 473b 8b8f d03d
000003d0: da0c 8ebe 3a2b 83be 9506 66be dbf9 79be
000003e0: 1913 2ebe d187 01bd 17fc 8abe d20f 2bbe
000003f0: 9c12 59bd fe24 963c f381 763e 41a9 4fbd
0.033709556 -0.09128785 0.05313797 -0.05926521 0.014524985 -0.18478267 -0.13640338 -0.02879835
0.01229611 -0.23847854 0.13741677 0.094664924 0.0037668832 0.029659042 0.08009984 0.0068099187
-0.1935399 -0.20780185 0.13167138 -0.10568048 -0.14673428 -0.07484772 -0.01824933 0.0412914
0.015048561 0.07792122 -0.029383091 0.13884357 -0.009160056 0.19630705 0.003616658 0.19995771
-0.031436704 0.20779471 0.0060437135 0.005818165 -0.11068887 0.027601825 -0.1484478 -0.038186148
-0.028375162 0.24523513 0.17508979 -0.04493914 -0.061587196 0.0723939 -0.061770286 0.15458587
0.055041566 0.0015337801 0.17777054 0.040701732 -0.19180846 0.047968008 -0.12711152 -0.046280894
0.0786949 -0.0124991415 -0.34194532 -0.34294477 0.061306056 0.18764514 -0.105423965 -0.06820879
-0.046935182 -0.28877848 -0.2551655 -0.20339338 0.1180346 -0.14244713 -0.2583667 -0.10984629
0.30071113 0.25223905 0.14263798 -0.12305827 -0.09850719 -0.17111143 -0.14117858 -0.09844939
0.048010096 -0.32208636 -0.08129861 -0.22853607 0.21687809 -0.10757493 0.13076311 -0.0060770167
-0.054793622 -0.058774192 -0.12846765 -0.108989395 0.051093638 -0.23123899 -0.026885366 -0.23676473
0.20472074 0.22345926 0.04615487 0.10742388 -0.22005305 0.005028286 -0.18922383 0.043916937
-0.27074647 -0.09436011 0.077940434 0.12177086 -0.0023825415 0.14492284 0.19306903 -0.22066039
-0.14890474 -0.012807808 0.036277596 0.034550823 0.058404956 -0.07459061 -0.20404588 -0.21379653
0.21694994 0.1364871 0.041009955 -0.24083848 -0.26385248 -0.08601957 -0.22298604 -0.22141306
-0.0146890385 -0.32322696 -0.14670587 -0.1107486 -0.017918877 0.08698495 0.06354665 -0.2330171
-0.04771725 -0.29066232 0.04075239 -0.19023432 -0.13567144 -0.28058204 -0.12472282 -0.28768563
0.12596492 0.15855259 0.11233345 -0.22650628 -0.16226584 -0.24759701 0.011275648 -0.24749003
0.08428503 0.028326804 -0.2039459 -0.31845418 0.009250621 0.013890426 -0.09584984 -0.04692536
-0.317052 0.023260435 0.078765996 -0.0800039 0.03828683 -0.037641518 0.028838553 -0.0135513535
0.11729762 -0.28575444 -0.2364704 -0.075157344 -0.026208647 -0.05684795 0.25068438 -0.12812744
0.044078097 0.18762739 0.102117315 0.068215296 -0.13486332 0.13900392 -0.010587379 0.15804233
-0.12786523 0.22313547 -0.1312367 0.016934166 0.24971008 0.104436845 0.2281778 0.1565012
-0.02550941 -0.28752008 0.010760021 0.2189875 0.22285847 -0.05117154 0.12935542 0.25994843
0.1521907 0.16512796 -0.1478385 0.24716066 0.08124782 -0.1864882 -0.14731728 -0.10433037
0.13068923 0.12028898 -0.06519063 0.05773621 0.18129687 0.19803084 0.15826268 0.062550046
-0.042440664 0.082657784 -0.25570586 -0.05703057 0.21393065 -0.055110466 0.19937511 -0.0011591208
0.21375656 0.07526833 0.19489679 0.26170108 -0.06723635 0.11897915 -0.068238005 0.03537531
0.087185286 0.21231487 0.09115933 0.00027291186 0.09232559 0.00025988428 0.11933061 0.064686395
-0.019655868 -0.055964567 0.0030442958 0.10183629 -0.2774418 -0.25618917 -0.22463448 -0.24411719
-0.16999473 -0.031623665 -0.27145454 -0.16705254 -0.052996263 0.018328186 0.24073009 -0.050698522

foundation_model.down_path.2.block.0.bias f4 [16]
00000000: 67a4 543e beeb 6fbe c984 ca3d d24e 3a3e
00000010: 6ba5 f93d 8002 c13d acaa 7e3d b3e4 c9bd
00000020: 7d92 f3bc 1c34 40bd 843c cd3d 01d8 8fbd
00000030: b52f 32bd dfd2 72be 4a5d 0a3e 4156 5b3e
0.2076584 -0.23429772 0.09888608 0.1819413 0.12189754 0.09424305 0.062174484 -0.09858074
-0.029732937 -0.046924695 0.10021308 -0.07023621 -0.04350253 -0.23713253 0.1351215 0.21419622

foundation_model.down_path.2.block.2.weight f4 [16, 16, 3]
00000000: b651 843d 9b8e ab3d c2fc 9e3d ceef 5abd
00000010: b301 90bd f485 0ebe fed1 7cbc 8ca1 25bd
00000020: c79a 133e bca2 f23c 82ec 423d bd6e 923c
00000030: ad20 243e cd7e 2c3e 1e91 423e 9626 ca3d
00000040: d08a 22bd 4e43 c93d 8583 0b3e 001d c13d
00000050: 24fd 103e bed1 17be 66d9 9f3c 82e7 acbd
00000060: 4468 c73c ae3a 653d 20a0 19be baea bebd
00000070: 8ca6 293c a4a9 3dbe 5ae0 0dbc a251 1a3d
00000080: 9170 de3d 3f8e fa3d 1e6b 9a3d 2a65 883d
00000090: cb9a ab3c 2d7d fabc b213 12be 90bf 2fbe
000000a0: 00ca e8bd 42ef ebbd 619f 1a3e 733f 1b3e
000000b0: 2278 81bc c4f1 853d 0fbe 9dbd fa89 be3b
000000c0: a97b 0d3e bb73 d03c f1db 92bd cdb7 8c3d
000000d0: d06a 92bd 521d 883d c403 253e 6a00 523e
000000e0: 9dde 0a3e 7f86 483d 37cd 13ba 664d 87bd
000000f0: cf64 24bd 73a6 5b3d 66f1 553e 25ec 843d
00000100: 2296 633e 52da 083d fc11 553c f0e3 e23d
00000110: 44ca dc3d b33f 963b 130b 23be 2e0f bfbd
00000120: a36c 813c 5734 d0bd f8be 15be 4a58 ff3c
00000130: f090 f8bd 38d9 29be ca5b a73d 7261 49bb
00000140: 7b56 193e cedf 393d 4081 463e eb30 243d
00000150: a6b9 58bc 1a42 83bd 8a94 11be adc7 bcbd
00000160: 8c46 133d da9e 0b3c 4826 00bd f695 ea3d
00000170: 56b3 223d 282d 3c3e d736 413e c0e0 2a3e
00000180: 9063 153e 1e09 8abd ac3d bebd b58a b6bd
00000190: 1023 24bd 0d4e 28be 8da2 023e 9978 703d
000001a0: 6ad4 6a3e d7c8 313e 2d97 393e 3cfd 373d
000001b0: fa83 3f3e 2a66 03bc a8e2 863c 954f f93d
000001c0: 54e7 623d 1947 2c3d 5acf c13d c19f 1e3e
000001d0: b919 8f3d b283 eabd e27c 0e3d a8bc fc3c
000001e0: c87b 93bd 0058 a3bd e03d 2dbe a081 31be
000001f0: 5be9 12be 2999 0abd ec56 5a3e 9b2f f93d
00000200: 5067 4f3e 8e4a 553e dcf8 693d 583e 6e3d
00000210: 3b6d 23be 9967 c6bd a5c0 b7bd 4b7a 8f3c
00000220: 1f6a b73c 08ef f43c 3b46 a93d 67c6 073d
00000230: 7b33 073e bcc8 e6bc 8358 353e 752e a13d
00000240: c742 e6bd 1a2d 113d 8f34 35be 586a c3bc
00000250: 9bc2 e7bd af90 d5bd 3a3d d9bd 9ffa 21bd
00000260: e5ad d33c 4002 e73c 68c1 5dbe a981 6c3a
00000270: 1888 c2bd 1cb4 16bd 5cac 11be e8b4 233c
00000280: da0d 70be 047e 31be c0e1 22be 3a8d 60be
00000290: 1555 043d be55 4eba c490 d63c 5c2e 8abc
000002a0: cff3 153d f75c e33c b779 bf3c eb14 74bd
000002b0: 9389 953d 0faf a23d 1646 e83b 8558 863c
000002c0: ea70 3dbe 1285 a2bd 075d 67be 84ca 563c
000002d0: a8f2 1b3e a164 85bd a507 043d 10b4 20bd
000002e0: 28af e93d a888 f43d b9ad 4bbe 9026 3bbe
000002f0: a4d5 403d 297d 933d 3d6b 45be 2528 3d3d
00000300: 28f2 523d 2021 5c3e 27d5 b0bc 8631 37be
00000310: a2a3 06be 3eb1 f6bd f1d8 13be 18ce 7fbd
00000320: 6d50 12be 417d e5bd bd5a fb3d 18d5 fdbd
00000330: be4c 3c3d b53e b53c b2b1 e23c 1543 d1bd
00000340: ac95 8dbd 5e5f 08be 1fff e3bd 273e d2bd
00000350: 6bed 59bd f363 8cbd 5942 4abd 87e7 27bd
00000360: 066b 15be 4df6 573d da55 8a3d 0603 fdbd
00000370: f0e5 b93d f114 623d 41ba a4bc ffdb 00be
00000380: c083 833d d6ee 03be a851 29be dcd0 cfbb
00000390: 9340 ea3d f96b 02be 7f52 bf3c 0087 84bd
000003a0: 84fe 51bd 98aa 4cbe 1b8f 013d 4308 c5bd
000003b0: 07e4 a63d 896b 1c3d 2f9e bebd f0d8 a73d
000003c0: aff2 2dbd 4ea9 14bd 0a3e afbd dae9 9e3d
000003d0: d7f3 ed3d 7632 c7bd a3fd 083e 0791 62bd
000003e0: 9cac 963d 2a45 b93c c586 2f39 694c 94bd
000003f0: 1fcc 9abd 2da1 09be 1925 30bc 028f f7bd
0.064608976 0.08376809 0.077630535 -0.05345135 -0.07031574 -0.13918287 -0.015430925 -0.040437266
0.14414512 0.029618613 0.047588833 0.01787507 0.1602809 0.16845246 0.1900067 0.09870641
-0.039683163 0.098272905 0.1362439 0.094293594 0.14159065 -0.14826104 0.019512843 -0.08442594
0.02434171 0.055964164 -0.15002489 -0.09322114 0.010354649 -0.18521744 -0.008659447 0.037675507
0.10861314 0.122341625 0.07539962 0.066599205 0.020947834 -0.030577267 -0.14265326 -0.17162919
-0.113666534 -0.11520244 0.1509986 0.15160923 -0.015804354 0.06540254 -0.077022664 0.005814788
0.13816704 0.02544581 -0.07170857 0.06870995 -0.07149279 0.066462174 0.16114718 0.2050797
0.13561483 0.04895639 -0.00056381844 -0.066065595 -0.0401352 0.053625535 0.20892867 0.064903535
0.2222524 0.03341133 0.013004776 0.11078632 0.107807666 0.0045852303 -0.15922193 -0.09329067
0.015798872 -0.10166233 -0.1462363 0.03117003 -0.1213702 -0.16586769 0.08171804 -0.0030728248
0.14974396 0.045379452 0.19385242 0.040085714 -0.013227856 -0.06409092 -0.1421682 -0.09217773
0.03595595 0.00852176 -0.031286508 0.11454384 0.03972181 0.183766 0.18868576 0.16687298
0.14588761 -0.0674002 -0.09289107 -0.08913175 -0.0400725 -0.16436024 0.1275732 0.05870876
0.22932592 0.1736177 0.18124075 0.044919237 0.18702689 -0.008019963 0.0164655 0.12173382
0.055396393 0.04205999 0.09463377 0.15490629 0.06987328 -0.114509 0.034787066 0.030851677
-0.07201344 -0.07975769 -0.16918135 -0.17334604 -0.1434683 -0.03383747 0.2132222 0.12167283
0.20254254 0.20829222 0.057122096 0.058164924 -0.15959637 -0.096877284 -0.08972291 0.017514369
0.02238947 0.029899135 0.082653485 0.033148196 0.13203232 -0.02817189 0.17709546 0.07870189
-0.112432055 0.035443403 -0.17695831 -0.02385442 -0.11316415 -0.10427987 -0.10607381 -0.03954565
0.025839755 0.028199315 -0.2165581 0.00090220064 -0.09498614 -0.03679286 -0.14225906 0.009991862
-0.23442784 -0.17333227 -0.1590643 -0.21928874 0.032307703 -0.0007871053 0.026192077 -0.016867809
0.036609467 0.02775429 0.023373468 -0.05959026 0.07301631 0.07943546 0.007088433 0.016399631
-0.18500105 -0.079355374 -0.22594081 0.013109807 0.15229285 -0.06513334 0.032233853 -0.03923422
0.114103615 0.119401276 -0.19890489 -0.18276429 0.047078744 0.07201607 -0.1927919 0.046180863
0.05150047 0.21497011 -0.021586014 -0.17889985 -0.13148358 -0.12045525 -0.14438225 -0.062452406
-0.14288493 -0.11205531 0.12273166 -0.1239416 0.045971625 0.022124628 0.027672622 -0.10217873
-0.06913313 -0.1331763 -0.11132645 -0.10265761 -0.053204935 -0.06855001 -0.04937968 -0.040992286
-0.14591607 0.052725125 0.06754656 -0.12354092 0.0907706 0.055195753 -0.020108344 -0.12583922
0.06421614 -0.12884077 -0.16535056 -0.0063420366 0.11438098 -0.12736501 0.023354767 -0.06471062
-0.051268116 -0.19986951 0.031630617 -0.096207164 0.081489615 0.03818849 -0.09307515 0.081956744
-0.04246777 -0.036294274 -0.08556755 0.077594474 0.116187744 -0.097264215 0.13378005 -0.05531409
0.073571414 0.022615988 0.00016739506 -0.072411366 -0.07558464 -0.1344039 -0.010751032 -0.120878235

foundation_model.down_path.2.block.2.bias f4 [16]
00000000: 8a93 263e bc3c eb3d 6c74 c03d 2747 f9bb
00000010: 695d 5e3e 0b9f 42be 6ac5 bcbd 86e2 3a3d
00000020: 4a4c 223e 2d8b 103e 7783 43be 943c 3b3e
00000030: 2a59 853c 7f6a e33b 99a8 683c 5a02 083e
0.16267219 0.114861935 0.09397206 -0.007607359 0.2171532 -0.19005983 -0.09217341 0.045626186
0.15849414 0.14115591 -0.19093119 0.18284827 0.016277868 0.0069401856 0.014200353 0.13282147

foundation_model.up_path.0.up.weight f4 [16, 8, 2]
00000000: 00df 5a3e 448f 8f3d 082c 46bd f260 3d3e
00000010: e06d 89bc a8f3 e83d da7a 4bbe 52aa 033e
00000020: 1864 433d 80c8 ebbb a8d3 a53d 30b7 1ebe
00000030: ec11 38be cce9 3abe d8c3 3ebe 709b 113e
00000040: f849 01be d032 2e3d 98ed 7abe 40e1 5c3e
00000050: a043 343c 90a1 163d 82bb 78be e0e7 1b3d
00000060: f872 cebd 2c3c 7c3e ba6a 21be f063 62bd
00000070: a8eb 02bd 20ee 1dbe 6c7d 6a3e 8a2b 6b3e
00000080: 0ca3 253e f037 64bd 4064 923d 7c9a 00be
00000090: 96ee 02be 70da 2abd 4cc2 c63d 30be abbd
000000a0: b0a3 5f3d 3474 983d 084c 523e d039 573e
000000b0: d0e5 24bd a856 7bbe 8807 5a3d cc4a 453e
000000c0: 58c4 60be b26b 06be 6ab9 593e ec3e 063e
000000d0: 00d0 3b39 343b 5c3e 084b d4bd b0d7 273e
000000e0: d871 d03d 9049 84bc d0dc c9bd bcc3 583e
000000f0: 8617 573e babd 6e3e 6c3d 5b3e e650 51be
00000100: 7aab 46be 9296 0d3e b0d7 3ebd 9427 1e3e
00000110: 9688 213e c281 3a3e 40fd 70be d0e0 9dbd
00000120: 622d 5c3e ecbf 683e 8053 4a3c 00af 603b
00000130: 02ac 4ebe 263c 4f3e 3062 893d ee38 4bbe
00000140: b080 573e 946a 5fbe e438 b03d 8a41 7abe
00000150: d433 003e a855 c23d d61f 5d3e 7227 1ebe
00000160: ee0f 103e 3aae 5cbe a8f9 65bd 7e86 643e
00000170: 509f 613d 188f 15be 702c ebbd f08c 783e
00000180: f262 79be 2672 5abe 3862 183d 3058 edbc
00000190: bc21 f73d 4006 56bd 0ae5 36be 0c2d d03d
000001a0: 388e 003e 2006 973c 249a 0cbe acc1 3fbe
000001b0: 90c5 0dbe e0a2 e23c 9060 c1bc 18a1 2fbe
000001c0: 306f 39bd 107b cbbd 20a4 0cbd 7481 c33d
000001d0: c06d dc3c 9c2f 743e ec57 7d3e e881 14be
000001e0: 8c7c a2bd a0b4 f13d 20d9 cdbd 1e43 74be
000001f0: 20a8 083c 3a2a 663e 5831 293d 3804 523e
00000200: a052 683e b8cf 61be d8f6 883d 621b 183e
00000210: f2e8 273e 704e 0c3d 30b8 e63c d215 3c3e
00000220: 14e8 223e a601 2c3e 70bc 34bd b86e 0e3d
00000230: 80d7 833d 70b7 43be 6aee 613e 6aa6 29be
00000240: e87d 96bd f01a 923d d095 a9bd 6070 d5bd
00000250: 9855 423e 8871 013d b84a 633d 78d5 97bd
00000260: f874 683e 16e3 433e 6684 4cbe b084 69be
00000270: 263c 5bbe 0e4a 4e3e 8251 213e 44d9 0f3e
00000280: 90d7 2abe 08b3 8d3d 184c 563e 828e 513e
00000290: 6491 6e3e 681c d93d 68ed 3d3d feb4 58be
000002a0: 046f d53d 300d 0f3e 5ec6 223e 30f0 4dbd
000002b0: f65c 42be a0d4 49bd 80e5 6dbc f0ac 433d
000002c0: 40f2 35be 9031 b13c 0836 71be 88cd 2cbe
000002d0: e00d 51bd 2ee8 00be aa22 5cbe 1403 c5bd
000002e0: 68e8 843d 88dc b63d 806e 5a3b 90b6 933c
000002f0: 0441 67be f0b5 85bc a0f8 9ebc 2a32 673e
00000300: 480f 27bd 20a0 d5bd e444 943d e01d 60bc
00000310: 9aa4 193e e8ff 6c3e 5e0c 053e acf9 16be
00000320: d8d9 b7bd 66e1 013e f87a 2bbd 84e4 c3bd
00000330: ae94 273e ecef 66be 8863 7abe 7858 c43d
00000340: 94ad 713e e0bf 313d 04dd 2cbe f8a6 38be
00000350: 00e2 07bb e2fe 223e f2ec 2f3e 0cae cabd
00000360: d84d aabd 5064 ed3d b45d 753e 0060 d83d
00000370: b075 1fbe 40cf b03c 40fc 9fbc c043 483c
00000380: 90b2 473d 7056 5f3e ee26 3d3e e421 5fbe
00000390: dec4 613e 7068 b03d 7ad2 7dbe b02d 633e
000003a0: 18cf d43d 48a8 6ebe 543f c3bd dc09 d73d
000003b0: 1c15 fa3d 9663 59be d0a0 e5bd 6499 903d
000003c0: d4d1 0c3e fcc7 77be 0ab2 5c3e d01e b2bc
000003d0: 7028 a3bc 00d9 e73d 805f 453e 6e21 563e
000003e0: aaa2 033e 2666 62be 9036 b4bc 884c c8bd
000003f0: 209f 3b3e 543d 7e3e d4b7 1dbe e073 7a3c
0.2137413 0.070097476 -0.048381835 0.18494013 -0.016776025 0.11374599 -0.19871083 0.12857941
0.04770288 -0.0071955323 0.08097011 -0.15499568 -0.17975587 -0.18253249 -0.18629396 0.14219451
-0.12625873 0.042528927 -0.24504697 0.21570301 0.011002451 0.03677517 -0.24290279 0.03806293
-0.10080522 0.24632329 -0.15763369 -0.05527109 -0.03196302 -0.15422869 0.22899407 0.22965828
0.16175479 -0.05571741 0.071480274 -0.12558931 -0.12786326 -0.041712224 0.09705028 -0.08385885
0.054599464 0.07444039 0.20536816 0.21018147 -0.04025823 -0.24544775 0.05322984 0.19266814
-0.21949899 -0.1312702 0.21262136 0.1310994 0.00017911196 0.21506959 -0.103658736 0.16390872
0.10177964 -0.016148359 -0.0985657 0.21168417 0.21005067 0.23314562 0.2141015 -0.20441017
-0.1940135 0.1382697 -0.046592414 0.15444785 0.1577476 0.18213561 -0.23534107 -0.07708895
0.21501687 0.22729462 0.0123490095 0.0034283996 -0.20182803 0.20237789 0.06708181 -0.19845936
0.21045184 -0.21818 0.08604601 -0.24439064 0.12519771 0.09488994 0.21594176 -0.15444735
0.14068577 -0.21550837 -0.056146294 0.2231693 0.055083573 -0.14605367 -0.11483085 0.24272513
-0.24354151 -0.21332607 0.037203044 -0.028972715 0.12066981 -0.052252054 -0.17860809 0.10164842
0.12554252 0.018435538 -0.13730675 -0.18726224 -0.13844895 0.027665555 -0.023605615 -0.17151296
-0.045272052 -0.09935582 -0.03433621 0.095461756 0.026907802 0.23846287 0.24740571 -0.1450268
-0.07933912 0.118020296 -0.10051179 -0.23853728 0.008340865 0.22477046 0.041306823 0.20509422
0.22687769 -0.22051895 0.06687707 0.14854196 0.16397455 0.03425449 0.028164 0.18367699
0.15908843 0.16797504 -0.04412502 0.03477356 0.06437588 -0.19112945 0.22063604 -0.16567388
-0.073482335 0.07134044 -0.082805276 -0.104218245 0.18977964 0.031602412 0.05549118 -0.07413763
0.2270087 0.19129595 -0.19972381 -0.22804523 -0.21409664 0.20145437 0.15753749 0.14047724
-0.16683793 0.06918913 0.20927465 0.20464519 0.2329765 0.10601121 0.046368986 -0.21162793
0.10421565 0.13969874 0.15895984 -0.05027789 -0.18980774 -0.04927504 -0.014520049 0.047772348
-0.17768192 0.021630079 -0.23555768 -0.16875279 -0.051038623 -0.1258857 -0.21497598 -0.09619728
0.064896405 0.08928782 0.0033330023 0.018031389 -0.22583395 -0.016322106 -0.019405663 0.2257773
-0.040786058 -0.10430932 0.07239702 -0.013678998 0.15004197 0.23144495 0.12992999 -0.1474368
-0.08977097 0.12683639 -0.04186532 -0.0956507 0.1636531 -0.2255246 -0.2445203 0.095871866
0.23601371 0.043395877 -0.16881186 -0.18032444 -0.0020734072 0.15917543 0.17180231 -0.09896478
-0.08315629 0.11591399 0.23961526 0.105651855 -0.15572238 0.0215832 -0.019529462 0.012223184
0.048754275 0.21810317 0.18471882 -0.21790272 0.22047755 0.0861367 -0.24787322 0.22185397
0.103910625 -0.23306382 -0.09533563 0.104999274 0.122110575 -0.21229395 -0.11212313 0.07060507
0.13751918 -0.24197382 0.21552292 -0.021743208 -0.019916743 0.11320686 0.19274712 0.2091119
0.1285502 -0.22109279 -0.021998674 -0.09780222 0.1832242 0.24828082 -0.15402156 0.015286416

foundation_model.up_path.0.up.bias f4 [8]
00000000: f4c9 acbd 180f 19be 1040 e73d f827 5dbd
00000010: b2c7 6a3e 5e82 50be 00bf a63d 828f 123e
-0.08436957 -0.14947164 0.11291516 -0.053993195 0.2292774 -0.20362231 0.08141899 0.14312556

foundation_model.up_path.0.conv_block.block.0.weight f4 [8, 16, 3]
00000000: e8a4 8b3d 0441 003e 8efb da3b 82c5 7bbc
00000010: 1e6a a93c 0ca8 903d ec27 773d 6a52 c6bc
00000020: a912 203d 8df4 3dbc 5cce a53d b557 9b3c
00000030: 5254 e5bd 4543 ef3c 4516 c6bd 3525 6cbd
00000040: 62b1 bf3d 696d d93d 4fef 073e bcd5 d1bd
00000050: 2cbc 08be 7ed6 a2bc bffd fe3c b882 8e3d
00000060: 7d0d a5bc 3e69 e53d 1761 dd3d e23c 993d
00000070: 63a4 13be 0d54 febd a537 50bd 92c4 b3bd
00000080: bd6b af3d 6cd9 2c3d 57e4 aebd 4667 063e
00000090: bdb8 133e bd57 12be 314c e43c 6fa9 493d
000000a0: a05d e83d 8e99 13be 6ec5 743d 6a11 eabc
000000b0: 129e 7f3d fe1f 1d3a daa2 f3bd bd00 603d
000000c0: 1fb5 f7bb f5ac ddbd 9b3c 013d 8df3 cbbc
000000d0: 0eaf a6bc 88c9 bf3d 16d6 7abd 3026 263c
000000e0: d690 f4bc 946d d33b 190d 653d 7286 103d
000000f0: aca9 01bc fd36 5b3d 097f ccbd 39c6 403d
00000100: 5489 593c f0ef 90bd a35f 8f3c becd 9fbd
00000110: 425b c0bd f45d 97bd eaa4 8a3d 3135 d03d
00000120: 736b 0abb d035 28bd ad10 ed3c 3ae4 0bbe
00000130: 90c2 44bc f1d9 c0bb 8c05 71bd 54da febd
00000140: a788 133e ade8 f5bd 8ae6 943b e5af a83d
00000150: 4043 efbd d6f7 ae3d 8212 d1bd d28a d1bd
00000160: b5c5 a43d cc2a e4bd ee79 bcbd f3e3 e7bd
00000170: 8f06 ff3d 8f0b 9c3d 7d94 633c 2c87 65bc
00000180: 17cf da3d aa93 c93d f720 4e3d ee51 b1bd
00000190: 43fe 903d e1a6 b0bd c4e9 a7bd 8d16 adbd
000001a0: 8d46 eebd d402 ea3d c661 66bb fe4e 9a3d
000001b0: b147 efbd 6e5a 7ebc 18d7 043e e8d7 77bb
000001c0: 4a69 76ba a2ce 79bc 4c1f c0bd 0bf6 8e3d
000001d0: 9c31 cdbd d07b 6e3d 2a9f 11bd c8c4 103e
000001e0: 31d0 db3d 27b2 f7bd 1e62 83ba 0cba 0a3e
000001f0: deac 683c fc9c a23d 32ae 973d c28b e7bd
00000200: de7f 02bd cc6d 123e 554e a7bc 0cee f93d
00000210: 4d2d 2f3d 3534 99bd 47a4 b33d 8e70 8bbb
00000220: 9f44 bc3b d180 83bd 9552 dc3d 1a4d 703d
00000230: 7f14 81bd b8a6 ccbd 0366 653d 11d1 40bc
00000240: 48ac 9dbd 00e8 f4bd 6427 a03d beaa a23d
00000250: 5a70 b43c 34a7 953d 7f7b f93c 19f0 fdbd
00000260: ec63 f43d 1874 a53d 750f c4bd a389 073e
00000270: e5fe 2b3d 8f27 fd3d 6e26 183d fb1f 583c
00000280: e416 b53d 00c6 6bbd f7a9 a4bc c731 bdbd
00000290: 5500 3c3d 7523 9cbd c57d 953d 3e84 75bd
000002a0: a191 0f3d d652 0bbe 6749 3d3d 4c10 f5bd
000002b0: d661 5c3d a116 d2bd c370 b1bb e5fa d5bd
000002c0: a651 d33d 9b3e 603d 7104 7f3d cd95 06be
000002d0: abb0 053e 4389 2b3c 81da 5ebc b5fc b03d
000002e0: b927 5a3d 9460 13be eca9 9bbd 0b50 a0bd
000002f0: 56f6 bc3c 6672 f2bd 4673 b2bd 5e10 843d
00000300: 4274 b73d 850d babd 92b5 f33d 54f1 c33d
00000310: b872 883d 33fb ebbd a9fa 013d 8374 2b3d
00000320: a475 043d aeed 973d 50c6 123e 9216 0dbe
00000330: e7fc 923d 644b a4ba eb7c 803d 4f34 913d
00000340: 7b6b 69bd 2d91 703d 467d ee3c 4735 7d3d
00000350: 81af edbd 7517 4e3d 8bbf a43c 119e b23c
00000360: 710c 733d 1a2c 6f3d 8972 36bd cc15 fdbd
00000370: 4fd0 dcbd ccf9 913d 0c83 55bd c9e5 4cbc
00000380: 6a24 a1bd 47cf bbbc 0ffd d73d fd52 c03b
00000390: 62a6 d53d 58d2 6f3c 86e4 f33d 6416 fc3d
000003a0: 0fc2 f73d 0cd2 8c3d e9c4 fabc 1cbd cabd
000003b0: 77ce 0abc 8985 9d3d 6eae 47bd 9c12 01be
000003c0: 2f69 2c3d ec23 fe3d 781a b43b d2d8 07bd
000003d0: bff3 ec3d 4f94 103e c1b0 11bd 4212 ba3d
000003e0: 1034 0dbd f98f aabd a1e2 4a3d 9048 b8bd
000003f0: 9b55 2a3d 1db1 a63a 31b2 563d 452b 203c
0.06818563 0.12524801 0.0066828197 -0.015366914 0.020680483 0.070633024 0.060340807 -0.02420922
0.039080296 -0.01159395 0.080960006 0.01896272 -0.111977234 0.029206881 -0.09672216 -0.05765267
0.09360005 0.106165715 0.13274883 -0.10245845 -0.13353032 -0.019877668 0.031126855 0.069585264
-0.020148033 0.11201714 0.10809534 0.074823156 -0.14418177 -0.12418375 -0.050834317 -0.08777727
0.08565471 0.042199537 -0.08539646 0.13125333 0.14425941 -0.14291282 0.027868362 0.04923385
0.113459826 -0.14414045 0.059758596 -0.028572757 0.062406607 0.0005993842 -0.11896296 0.054688204
-0.007559433 -0.108240046 0.03155194 -0.024896407 -0.020347144 0.09364611 -0.061239325 0.010140941
-0.02985422 0.0064522717 0.055920694 0.035284467 -0.007913988 0.053519238 -0.099851675 0.04706404
0.0132773705 -0.070770144 0.017501658 -0.07802914 -0.09392406 -0.07390967 0.06769736 0.101663955
-0.0021121174 -0.041066945 0.028938616 -0.1366128 -0.012009278 -0.0058853556 -0.05884318 -0.124439865
0.14407597 -0.1200727 0.004544084 0.08236674 -0.11682749 0.08543365 -0.10208608 -0.10231556
0.08045522 -0.11140975 -0.09202944 -0.11322775 0.12452423 0.07619392 0.013890383 -0.014009278
0.106840305 0.09842618 0.050324406 -0.08658205 0.070797466 -0.086255796 -0.08198884 -0.08451567
-0.1163455 0.11426321 -0.0035153492 0.07534598 -0.11683596 -0.01552449 0.12972677 -0.00378179
-0.00093998446 -0.015247019 -0.093809694 0.06980523 -0.10019228 0.058223546 -0.03555218 0.14137566
0.10733069 -0.12094527 -0.0010023748 0.13547534 0.014201371 0.07940099 0.07406272 -0.113059536
-0.031860225 0.14299697 -0.020423094 0.12203607 0.04276781 -0.07480661 0.08771568 -0.004255361
0.005745485 -0.06421054 0.10757939 0.05866728 -0.063027374 -0.099927366 0.05600549 -0.011768595
-0.07698876 -0.11958313 0.07820013 0.07942723 0.02202623 0.07307282 0.030454395 -0.123993106
0.11933121 0.08078784 -0.09573261 0.13236098 0.041991133 0.12361061 0.037146024 0.0131912185
0.08842257 -0.057561874 -0.020100577 -0.0923801 0.045898754 -0.076239504 0.07299379 -0.05994057
0.035050992 -0.13605818 0.04621258 -0.11965999 0.05380424 -0.10258222 -0.0054150536 -0.10448245
0.103183076 0.054747205 0.062260095 -0.13143082 0.13055675 0.010469737 -0.0136019 0.0864195
0.05326054 -0.1439231 -0.076007694 -0.07827767 0.02306668 -0.11838226 -0.08713393 0.06448434
0.08957721 -0.0908461 0.11899866 0.09567514 0.06662506 -0.11522522 0.03173319 0.04185916
0.032338753 0.07418381 0.14333463 -0.13778141 0.071771435 -0.0012534675 0.06273826 0.07090055
-0.056987267 0.0587322 0.02911247 0.061818387 -0.1160574 0.05031534 0.020110866 0.021803888
0.059338037 0.058391668 -0.044542823 -0.12357673 -0.10781919 0.07127723 -0.05212693 -0.012505957
-0.078682736 -0.022925986 0.10546314 0.005869268 0.10432126 0.014637552 0.11908822 0.12308958
0.120975606 0.06876001 -0.030611472 -0.09899351 -0.008472077 0.076914854 -0.048750333 -0.12604755
0.0420925 0.12409195 0.0054963194 -0.03316576 0.115699284 0.14119075 -0.035568956 0.09085514
-0.03447348 -0.08328242 0.049532536 -0.08998215 0.041585546 0.0012717579 0.05241603 0.009775941

foundation_model.up_path.0.conv_block.block.0.bias f4 [8]
00000000: 2f97 bfbd 6046 5b3d ef29 c23d 5fcc fd3d
00000010: 5bd8 27bc d0e7 bb3d fb0a d73d b065 a6bd
-0.09355008 0.05353391 0.094806544 0.12392496 -0.010244454 0.09175074 0.10500141 -0.08124864

foundation_model.up_path.0.conv_block.block.2.weight f4 [8, 8, 3]
00000000: 2f5d 083e 2ad6 14be 445a f03d 1c01 243e
00000010: 8121 d1bd 6f75 0ebe 2147 9a3d cbd9 193e
00000020: 94ec 80bd ea8a 21bd 2613 173d 5326 243e
00000030: c77f 383c edaa 0fbe fd18 21be ebb0 14be
00000040: 9468 4fbe 24df 113e ef83 b0bd 5803 0abe
00000050: e076 cebd 8144 cf3d 6d3a b8bd 73d7 cf3d
00000060: 4f17 323e 57aa 073e ba6e 3d3e 692d 873d
00000070: 0f74 babd f584 813c 54c0 4c3e 8bc2 043d
00000080: 7b6a 223e b45b 373d 9eb6 1a3e 13cb e63c
00000090: 59ab 4ebc 39fe 143e 5ff2 e93d e5b9 01be
000000a0: 7a9d 413e 5c13 3d3e 72d8 a03d 6ad3 e23d
000000b0: a460 4dbe 6bd2 7abd d33a 253e a58f 3ebe
000000c0: 692f c8bd 4cfe a13d fb6f 3d3e da48 f43c
000000d0: 3d23 ba3d e0c1 11be 8c84 5dbb b164 62bd
000000e0: 5705 223e 72cf 993c a47e bdbd 8425 483e
000000f0: dc95 22bd efc2 023e 58c0 02be 1047 a33d
00000100: 5d19 5a3c 37ec 473e 1d6e 2d3e 4432 19be
00000110: 99c4 3dbe 4eb1 853d d7ae 41be b66e 493d
00000120: fd50 8c3d 0d2d 9ebd 6d70 d0bd 4b4c 083e
00000130: 3412 10be 5c4f 22bd 23ee 373d 4138 1e3e
00000140: a983 3fbe 60da 443d 993d 073d 3738 23bd
00000150: 25f3 99bd 2bfd acbd 9893 35be 7c2f 04be
00000160: 3b3e 4ebe 2a2e d93d 1155 8e3d 68fa 2cbe
00000170: a418 453e 6888 0bbe 1d35 b53d 1606 a0bb
00000180: 52b3 0ebe a326 3e3e 99b3 b43d 1827 75bc
00000190: f84a c7bd a760 9b3d 10b8 d9bd 603b d1bd
000001a0: 1f67 693d b8dd 48be 9ec2 213d 2e46 9bbd
000001b0: c837 19bd 740c c83d 1364 4f3e 3a2b 3abe
000001c0: 703a 2bbb 88aa 05bd 76e9 39bd d6a2 a6bc
000001d0: a0ba e3bc 6177 ac3d ecd2 8ebb e2f1 18be
000001e0: 0a36 ae3d 22d8 91bd 7910 21be a7fa c0bd
000001f0: 6c1d 9a3d 0e22 4e3e b899 02be 26a2 803d
00000200: 3639 0bbe f55f 953c 2bb9 243d 1d15 293e
00000210: 77a0 d33d 73be f6bd 3ae6 b7bd ab16 dc3d
00000220: 293f 0cbe 06f3 4d3e 76c3 17bc a07f 85bd
00000230: 1b8a 833d 2f58 da3c 79d2 2fbe 5c7a 3d3e
00000240: 05d7 e4bd 1c1d eabd 928e d53d e463 983d
00000250: 7601 22be d8d0 edbb 6b6b 80bd a83e 41be
00000260: cb7a adbd 4d9c 8c3d 7674 6a3c e65e 743d
00000270: 612a 31be f76d 27be 30e4 c83d 4e67 1ebc
00000280: c7ab 6bbd 13a3 82bd 2dd4 1b3e 094c 6dbd
00000290: 6237 d63c ecd2 13be c4c9 df3d 4910 afbd
000002a0: 4856 e0bc a734 84bd ce59 0d3d 3588 993d
000002b0: e1cb 85bc edac 32be e411 3abe 2a97 603d
000002c0: 4640 ff3d 4d2c 153e 5a11 9b3d 82cf a3bd
000002d0: 1361 093e 414d 0c3d 1a17 973d b1ca dcbd
000002e0: 8858 4cbd b73e 40be daae 143d f3ed 8cbd
000002f0: 6ddd b6bb 914c 4bbe e64d a53d ccf3 533d
0.13316797 -0.14534822 0.11735967 0.16016048 -0.102114685 -0.13911985 0.07533098 0.15024488
-0.06295124 -0.03943912 0.036883496 0.16030245 0.011260933 -0.14030047 -0.15732189 -0.14520614
-0.20254737 0.14245278 -0.08618914 -0.13477838 -0.10081267 0.10120488 -0.08995519 0.101485156
0.17391704 0.13248573 0.1849927 0.06600458 -0.09104168 0.01581047 0.19995242 0.032412093
0.15860932 0.04476519 0.15108725 0.028173005 -0.012614095 0.14550103 0.11423182 -0.1266857
0.18907729 0.18464416 0.07853784 0.1107548 -0.20056397 -0.061235826 0.16135721 -0.18609484
-0.09774668 0.079098314 0.18499748 0.029819895 0.090887524 -0.14234114 -0.0033800928 -0.055271808
0.1582235 0.018775675 -0.092526704 0.19545561 -0.0396937 0.12769674 -0.12768686 0.079725385
0.013311711 0.19523703 0.16936536 -0.14960581 -0.18532027 0.06527959 -0.18914352 0.049177848
0.06851385 -0.077234365 -0.101776935 0.13310353 -0.14069444 -0.039626464 0.04490484 0.15451147
-0.18702568 0.04805982 0.03301773 -0.039848533 -0.07517079 -0.084467255 -0.17732084 -0.12908739
-0.20140927 0.10604508 0.06949819 -0.16892397 0.19247681 -0.13626254 0.08848021 -0.004883538
-0.13935593 0.18569426 0.08823318 -0.014962934 -0.09731096 0.07586794 -0.1063081 -0.10216403
0.05698311 -0.19615829 0.039492242 -0.07581745 -0.037406713 0.09768 0.20253019 -0.18180552
-0.002612736 -0.032633334 -0.04538866 -0.020341318 -0.02779895 0.08421207 -0.00435864 -0.14936021
0.08506401 -0.07121302 -0.1572894 -0.09422808 0.07525143 0.20130178 -0.12753952 0.06280927
-0.13596043 0.018234232 0.040215652 0.1651196 0.103333406 -0.12048044 -0.08979459 0.10746511
-0.13695969 0.20112237 -0.00926291 -0.06518483 0.06422826 0.026653377 -0.17170133 0.18503708
-0.11173824 -0.114313334 0.10427584 0.074409276 -0.1582087 -0.007257562 -0.06270488 -0.18871558
-0.084706865 0.068657495 0.014309993 0.059660815 -0.17301323 -0.16350542 0.09809148 -0.009668184
-0.057536867 -0.0637876 0.15217657 -0.05793384 0.026149455 -0.14435929 0.109271556 -0.08548028
-0.027384892 -0.06455355 0.034509473 0.074966826 -0.016332569 -0.17448778 -0.18170887 0.05483166
0.12463431 0.1456768 0.07571669 -0.07998563 0.13415937 0.034253363 0.07377453 -0.10780848
-0.049889117 -0.18773924 0.036299564 -0.06881323 -0.005580595 -0.19853427 0.080714986 0.051746175

foundation_model.up_path.0.conv_block.block.2.bias f4 [8]
00000000: 3776 b63d f4c6 18bd 0695 16bd 7223 313e
00000010: 4518 1abe 1265 ac3c d03e f03c 56ed 883d
0.089092664 -0.03729911 -0.036763214 0.17298678 -0.1504832 0.021044288 0.029326826 0.06685893

foundation_model.up_path.1.up.weight f4 [8, 4, 2]
00000000: 5dc4 98be 377f 653e 6d09 56be c710 0abd
00000010: 16df f1bd bd14 b13e 4e9e 4a3d 30ee b4bd
00000020: dff6 933d 5d19 94bd c547 163e 43a9 e8bd
00000030: 14a9 2c3e 93b7 673e d81e 05be 4d7f 073e
00000040: b51f 9cbe df96 2abd 6271 263e 0474 9dbe
00000050: a291 633e 57c8 a8be 63da fcbd d407 c93d
00000060: fe8f ae3e 37a7 733e 3f67 1e3d 15ce 063e
00000070: 871a 93be d02f 943e 8adb 583e 7268 473e
00000080: 8acc 933e 9981 01be faa4 5f3d 50d3 c23d
00000090: 14ba ad3e 2d9f a1be e4a4 133e 1d2c 10be
000000a0: f458 22be 85ad 58bd c785 a4be bb00 833e
000000b0: 98ee 783e 8380 933e 8efc 2f3e 5f1b a23e
000000c0: 22dd 3ebe 98e9 25be 3f77 26be e666 58bd
000000d0: 1a96 adbd a87c 923d 3a3a 943e 1c03 903d
000000e0: 089f b2be bd63 d43d 70cf 76be df27 ab3b
000000f0: 4d67 793e d22c 823e 71df 903e 7f49 abbe
-0.29837313 0.2241181 -0.20902033 -0.033707406 -0.118101284 0.34586135 0.049467377 -0.08834493
0.07224821 -0.072314 0.14675815 -0.11360409 0.16861373 0.22628622 -0.13000047 0.13232155
-0.3049294 -0.041647788 0.1625419 -0.30752575 0.22223523 -0.32965347 -0.123463415 0.09815946
0.34094232 0.23794256 0.038672682 0.13164552 -0.28731176 0.28942728 0.21177498 0.19473436
0.28866988 -0.12647094 0.054600693 0.09512961 0.3393103 -0.31566754 0.1441837 -0.14079328
-0.15854245 -0.052899856 -0.32133314 0.25586495 0.24309766 0.28808984 0.17186186 0.31661507
-0.18639043 -0.1620239 -0.16256426 -0.052832507 -0.08475895 0.071526825 0.28950673 0.07031843
-0.34886956 0.10370586 -0.24102569 0.005223259 0.24355812 0.2542482 0.28295472 -0.3345451

foundation_model.up_path.1.up.bias f4 [4]
00000000: 4b6d 81be fa7d ce3d 76e9 c93d b08f 7a3d
-0.25278696 0.10082622 0.09858982 0.061172187

foundation_model.up_path.1.conv_block.block.0.weight f4 [4, 8, 3]
00000000: c4fa 37be 8ee0 c73d 1e59 9ebd 25ae 96bd
00000010: 15e8 79bd 9f25 853c dd92 af3d 557d 063e
00000020: fc6d f2bd 4d64 5bbd dc32 e63d 8e64 a9bd
00000030: 15ea 133e dbff d7bd 1072 c1bd 3824 0d3d
00000040: f147 4fbe 1357 0f3e e8d0 8a3d 28f4 173e
00000050: 4d7f 17be 1c97 3fbe fe82 2c3e c2da 12be
00000060: ee51 eebd ed83 49be 8e10 423e 9a34 113e
00000070: f3ad 4c3e 8ced 2ebe e0ce 98bd f086 7c3d
00000080: 685a 8bbd a5aa 35be 2f50 3f3e 2e42 503e
00000090: 94f6 f7bd a34c bbbd d0e2 07bd a769 b03c
000000a0: 901a 893d a872 04bb 37ec 15be 7c29 ee3d
000000b0: b894 db3d 225f 1c3e cfb9 ba3d 7c97 5b3c
000000c0: c9b4 183d f3b9 0e3e d7ca 0e3e 9e81 89bd
000000d0: 4221 ce3d 843f eabd 05dc 893d c5f5 a83d
000000e0: 736b 0ebe 6218 3fbe 7749 de3d 2486 1cbe
000000f0: 3dd7 31be 2405 25be b4a2 a7bd 5b33 c7bd
00000100: 5fd9 b0bd d9b4 103e 34d1 b6bd 2df5 81bc
00000110: 496b 34be f766 a5bd 4b16 093e 1d72 06bd
00000120: c456 bfbd 0e60 183e 0a95 1f3e a173 193e
00000130: 5654 59bd 9910 cdbd 65fc 42bd ec34 8dbd
00000140: c539 51bb a563 d93d cf1a ec3d bf95 5cbd
00000150: d4b4 76bc 102a 463e d804 13be df60 223e
00000160: cb55 05bd 6749 1f3e fd4c 1bbe cf04 85bc
00000170: 1404 143e bcf9 db3d 0414 dcbd b668 0b3d
-0.17966753 0.09759627 -0.077318415 -0.07357434 -0.061012346 0.01625329 0.08572934 0.13133748
-0.11837384 -0.05356245 0.112401694 -0.082711324 0.14444764 -0.105468474 -0.09445584 0.03445837
-0.20242287 0.1399806 0.06778127 0.14839232 -0.14794655 -0.18709987 0.16846845 -0.14341262
-0.116367206 -0.19679232 0.18951628 0.14180222 0.19988231 -0.17082804 -0.07461333 0.061652124
-0.06804353 -0.17740877 0.18682931 0.20337746 -0.12107578 -0.09145477 -0.03317529 0.021534754
0.066945195 -0.0020209942 -0.1464089 0.11629006 0.10721725 0.15270665 0.091174714 0.013402816
0.037281785 0.13938121 0.13944565 -0.06714176 0.10064937 -0.11437896 0.067314185 0.08250002
-0.13908176 -0.18661645 0.10853856 -0.15285546 -0.17367263 -0.16115242 -0.0818533 -0.09726592
-0.0863521 0.14131488 -0.08926621 -0.01586398 -0.17619051 -0.080762796 0.1338741 -0.03282367
-0.09342721 0.14880392 0.15584198 0.14985515 -0.053058945 -0.100129314 -0.047603983 -0.0689486
-0.0031925302 0.10614709 0.11528551 -0.053853747 -0.015057761 0.19351983 -0.14357316 0.15857266
-0.03255252 0.15555345 -0.15166087 -0.016237644 0.1445468 0.107409924 -0.10746005 0.034035407

foundation_model.up_path.1.conv_block.block.0.bias f4 [4]
00000000: 8404 aebc 9c85 723d e979 283e 5951 403e
-0.021242388 0.05920945 0.16452755 0.18781032

foundation_model.up_path.1.conv_block.block.2.weight f4 [4, 4, 3]
00000000: c6f2 3dbe 1f7a 35be 2b43 60be 1e58 193e
00000010: f343 803e a32d 7a3e b330 92be 3f68 463e
00000020: 433e 973b 3af1 4e3e ad3f 6c3d ceef 383d
00000030: 4188 96bc c3d9 64be 0525 46bd e33c 8bbe
00000040: e556 d13d 3b86 5fbe 9526 3b3d eb3d 87be
00000050: fc4a 013e ae41 55be f0f7 5abe 3f3a 22be
00000060: 286e f0b9 c619 2f3e dbd4 8e3e 19a3 c33d
00000070: 5ad9 863e 8447 513e 9965 29be 782a fcbc
00000080: 208a 42be 544a 843e e014 303e ab71 e73d
00000090: c57a 7d3e a352 9fbd eb32 34be 0713 3f3e
000000a0: ac67 b4bd 7955 53be 86ad 1cbe 43e6 243e
000000b0: d552 cd3c 1a4a cf3d 9ea7 8ebe c48a 343c
-0.18549642 -0.17722367 -0.21900623 0.1497502 0.2505184 0.24431472 -0.2855278 0.19375704
0.0046155765 0.20209208 0.057677913 0.04515057 -0.018375518 -0.22348695 -0.04837515 -0.2719489
0.10221652 -0.21828549 0.04569109 -0.26414427 0.1262626 -0.20825836 -0.21383643 -0.15842532
-0.0004585844 0.17099676 0.2789677 0.09552593 0.263377 0.20437437 -0.16542663 -0.03078197
-0.18998003 0.25837958 0.17195463 0.11300977 0.24753864 -0.077794336 -0.17597549 0.18659602
-0.08808836 -0.20638074 -0.15300569 0.16103463 0.025063911 0.101215556 -0.27862257 0.011019412

foundation_model.up_path.1.conv_block.block.2.bias f4 [4]
00000000: d538 ae3d a406 813d e5ac c4bd 1eb0 8a3e
0.085069336 0.06300095 -0.096032895 0.27087492

foundation_model.last.weight f4 [8, 4, 1]
00000000: 3cb4 e1be 6834 5abe 30d9 34bd e041 a6bc
00000010: 5600 cd3e cc0f 3abe f82a 0f3e 8459 bd3e
00000020: 80e8 c43e c2ab 8bbe f06c f63e 1e06 edbe
00000030: 2064 d83d 3c5a 16be 3c78 383e 2ce6 52be
00000040: aaeb c93e 18d5 b6bd 9014 bdbd 30ef 4e3d
00000050: 2082 d13d 1646 84be 8a55 e83e 0641 a3be
00000060: 247b c6be d00a 92be 389e e5be 2840 cebd
00000070: ac4e e2be fed2 debe b004 01bd e824 493e
-0.4408282 -0.21309054 -0.04415244 -0.020295084 0.4003932 -0.18170089 0.13981235 0.36982358
0.38458633 -0.27279478 0.48129988 -0.4629373 0.10565972 -0.14682859 0.18014616 -0.20595616
0.3943761 -0.08927363 -0.092324376 0.050521076 0.102298975 -0.2583472 0.4537776 -0.31885546
-0.38765824 -0.28523874 -0.44847274 -0.100708306 -0.44200647 -0.4352035 -0.03149861 0.19642985

foundation_model.last.bias f4 [8]
00000000: 4eda c63e 0801 a0be 14b5 5bbe f823 b83d
00000010: 525c c4be c4ed 0cbe f034 c23e d015 69bd
0.38838428 -0.31250787 -0.21455795 0.089912355 -0.38351685 -0.13762575 0.37931013 -0.056905568
